checkpoints/2021_02_03-22_09_04/dqn-Pong-ram-v0.pt (torch, 301239 bytes, 8 tensors)

fc1.weight f4 [256, 128]
00000000: 11a2 38bd c3e0 3f3b 2dbf 45bd 9a87 083d
00000010: 1ffe 8bbd 8a64 643d 7892 83bd 0c95 a0bd
00000020: 4e5e 10bd 3010 e13c dc08 22bd 4faa 683d
00000030: 5c67 f4bd cd18 66bd f423 2fbd c048 d8bc
00000040: 2d98 9cbd 6fb4 913d 4653 68bc 3b48 0c3d
00000050: bdff 7a3d 3330 83bb deff c53c d23b 9c3d
00000060: e148 48bd b85b 9b3c bb7a 45bd ccba 5d3d
00000070: 3824 7c3d 3b65 b9bd 6606 883d a7e0 073d
00000080: 0c86 f13c 4614 e03c d7fa 833d 309d a9bc
00000090: d196 abbd cae3 0cbd 19fd 91bd 8a1f 51bb
000000a0: b432 d1bc 2530 67bd c2d3 8bbc 89ff 983d
000000b0: f11c 83bc 410c ccbb 33ef babc ba50 9f3b
000000c0: 05ca 8e3d 3d45 333d 11a5 323c bb5a 7e3c
000000d0: c678 413c dcbc cd3c f0d2 a6bc af3d a8bd
000000e0: 2ab4 a5bd f983 9a3d 2895 cabb cd23 a5bd
000000f0: 4c78 833c 9612 833d cf8f bdbd ec5e 8cbd
00000100: 7e36 10bd 21c6 b3bb 14e2 f2bc d4a4 adbc
00000110: acf9 c2bd b1e9 083d 1963 8c3d 0d2c 383d
00000120: e3af 92bd 3e77 a4bd ffaa e23c 68fa e6bb
00000130: 9fd0 de3c 20e2 b0bd c9af acbb 5353 7f3d
00000140: 31f4 273d 0188 533b 0d5e 8e3c 841c 09bc
00000150: 9e0f 47bd 6cd0 08bd 6579 5cbd 385b 963d
00000160: 9d39 473d ea39 fd3c acd0 8abd b0ad 8b3d
00000170: 7807 e33c d774 7a3d 236c 0ebd 8d80 993c
00000180: 7cbe b03d 5487 733d 4a2d 913d 930b 98bc
00000190: 1dea 893d b9c7 8dbd b17f fa3b 00d9 4bbd
000001a0: a8dd a8bc 316f b9bc 00b3 d83b bdc0 a43d
000001b0: 513d 333d 7e4f c4b9 eb7e 803d 5b87 39bd
000001c0: 9b95 3a3d 8f4a 06bc a2fe 7bbc 598a 293c
000001d0: a6ad 8abd 4958 273c 5b76 f33c 59c2 9a3d
000001e0: bc6f e1bc 6b0b 053d 8a3b a73d 7c4d 40bd
000001f0: 0193 993d 80c0 58bd 822a f53c 5ba6 d13c
00000200: dbcd 813c 9126 8f3d 87ef bc3c 234d be3c
00000210: 04eb aabb bc43 9abd ead0 afbc 54b9 42bd
00000220: 828d 073d 7de7 0f3d 4763 ff3c df00 033c
00000230: e658 61bc be5c cd3c d539 a9bd 2dad 9d3d
00000240: 68e6 943b 6989 acbd 37bc 76bd e7f8 beb8
00000250: dc5d 66bd 88cf 97bd 84a4 6bbd 2e30 1fbd
00000260: 9adb 16bb 6114 553d 7813 d03c 4823 713d
00000270: 24c6 83bd 3691 b5ba 8a04 b3bd f675 2b3d
00000280: 42e8 1c3c b3f8 9c3d 31db 92bd 5b1a 7e3d
00000290: 4db5 863d 7d3e 803d 04f7 763b e27b 923d
000002a0: 6d8e 4d3d 3ce2 693d 2ef9 6ebc cc06 9dbd
000002b0: 29ec 22bc e45d fd3b d66a 8dbd 9de7 73bd
000002c0: 33aa bfbd 957d 27bd cbee 8d3d e20f 613c
000002d0: 9b5a 69bc 927d adbb 0fc5 663d 01da 9fbd
000002e0: cef3 83bd fbbb f0bc daa2 7dbd 3182 163d
000002f0: 9f6f 9f3d febd c1bd 6ebd abbd 9c64 c2bd
00000300: 2bdc c23c 7a29 7f3d f776 9ebd 8847 21bd
00000310: 1ef7 9d3c 94c1 8cbd baa8 873d a164 353c
00000320: f802 09bd fdf4 ccba 1f4b 993c 523f 24bd
00000330: 8460 9ebd 37be 1b3a 4006 d33a 629e e93a
00000340: 6354 53bc 9874 683d 780f cabc b92b 0cbc
00000350: a7dd 143d 72e1 63bd c1e0 c13c d91a a0bc
00000360: 0da9 2d3d a164 44bd e715 563b 09ac 0d3c
00000370: c4a5 91bd 76a0 83bd bed8 0a3d 57bf d2bc
00000380: 7803 573d 7dd2 b2bd 51f7 32bd 4619 95bd
00000390: c59f 103d 90ef 27bb 510e 87bc 73ee 70bc
000003a0: 5a7e 8dbd 3d58 cd3c c562 103b fad8 79bd
000003b0: 0f3b 083d 29da e8ba 8a12 afbd 78bf 423d
000003c0: 59a6 413d 6c6c 88bc 1ef7 79bd ec92 683b
000003d0: f297 883d b7b1 a53d 32a2 88bd 8a85 23bd
000003e0: 32f2 8c3d caad f63c 0c3f 453d 886c 58bd
000003f0: 57d7 893d 4dec a6bd b5a8 56bc a0ab e5bb
-0.045076434 0.0029278256 -0.048278023 0.033332445 -0.06835579 0.055759944 -0.06424421 -0.078409284
-0.035246186 0.02747354 -0.03955923 0.056803044 -0.11933777 -0.056175996 -0.042758897 -0.026401877
-0.07646213 0.07114493 -0.01418001 0.03424857 0.061279047 -0.0040035485 0.024169859 0.07628597
-0.048897628 0.018964633 -0.048212748 0.05413322 0.06155798 -0.09052511 0.066418454 0.03317323
0.029482864 0.027353417 0.06444328 -0.020704836 -0.08378375 -0.034396924 -0.07128353 -0.0031909668
-0.025536872 -0.0564424 -0.017068747 0.074706145 -0.016005011 -0.0062270467 -0.022819137 0.0048619183
0.06972126 0.043767203 0.010903613 0.0155245615 0.01180858 0.02511447 -0.020364255 -0.0821489
-0.08091004 0.07544703 -0.0061823316 -0.08063469 0.016048573 0.06400029 -0.09255945 -0.068540424
-0.035208218 -0.0054862653 -0.029648818 -0.02119676 -0.095202774 0.03342599 0.06854839 0.044963885
-0.07162454 -0.08030556 0.027669428 -0.0070488937 0.027199088 -0.0863688 -0.0052699787 0.062335324
0.041004363 0.003227711 0.017378831 -0.008368615 -0.048598878 -0.03340189 -0.05382671 0.07341617
0.04863893 0.030911405 -0.06778082 0.06820238 0.027713522 0.061146583 -0.034771096 0.018738056
0.08630082 0.05945523 0.07088716 -0.018560207 0.06734107 -0.0692286 0.0076446165 -0.049767494
-0.020613506 -0.022636028 0.0066131353 0.080445744 0.043759648 -0.0003744326 0.06274208 -0.0452951
0.04555283 -0.008196487 -0.015380533 0.010347926 -0.06771402 0.01021392 0.029719522 0.075566
-0.0275191 0.032481592 0.08165653 -0.046948895 0.07498742 -0.052917957 0.029927496 0.02559202
0.01584523 0.06989778 0.023063434 0.023230141 -0.0052160043 -0.075324506 -0.021461923 -0.047540024
0.033093937 0.035132874 0.031175269 0.007995813 -0.013754105 0.025068637 -0.08262984 0.07699046
0.004544068 -0.084246464 -0.06023809 -9.106268e-05 -0.056241855 -0.0741263 -0.05752994 -0.038864307
-0.0023019076 0.052021388 0.025399908 0.058871537 -0.06434277 -0.001385248 -0.087411 0.041860543
0.009576859 0.07664623 -0.07170714 0.062036853 0.06577549 0.06261919 0.0037683854 0.07152535
0.050184656 0.05710052 -0.014585776 -0.07667312 -0.009944 0.00773214 -0.06905143 -0.059547056
-0.09358635 -0.04089125 0.06930312 0.013736697 -0.014242793 -0.00529451 0.056340273 -0.07805253
-0.064429864 -0.029386511 -0.061922885 0.036745254 0.07784962 -0.09460066 -0.0838574 -0.09491846
0.023786625 0.062295415 -0.077375345 -0.03937486 0.019282874 -0.068728596 0.06623979 0.011071355
-0.033450097 -0.0015636977 0.018712578 -0.04009945 -0.07733253 0.0005941125 0.0016099885 0.0017823691
-0.012898537 0.056751817 -0.02466558 -0.008555346 0.036344197 -0.055634923 0.023666741 -0.019544052
0.042397548 -0.04794753 0.0032666863 0.008646973 -0.071116954 -0.0642709 0.033898108 -0.025726004
0.052493542 -0.08731554 -0.04369289 -0.07280211 0.035308618 -0.0025624968 -0.016486319 -0.014705288
-0.06908865 0.02506649 0.0022031527 -0.06099794 0.033259448 -0.0017765212 -0.08548458 0.04754588
0.047277782 -0.016653262 -0.061026685 0.0035487963 0.06669606 0.08090537 -0.06671561 -0.039922275
0.068821326 0.030112166 0.04815583 -0.05283788 0.06730526 -0.081505395 -0.013101746 -0.0070089847

fc1.bias f4 [256]
00000000: 9da8 293d eb6d 5bbd c2f2 bdbd 6655 ffbc
00000010: 867a 1d3d 7873 23bd cd23 5ebb 7314 1ebc
00000020: 302a 17bd 196f 8dbd 8f41 14bd e70b 27bd
00000030: b701 42bd fef8 5fba 7200 893d ee54 76bd
00000040: 62ff 26bb b0a0 85bd b50e 073d 4789 8d3d
00000050: 09a4 bdbc f2bc 8a3a 1aa8 3ebd 4ed5 7cbd
00000060: 0561 2a3d a691 27bc 6fee 8e3d 64e3 7bbd
00000070: a979 893d 8519 843d 8e18 913d 8acb 043c
00000080: ae8b 6ebd 379f 473c 0f5d b13c 14c8 91bc
00000090: c461 a3bd 08bd 29bd f707 05bd 4e5d 0f3d
000000a0: f566 0cbc 67d9 83bd 6e22 3f3d afff 873d
000000b0: 57cd 2e3d 1efc 8a3c 242f 88bd 6eeb 8dbd
000000c0: ae48 a1bd b4b2 683d 7079 603d 6a98 363d
000000d0: 8da0 abbd e8f3 cfbc f1b0 e93c 4ee7 a13d
000000e0: 4739 32bc 893f 86bd 6a88 d1bd a8c8 483d
000000f0: c1a5 493c 0916 34bd 84c6 5e3d 7b99 d4bd
00000100: 031c 623d bb95 1bbb b200 e6bc 000f 88bd
00000110: 36ee 46bd e90f 313d 3339 dabc 653b 8b3d
00000120: 7e35 01bd 2509 f1bc c3ee 7abd 9ef4 6f3d
00000130: edc9 073b 0b51 953c c14c 7dbd 513b 2d3d
00000140: 6388 933d 0dba b7bc 0168 213d 7e6d ac3c
00000150: 5a83 abbc f0ff d33c 1758 26bd 0f70 9cbc
00000160: 065b 8fbd 98bd a0bd fe29 2f3d 7e7f 84bd
00000170: b205 c3ba aef3 a33c 9ca2 1ebd bea8 0bbd
00000180: fea8 91bd 18fb 823d 93a4 8dbd 7cd1 f53c
00000190: 0dde 88bd f796 403d c463 8bbc 7dec 0abd
000001a0: b4a3 9bbb d1be 683d 4bf7 1f3c 2fd7 44bd
000001b0: f546 ac3a f47f 96bd 3f9a aa3d 7739 8bbd
000001c0: d9dc 9a3d b6d7 59bd 5fda 96bc d0e2 1e3d
000001d0: d61b febc 01c5 143d a2ed 623d 1d75 2abc
000001e0: c4ea 953d a9dc 9ebd 278c 3ebd ad43 193d
000001f0: 7275 d73a 538f b0bd d2c6 373d bfdb 2bbb
00000200: 9c7f 8ebd 6af4 97bd 3ced c3bd f3a8 ec3c
00000210: f92d d73c ccb6 b3bd a3eb 27bd ad31 afbd
00000220: 1c8a 56bd e505 193c 3862 653d 7e80 62bd
00000230: aafa d3bc 9351 92bd 712f 043d 033b c9bb
00000240: c878 423c 3611 053d ddb7 cd3c 18a6 babd
00000250: 8725 3dbc f1aa ac3d 3b62 9e3c 6da7 c5bd
00000260: 8764 053c 0f43 883d c017 4e3c cfb2 a0bc
00000270: 5c00 733d 3a8f 83bd 6dcc 843d 7252 953d
00000280: 01dc 62bd deb8 1f3d 812b 813c 072c 8fbd
00000290: 4be7 0bbc 7e35 13bd 506b ab3b 2f8d 403d
000002a0: 0138 f9bc e002 013d bf95 82bd b813 963d
000002b0: 8b06 973d 7d5b 90bd 333c c63c 771a 36bd
000002c0: 4cb1 fabc 675c a23d c08b 983a 2202 e5bc
000002d0: 9444 923d e594 5f3d af5c eebb ffce aa3c
000002e0: bdab b0bd c8a3 5dbd 87b6 6ebd 2e74 a1bd
000002f0: 1a10 09bd ff3c 723b b2b6 6c3d 8f3b 9a3d
00000300: 617b 5b3d d091 3bbd 7137 c9bc 0953 3bbd
00000310: c8c7 05bc d019 8dbd 9f51 a23c cc3a 233d
00000320: 34a3 6cbd 2194 423d d303 7a3d f099 1a3c
00000330: 1918 afbd 1099 78bd 4eac a63d dc83 00bd
00000340: 3708 1dbd da95 74bd 66dd 0dbc a627 373b
00000350: 88ea ff3c ec2d 9c3d 0ea2 f6bc 3c2a 15bd
00000360: bbc2 b1bd e81f 65bd 8f5c de3c c2ce 25bd
00000370: 1a87 933b b413 03bd bd44 0dbd 4fd5 923d
00000380: 3e2d b7bd f271 1f3c 0fb3 b53c 1d99 91bd
00000390: 4dc3 36bd 3338 783c db2a 55bd 4e44 623d
000003a0: 85cb b4bd e84d 09bd 8ac9 d83c b4b3 a1bd
000003b0: ae85 c43c 6360 a4bd 0dfb eebc a2dd 013d
000003c0: 579e 6a3c 2909 623c 235a abbd 15b8 bfbc
000003d0: 149e 6a3d c82c a1bd b690 adbd fc6b a5bc
000003e0: b5cb f1bc a519 88bd 00ae 29bd a57e 343d
000003f0: a6af a4bd 4811 9f3d 2f11 3a3d 5b43 ac3d
0.041420568 -0.053571623 -0.09274818 -0.03116865 0.038446926 -0.03990504 -0.003389585 -0.00964843
-0.036905468 -0.06905956 -0.036195334 -0.040782835 -0.047364917 -0.00085438776 0.06689538 -0.06013959
-0.002548181 -0.06524789 0.03297301 0.06910949 -0.023149507 0.0010584875 -0.046547033 -0.06172686
0.04159643 -0.010227596 0.06979071 -0.061496153 0.06712658 0.0645018 0.070847616 0.008105168
-0.058238678 0.012183956 0.02165082 -0.0177956 -0.07977632 -0.04144004 -0.0324783 0.03500109
-0.008569469 -0.064379506 0.046663694 0.06640565 0.042676296 0.016965922 -0.06649616 -0.0692967
-0.07875191 0.05681105 0.05480331 0.044578947 -0.08380232 -0.025384858 0.028526755 0.07905446
-0.010877914 -0.06555087 -0.10231097 0.049019486 0.012307585 -0.043966327 0.054388538 -0.103808366
0.055202495 -0.002374037 -0.028076503 -0.06643486 -0.04856702 0.043228064 -0.026638603 0.06798438
-0.031545155 -0.029423306 -0.061262857 0.058582895 0.0020719722 0.01822712 -0.061840776 0.042292897
0.07203748 -0.022427583 0.039405826 0.021048304 -0.020936657 0.025878876 -0.040611353 -0.019096402
-0.06999783 -0.07848662 0.042764656 -0.0646963 -0.0014879017 0.020013656 -0.038729295 -0.034096472
-0.07112311 0.063955486 -0.06916156 0.030007116 -0.06682978 0.04701897 -0.017015345 -0.03391694
-0.0047497395 0.0568226 0.009763549 -0.048056778 0.0013143705 -0.07348624 0.08330201 -0.0679807
0.075616546 -0.053184234 -0.018414674 0.038790524 -0.031019133 0.03632069 0.055402406 -0.010403899
0.073201686 -0.07756931 -0.04652038 0.037418056 0.00164382 -0.08621087 0.044867344 -0.0026223508
-0.06957933 -0.07419665 -0.09566733 0.028889155 0.026267039 -0.087751 -0.040996205 -0.08554397
-0.052377805 0.009339784 0.05600187 -0.05529832 -0.025876362 -0.07144465 0.032271806 -0.006141068
0.011869617 0.032487117 0.025112087 -0.09113711 -0.011544592 0.08431042 0.01933395 -0.096510746
0.008141643 0.066534154 0.012578905 -0.019616513 0.059326515 -0.06423803 0.064843036 0.07291116
-0.055385593 0.038994662 0.015767815 -0.069908194 -0.008539031 -0.035939686 0.0052312985 0.047009643
-0.030422213 0.031496882 -0.06376218 0.0732798 0.07374295 -0.070487 0.024198627 -0.044458833
-0.03060212 0.079277806 0.0011638328 -0.027955119 0.071419865 0.054585356 -0.0072742323 0.020850657
-0.086265065 -0.054111272 -0.05827954 -0.07883488 -0.03346262 0.0036962626 0.05779142 0.07530891
0.05358446 -0.045793355 -0.02456257 -0.045733485 -0.008165307 -0.06889689 0.01981431 0.039850995
-0.05777283 0.047504548 0.061038803 0.009436116 -0.08549518 -0.060692847 0.08138333 -0.03137575
-0.038337912 -0.059713222 -0.0086587425 0.0027947216 0.031239763 0.076259464 -0.03010657 -0.03641723
-0.0867972 -0.05593863 0.027143745 -0.040480383 0.0045021893 -0.032001212 -0.034489382 0.07169592
-0.08944176 0.0097317565 0.022180108 -0.07109282 -0.044619847 0.015150118 -0.052042823 0.05524092
-0.08827881 -0.033521563 0.026463289 -0.07895604 0.023989525 -0.08026197 -0.029172445 0.031705506
0.014319978 0.013796129 -0.083668016 -0.023403207 0.05727966 -0.078698695 -0.08474867 -0.020193093
-0.02951608 -0.06645516 -0.041425705 0.04406609 -0.08041315 0.07766968 0.045426544 0.084112845

fc2.weight f4 [128, 256]
00000000: 7f9d e03c f6f1 acbb 139b 1ebd a699 373c
00000010: 0bbb 873d c668 82bc 71b5 ac3c 8071 84bd
00000020: f4ed f1bc 8feb 623d 100e c8bb 7d07 c73c
00000030: 77a0 25bd dc50 913c 9897 29bc 6220 793d
00000040: c7ff 463d afd3 083d 2d53 26bd 4bb4 233c
00000050: da16 053d c09e 07bd f157 863c 062c ea3c
00000060: 345c f03c 662e 6fbd 4025 48bb d3f6 80bc
00000070: 1256 54bd 484d 013c b076 c93b 9f55 4e3d
00000080: a851 1ebc 9a19 303c 820a 84bc 5efa 523d
00000090: 12ae 593c 4345 d2bb 605f adbc 7fb7 1fbc
000000a0: 7a6b bc3c 152d 72be eeb0 673d 43ec 28bc
000000b0: 059f 80bc 8424 67bd 0197 febd f63e 31bd
000000c0: 9883 a53b 5b31 ae3c cf7d 8bbd 9c3e 3a3d
000000d0: 39f2 fdbb 883b 8cbc 8f83 ab3c 0f84 7ebd
000000e0: e00b 51bc a332 5bbe d26b 9ebd 413d 65be
000000f0: 08ad f9bc 3476 2bbd b5bd 203d 3dad 00bd
00000100: d42d 673d 0f74 913d 4562 9f3c 5898 02bc
00000110: 49ef 7ebd e06b fcbc 93a7 af3c d0b4 293c
00000120: 767e fd3c beb7 f8bb 39bb 36bd 60dc c2bc
00000130: 27cb 153d d8a1 e63c 5d7b 433d 34f5 8fbc
00000140: 7f23 3fbd 6882 0c3d 51de 03bd 0dc3 67bd
00000150: 0063 8b3c c1b3 a6bd 077d 7dbd df3e 6dbb
00000160: dcdf 53bd 84a2 a8bc b5b0 0dbe 0c20 7bbc
00000170: e05b 7fbd 8c7b e33c c31e 20bc 98fb 56bd
00000180: a52a ec3c 8b1f 67bd 5b04 53bd c331 98bd
00000190: c5e8 cf3c 4ea5 503d 1001 1cbc 50a2 4cbd
000001a0: 07a7 8bbc 9c38 753d a8b3 4ebd 7710 dbbd
000001b0: 90ca c6bc d3d5 ab3c 705a e1bb ff1e 34be
000001c0: a509 4ebd 5094 95bb 0038 1d39 0ad2 c83c
000001d0: 12ba 22bd abef 04bd 4f97 d439 3683 4d3d
000001e0: 202d dcbc c721 5e3d 67ab 4ebd 8087 a8bc
000001f0: 7934 083b 2807 f8bc 6c34 d13c 7b3c c53c
00000200: 1847 1f3d d353 5cbd d6b5 d83c cc44 3fbc
00000210: b074 0d3d 0029 c7ba e5f4 27bd faa5 7ebd
00000220: 9276 08bd 3005 dfbc 47a0 f63a ca59 42be
00000230: d07f f03c df82 df3b 4b92 5c3b 0d52 bc3c
00000240: 2eac 523d dcd8 a6bc 24b3 07be 558b 2d3d
00000250: 83cb 123c 6cd2 433d 1a1e 31bd 902d e93b
00000260: 9742 05bd 3007 4fbd 9e48 09bd a0f2 903c
00000270: 6150 0c3d 269b 05be 11be 52bd c51e d9bc
00000280: 0095 f23c 0cf9 bbbc 49c2 dabc e69c 813d
00000290: dc3c 47bd 9c1f dbbd e66c 673d 8c58 dfba
000002a0: 7a2a 29bc 85f6 c73c 73d6 d5bb b4b2 4f3d
000002b0: f2d9 7bbd 75eb 063c 7035 de3c 484b 64bd
000002c0: 20c2 30bd c464 0f3d b443 acbc 08b5 7a3d
000002d0: 1403 6d3d 9c6c cebc 6190 5e3d 0571 b43a
000002e0: 8a3a d8bd b5ee 18bd 126b b4bb faed 183d
000002f0: 0875 413d f255 5cbd 3221 3b3d 947c f63c
00000300: 97dc 00bd a5cd d03c fe4a 0fbd 72c5 4b3d
00000310: 0655 81ba 2d32 673d 0ba6 cfbb d0be 56bc
00000320: ec6e 143d 5adc 6dbd db3b ab3c daaf adbd
00000330: fb03 7dbd 9946 4c3d 4e70 63bd e3b0 41bd
00000340: 0eee 0d3d 6833 03bd c057 7fbc 28d9 c9bc
00000350: 8013 b33d 74dc 773d 9989 8c3d 1547 433c
00000360: 1e27 72bd 2eeb 68bc 43b2 7e3c 0cd0 0f3d
00000370: 2cb9 d2bc 1083 e5bb 337f 083d 8067 a23c
00000380: d434 83bb 6f74 223c 10f4 48bd 0a5f 1ebc
00000390: a868 acbc 4932 61bd 945b 3cba e25b d2bc
000003a0: aa65 58bd 1ac6 f6bc 82dd 7fbd e2e1 47be
000003b0: 194b 883c 38cf 11bc 77a9 133c e6bb 673d
000003c0: ac6c 7ebd e292 243d a084 f1bc 9c30 35bd
000003d0: 705f 48bc 3fb3 d73c c0f4 a93c 2652 613d
000003e0: 3ee1 4d3d 47bf 32bd 48ea 653d a889 8e3c
000003f0: eb92 0cbd 2262 793d 008c 3fba 6adf cfbd
0.02741885 -0.0052778674 -0.03872211 0.011206066 0.066274725 -0.0159191 0.021082612 -0.06466961
-0.02953241 0.055400427 -0.006105192 0.024295563 -0.040436234 0.017738752 -0.010351084 0.0608219
0.048583772 0.033405002 -0.040606666 0.009991716 0.032492496 -0.03311038 0.016399356 0.028585445
0.02934084 -0.05839386 -0.003053978 -0.015742695 -0.051839896 0.00789196 0.006148182 0.050374623
-0.009663023 0.010748291 -0.016118292 0.0515083 0.0132861305 -0.006416948 -0.021163642 -0.009748339
0.023000468 -0.2365001 0.056565218 -0.010310235 -0.015700826 -0.05643131 -0.124311455 -0.043272935
0.0050510876 0.021263769 -0.068111055 0.045469865 -0.0077498225 -0.01711823 0.020936755 -0.06213766
-0.012759179 -0.21406035 -0.07735409 -0.22386648 -0.030478016 -0.041860774 0.03924342 -0.031415213
0.05644019 0.071022145 0.019456038 -0.007970892 -0.06223992 -0.030813158 0.02144221 0.01035805
0.03094409 -0.007590263 -0.044612143 -0.023786724 0.036570694 0.028153345 0.04772507 -0.017572977
-0.04666471 0.034304053 -0.03219444 -0.0565825 0.01701498 -0.08139754 -0.061886813 -0.0036200804
-0.05172716 -0.020585306 -0.1383694 -0.015327465 -0.06234348 0.027768873 -0.009772959 -0.052486032
0.028828928 -0.056426566 -0.051517826 -0.07431366 0.025379548 0.050938897 -0.009521738 -0.04995948
-0.017047418 0.05986844 -0.050464302 -0.106965 -0.024266511 0.020975983 -0.006877236 -0.17589949
-0.050302166 -0.0045647994 0.00014993548 0.024514217 -0.03972823 -0.032455128 0.00040548525 0.05017396
-0.026876986 0.05423143 -0.05045643 -0.020572424 0.002078323 -0.03027685 0.025537692 0.02407669
0.03888616 -0.05379088 0.026453894 -0.011674117 0.03453511 -0.0015194714 -0.041005034 -0.062170006
-0.033316202 -0.027224153 0.0018816077 -0.18979564 0.02935782 0.006821021 0.0033656533 0.022988344
0.051433735 -0.020367078 -0.1325193 0.042369206 0.008959654 0.047808096 -0.043241598 0.007116027
-0.03253421 -0.050543964 -0.03351652 0.017693818 0.034256343 -0.13047466 -0.051450793 -0.02650393
0.029612064 -0.022945903 -0.02670397 0.06328754 -0.048642024 -0.106993884 0.056500338 -0.0017039939
-0.010325069 0.024409542 -0.0065258085 0.050707534 -0.061487146 0.008234848 0.02712509 -0.055735856
-0.043153882 0.035008207 -0.021028377 0.0612078 0.057864264 -0.025198273 0.05433691 0.0013766593
-0.105580404 -0.037337024 -0.005505928 0.037336327 0.04723075 -0.0537929 0.045685954 0.0300887
-0.03146037 0.025488684 -0.034983627 0.049748845 -0.0009867258 0.056444336 -0.0063369325 -0.013107017
0.036238596 -0.05807147 0.020902565 -0.08480807 -0.061771374 0.049872015 -0.055527024 -0.047287833
0.034650855 -0.032031447 -0.015584886 -0.024639681 0.08743954 0.060512975 0.06862182 0.011918803
-0.059119336 -0.014216227 0.015545431 0.03511052 -0.025723062 -0.0070041493 0.03332443 0.019824743
-0.0040041003 0.009915455 -0.04906088 -0.009666214 -0.021045998 -0.054979596 -0.0007185277 -0.025678579
-0.05283133 -0.030123759 -0.062467106 -0.19519761 0.016637372 -0.008899502 0.009012572 0.05657568
-0.062115356 0.04017914 -0.029482186 -0.04423581 -0.012229785 0.026330588 0.020746589 0.055009983
0.050263636 -0.043639448 0.05613163 0.017399624 -0.0343198 0.060884602 -0.00073069334 -0.10150035

fc2.bias f4 [128]
00000000: 38e7 f7bc 56f2 b3bc b32a 2b3c 09a7 8a3a
00000010: 79d4 413c fc19 06bc 6201 333e 1759 05bc
00000020: 36e3 69bd a4e0 9f3b 9056 b4bc ca49 9dbd
00000030: c329 86bd f574 c0bc 6cb4 963c 03b3 e53d
00000040: 1076 d0bc 2ad4 243e 6921 103e 18d0 3bbb
00000050: 7ca3 5abc 76bc b2bd 39f5 03be 69b0 17bd
00000060: 460c bebc 9618 5fb9 bf7a 70bd 361f fbbd
00000070: bb34 553e e54e d1bd 966e c2bd d0c8 f03c
00000080: 0188 bbbc 6835 1bbd 9830 5bbc 2b16 473e
00000090: 5a49 00bd 37b9 713c 4c2f aebd b4ab a93c
000000a0: d114 ffbc ba58 37bd 7f1c aeba c7dc 09bd
000000b0: 0a2e 1dbd fed7 9e3c 5e4e 70bd dd80 9abc
000000c0: a157 1bbd 1f31 ecbd 9143 03be e4d9 bf3b
000000d0: a602 213d 424c df3c 891e 9c3c 3990 abbd
000000e0: b829 8a3d 6ee7 53bc 8377 04bd beac 42bd
000000f0: 464a 0bbc d4da a7bc 35e9 8b3c 3158 903b
00000100: 2620 1abe d8bf d8bd 3f6d ebbb 067e 17bd
00000110: 2830 b8bd ce79 4bbd 54c7 623d 8b94 ccbc
00000120: 6a4f ccbb bcd1 6c3d 1266 03be 496e 5cbd
00000130: f1eb 00bd faac 94bd a048 65bc f1d5 cfbd
00000140: 6864 01be 5f03 9cbd 9d00 593c 1734 31be
00000150: 8a58 f3bd 2b95 123d 91ca 85bd 3ad0 24bc
00000160: c572 dcbc 6cfa 08bd ba42 14be d288 95bd
00000170: 0f18 84bd 0176 073d 943d 513c 1487 bd3d
00000180: 449f a23d 046e 41bd fbdb c1bc 7345 ecb6
00000190: 8750 0f3c 9ff7 d2bd b1f7 89bd 63fd eb3b
000001a0: 6ae0 203d 3194 803c 8996 e5bd 2f43 0a3c
000001b0: 783a 1cbd adc0 3c3c 94cf 27bd 5a6f c33b
000001c0: a380 b0bc a017 99bd 2cf1 32bd 96b3 a63d
000001d0: 85d8 d1bc 07b0 96bd fd0e 40bd 65fa 86bd
000001e0: 9941 9f3b 9238 36be c16a f4bd 3351 153c
000001f0: e1b8 86bd 0c6c d0bd ea82 e0bd a71c a73c
-0.03026162 -0.02196614 0.010447192 0.0010578345 0.011830443 -0.008184906 0.17480996 -0.008138916
-0.05710145 0.004879074 -0.022013932 -0.0768009 -0.06550934 -0.02349327 0.018396579 0.112157844
-0.025446922 0.16096559 0.14075245 -0.002865797 -0.013344642 -0.08727352 -0.12886514 -0.037033472
-0.023199212 -0.00021276096 -0.05871081 -0.122618124 0.20820896 -0.10220126 -0.09493749 0.02939263
-0.022892 -0.03789273 -0.013378285 0.1944205 -0.031319954 0.014753631 -0.08505115 0.020711757
-0.031137856 -0.04476235 -0.0013283639 -0.033657815 -0.038373984 0.019390102 -0.058668487 -0.018860275
-0.037925366 -0.115328066 -0.12818743 0.005854832 0.039309166 0.027258042 0.019057529 -0.08377118
0.067462385 -0.012933595 -0.032340538 -0.04752802 -0.008501595 -0.020490088 0.017078975 0.0044050445
-0.15051326 -0.10583466 -0.007184654 -0.03698542 -0.0899356 -0.04967671 0.055365875 -0.024973175
-0.006235053 0.057817206 -0.12831905 -0.053816114 -0.03147501 -0.07259555 -0.013994366 -0.10148228
-0.12635958 -0.076178305 0.013244775 -0.17305027 -0.11882122 0.03578679 -0.06532777 -0.010059411
-0.026910195 -0.033441946 -0.14478579 -0.07301487 -0.06449901 0.03307152 0.012771029 0.0925428
0.07940534 -0.04722406 -0.023664465 -7.041433e-06 0.008747227 -0.10301136 -0.067366965 0.007201837
0.039276518 0.015695663 -0.11210353 0.008438869 -0.038141698 0.011520547 -0.040969446 0.005964202
-0.021545714 -0.07475209 -0.04368703 0.08139722 -0.02561594 -0.07357793 -0.046889294 -0.06590728
0.004860115 -0.17795017 -0.11934424 0.009113598 -0.065782316 -0.10176858 -0.1096247 0.020399405

fc3.weight f4 [64, 128]
00000000: fb2f 813c 9db4 69bd c0d5 bebd cbe4 8d3d
00000010: 20fc 9ebd 51ad 2bbc 3215 27bd 1eef 71bd
00000020: 6a0f 423d 93da 0fbe ddaf 6fbd 0c9a 65bd
00000030: 769e 36be 50a6 4e3d a14f 19bd c3a6 b6bd
00000040: 8b0a 6d3c 1590 35bd d841 1a3d 820a ffbc
00000050: b6f0 1dbd 3e05 813c dd35 c6bc 0c04 853d
00000060: 8905 6ebd 6031 25bd 0107 82bd 7a0f c7bc
00000070: 542e 163b a077 c4be 0152 853d 7488 05bd
00000080: 94f5 96bd d1cc c8bd 45c6 6d3d 5f3c 03be
00000090: 9ec5 7cbc 6f0e af3d ae32 9bbd a91b a5bd
000000a0: 712a 2f3d b5f6 dcbd 41dd 50bb c13b f93c
000000b0: cda0 94bd 93f2 9a3d 7225 d83c 3f53 7bbd
000000c0: b544 0fbc d8fb ac3d 3fae 51bc 7ac2 0cbc
000000d0: 6fdc 65bd 8acd ed3c b1b3 b93c 528f 423b
000000e0: a19b eabd bd99 e3bd 367f a23d f493 bdbc
000000f0: fbf4 a2bd d492 5839 3765 723b 3b7b 61bd
00000100: c6ab fdbd 4681 7ebc 77b7 25be 7f01 2ebb
00000110: 1054 993d cf23 ccbb e7c0 5ebd 24d0 38be
00000120: 5f24 c6bc e394 5ebd 9608 8e3d 7339 63be
00000130: 6eca 2e3d 14bd bbbb 0d97 023e 347c b9bd
00000140: 1a56 b2bd 53e1 873d 884b b33d 936c 52bd
00000150: f8d8 0abe c63d 13bd ba82 0bbe 38ea cbbd
00000160: e718 55bd 77bb 833d 51a8 8bbd 2cee debb
00000170: 04ff 863d 8f9c 10bc 44ff bcbd 3404 91bc
00000180: 6044 0bbd e389 e4bd 0f38 d5bc 192b 6a3c
00000190: 1204 11bd 465f 903b 0d5d a03d a2f0 cfbc
000001a0: a300 2b3d b179 823d 0a31 a43c f70f 9abc
000001b0: e62f f93a e46f 493d 760b 9c39 1d0f 86bd
000001c0: bb7a 063d 760f 99bc 6cd7 95bd f20d cabc
000001d0: 4f93 f2bc dbe8 a5bd bc09 9fbc a167 dc3c
000001e0: 2fdf 4f3d 4a7f f7bd 816d 31be 544d 9e3b
000001f0: debf 67bd 5012 b9bd 5e48 b13c 9c8a bf3b
00000200: a738 00bd 3c69 8d3d 7859 cb3a 5748 8dba
00000210: 3608 6dbd 3795 8ebd e74c 86bd 6ea1 a1bd
00000220: e5c5 a5bc 4743 bbbd a6e7 88bd ebfa aebd
00000230: 09a4 913d 0cb9 6c3d 4aed 393d b379 11be
00000240: 0951 aabd a5e4 c6bd 6e68 3d3b 9d39 113c
00000250: 66b5 3e3d 5e3d 893d 0ca5 34bd f613 6cbd
00000260: 8d30 623d d110 a6bd 6fc8 15be 48c0 393d
00000270: 3515 20bd 4464 6f3d 3292 283c fa4d 833b
00000280: a0c5 47bd 8d3a d53d 810e d2ba 7859 42bd
00000290: 3d20 84bc 800e e43c 9aa4 cd3d bbd0 2c3d
000002a0: c5b1 3b3d 952a a0bc 2634 9a3d da38 8ebd
000002b0: c3cc 193d d2f1 ab3d 6e2b 323b 40ee 0e3d
000002c0: cf1e 98bd 3966 853d 0c00 2cba 1381 aabc
000002d0: 4f67 3dbc e89c ae3d 5722 66be e5a5 b4bd
000002e0: 2a58 4abd 21e2 50bd 8bd3 6abd f0dd 63bd
000002f0: 80e4 12bd 7dce c83c a7a9 503d baf2 ccbc
00000300: 54be 773e 76ad 6bbd fa83 f6bd 6dbe 733c
00000310: dbdd 42bd e3da 773e 9515 8e3d 535a ccbd
00000320: 5957 66bd aeeb 06bc 901b 36bc 2871 213d
00000330: 501e e93c e68b da3d e677 60bd 4c67 a3bc
00000340: 0483 c6bc 65e1 b5bd 7767 003d 8088 b5bb
00000350: 7548 0ebd ab99 1bbe f965 39be 4931 f4bd
00000360: e04e 6a3c fdf9 083d e329 853d 29dd 67bd
00000370: ba0e e1bc 656c a13d 4899 96bd 88db cfbb
00000380: 33f0 a6ba 45e9 e73c 39e2 363c 7a54 13bd
00000390: 552a 523c 4b08 1dbd 9214 e43c ca2f 2abd
000003a0: c410 f2bd 51be 623d a78c 44bd 8112 6ebd
000003b0: 93ac 6b3d d7de 9f3d 0c45 a33d f967 1f3d
000003c0: 8157 39bd 387d c73c 1f36 cebc e108 1abd
000003d0: 5b4a e7bc f871 83bd f73b febc d6c0 64bd
000003e0: 7be2 613c 91c0 3abd df3e 8437 5447 95bd
000003f0: 2ca3 ddbc 4257 143d 12de b0bd 30e8 36bd
0.01576995 -0.057057012 -0.09318113 0.069284044 -0.07762933 -0.010478334 -0.040791698 -0.05906593
0.04737798 -0.14048223 -0.058517326 -0.056055114 -0.17833886 0.050451577 -0.037429456 -0.08918526
0.014467846 -0.04432686 0.03766045 -0.03113294 -0.038559638 0.01574957 -0.024195606 0.064949125
-0.058110747 -0.04033029 -0.06348992 -0.024299372 0.0022915797 -0.38372517 0.06509782 -0.032600835
-0.07371059 -0.09804691 0.058050413 -0.12815998 -0.015427975 0.08547675 -0.07578026 -0.080619164
0.042765085 -0.10789243 -0.003187016 0.030424 -0.07257233 0.075657986 0.026385043 -0.061358687
-0.008744408 0.08446473 -0.012797891 -0.008591289 -0.056118425 0.029028673 0.022668691 0.0029687476
-0.11455465 -0.111133076 0.0793442 -0.023141839 -0.079568826 0.00020654063 0.0036986598 -0.055049162
-0.12386279 -0.015533751 -0.16183268 -0.0026551185 0.07486737 -0.0062298547 -0.054383185 -0.1804815
-0.024187265 -0.05434121 0.069352314 -0.22189884 0.04267352 -0.005729327 0.12752934 -0.09056893
-0.08707829 0.06634774 0.08754641 -0.051373076 -0.1355933 -0.035947584 -0.13624087 -0.09956783
-0.0520257 0.064322405 -0.06819213 -0.0068032946 0.06591609 -0.008826389 -0.092283756 -0.0177022
-0.034000754 -0.11159112 -0.026027707 0.014292502 -0.035404272 0.0044058887 0.07830248 -0.025383297
0.041748654 0.06370867 0.020042915 -0.01880644 0.0019011467 0.049178973 0.00029763178 -0.065458514
0.03283189 -0.01868413 -0.07316479 -0.024664853 -0.029611258 -0.08101054 -0.019413821 0.026904883
0.050749954 -0.12084825 -0.17326929 0.0048309956 -0.056579463 -0.09036696 0.021640953 0.005845381
-0.031304028 0.069048375 0.0015514335 -0.0010779005 -0.05786916 -0.06962054 -0.06557637 -0.078921184
-0.020235965 -0.091436915 -0.066848084 -0.085439526 0.07111365 0.057793662 0.045392312 -0.14206581
-0.083162375 -0.09711579 0.0028901356 0.008863834 0.046559714 0.06701158 -0.044102713 -0.057636224
0.055222083 -0.08108676 -0.1462724 0.04534939 -0.039082725 0.05844523 0.010288762 0.0040070983
-0.048772454 0.10411558 -0.0016026051 -0.047448605 -0.016128654 0.027838945 0.10041161 0.04219125
0.04582383 -0.019551555 0.07529478 -0.06944437 0.03754879 0.08395733 0.002718653 0.03489518
-0.07427751 0.06513638 -0.0006561286 -0.0208135 -0.011560275 0.08526021 -0.22474037 -0.08820704
-0.049400486 -0.050996903 -0.05733065 -0.055631578 -0.035862446 0.024512524 0.050943043 -0.025018085
0.24193698 -0.057538472 -0.12036891 0.014876944 -0.04757486 0.24204592 0.0693771 -0.099781655
-0.056235645 -0.008234901 -0.01111497 0.039414555 0.028456837 0.10671215 -0.054801844 -0.019946717
-0.024232395 -0.08880881 0.03134867 -0.0055399537 -0.03473707 -0.15195338 -0.18105306 -0.11923463
0.014301032 0.033441532 0.0650213 -0.0566074 -0.027472842 0.07882003 -0.07353455 -0.006343309
-0.001273638 0.028309474 0.011162334 -0.035969235 0.012827476 -0.038337987 0.02784184 -0.04154948
-0.11819604 0.05535728 -0.0479857 -0.058123115 0.057537626 0.07806175 0.07972154 0.038917515
-0.045249466 0.024351701 -0.025172291 -0.037606124 -0.028233698 -0.06418222 -0.031034453 -0.055847965
0.013786907 -0.045593802 1.5764903e-05 -0.072889954 -0.027055345 0.036216028 -0.086361066 -0.044655025

fc3.bias f4 [64]
00000000: efd9 64bd d05d 643e 25e9 503e 8be3 e4bd
00000010: 1766 71bb 31b8 0bbe c10f bdbd f8e4 833d
00000020: 38b6 64bc 75c9 32be 7204 51bd 4059 1bbe
00000030: 7b48 6b3c 0e95 983e 3585 dfbd e637 8cbc
00000040: 5ba9 273e 5090 b03c 4fd9 c53e 776b 3e3e
00000050: b460 a2bc 0de5 6a3e fe8e 613e 34cf 043e
00000060: 9b23 1fbe f6e4 67bd 64a8 203e 2b09 843d
00000070: 7852 3d3e 7004 c53e 018f c4be d4ac a93e
00000080: 11dc 583e 599d d2bc 43da 25bb 9c1d 15be
00000090: 06ef 92be a427 66be 2026 35be 0ece 15be
000000a0: b307 b0bd e347 433e 98d7 903d c6cd 913c
000000b0: 4cc1 533e d629 3ebe c550 0c3d e0c3 7d3d
000000c0: 68c5 21be ab5d 60be 26f2 40be 54f5 bd3e
000000d0: 4d61 77be 95c4 373e 9f6d 10be 580e b7bd
000000e0: a8f2 f33d 81ef 41be 30ef 85be e9cf ddbd
000000f0: 33be 69be bb3f bdbd 170c 86be 88ba 3e3e
-0.0558719 0.22301412 0.20401438 -0.11176213 -0.0036834532 -0.13644482 -0.092315204 0.06440157
-0.01395946 -0.17459662 -0.05102963 -0.15170765 0.014360542 0.2980122 -0.10914079 -0.017116498
0.16373198 0.021553189 0.38642356 0.18595682 -0.019821502 0.22938938 0.22027203 0.12969667
-0.15540926 -0.05661484 0.15689236 0.06447061 0.1848849 0.38479948 -0.38390353 0.3313967
0.21177699 -0.025709795 -0.0025307096 -0.14562076 -0.28697985 -0.22476059 -0.17690325 -0.14629385
-0.085952185 0.19070391 0.07072371 0.017798316 0.20679206 -0.18570647 0.034256715 0.06195438
-0.15797961 -0.21910731 -0.18842372 0.37101233 -0.24158211 0.17946084 -0.14104317 -0.08938283
0.119115174 -0.1893902 -0.26159048 -0.10830671 -0.22826461 -0.09240671 -0.261811 0.18625844

fc4.weight f4 [6, 64]
00000000: d100 793d 368d a53d 8daa 853d bc72 293d
00000010: 56c6 8f3d 9c15 8cbd 1220 773d 7dac 6c3d
00000020: 2ad2 693d 0776 82bd 1969 f63d de10 a0bd
00000030: c9a5 8a3d 2397 df3c 4837 07bd f9e5 a53d
00000040: 2e7e 953d 9f5e 403d 98c0 903d 78e8 2c3d
00000050: 0369 443d 881f 853d 9a2f 5f3d fda2 253d
00000060: a23b 3f3d ae2c c53c c668 a73d 7253 2e3c
00000070: 86af fb3c 195d 1f3d cbb0 b7bd 5f96 5b3d
00000080: f685 143d d639 973d 658b 943c b511 75bb
00000090: a6ec 9abd e287 2fbd 5dfb 94ba 79d7 12bd
000000a0: 0977 34bd 7fb9 a33d 07d8 2e3d 3977 46bd
000000b0: cb88 363d 41a2 a2bd 9a5f 563d ebdf f53c
000000c0: b55e 9bbd a2bd d6bc 1078 8b3d 7149 773d
000000d0: 4ee3 39bd 4d2b 463d 7cd4 88bd 4305 2e3d
000000e0: 34b9 973d 49ff 7939 70c1 fabc 1247 ea3d
000000f0: c23f 62bd 80c6 de3c 6c41 29bd 44e7 9b3d
00000100: 8d84 063d ba1d 9d3d 34d5 2b3d 8cf9 2abd
00000110: 2ebd 9b3d 4352 8cbd 69a8 873d ebb3 693d
00000120: 2389 703d d076 9cbd da92 e13d 431a a7bd
00000130: d389 813d ccfb d13c a823 56bd 4c7e 5b3d
00000140: 26a4 853d 2529 573d 7aaa 893d c19e 4f3d
00000150: 9b35 343d 65a3 813d 7f05 6d3d 0c5b 213d
00000160: ec30 5f3d ea9a 633b 86c2 bb3d aeb4 723c
00000170: c09a 473d cd6e 1b3d e905 bcbd 111c 5b3d
00000180: 46a3 053d 69f6 963d ef57 533d d915 b33c
00000190: efce 9fbd 2148 2fbd d018 453d 7981 1abd
000001a0: 247d ec3c 6145 9b3d 38a3 2d3d 8649 3ebd
000001b0: 6e50 4a3d 78d8 b0bd 27a6 6c3d 8142 313d
000001c0: 19aa 96bd 3e6d 06bd 2946 443d 833e 463d
000001d0: d1b0 22bd 4ed5 363d c650 59bd 46eb 293c
000001e0: 08d3 8f3d 6199 edbc 2efd 1cbd e48b e73d
000001f0: 4e23 55bd 8176 1f3d 8b07 25bd 5dc7 a93d
00000200: f868 ff3c e935 b23d 4d11 703d eefc 8a3c
00000210: c8fc 823d d34b 94bd d4bf 543d c88b 683d
00000220: e132 8b3d 511f 37bd 467d f33d 6ae8 b8bd
00000230: 0580 c93b 1e63 013c 7178 96bd 2f6c 6a3d
00000240: da2a 8a3d 44c3 803d 9092 9f3d de7a c33c
00000250: f8a1 f33c d533 923d b7d8 653d 0250 163d
00000260: 6d1d 93ba a659 6b3d 2fa4 573d bf40 20bb
00000270: 0a4e ab3d a6af 1e3d 90f6 93bd be42 5b3d
00000280: 583e c73c 1eac 9c3d fcf6 ba3d 5eb4 8c3c
00000290: 1bed a0bd 8600 25bc 3214 0abc 4b25 11bd
000002a0: 31af 8abc ae19 933d 75dc 693c 490b 7fbd
000002b0: 7a91 843d bbfe c9bd eccc ae3d f406 353d
000002c0: 47f6 9abd 5029 bbbc 88ad 4d3d f7d6 a63d
000002d0: 8460 0bbd d951 5e3d c2d9 7abd 8809 653d
000002e0: 24c7 b93d c73c 123d 3420 3abd 242e e23d
000002f0: fbff 8abd a403 e13c 81be 29bd 97f9 893d
00000300: cff2 4c3d 539b 763d e28f 903d df17 0cbc
00000310: 0c43 b33d 4bc4 8abd f269 8e3d 1949 6a3d
00000320: 1df5 2e3d a1ed b0bd e116 bb3d a4a5 8dbd
00000330: ae7b e43d bdaa f33c 93b1 0abd 5593 813d
00000340: 56a2 9c3d b6be 183d 3fdf 653d 885b 683d
00000350: cf33 423d 2999 613d 3c84 713d baf0 3c3d
00000360: 7063 79bc de6f 64bd 7f3c fe3d 4373 003d
00000370: cc42 b43c d073 1e3d 6e9d dabd 0bfb 573d
00000380: c7af 283d 2e8a 923d 0063 013d b722 d9bc
00000390: 85ea 97bd 8d8a 9abd d17a 26bd a762 25bd
000003a0: d07e 6cbd 16d6 a73d 280a 963d f8e7 68bd
000003b0: 81c7 1f3d 7bfe 81bd d67c f53c a2ae 8d3d
000003c0: 27be 98bd 5670 0cbd 2c73 303d 4267 e43c
000003d0: 1f78 4cbd 8514 a93c 214a 2cbd 6a67 1e3d
000003e0: 7a69 2e3d fc97 81bd 0640 a7bc a20a e23d
000003f0: 9ef3 3cbd 044d 9dbc 0de7 27bd cbc2 b73d
0.060791794 0.080835745 0.065266706 0.041369185 0.070202515 -0.06840059 0.06033332 0.057781685
0.057085194 -0.06370168 0.120317645 -0.07815717 0.06769902 0.027293747 -0.033011705 0.081005044
0.072994575 0.046965238 0.07067984 0.042213887 0.04795171 0.06500155 0.054488756 0.04043864
0.04668773 0.024069156 0.08174281 0.010640012 0.030723345 0.038907144 -0.089692675 0.053610202
0.036260568 0.07384078 0.018132875 -0.0037394587 -0.07564668 -0.042854197 -0.0011366416 -0.035850022
-0.044058833 0.07994365 0.04268649 -0.048453543 0.04456405 -0.07941104 0.052337267 0.030013999
-0.07586423 -0.02621347 0.068100095 0.060372774 -0.04538279 0.04838114 -0.06681153 0.042485487
0.074083716 0.00023841592 -0.030609816 0.11439337 -0.055236585 0.027194262 -0.041322157 0.0761247
0.032841254 0.076716855 0.041951373 -0.041741893 0.076044425 -0.06851628 0.066239186 0.05705635
0.058724534 -0.07639849 0.11014338 -0.08159306 0.06325116 0.025632761 -0.0522801 0.053587243
0.065254495 0.052529473 0.06721969 0.05068851 0.043996435 0.06329993 0.05786657 0.03939347
0.054490015 0.0034729787 0.09167962 0.014813585 0.048731565 0.037947465 -0.09180815 0.053493563
0.032626413 0.07371218 0.051597532 0.021861004 -0.07803141 -0.042793397 0.048119366 -0.03772113
0.028868265 0.07581592 0.042391986 -0.046456836 0.04939311 -0.08635038 0.057775643 0.043276314
-0.07356662 -0.032819025 0.047918472 0.04839946 -0.039719407 0.044637017 -0.053055547 0.010371035
0.07022673 -0.0290038 -0.03832739 0.11305979 -0.052035622 0.038931374 -0.040290397 0.08289979
0.031177983 0.08701689 0.05861025 0.01696631 0.063958704 -0.07241025 0.051940754 0.05677393
0.06796814 -0.0447076 0.118891284 -0.090287045 0.0061492943 0.007897167 -0.07347191 0.05723208
0.067464545 0.06287244 0.077916265 0.023862299 0.029740319 0.071387924 0.05611488 0.036697395
-0.001122398 0.057458542 0.052646812 -0.0024452654 0.08364494 0.03874173 -0.072247624 0.053530447
0.02432172 0.07650016 0.0912914 0.01717585 -0.07857724 -0.010070926 -0.0084276665 -0.035435956
-0.01692924 0.071826324 0.014273752 -0.06226662 0.0647306 -0.09863039 0.085351795 0.044196084
-0.07566505 -0.022846848 0.05021432 0.0814647 -0.03402759 0.054277275 -0.061242826 0.055917293
0.09071186 0.035702493 -0.045440868 0.11043957 -0.06787106 0.027467556 -0.041441444 0.067370586
0.050036248 0.060206722 0.070586935 -0.008550613 0.087530226 -0.06775721 0.06953801 0.057198618
0.042714227 -0.08639074 0.09135223 -0.06916359 0.111564025 0.0297445 -0.033860754 0.063269295
0.076481506 0.03729125 0.056121107 0.056727916 0.04741269 0.055077706 0.058964 0.046128012
-0.015221462 -0.055770747 0.124138825 0.031359922 0.022004507 0.038684666 -0.106745586 0.052729648
0.04118326 0.07155262 0.031588554 -0.026505811 -0.07417778 -0.07545958 -0.04064447 -0.040377285
-0.057738125 0.081951305 0.07326156 -0.056861848 0.03900862 -0.063473664 0.029966753 0.06918074
-0.07458144 -0.03428682 0.043078586 0.027881268 -0.049919244 0.020639667 -0.042062882 0.038672842
0.04258106 -0.06327817 -0.020416271 0.11037184 -0.04613077 -0.019201763 -0.04099183 0.08972701

fc4.bias f4 [6]
00000000: bac6 8e3e 0137 903e 8627 903e 9bdf 8f3e
00000010: a700 953e 51dd 8f3e
0.2788599 0.28166965 0.28155154 0.28100285 0.2910206 0.2809854
