checkpoints/2021_02_05-08_55_29/last/last_dqn-Pong-ram-v0.pt (torch, 301239 bytes, 8 tensors)

fc1.weight f4 [256, 128]
000000 8b b9 31 bd c3 e0 3f 3b 91 bd 4b bd 9a 87 08 3d
       -0.04338984 0.0029278256 -0.04974133 0.033332445
000010 98 f0 a5 bd 54 48 6b 3d 78 92 83 bd a3 db 8f bd
       -0.0810253 0.057442024 -0.06424421 -0.07024314
000020 3d fa 46 bd 90 ae 8a 3c 83 1d 43 bd e4 b4 a7 bd
       -0.04857849 0.016928941 -0.047635566 -0.08188799
000030 ae e0 31 bd fa 1e cd bd 5e dc 0d be 37 7d ca bc
       -0.043427162 -0.10015674 -0.13853595 -0.02471791
000040 d8 23 99 bd ed 9b 74 3d 08 25 b1 bc d6 09 ee 3c
       -0.0747754 0.059719015 -0.021624103 0.029057425
000050 c8 86 75 3d e8 ea ab 3c de ff c5 3c c4 ab 9f 3d
       0.05994299 0.020986035 0.024169859 0.077964336
000060 e8 60 41 bd 4d 21 a9 3c a6 c8 3f bd 0c a2 64 3d
       -0.047211558 0.020645762 -0.046822213 0.055818602
000070 77 86 81 3d c8 f1 b5 bd b9 7a 8b 3d e8 c7 0e 3d
       0.06324475 -0.08884007 0.06810517 0.034858614
000080 b4 57 ff 3c a3 e4 ed 3c 27 6f 87 3d 45 cb 9b bc
       0.03116975 0.029039687 0.066129975 -0.019017825
000090 81 22 a8 bd e6 fa 05 bd d1 88 8e bd f4 20 c5 ba
       -0.08209706 -0.03270998 -0.069596894 -0.0015039728
0000a0 c0 60 c3 bc 91 4d 60 bd fe 1c 7c bc 8b 72 9c 3d
       -0.023849845 -0.054761473 -0.015387772 0.07639035
0000b0 ad a0 6a bc 9a d9 94 bb c5 1d ad bc 94 83 d6 3b
       -0.014320535 -0.0045425417 -0.02113236 0.006546447
0000c0 37 3e 92 3d 32 c5 8a 3d d7 04 13 3d bd 3b d8 3c
       0.07140773 0.06775893 0.035893288 0.026395673
0000d0 21 08 5d 3c b6 84 db 3c 38 da 99 3c af 3d a8 bd
       0.013490708 0.02679668 0.018780813 -0.0821489
0000e0 55 3d 50 bd f9 83 9a 3d e2 08 1f bb 08 b0 a1 bd
       -0.05083974 0.07544703 -0.002426677 -0.078949034
0000f0 31 d6 62 3c 35 84 86 3d 30 1e ba bd a6 ea 88 bd
       0.0138450125 0.06568185 -0.09087789 -0.06685381
000100 76 0d 78 bd 48 01 79 bb 98 10 e5 bc 74 76 91 bc
       -0.060559712 -0.0037995148 -0.027962014 -0.017756678
000110 73 85 bf bd 46 9a 06 3d 6c d7 8f 3d 52 1b 3d 3d
       -0.09351625 0.03286197 0.0702351 0.046168633
000120 90 3b 8f bd b0 f7 a0 bd fc 7c f0 3c 6c b4 af bb
       -0.069937825 -0.07859743 0.029356472 -0.005362084
000130 83 a2 ec 3c 20 e2 b0 bd c9 af ac bb 53 53 7f 3d
       0.028886085 -0.0863688 -0.0052699787 0.062335324
000140 31 f4 27 3d 01 88 53 3b 0d 5e 8e 3c 84 1c 09 bc
       0.041004363 0.003227711 0.017378831 -0.008368615
000150 9e 0f 47 bd 6c d0 08 bd 65 79 5c bd 38 5b 96 3d
       -0.048598878 -0.03340189 -0.05382671 0.07341617
000160 9d 39 47 3d ea 39 fd 3c ac d0 8a bd b0 ad 8b 3d
       0.04863893 0.030911405 -0.06778082 0.06820238
000170 78 07 e3 3c d7 74 7a 3d 23 6c 0e bd 8d 80 99 3c
       0.027713522 0.061146583 -0.034771096 0.018738056
000180 7c be b0 3d 54 87 73 3d 4a 2d 91 3d 93 0b 98 bc
       0.08630082 0.05945523 0.07088716 -0.018560207
000190 1d ea 89 3d b9 c7 8d bd b1 7f fa 3b 00 d9 4b bd
       0.06734107 -0.0692286 0.0076446165 -0.049767494
0001a0 a8 dd a8 bc 31 6f b9 bc 00 b3 d8 3b bd c0 a4 3d
       -0.020613506 -0.022636028 0.0066131353 0.080445744
0001b0 51 3d 33 3d 7e 4f c4 b9 eb 7e 80 3d 5b 87 39 bd
       0.043759648 -0.0003744326 0.06274208 -0.0452951
0001c0 9b 95 3a 3d 8f 4a 06 bc a2 fe 7b bc 59 8a 29 3c
       0.04555283 -0.008196487 -0.015380533 0.010347926
0001d0 a6 ad 8a bd 49 58 27 3c 5b 76 f3 3c 59 c2 9a 3d
       -0.06771402 0.01021392 0.029719522 0.075566
0001e0 bc 6f e1 bc 36 51 5e 3c 76 40 aa 3d d9 67 39 bd
       -0.0275191 0.013569167 0.08313076 -0.045265052
0001f0 45 07 9d 3d aa d7 51 bd 3a 7d 01 3d 65 78 df 3c
       0.07667402 -0.051231064 0.031613566 0.027279088
000200 b4 9e 84 3c 91 26 8f 3d 62 3d e0 3c 23 4d be 3c
       0.016188957 0.06989778 0.02737302 0.023230141
000210 03 df 95 bc f1 8f 99 bd ea d0 af bc 5f 9b 3e bd
       -0.018294817 -0.07498158 -0.021461923 -0.046534892
000220 be c0 cc 3b 7b ba 25 bc 96 cd f9 bc 13 4a 9a 3d
       0.0062485626 -0.010115261 -0.030493539 0.0753366
000230 fa 5f 84 bd 3b 16 61 bb 9b 20 f2 bd 9d 66 9e 3d
       -0.064636186 -0.0034345526 -0.11822625 0.07734416
000240 dd 2b a0 3b 10 4e 88 be 8d 93 02 be b8 5a 93 bd
       0.0048880414 -0.26622057 -0.12751599 -0.071950376
000250 1a a4 3f bd cb 4c a8 bd 84 a4 6b bd 60 c7 1d bd
       -0.04678736 -0.08217772 -0.05752994 -0.038520217
000260 90 50 00 bb 53 7d 56 3d 0c fa d2 3c 4c 8b 72 3d
       -0.001957927 0.052365612 0.025753997 0.059214875
000270 bb 11 83 bd c3 77 88 ba c9 50 b2 bd ea de 2c 3d
       -0.06399866 -0.0010411668 -0.08706815 0.042204775
000280 06 8a 22 3c 86 ac 9d 3d 29 27 92 bd 0c 82 7f 3d
       0.009920603 0.07698922 -0.071363755 0.06237988
000290 1a 69 87 3d 52 f2 80 3d 18 c1 86 3b b3 2f 93 3d
       0.066118434 0.06296219 0.004112374 0.07186832
0002a0 84 f7 4e 3d 76 4a 6b 3d 6e 55 69 bc f5 52 9c bd
       0.050529018 0.05744406 -0.014241559 -0.0763301
0002b0 13 49 1d bc ae 51 04 3c 68 b6 8c bd 93 7e 72 bd
       -0.009599942 0.008076115 -0.06870729 -0.05920274
0002c0 61 f6 be bd 0b 09 83 bd 21 e3 7a 3d 16 8d cd bb
       -0.09324337 -0.06398209 0.061251763 -0.0062729223
0002d0 98 b6 63 bc 84 36 a2 bb 08 97 3b 3d 01 da 9f bd
       -0.013898514 -0.0049503464 0.04579833 -0.07805253
0002e0 4d 2e 4e bd fb bb f0 bc 71 24 7b bd 36 eb 17 3d
       -0.050337125 -0.029386511 -0.06131405 0.03708955
0002f0 b6 c4 c0 3d 1a 0a c1 bd 8a 09 ab bd d0 b0 c1 bd
       0.0941252 -0.09425755 -0.08351429 -0.094575524
000300 27 5a 01 3c 8d 48 80 3d 2b c3 9d bd c5 e1 33 bd
       0.007895029 0.06263838 -0.07703241 -0.043916482
000310 f7 c7 a0 3c e8 ff 85 bd 7b 5c 88 3d 3a fe 38 3c
       0.0196266 -0.06542951 0.06658264 0.011291081
000320 75 9a 07 bd c4 d6 34 bb ef 1b 9c 3c c3 d6 22 bd
       -0.033106286 -0.002759383 0.019056289 -0.039755594
000330 c3 ac 9d bd 37 be 1b 3a 40 06 d3 3a 62 9e e9 3a
       -0.07698967 0.0005941125 0.0016099885 0.0017823691
000340 63 54 53 bc 98 74 68 3d 78 0f ca bc b9 2b 0c bc
       -0.012898537 0.056751817 -0.02466558 -0.008555346
000350 a7 dd 14 3d 72 e1 63 bd c1 e0 c1 3c d9 1a a0 bc
       0.036344197 -0.055634923 0.023666741 -0.019544052
000360 0d a9 2d 3d a1 64 44 bd e7 15 56 3b 09 ac 0d 3c
       0.042397548 -0.04794753 0.0032666863 0.008646973
000370 c4 a5 91 bd 76 a0 83 bd be d8 0a 3d 57 bf d2 bc
       -0.071116954 -0.0642709 0.033898108 -0.025726004
000380 78 03 57 3d 7d d2 b2 bd 51 f7 32 bd 46 19 95 bd
       0.052493542 -0.08731554 -0.04369289 -0.07280211
000390 c5 9f 10 3d 90 ef 27 bb 51 0e 87 bc 73 ee 70 bc
       0.035308618 -0.0025624968 -0.016486319 -0.014705288
0003a0 5a 7e 8d bd 3d 58 cd 3c c5 62 10 3b fa d8 79 bd
       -0.06908865 0.02506649 0.0022031527 -0.06099794
0003b0 0f 3b 08 3d 29 da e8 ba 8a 12 af bd 78 bf 42 3d
       0.033259448 -0.0017765212 -0.08548458 0.04754588
0003c0 59 a6 41 3d 6c 6c 88 bc 1e f7 79 bd ec 92 68 3b
       0.047277782 -0.016653262 -0.061026685 0.0035487963
0003d0 f2 97 88 3d b7 b1 a5 3d 32 a2 88 bd 8a 85 23 bd
       0.06669606 0.08090537 -0.06671561 -0.039922275
0003e0 32 f2 8c 3d 73 77 fe 3b 29 3d 3c 3d 81 03 57 bd
       0.068821326 0.0077657043 0.045956764 -0.052493576
0003f0 2c 8b 8a 3d 7c 38 a6 bd b7 05 51 bc 77 66 da bb
       0.06764826 -0.08116242 -0.01275771 -0.006665047

fc1.bias f4 [256]
000000 ae 5a 2f 3d 50 fa 59 bd e0 a9 be bd 47 97 fa bc
       0.04281109 -0.053217232 -0.09309745 -0.030589713
000010 2f 3f 30 3d 39 ce 2a bd 0a a6 aa bb b0 51 4d bc
       0.043029007 -0.041700576 -0.0052077817 -0.012531683
000020 f2 35 36 bd bf 1b 8c bd 66 7b 1e bd 84 20 bf bc
       -0.04448504 -0.0684123 -0.0386919 -0.023330934
000030 d9 c7 48 bd c3 8f 2a 3b 11 88 87 3d ee 54 76 bd
       -0.049018715 0.002602563 0.066177495 -0.06013959
000040 e7 ec ba bb 3b 34 89 bd 0b 7e ff 3c 09 54 8b 3d
       -0.0057045105 -0.06699415 0.031188032 0.06803138
000050 82 3e bf bc 53 78 8b 3a 51 1c 3a bd 6b 26 7a bd
       -0.023345236 0.0010640718 -0.04543716 -0.061071794
000060 05 61 2a 3d a6 91 27 bc 6f ee 8e 3d cf 02 7f bd
       0.04159643 -0.010227596 0.06979071 -0.062258538
000070 e0 78 8d 3d 85 19 84 3d 8e 18 91 3d 0a 1e ea 3b
       0.06907821 0.0645018 0.070847616 0.007144694
000080 44 10 6f bd 76 86 32 3c 7f 72 dd 3c 14 c8 91 bc
       -0.05836512 0.010896316 0.027032135 -0.0177956
000090 07 87 ae bd 6a a2 2f bd f7 07 05 bd d7 86 12 3d
       -0.08521848 -0.0428795 -0.0324783 0.035773125
0000a0 79 dd 06 bd 59 6d b0 bd 6e 22 3f 3d ba 68 8d 3d
       -0.032926057 -0.086146064 0.046663694 0.06904741
0000b0 b3 e2 27 3d 67 ab 8c 3c 53 71 95 bd 27 08 92 bd
       0.04098768 0.017171575 -0.072970055 -0.07130461
0000c0 cf 7c 97 bd 9b 0a 61 3d e3 4d 6f 3d 5a d5 32 3d
       -0.07396852 0.054941755 0.058423888 0.0436605
0000d0 cd 5c b5 bd 78 fb d5 bc 16 f2 02 3d a4 f8 a4 3d
       -0.08855591 -0.026120886 0.031969152 0.08055237
0000e0 b7 c2 52 bc f5 79 50 bd 57 bf ce bd fe 32 29 3d
       -0.012863806 -0.050897557 -0.10095089 0.041308396
0000f0 c1 a5 49 3c 75 43 3a bd 7b ea 59 3d 07 1b d2 bd
       0.012307585 -0.04547449 0.053202134 -0.10259061
000100 f6 35 65 3d a0 2d a0 bb f2 bc 84 bd 29 8e 8c bd
       0.055959664 -0.0048882514 -0.06481351 -0.068630524
000110 61 ef 3c bd e9 0f 31 3d f8 7a e0 bc 65 3b 8b 3d
       -0.046126727 0.043228064 -0.027402386 0.06798438
000120 c5 b5 0d bd 32 4a f1 bc 61 81 9f bd 9e f4 6f 3d
       -0.034597177 -0.029454324 -0.07788349 0.058582895
000130 3e 88 cd ba 0b 51 95 3c d6 36 72 bd 51 3b 2d 3d
       -0.0015680862 0.01822712 -0.059134327 0.042292897
000140 ae 5c 9e 3d a8 29 d2 bc a8 1d e6 3c 1e 07 39 3d
       0.07732521 -0.025654629 0.028090313 0.045172803
000150 5a 83 ab bc a2 0c c3 3c 4a 7c 1e bd a8 d6 a3 bc
       -0.020936657 0.023809735 -0.03869275 -0.019999817
000160 1f 83 1e bb 98 bd a0 bd f2 f1 0b bb b5 c1 56 bd
       -0.002418704 -0.07848662 -0.0021353927 -0.052430827
000170 32 55 0b bb 1d 70 af 3c fe 40 09 bd be a8 0b bd
       -0.0021260497 0.021415764 -0.033509247 -0.034096472
000180 17 78 5f bd e9 e7 92 3d 4b ee 8f bd 1d 9d c0 3c
       -0.054557886 0.071731396 -0.07027873 0.023512417
000190 3f de 83 bd f7 96 40 3d 2a 5d 72 bd 7d ec 0a bd
       -0.064388745 0.04701897 -0.05917088 -0.03391694
0001a0 44 4d e2 bb d1 be 68 3d 4b f7 1f 3c cf e9 ac bd
       -0.0069061834 0.0568226 0.009763549 -0.08443033
0001b0 f5 46 ac 3a 68 8e 9e bd 3f 9a aa 3d 3e 4d 5f bd
       0.0013143705 -0.077420056 0.08330201 -0.054517023
0001c0 d9 07 5a 3d b6 d7 59 bd 8a ec 8d bc b4 cb 1f 3d
       0.05323014 -0.053184234 -0.017324705 0.039012626
0001d0 d6 1b fe bc e0 3f 19 3d b7 4a 5f 3d a1 b5 4f bc
       -0.031019133 0.03741443 0.054514613 -0.012677581
0001e0 c4 ea 95 3d 22 ef a2 bd 3d dd 4d bd ad 43 19 3d
       0.073201686 -0.07955767 -0.050259817 0.037418056
0001f0 e9 b4 15 3b 53 8f b0 bd bc 54 2e 3d 6a 98 25 bb
       0.0022843427 -0.08621087 0.042561278 -0.0025267848
000200 9c 7f 8e bd bd 7f 95 bd 68 01 c4 bd 08 75 d6 3d
       -0.06957933 -0.07299755 -0.09570581 0.10471541
000210 71 6b ba 3c cc b6 b3 bd 6c c1 6e bd ad 31 af bd
       0.02275631 -0.087751 -0.05828993 -0.08554397
000220 fc 20 50 bd 1e dc d5 bc af 8b 6c 3d c4 44 6a bd
       -0.050812706 -0.026105937 0.0577504 -0.057194486
000230 dc 97 ce bc 23 88 90 bd d3 f1 90 3c 25 8e 93 bb
       -0.025218897 -0.07057216 0.017693436 -0.004503029
000240 c8 78 42 3c 36 11 05 3d 05 a5 22 3c 12 c2 c9 bd
       0.011869617 0.032487117 0.009927039 -0.09851469
000250 19 ec 91 bb f1 aa ac 3d 3b 62 9e 3c a6 23 ce bd
       -0.004453194 0.08431042 0.01933395 -0.10065393
000260 a4 5f 4d 3b 0f 43 88 3d 82 be a6 3c 7f 13 b0 bc
       0.0031337524 0.066534154 0.020354513 -0.021493671
000270 3d cb 67 3d b5 b6 7a bd d3 0e 88 3d 4f 86 9b 3d
       0.056590308 -0.0612094 0.066434525 0.07593977
000280 01 dc 62 bd de b8 1f 3d a2 43 5a 3c 37 60 8d bd
       -0.055385593 0.038994662 0.013321789 -0.06903117
000290 a5 79 99 3c 92 18 f5 bc 50 6b ab 3b a5 0c 3c 3d
       0.018734762 -0.029918943 0.0052312985 0.045910496
0002a0 0a 50 1e bd 01 5e f9 3c 88 1a 84 bd b8 13 96 3d
       -0.03865055 0.030440332 -0.06450373 0.0732798
0002b0 e2 a8 99 3d fc 86 81 bd 03 08 bc 3c 77 1a 36 bd
       0.07502915 -0.06324574 0.022953039 -0.044458833
0002c0 4c b1 fa bc ab e1 a1 3d d2 3e 30 3a a8 68 57 bc
       -0.03060212 0.07904371 0.0006723228 -0.013147511
0002d0 ae fc 65 3d ee c3 52 3d f6 dc 56 bc 40 4b c4 bc
       0.056149177 0.051456384 -0.013114205 -0.023961663
0002e0 39 59 9d bd 82 7b 1e bd a0 78 7c bd 2e 74 a1 bd
       -0.076830335 -0.038692005 -0.061638474 -0.07883488
0002f0 b1 07 0d bd 91 71 aa b6 d2 f6 63 3d 5a 8a 99 3d
       -0.034431163 -5.0796157e-06 0.055655308 0.074970916
000300 09 d0 6e 3d 78 06 41 bd 6a 2e 9b bc 3a b3 3a bd
       0.058303867 -0.04712531 -0.01894303 -0.04558108
000310 bc cc f6 bb dc b3 93 bd ca 96 8d 3c cc 3a 23 3d
       -0.0075317305 -0.0721204 0.017283816 0.039850995
000320 76 84 78 bd 01 d6 42 3d b3 6e 62 3d ff db e8 bc
       -0.0606732 0.04756737 0.055281352 -0.028425215
000330 84 2f b0 bd 46 68 76 bd f1 80 a1 3d 1e aa fe bc
       -0.08602813 -0.060158037 0.07885922 -0.031086978
000340 37 08 1d bd da 95 74 bd 9c 46 02 bc a8 7b cc 3a
       -0.038337912 -0.059713222 -0.007951405 0.0015600817
000350 ad bf 04 3d ef 63 9e 3d a5 50 fd bc 2e a5 17 bd
       0.03240936 0.077339046 -0.030922243 -0.037022762
000360 bb c2 b1 bd f6 a8 69 bd 11 bc dd 3c c2 ce 25 bd
       -0.0867972 -0.0570459 0.027067216 -0.040480383
000370 1a 87 93 3b b6 f7 06 bd 89 01 0a bd 4f d5 92 3d
       0.0045021893 -0.03295108 -0.03369287 0.07169592
000380 95 20 c5 bd fd 47 21 3c 48 ce 3c 3c 06 51 94 bd
       -0.09625355 0.0098438235 0.011523791 -0.072420165
000390 4d c3 36 bd bc 24 e7 3c 9a 43 53 bd c5 71 62 3d
       -0.044619847 0.028215759 -0.05157814 0.05528428
0003a0 ba 2c bb bd 0d d3 08 bd 8a c9 d8 3c e7 d7 b8 bd
       -0.0913939 -0.0334044 0.026463289 -0.09025555
0003b0 2c c7 49 3d 63 60 a4 bd 61 4f cc bc 6c 12 02 3d
       0.04926221 -0.08026197 -0.024940195 0.03175585
0003c0 b4 47 87 3c 7f 74 70 3c 4d 5b 77 bd 15 b8 bf bc
       0.016513683 0.014676212 -0.060389806 -0.023403207
0003d0 14 9e 6a 3d ba cc 9e bd fa c9 a8 bd fc 6b a5 bc
       0.05727966 -0.07753892 -0.08241649 -0.020193093
0003e0 b5 cb f1 bc 6b 52 85 bd 00 ae 29 bd a5 7e 34 3d
       -0.02951608 -0.065098606 -0.041425705 0.04406609
0003f0 5b d2 a2 bd 71 22 9a 3d c4 18 2f 3d 8d 38 90 3d
       -0.07950278 0.075261004 0.042748228 0.07042036

fc2.weight f4 [128, 256]
000000 42 94 d1 3c ae 77 11 bc cb c5 1b bd 7e 29 1b 3c
       0.02558339 -0.0088786315 -0.038030427 0.009470342
000010 5a 5b 69 3d a4 3a a3 bb 04 33 ad 3c 4b cd c1 bc
       0.056971885 -0.0049813557 0.02114249 -0.023657462
000020 a0 76 2e bd 20 0b 5b 3d 75 18 16 bc 6f 23 13 3c
       -0.0425936 0.053477407 -0.009161104 0.008980616
000030 c1 b4 21 3b b7 7a 83 3c 03 1a 16 3d 62 20 79 3d
       0.0024674388 0.016049726 0.0366459 0.0608219
000040 d4 17 49 3d 5e be d3 3c ed d6 50 bd b8 14 2c 3c
       0.04909499 0.02584761 -0.05098622 0.010502987
000050 da 16 05 3d c0 9e 07 bd 4c 88 38 3d 78 d4 eb 3c
       0.032492496 -0.03311038 0.045051858 0.028787836
000060 34 5c f0 3c 66 2e 6f bd 40 25 48 bb 5c 17 81 bc
       0.02934084 -0.05839386 -0.003053978 -0.015758209
000070 9a d2 3b bd 48 4d 01 3c b0 76 c9 3b 7e 64 46 3d
       -0.045855142 0.00789196 0.006148182 0.04843568
000080 a8 51 1e bc cb 81 4e 3c 72 ba 46 bd 5e fa 52 3d
       -0.009663023 0.012604187 -0.04851765 0.0515083
000090 8e ee ca bc 94 72 4f 3c 60 5f ad bc f3 2f fa bb
       -0.024771955 0.012661595 -0.021163642 -0.0076351105
0000a0 ab 6b ca 3c 01 c7 1d 3a ee b0 67 3d e4 fe 1a 3d
       0.024709543 0.00060187286 0.056565218 0.03784074
0000b0 c5 7f 25 bb 7e b2 69 bd ba 2e db bb 3b 30 28 bd
       -0.0025253159 -0.05705499 -0.00668892 -0.04106162
0000c0 56 51 cb bc 87 34 98 3c 6b fe aa bc 76 ce 28 3d
       -0.024819057 0.018579734 -0.020873269 0.04121252
0000d0 33 a8 33 bd 88 3b 8c bc b6 be 9c 3c 8a 7b 7e bd
       -0.04386158 -0.01711823 0.019133907 -0.062129535
0000e0 e0 0b 51 bc be 1f 73 bd 16 8a 49 3a e1 94 18 3d
       -0.012759179 -0.059356444 0.0007688118 0.037251357
0000f0 08 ad f9 bc fa cf 38 bd 03 f3 17 3d 48 e9 0a bd
       -0.030478016 -0.045120217 0.03709699 -0.03391388
000100 f8 45 69 3d 2c 6b 4f 3d 19 d9 48 bc 8f aa 3e bd
       0.056951493 0.050639316 -0.012258791 -0.046549376
000110 a1 00 9d bd e0 6b fc bc 42 ad d2 3b d0 b4 29 3c
       -0.076661356 -0.030813158 0.0064293453 0.01035805
000120 31 60 ee 3c 56 9e 96 bc 37 3b 91 bd 60 dc c2 bc
       0.029098602 -0.018386047 -0.070913725 -0.023786724
000130 98 d3 0e 3d d8 a1 e6 3c 47 d7 38 3d 34 f5 8f bc
       0.03486976 0.028153345 0.04512718 -0.017572977
000140 3a ab 50 bd 2f c1 49 bd 23 55 4f bd 34 3e c0 3c
       -0.050944544 -0.0492565 -0.050618302 0.02346716
000150 00 63 8b 3c a6 a9 82 bd 95 e5 8b bd 90 0b a6 bb
       0.01701498 -0.06380014 -0.06830899 -0.0050672963
000160 33 b5 75 bd 84 a2 a8 bc 54 1b 54 3c 82 34 bc bc
       -0.05998726 -0.020585306 0.012945969 -0.022974256
000170 e9 fc 82 bd 54 e8 a6 3c 8c a5 b1 3c 98 fb 56 bd
       -0.06395895 0.020374455 0.021685384 -0.052486032
000180 5d af 81 3b b1 be 76 3d 68 b6 40 bd ff 63 80 bd
       0.0039576725 0.06024045 -0.047048956 -0.06269073
000190 6a 44 25 3d 4e a5 50 3d 34 4c 15 bd 50 a2 4c bd
       0.040348448 0.050938897 -0.036449626 -0.04995948
0001a0 ff 90 2f bb 9c 38 75 3d a8 b3 4e bd 27 79 92 bd
       -0.0026789305 0.05986844 -0.050464302 -0.07152014
0001b0 90 ca c6 bc 03 25 a8 3c 70 5a e1 bb d3 c8 80 bd
       -0.024266511 0.020525461 -0.006877236 -0.06288304
0001c0 e8 17 6a 3c 50 94 95 bb 00 38 1d 39 0b 80 02 3b
       0.014287926 -0.0045647994 0.00014993548 0.0019912745
0001d0 12 ba 22 bd 4c 44 01 bd a0 8c e8 bb eb fd 19 3c
       -0.03972823 -0.031559274 -0.007096842 0.009398918
0001e0 20 2d dc bc a1 b4 48 bd 5a a9 41 bd 80 87 a8 bc
       -0.026876986 -0.049000386 -0.047280647 -0.020572424
0001f0 31 7b 08 bc 28 07 f8 bc f8 df e5 3c 00 1c c4 3c
       -0.008330152 -0.03027685 0.028060898 0.023939133
000200 18 47 1f 3d 8b 24 8e bd aa f2 b7 3c cf de 65 bd
       0.03888616 -0.06940564 0.022454578 -0.05612069
000210 30 85 58 3d 00 29 c7 ba dc fc 2a bc fa a5 7e bd
       0.052861392 -0.0015194714 -0.010436263 -0.062170006
000220 92 76 08 bd 7c ef dd bc a8 7a 6d 3c 7e fa 3a bd
       -0.033316202 -0.027091734 0.014494576 -0.045649044
000230 df 4b bc 3c 4b 39 6d 3c f3 41 81 3c bd dc 58 bd
       0.022985397 0.014478992 0.015778517 -0.052944887
000240 2e ac 52 3d dc d8 a6 bc ab e4 53 bd 91 b1 17 bc
       0.051433735 -0.020367078 -0.051731747 -0.009258644
000250 38 7c 88 ba 6c d2 43 3d 1a 1e 31 bd 0b 96 69 bc
       -0.0010412997 0.047808096 -0.043241598 -0.014256964
000260 8f ec 04 bd 30 07 4f bd 61 7c 40 bd 84 f9 b0 3c
       -0.032452162 -0.050543964 -0.046993617 0.021603353
000270 6a d3 ef 3c 44 73 6e bd a3 00 1e bd 2a ae 84 bd
       0.029275615 -0.058215395 -0.038574826 -0.06478532
000280 00 95 f2 3c 0c f9 bb bc c1 3a ba bc e9 d9 ed 3c
       0.029612064 -0.022945903 -0.022733094 0.029034572
000290 8b b4 44 bd b3 33 01 bd e6 6c 67 3d 91 96 27 bc
       -0.04802374 -0.031543445 0.056500338 -0.010228769
0002a0 3d a0 3f bc c4 a0 ad 3c ec fe 18 bc b4 b2 4f 3d
       -0.011695919 0.021194823 -0.009338122 0.050707534
0002b0 ab b9 51 bd e2 b7 8b bc 15 8d c9 3c 48 4b 64 bd
       -0.051202457 -0.017055456 0.024603406 -0.055735856
0002c0 20 c2 30 bd aa 29 18 3d a1 b4 b9 bc 89 ad fa 3c
       -0.043153882 0.03714911 -0.022669138 0.030600326
0002d0 e8 00 1e 3d 9c 6c ce bc ad 02 52 3d ff f0 0c bc
       0.038575083 -0.025198273 0.051272083 -0.00860238
0002e0 31 d2 1c 3b b4 16 5f bd 7a 8a 2e bc fa ed 18 3d
       0.0023928995 -0.05446501 -0.010653133 0.037336327
0002f0 32 5d 3a 3d 61 d8 72 bd 32 21 3b 3d 94 7c f6 3c
       0.045499034 -0.059288386 0.045685954 0.0300887
000300 d5 83 b8 bc ac 71 15 ba ec 1c d6 3c c4 af 44 3d
       -0.0225238 -0.00057008374 0.026136838 0.048019186
000310 a0 53 1b bb a2 d0 5f 3d 78 58 e5 bb d0 be 56 bc
       -0.0023700967 0.054642327 -0.0069990717 -0.013107017
000320 c3 ac fe 3c 26 44 88 bd c2 cc 69 3c 46 c2 9f bd
       0.031088239 -0.06653623 0.0142700095 -0.078007266
000330 b6 09 81 bd cf 63 2c 3d 3d f9 6b bd 40 d1 eb bc
       -0.0630068 0.042087372 -0.05761074 -0.028786302
000340 0e ee 0d 3d 68 33 03 bd 3e a5 12 bc 3d 51 00 bd
       0.034650855 -0.032031447 -0.00895053 -0.031327475
000350 c2 d8 2f 3d 74 dc 77 3d 81 0b 51 3d 45 04 50 3c
       0.042931326 0.060512975 0.05103636 0.01269633
000360 1e 27 72 bd c8 25 69 bc a1 05 77 3c 0c d0 0f 3d
       -0.059119336 -0.014230199 0.015077026 0.03511052
000370 2c b9 d2 bc 10 83 e5 bb 00 44 f7 3c 80 67 a2 3c
       -0.025723062 -0.0070041493 0.030183792 0.019824743
000380 5a 30 81 bc e0 75 19 3c 1e 27 46 bd cc 77 07 bd
       -0.015770126 0.0093664825 -0.04837715 -0.03307323
000390 a8 68 ac bc 53 4c 0d bd d6 cb 00 3d 21 85 2c bd
       -0.021045998 -0.034496617 0.031444393 -0.04211915
0003a0 aa 65 58 bd a1 6d 8a bc 82 dd 7f bd 3c 26 5f bd
       -0.05283133 -0.016897978 -0.062467106 -0.054479823
0003b0 b0 86 29 bc 38 cf 11 bc 5e fe 0a bb e6 bb 67 3d
       -0.010347053 -0.008899502 -0.0021208744 0.05657568
0003c0 ac 6c 7e bd e2 92 24 3d 5e bf 5c bd 9c 30 35 bd
       -0.062115356 0.04017914 -0.05389344 -0.04423581
0003d0 70 5f 48 bc 82 a2 e7 3c c0 f4 a9 3c 26 52 61 3d
       -0.012229785 0.028275732 0.020746589 0.055009983
0003e0 3e e1 4d 3d f4 51 25 bd 48 ea 65 3d a8 89 8e 3c
       0.050263636 -0.04036136 0.05613163 0.017399624
0003f0 f3 3b 13 3d 22 62 79 3d 75 01 6c bb 5c d5 f1 bc
       0.035945844 0.060884602 -0.003601161 -0.029520683

fc2.bias f4 [128]
000000 78 3e 09 bd d1 1a 89 3b d8 79 1a be 31 4d 9b bc
       -0.03350684 0.004184105 -0.15085542 -0.018957706
000010 a9 14 f1 bd ae e8 b9 be 70 f6 9f be aa 86 bd 3d
       -0.11771519 -0.36310333 -0.31242704 0.09254201
000020 38 4e 74 be 82 47 82 3f 86 3c 31 be 5b 81 67 3f
       -0.23857963 1.0178072 -0.17308244 0.90431756
000030 bf 56 a2 bd 26 d9 28 bd 06 25 fb bd 54 42 64 bd
       -0.07926702 -0.041222714 -0.12262921 -0.055727318
000040 e6 fe 97 be 2c b8 03 3e 03 d4 43 3e 12 33 d8 be
       -0.2968666 0.12863225 0.19123845 -0.42226464
000050 f7 5c 35 3c da 0c e8 bd 3e af 42 3f df 2b 3a be
       0.011069528 -0.11330576 0.7604865 -0.18180798
000060 ae e2 94 bd e7 09 27 bf 8f b8 fe bd 15 99 a7 bd
       -0.07269798 -0.65249485 -0.124375455 -0.08183495
000070 1c e7 68 3e bf 95 08 be 90 23 5e 3f b2 43 ca bc
       0.22744411 -0.13338374 0.86773014 -0.024690483
000080 4e 16 0f bd db 25 85 bb 5d 87 48 bd ab 6c 7b 3e
       -0.03493338 -0.0040633506 -0.048957217 0.24553172
000090 14 ec de 3d 7f c5 ab 3d 5a af c8 bd 5f ae 61 3e
       0.10884872 0.08387279 -0.09799071 0.22039174
0000a0 fa 24 bb bf e5 6b 80 bd d0 a7 9b 3f b7 09 26 bd
       -1.4620659 -0.06270579 1.2160587 -0.04053661
0000b0 03 43 25 be 87 03 ca 3e 10 37 73 3f 92 20 2b 3f
       -0.16138844 0.39455816 0.95005894 0.66846573
0000c0 83 78 3a 3f 22 b2 03 be e3 de 21 be dd 7b 17 bd
       0.72840136 -0.12860921 -0.15807681 -0.03698336
0000d0 18 93 63 3c a4 f2 58 3f a8 c6 c0 bd bd db 1b bf
       0.01389005 0.8474524 -0.09412891 -0.6088217
0000e0 04 b5 1a 3e 91 81 c4 bd 25 9b dc 3e dd 22 1b 3d
       0.15108114 -0.09595025 0.43087116 0.037875045
0000f0 5a 8a a2 bf b3 57 3a bd e3 6a 11 3d fc 25 55 bd
       -1.2698472 -0.045493793 0.035502326 -0.052038178
000100 ef e3 53 bd d2 ab 00 be 7b 7e 4d 3d b2 dc ea 3d
       -0.051731046 -0.12565544 0.05016945 0.114678755
000110 d2 7c c9 3e bc c4 e6 3e e6 eb e4 3d cc 70 b4 3c
       0.39353043 0.4507197 0.111778066 0.022026442
000120 02 23 09 3b 2a d8 b7 be 78 91 49 bd 86 4a 4d be
       0.0020925407 -0.35907108 -0.049210995 -0.2004796
000130 89 87 61 bd 79 0e 80 be f8 a2 9e bd 11 70 e6 be
       -0.055060897 -0.25011042 -0.077459276 -0.45007375
000140 0d 2b 4e 3e e8 50 48 be 9b 5b cc 3d f5 97 4b bd
       0.2013361 -0.19562113 0.0997841 -0.049705464
000150 80 e9 09 bf 62 42 4d bf 2e 6c d2 bd 77 1f b4 be
       -0.5387192 -0.8017942 -0.1027454 -0.35180256
000160 c0 3d 94 3e 4e fa 15 bd 0a fb 97 3f f8 b2 f7 bd
       0.28953362 -0.036615662 1.1873486 -0.120946825
000170 14 2b d7 3e 02 49 8b bd 25 3e 5d bc 01 b0 71 bd
       0.42025054 -0.068010345 -0.013503586 -0.05900574
000180 e5 47 a6 bc 21 a4 30 bc fe 83 79 bd 50 57 d5 bd
       -0.020297954 -0.010781319 -0.060916893 -0.10417044
000190 b1 e4 72 bd 0b 0b b7 be c9 0a ad bd 6b 98 b6 bd
       -0.05930013 -0.35750613 -0.08449323 -0.0891579
0001a0 cd 47 a9 be 44 46 a1 be 01 f4 c9 bd 0a 5d b4 3d
       -0.33062592 -0.3149892 -0.09860993 0.08806808
0001b0 61 f0 7e 3d 70 c6 69 bb 33 f5 2f 3d 6c 57 f3 3e
       0.062240962 -0.0035671256 0.04295845 0.47527635
0001c0 21 d0 20 bd 7a 14 18 3d b8 2f 2a 3e 93 46 99 3e
       -0.039260987 0.037128903 0.16619766 0.29936656
0001d0 97 72 c6 3c 07 c8 88 3d 58 6a 8f 3e c0 c3 cf bd
       0.024224563 0.06678777 0.2801082 -0.10144758
0001e0 33 b9 13 bd a4 62 00 be 79 85 e4 bc 08 ca af bc
       -0.03606529 -0.12537628 -0.027895676 -0.02145864
0001f0 d4 14 a7 be 89 f5 38 be 2c 8c b1 bf 8c fe 89 bb
       -0.32633078 -0.18062414 -1.3870902 -0.0042112526

fc3.weight f4 [64, 128]
000000 1f 1b d6 3c 65 1b 2e 3d e5 97 72 bd d6 54 a9 3d
       0.02613598 0.042506594 -0.05922689 0.08268134
000010 92 ec e9 bd dd f9 a5 3c 65 fb 51 be b3 ab e6 bc
       -0.11422075 0.020260746 -0.20506056 -0.028158044
000020 9b 9f b5 bc 67 5d a3 be b9 b8 92 bc bd 6c a0 bd
       -0.022170832 -0.31907198 -0.017910348 -0.0783324
000030 51 6b 8f be da f6 bb 3c 77 00 b2 bc 40 fb 26 be
       -0.28011563 0.022944856 -0.021728737 -0.16306782
000040 5e ca 6c 3c cd 7e 60 bd 30 4d 69 bd fe 7e 6b bd
       0.014452545 -0.054808427 -0.056958377 -0.057494156
000050 bd 42 1c be 91 34 a7 bd 63 17 d9 bd 88 cb 3f 3b
       -0.15259834 -0.08164323 -0.10600164 0.0029265601
000060 2c 5f 7c bc a2 09 1b be 9a d7 b6 bb 48 ab 97 3a
       -0.01540355 -0.15140393 -0.005579901 0.0011571432
000070 bc 78 bd 3c c5 aa c1 bd 2b 6e 7d bd 96 a9 a7 bd
       0.02312886 -0.094564 -0.061872642 -0.08186643
000080 f1 ae 7b bd ab 98 5d bd 40 bc 76 3d c6 04 05 be
       -0.061446134 -0.054100674 0.060238123 -0.12990102
000090 fe 6e 71 bd 2d d9 94 3d cb bf 53 3d 1d f8 47 be
       -0.05894374 0.072679855 0.05169658 -0.19528241
0000a0 75 70 49 bd c3 32 1b be 02 ed 1b bd ea 5b 8b be
       -0.049179513 -0.15156083 -0.038067825 -0.27218562
0000b0 58 ce d9 3d 23 1a e8 3d ec 02 3d be 45 6f 6b bc
       0.1063506 0.1133311 -0.18458146 -0.01436979
0000c0 c6 fc 4b be dd b2 f1 3d c2 66 59 3d 48 a9 16 bd
       -0.19920644 0.118016936 0.053076513 -0.036782533
0000d0 c1 11 12 bd da ee c5 bc c5 47 27 be 17 00 d8 bd
       -0.035661463 -0.024161745 -0.16335972 -0.10546892
0000e0 cf c4 52 be 16 b8 3b bc 3f a7 ff 3b 13 ea 1f 3d
       -0.20582889 -0.011457464 0.0078019197 0.03904159
0000f0 04 58 b5 be 0d 5b 0b bd 33 86 a4 3b 13 8a 70 bd
       -0.35418713 -0.03402238 0.0050208806 -0.058725428
000100 45 2a c1 bd 6b d0 03 3c 58 22 6a be 7e d1 50 bb
       -0.094318904 0.008045296 -0.22864664 -0.0031863148
000110 b5 56 56 3d 33 b8 b2 bd 62 c6 15 bd 52 b6 42 be
       0.052328784 -0.087265395 -0.036566146 -0.19014862
000120 23 5d c7 bc 73 2c 05 3d ed 51 8a be ff 40 c5 bd
       -0.024336403 0.032513093 -0.2701563 -0.09631538
000130 f6 48 70 3d c2 68 08 be 1b e3 c0 3d 40 12 f7 bd
       0.05866333 -0.13321212 0.09418317 -0.12064028
000140 6b d5 3d 3c a7 2b a8 bc 7e de 26 bd 16 6a d3 bc
       0.011586527 -0.020528628 -0.04073953 -0.025807422
000150 f3 cd f1 bd cb ba 9b bd 6c ff 5d bd 1a e7 61 be
       -0.1180686 -0.07603987 -0.054198667 -0.22060814
000160 d9 c6 0f bd 27 d9 dc bc 6d bc 87 bd 56 ee c7 3d
       -0.035101745 -0.026959015 -0.06627736 0.09762256
000170 31 93 07 bd 92 33 2d 3d a8 84 19 bd a8 24 66 be
       -0.033099357 0.04228551 -0.037480026 -0.22474921
000180 49 cc cd bc e4 9e 23 3a f2 ee cb bc 05 57 b7 bd
       -0.025121825 0.0006241633 -0.024894211 -0.089521445
000190 0c 27 71 3d 90 09 82 bd e9 63 64 3d b7 3f 97 bc
       0.05887513 -0.0634948 0.055759344 -0.018462999
0001a0 fe a4 26 be 24 ae 34 be a9 22 b9 bd 62 b7 3e bd
       -0.16273877 -0.17644554 -0.09039814 -0.046561606
0001b0 2a bf 94 bd bb bb 68 3d 44 46 10 bf 59 be d0 bd
       -0.07263024 0.05681966 -0.56357217 -0.10192556
0001c0 3c 99 13 3d 1b fb 8f bd f9 47 20 bd 72 79 50 3d
       0.036034808 -0.070303164 -0.03913114 0.05089707
0001d0 ac 08 ca ba d8 d9 38 be 0f 33 d3 3c e0 5f a2 3c
       -0.0015413961 -0.18051851 0.025781183 0.019821107
0001e0 e5 f5 fb bc 6d 50 94 bd 61 38 92 bd 84 9c 6a bc
       -0.0307569 -0.072419025 -0.0713966 -0.014319543
0001f0 5c 50 78 be 49 be 39 3b 59 44 20 be a6 8f 5f 3c
       -0.24249405 0.0028342179 -0.15651073 0.013645088
000200 d2 16 93 3c 2a c9 6e 3d cb 84 8f be 15 3c 07 39
       0.017955218 0.058297314 -0.28031 0.00012896986
000210 ec 4a 22 be d3 8e 03 bc e0 0b 39 3d 56 1a d7 be
       -0.15848893 -0.008029657 0.04517734 -0.4201228
000220 b4 60 8e bc f8 e9 25 be 91 03 0b be 55 c8 98 be
       -0.017380096 -0.16202533 -0.13575579 -0.2984034
000230 2d f0 a4 bd 2d 8b 40 3d 95 a7 36 3f 87 41 0c 3b
       -0.080536224 0.04700773 0.7134946 0.0021401362
000240 19 8c f7 be 03 cd ea bb 69 09 e8 bd c7 29 09 be
       -0.48349074 -0.0071655526 -0.1132992 -0.13394843
000250 75 bc f5 3d eb 55 1c bc 98 26 23 bf fa 2d 23 bd
       0.11998836 -0.009541969 -0.63730764 -0.03983877
000260 a9 1f 83 3d 98 e2 ec be d5 79 a5 bd 5f 1c 68 3d
       0.06402523 -0.46266627 -0.08079878 0.05666768
000270 23 01 c0 be 2d 51 e8 bd 16 be 8e bf 0b 8e 9b be
       -0.37500867 -0.11343608 -1.115176 -0.30381808
000280 06 8e 4f bd d4 d5 49 3d 54 c7 d5 3b 22 d8 0d be
       -0.050672553 0.049276188 0.006524006 -0.1385198
000290 6f 6c cb 3d 6b 3b 05 3d 64 d6 9a bd ea 41 b0 bd
       0.099327914 0.03252737 -0.07560423 -0.08606322
0002a0 28 0f e4 bd c8 67 0d be d0 ec 09 bf cc fb 40 be
       -0.11135703 -0.1380912 -0.5387697 -0.18846053
0002b0 a6 ef 45 be 22 13 e3 3d c2 05 14 be 54 b2 74 bd
       -0.193297 0.11087634 -0.14455321 -0.05974038
0002c0 c5 d4 0d be cd e6 99 3d 3d da b5 bb 3c 7d 6f 3c
       -0.13850696 0.07514725 -0.0055496977 0.014617261
0002d0 45 4c 78 bf 10 50 c1 be ca ca 19 bc 94 15 be bd
       -0.9699138 -0.37756395 -0.009386728 -0.092814595
0002e0 a7 8a 17 bf fe 80 7d 3d d2 46 8e 3e 6a c5 88 bd
       -0.5919594 0.061890595 0.27788407 -0.06678279
0002f0 ce 1d bd bd 87 f5 a7 bc e9 dc 66 3d a7 32 36 3c
       -0.092342004 -0.020502819 0.05636302 0.011120475
000300 98 87 27 3c b1 93 4e 3d ae 91 d5 bd e5 c4 41 3f
       0.010225199 0.05043382 -0.10428177 0.7569106
000310 cd 03 c3 be fa 2c 28 3d c1 33 52 bd 8c d1 25 bc
       -0.38088837 0.041058518 -0.051318888 -0.010120761
000320 11 41 84 bd aa 9b ab bc 25 cb 44 bd 91 a8 3d bc
       -0.06457723 -0.02094825 -0.048045296 -0.011575834
000330 89 3d a3 3c ca 60 69 bc 24 a8 8d 3d ab 7d 4c 3d
       0.019926803 -0.014244268 0.06916836 0.049924534
000340 ef 45 5e be 46 2d f9 bd 6a ac ca be dc b4 83 bd
       -0.21706365 -0.12166838 -0.39584666 -0.064309806
000350 ce c3 62 bd f4 cb 19 3e 10 64 c9 bd 6e cf b0 3c
       -0.055362515 0.15019208 -0.098335385 0.021583285
000360 d7 c1 8a bf 95 47 6e be 97 8f d6 3c 52 98 15 bd
       -1.0840405 -0.23269494 0.026191516 -0.036522217
000370 8a 4c f4 be 78 76 18 3d 35 20 b9 3d 4f 74 81 be
       -0.47714645 0.037222356 0.09039346 -0.2528405
000380 e8 01 96 3c 4f 20 4c 3d 0d e5 32 bd fc 22 81 bd
       0.018311456 0.0498355 -0.04367547 -0.06305501
000390 12 9e 1c bd 08 22 46 be 38 18 ef 3c f2 b2 d2 3b
       -0.038236685 -0.1934892 0.029186353 0.0064300233
0003a0 ff 16 95 be e5 97 3a be 90 64 6e 3d 19 56 8c bd
       -0.29119107 -0.18222006 0.058201373 -0.06852359
0003b0 56 93 81 bd 35 89 7d 3d c1 a9 81 bd 64 47 36 bf
       -0.0632693 0.06189843 -0.06331206 -0.71202683
0003c0 63 b3 2e bd 90 80 6a be 15 e0 8e be 81 d4 0a bc
       -0.042651545 -0.22900605 -0.27905336 -0.008473516
0003d0 42 ff cb 3c f3 98 ba bd d6 cd dc bd d8 95 43 bd
       0.02490199 -0.09111204 -0.107814476 -0.047750324
0003e0 11 28 64 bc e7 fe 95 bd 80 32 32 be e0 c4 56 bd
       -0.013925568 -0.073240094 -0.17402077 -0.05243385
0003f0 de 43 e3 be 70 52 78 bd a1 12 a0 3d 58 e9 8b 3d
       -0.44387716 -0.060625494 0.07816053 0.06831616

fc3.bias f4 [64]
000000 90 84 9b be fe 10 5f 3f 2d 64 45 3c cf 5a 74 be
       -0.30374575 0.87135303 0.01204781 -0.23862766
000010 b4 e4 f6 bd 49 ff d2 be b9 ee 90 be 60 0d 96 be
       -0.120553404 -0.41210392 -0.2830713 -0.2930708
000020 13 28 66 be 5e b8 2c be b2 fd 04 3f fd 23 91 be
       -0.22476225 -0.16867206 0.5194961 -0.2834777
000030 f3 9b be 3f 1b 07 d5 bf 98 a4 f8 3e 93 d5 7e 3d
       1.4891342 -1.6642793 0.48563075 0.0622154
000040 8b 90 56 3e 7c ac 5c 3f ff fb e2 3e 70 ef df 3d
       0.20953576 0.8620069 0.44332883 0.10934341
000050 33 20 0f be 23 31 39 3f e7 f4 1a 3f 0e 2d 30 bf
       -0.13977127 0.723406 0.6052994 -0.6881875
000060 36 22 b7 be 99 b8 72 bf d6 f8 54 be 21 92 62 3e
       -0.35768288 -0.94812924 -0.20798048 0.22126056
000070 6c 00 4a bf 02 0b e6 bf e8 80 12 c0 4d d7 05 be
       -0.78906894 -1.7972109 -2.2891178 -0.13070412
000080 36 7f 58 3e 2e 28 0f bf ca 5a 4e 3d 03 83 c1 be
       0.21142277 -0.55920684 0.050379552 -0.37795267
000090 a1 3b d5 3e 5d e1 29 bd e0 c0 fa 3f 01 22 56 3d
       0.41647056 -0.04147469 1.9590111 0.052278522
0000a0 fb 85 88 3e 87 82 24 3e 20 f8 e1 bd f1 2d 81 3f
       0.2666472 0.16065417 -0.11033654 1.0092145
0000b0 1f dc 45 bd 82 36 1f c0 d5 e9 0d bf 77 c8 0f c0
       -0.048305627 -2.487702 -0.55434924 -2.2466104
0000c0 45 85 8b 3e 8d 55 25 bf 3c a6 c5 3f 71 30 cc 3e
       0.27250114 -0.64583665 1.5441356 0.39880708
0000d0 fe 2e bc bf cf d9 a0 3f 4e 70 06 c0 bc 5a c5 3e
       -1.4701841 1.256647 -2.1006045 0.38545787
0000e0 28 a8 9b be a0 62 18 3f 2d bd ed bf 56 72 81 bf
       -0.3040173 0.5952549 -1.8573357 -1.0113018
0000f0 4e 6b bf bf 77 01 fe be 07 2f 16 bf 7b 35 11 be
       -1.4954622 -0.49610493 -0.5866551 -0.14180557

fc4.weight f4 [6, 64]
000000 03 24 97 3d d5 87 0c 3d 69 98 b7 3d ae d2 4e bb
       0.073799156 0.034309227 0.08964617 -0.003155868
000010 e8 b4 66 3d b2 25 a1 3c 52 66 4c bc 8d c9 44 3d
       0.05632487 0.019671295 -0.012475567 0.048043776
000020 1d 86 40 3d 34 88 b6 bc 4f 92 2d 3c 49 50 1d 3d
       0.0470029 -0.022281744 0.010593965 0.038406644
000030 9a 73 9d 3c 28 42 ef 3c 76 0a 1d 3d 2e f9 1c bc
       0.019220162 0.02920635 0.038340054 -0.009580893
000040 17 7b 7b 3c 99 ff e2 3c 24 ef d1 3d f3 8e f6 3d
       0.015349171 0.02770977 0.102506906 0.12038984
000050 2d 4c 9d bd 63 d0 d7 3c 5c 13 ac 3c 79 d7 dd bc
       -0.07680545 0.026344484 0.021005325 -0.027080284
000060 10 f1 c6 bd 57 f6 4f 3d 9c 02 96 3d b2 70 b3 bc
       -0.09713948 0.050772037 0.073247164 -0.021904323
000070 b7 8c e2 3c 4c 23 2e bd f3 65 28 bd 0d e9 d5 3b
       0.027654989 -0.04251413 -0.04111285 0.006528026
000080 53 6b c0 3b c7 2a 96 3b 2b 45 84 3c 69 31 68 bc
       0.005872169 0.004582736 0.016146263 -0.014171937
000090 47 9d 2b bd c3 84 55 3d d6 a5 09 3d f5 cf f0 3c
       -0.04189804 0.052128565 0.03360542 0.029396037
0000a0 5f ad 5e 3d 9f 58 62 3d b9 80 f4 3d cf 79 08 3e
       0.05436456 0.055260297 0.119386144 0.13327716
0000b0 53 3d 00 3c 64 84 e3 bc b2 23 14 3d b3 d5 9f bc
       0.007827121 -0.02777309 0.036166854 -0.01951108
0000c0 47 b9 5d bc 62 0f 91 bc 02 9a 70 3d f2 95 86 3c
       -0.013532943 -0.01770753 0.058740623 0.016428921
0000d0 3e 69 e9 bb 7a 45 9c bc 52 d5 8a bc f8 82 67 3c
       -0.0071231415 -0.019076098 -0.016947422 0.0141303465
0000e0 9b 6e 9f 3d 69 e4 ec 3c c1 7f 44 bd 31 f4 01 3e
       0.07784768 0.028917508 -0.047973398 0.12690808
0000f0 1e a0 8e bc 65 28 25 3e 5c 3c 80 3d 5b 63 6a bc
       -0.017410334 0.1612869 0.06261513 -0.014305915
000100 b2 7c d6 3c 72 0e 14 3d 76 04 a0 3d 42 87 13 3c
       0.026182506 0.03614659 0.07813351 0.009004416
000110 4b 8d 42 3d 82 67 9d 3c 8e fc c3 3d 52 90 4c 3d
       0.04749803 0.019214395 0.09569655 0.049942322
000120 4e 6e 38 3d 63 68 e0 bc 4a c1 bd 3b 82 12 dd 3c
       0.04502707 -0.027393525 0.005790864 0.026986364
000130 18 c8 9c 3c 93 0f 0d 3d a8 e3 55 3d a3 90 db 3c
       0.01913838 0.03443868 0.052219063 0.026802367
000140 c1 e5 5e 3c 6c f3 0f 3d ba 2c ee 3d 10 09 03 3e
       0.013604582 0.035144255 0.11629625 0.12796426
000150 ee 23 19 bd 11 64 f9 3c ec 18 ae 3c ba 5e 38 bd
       -0.03738778 0.030443223 0.021252118 -0.045012213
000160 c0 c5 08 bd be 9b 40 3d 1e a6 18 3d ef 45 ba bc
       -0.033391714 0.047023527 0.037267797 -0.022738425
000170 48 0b e0 3c ff fa b0 bc cf 9a 1d bd 20 0a cc 3b
       0.02734913 -0.02160406 -0.038477715 0.006226793
000180 60 96 2b 3c 76 c1 b7 3c 27 3b 08 39 cd 01 8c bc
       0.010472864 0.022431117 0.00012992007 -0.017090702
000190 85 be 5e bd 75 bd 55 3d 3c ed 0f 3d f8 25 ec 3c
       -0.054380912 0.052182633 0.035138354 0.028826699
0001a0 c0 61 4e 3d 25 bd 82 3d 8e 13 d2 3d 54 d4 07 3e
       0.05038619 0.06383733 0.10257636 0.1326459
0001b0 a2 74 1f 3b 6e e2 ec bc 1f ef 00 3d ef 78 d7 bc
       0.0024330993 -0.028916564 0.031478044 -0.026302783
0001c0 eb a5 63 bc 15 d3 c1 bc 0e ff 77 3d f7 db f5 bc
       -0.013894538 -0.023660222 0.060545973 -0.030012114
0001d0 62 78 a1 bc 59 cf 8c bc 42 42 96 bc 40 4a 86 3c
       -0.019710723 -0.017188715 -0.018342141 0.016392827
0001e0 66 c1 93 3d 7d b9 a4 3c 16 0e 4e bd b1 9f c7 3d
       0.07214622 0.020107979 -0.050306402 0.097472556
0001f0 3c 17 90 bc b9 41 11 3e 1f d6 70 3d d8 73 7c bc
       -0.017589204 0.14185227 0.05879795 -0.015408479
000200 19 49 4f 3d 38 96 10 3d b3 e2 a8 3d 18 c4 31 3c
       0.05060682 0.03529951 0.082463644 0.010849975
000210 00 fb 44 3d a7 86 5a 3c f6 8d 33 3d 49 8b 33 3d
       0.048090935 0.013337768 0.043836556 0.043834005
000220 f6 7e f8 3c 64 88 23 bd 28 18 8d 3c a7 22 05 3d
       0.030333977 -0.039924994 0.017223433 0.03250375
000230 d8 f8 99 3c e4 ba fa 3c cd b4 1a 3d 41 8a c7 3c
       0.018795416 0.030606695 0.03777008 0.024357917
000240 e1 11 10 bc c4 1c 30 3d 73 cc a8 3d fd a3 b5 3d
       -0.008793325 0.042996183 0.082421206 0.08869169
000250 6a 09 9e bd 45 29 0c 3d 69 7f c2 3c 06 12 f4 bc
       -0.07716639 0.034219045 0.023742395 -0.02979375
000260 89 4a 12 bd fc 64 3f 3d a3 c2 97 3d 5a 06 fa bc
       -0.035715614 0.046727166 0.07410171 -0.030520607
000270 a9 cc bb 3c a2 58 35 bd 07 95 24 bd 6c 3b 0a bd
       0.022924738 -0.04427398 -0.040181186 -0.033748075
000280 d1 33 70 3c 61 b0 81 3c 43 f3 58 3c 8d 07 3e bd
       0.0146607915 0.015831174 0.013241592 -0.04639392
000290 ef 81 2e bd a3 f3 10 3d 00 e5 0f 3d 62 ce f3 3c
       -0.042604383 0.0353886 0.0351305 0.029761497
0002a0 dd a0 e8 3c 7e 67 57 3d ab 5b 00 3e c2 36 0d 3e
       0.028397018 0.052588932 0.12534969 0.1379042
0002b0 2f 20 f1 ba 80 f2 ec bc 48 48 63 3c 8b e8 c0 bc
       -0.0018396432 -0.028924227 0.013872214 -0.023548385
0002c0 a1 58 5a bc 18 79 e6 bc 66 d3 71 3d 17 1c 04 3c
       -0.013326795 -0.028133914 0.059039496 0.008063338
0002d0 5e ea 80 3c 03 6f 80 bc 47 b9 88 bc 11 46 6f 3b
       0.015736755 -0.015677935 -0.01668991 0.0036510269
0002e0 1a 89 a6 3d cd 66 41 3c 9f be 4b bd e0 16 e5 3d
       0.08131619 0.011804295 -0.049742337 0.11186004
0002f0 f2 05 99 bc 19 52 0d 3e ac 55 02 3d 16 dd 82 bc
       -0.018679593 0.13800849 0.031819984 -0.015974563
000300 e2 2f 35 3d 69 15 06 3d ef 9b b3 3d b6 52 53 3b
       0.044235118 0.032735262 0.08769976 0.0032245344
000310 43 ca 69 3d 54 d7 17 3d 01 17 f7 bb 6a c6 80 3d
       0.057077657 0.037070587 -0.007540584 0.062878445
000320 eb c5 2c 3d 30 fa cc bc f3 21 80 3b 38 18 27 3d
       0.042180937 -0.025021642 0.003910297 0.04079458
000330 d8 07 9f 3c a7 63 05 3d e2 79 15 3d 18 eb ac bc
       0.01941292 0.03256574 0.03649319 -0.021108195
000340 91 12 8a 3c 9f 75 fc 3c 33 01 05 3e 83 b4 cd 3d
       0.016854556 0.030817805 0.12988739 0.100441955
000350 51 e9 41 bd 19 16 fa 3c 95 a3 97 3c b7 cf e8 bc
       -0.04734165 0.030528115 0.01851062 -0.028419359
000360 68 71 9d bd 50 7f 4f 3d 21 a0 a7 3d d5 11 9a bb
       -0.07687646 0.050658524 0.08184839 -0.004701833
000370 ff 76 16 3d 7f 13 30 bd 3e ef 1b bd 86 1f 45 3c
       0.036734577 -0.042987343 -0.038069956 0.012031442
000380 70 76 ae 3c 27 bf 6f 3c 16 f0 08 3c 9f 8c 90 3c
       0.02129671 0.014632977 0.008358022 0.017645178
000390 15 4e 32 bd dd 56 5b 3d d0 a1 0d 3d 03 2d 05 3d
       -0.043531496 0.053549636 0.034578145 0.03251363
0003a0 8f 99 49 3d 83 78 3e 3d 52 7c d2 3d f0 09 12 3e
       0.04921871 0.046501648 0.102776185 0.14261603
0003b0 54 67 52 bb aa 81 de bc 57 90 4c 3c b2 3e c1 bc
       -0.0032105045 -0.027161438 0.012485585 -0.023589466
0003c0 b6 5f 5e bc a1 f1 eb bc 8c 9b 75 3d ff ce db bc
       -0.013572624 -0.028801741 0.059962794 -0.026832102
0003d0 d8 6a e6 bc a8 e7 8b bc d0 33 98 bc 74 1f c7 3c
       -0.028127119 -0.017078236 -0.018579394 0.02430699
0003e0 60 5b 89 3d 9a 19 8f 3c 2d 93 4d bd 82 21 d7 3d
       0.067068815 0.017468262 -0.050189186 0.10504438
0003f0 3f 00 9e bc bb 2b 1d 3e 04 84 39 3d 16 9d c8 bc
       -0.019287227 0.15348713 0.045291916 -0.024488967

fc4.bias f4 [6]
000000 8c ef ce 3e 8f 3c cf 3e 29 84 ce 3e 9f 48 ce 3e
       0.40417135 0.4047589 0.40335205 0.4028978
000010 c7 ae ce 3e a9 cc cd 3e
       0.4036772 0.40195206
