checkpoints/2021_02_05-08_55_29/last/last_dqn-Pong-ram-v0.pt (torch, 301239 bytes, 8 tensors)

fc1.weight f4 [256, 128]
-0.04338984 0.0029278256 -0.04974133 0.033332445 -0.0810253 0.057442024 -0.06424421 -0.07024314
-0.04857849 0.016928941 -0.047635566 -0.08188799 -0.043427162 -0.10015674 -0.13853595 -0.02471791
-0.0747754 0.059719015 -0.021624103 0.029057425 0.05994299 0.020986035 0.024169859 0.077964336
-0.047211558 0.020645762 -0.046822213 0.055818602 0.06324475 -0.08884007 0.06810517 0.034858614
0.03116975 0.029039687 0.066129975 -0.019017825 -0.08209706 -0.03270998 -0.069596894 -0.0015039728
-0.023849845 -0.054761473 -0.015387772 0.07639035 -0.014320535 -0.0045425417 -0.02113236 0.006546447
0.07140773 0.06775893 0.035893288 0.026395673 0.013490708 0.02679668 0.018780813 -0.0821489
-0.05083974 0.07544703 -0.002426677 -0.078949034 0.0138450125 0.06568185 -0.09087789 -0.06685381
-0.060559712 -0.0037995148 -0.027962014 -0.017756678 -0.09351625 0.03286197 0.0702351 0.046168633
-0.069937825 -0.07859743 0.029356472 -0.005362084 0.028886085 -0.0863688 -0.0052699787 0.062335324
0.041004363 0.003227711 0.017378831 -0.008368615 -0.048598878 -0.03340189 -0.05382671 0.07341617
0.04863893 0.030911405 -0.06778082 0.06820238 0.027713522 0.061146583 -0.034771096 0.018738056
0.08630082 0.05945523 0.07088716 -0.018560207 0.06734107 -0.0692286 0.0076446165 -0.049767494
-0.020613506 -0.022636028 0.0066131353 0.080445744 0.043759648 -0.0003744326 0.06274208 -0.0452951
0.04555283 -0.008196487 -0.015380533 0.010347926 -0.06771402 0.01021392 0.029719522 0.075566
-0.0275191 0.013569167 0.08313076 -0.045265052 0.07667402 -0.051231064 0.031613566 0.027279088
0.016188957 0.06989778 0.02737302 0.023230141 -0.018294817 -0.07498158 -0.021461923 -0.046534892
0.0062485626 -0.010115261 -0.030493539 0.0753366 -0.064636186 -0.0034345526 -0.11822625 0.07734416
0.0048880414 -0.26622057 -0.12751599 -0.071950376 -0.04678736 -0.08217772 -0.05752994 -0.038520217
-0.001957927 0.052365612 0.025753997 0.059214875 -0.06399866 -0.0010411668 -0.08706815 0.042204775
0.009920603 0.07698922 -0.071363755 0.06237988 0.066118434 0.06296219 0.004112374 0.07186832
0.050529018 0.05744406 -0.014241559 -0.0763301 -0.009599942 0.008076115 -0.06870729 -0.05920274
-0.09324337 -0.06398209 0.061251763 -0.0062729223 -0.013898514 -0.0049503464 0.04579833 -0.07805253
-0.050337125 -0.029386511 -0.06131405 0.03708955 0.0941252 -0.09425755 -0.08351429 -0.094575524
0.007895029 0.06263838 -0.07703241 -0.043916482 0.0196266 -0.06542951 0.06658264 0.011291081
-0.033106286 -0.002759383 0.019056289 -0.039755594 -0.07698967 0.0005941125 0.0016099885 0.0017823691
-0.012898537 0.056751817 -0.02466558 -0.008555346 0.036344197 -0.055634923 0.023666741 -0.019544052
0.042397548 -0.04794753 0.0032666863 0.008646973 -0.071116954 -0.0642709 0.033898108 -0.025726004
0.052493542 -0.08731554 -0.04369289 -0.07280211 0.035308618 -0.0025624968 -0.016486319 -0.014705288
-0.06908865 0.02506649 0.0022031527 -0.06099794 0.033259448 -0.0017765212 -0.08548458 0.04754588
0.047277782 -0.016653262 -0.061026685 0.0035487963 0.06669606 0.08090537 -0.06671561 -0.039922275
0.068821326 0.0077657043 0.045956764 -0.052493576 0.06764826 -0.08116242 -0.01275771 -0.006665047
00000000: 8bb9 31bd c3e0 3f3b 91bd 4bbd 9a87 083d
00000010: 98f0 a5bd 5448 6b3d 7892 83bd a3db 8fbd
00000020: 3dfa 46bd 90ae 8a3c 831d 43bd e4b4 a7bd
00000030: aee0 31bd fa1e cdbd 5edc 0dbe 377d cabc
00000040: d823 99bd ed9b 743d 0825 b1bc d609 ee3c
00000050: c886 753d e8ea ab3c deff c53c c4ab 9f3d
00000060: e860 41bd 4d21 a93c a6c8 3fbd 0ca2 643d
00000070: 7786 813d c8f1 b5bd b97a 8b3d e8c7 0e3d
00000080: b457 ff3c a3e4 ed3c 276f 873d 45cb 9bbc
00000090: 8122 a8bd e6fa 05bd d188 8ebd f420 c5ba
000000a0: c060 c3bc 914d 60bd fe1c 7cbc 8b72 9c3d
000000b0: ada0 6abc 9ad9 94bb c51d adbc 9483 d63b
000000c0: 373e 923d 32c5 8a3d d704 133d bd3b d83c
000000d0: 2108 5d3c b684 db3c 38da 993c af3d a8bd
000000e0: 553d 50bd f983 9a3d e208 1fbb 08b0 a1bd
000000f0: 31d6 623c 3584 863d 301e babd a6ea 88bd
00000100: 760d 78bd 4801 79bb 9810 e5bc 7476 91bc
00000110: 7385 bfbd 469a 063d 6cd7 8f3d 521b 3d3d
00000120: 903b 8fbd b0f7 a0bd fc7c f03c 6cb4 afbb
00000130: 83a2 ec3c 20e2 b0bd c9af acbb 5353 7f3d
00000140: 31f4 273d 0188 533b 0d5e 8e3c 841c 09bc
00000150: 9e0f 47bd 6cd0 08bd 6579 5cbd 385b 963d
00000160: 9d39 473d ea39 fd3c acd0 8abd b0ad 8b3d
00000170: 7807 e33c d774 7a3d 236c 0ebd 8d80 993c
00000180: 7cbe b03d 5487 733d 4a2d 913d 930b 98bc
00000190: 1dea 893d b9c7 8dbd b17f fa3b 00d9 4bbd
000001a0: a8dd a8bc 316f b9bc 00b3 d83b bdc0 a43d
000001b0: 513d 333d 7e4f c4b9 eb7e 803d 5b87 39bd
000001c0: 9b95 3a3d 8f4a 06bc a2fe 7bbc 598a 293c
000001d0: a6ad 8abd 4958 273c 5b76 f33c 59c2 9a3d
000001e0: bc6f e1bc 3651 5e3c 7640 aa3d d967 39bd
000001f0: 4507 9d3d aad7 51bd 3a7d 013d 6578 df3c
00000200: b49e 843c 9126 8f3d 623d e03c 234d be3c
00000210: 03df 95bc f18f 99bd ead0 afbc 5f9b 3ebd
00000220: bec0 cc3b 7bba 25bc 96cd f9bc 134a 9a3d
00000230: fa5f 84bd 3b16 61bb 9b20 f2bd 9d66 9e3d
00000240: dd2b a03b 104e 88be 8d93 02be b85a 93bd
00000250: 1aa4 3fbd cb4c a8bd 84a4 6bbd 60c7 1dbd
00000260: 9050 00bb 537d 563d 0cfa d23c 4c8b 723d
00000270: bb11 83bd c377 88ba c950 b2bd eade 2c3d
00000280: 068a 223c 86ac 9d3d 2927 92bd 0c82 7f3d
00000290: 1a69 873d 52f2 803d 18c1 863b b32f 933d
000002a0: 84f7 4e3d 764a 6b3d 6e55 69bc f552 9cbd
000002b0: 1349 1dbc ae51 043c 68b6 8cbd 937e 72bd
000002c0: 61f6 bebd 0b09 83bd 21e3 7a3d 168d cdbb
000002d0: 98b6 63bc 8436 a2bb 0897 3b3d 01da 9fbd
000002e0: 4d2e 4ebd fbbb f0bc 7124 7bbd 36eb 173d
000002f0: b6c4 c03d 1a0a c1bd 8a09 abbd d0b0 c1bd
00000300: 275a 013c 8d48 803d 2bc3 9dbd c5e1 33bd
00000310: f7c7 a03c e8ff 85bd 7b5c 883d 3afe 383c
00000320: 759a 07bd c4d6 34bb ef1b 9c3c c3d6 22bd
00000330: c3ac 9dbd 37be 1b3a 4006 d33a 629e e93a
00000340: 6354 53bc 9874 683d 780f cabc b92b 0cbc
00000350: a7dd 143d 72e1 63bd c1e0 c13c d91a a0bc
00000360: 0da9 2d3d a164 44bd e715 563b 09ac 0d3c
00000370: c4a5 91bd 76a0 83bd bed8 0a3d 57bf d2bc
00000380: 7803 573d 7dd2 b2bd 51f7 32bd 4619 95bd
00000390: c59f 103d 90ef 27bb 510e 87bc 73ee 70bc
000003a0: 5a7e 8dbd 3d58 cd3c c562 103b fad8 79bd
000003b0: 0f3b 083d 29da e8ba 8a12 afbd 78bf 423d
000003c0: 59a6 413d 6c6c 88bc 1ef7 79bd ec92 683b
000003d0: f297 883d b7b1 a53d 32a2 88bd 8a85 23bd
000003e0: 32f2 8c3d 7377 fe3b 293d 3c3d 8103 57bd
000003f0: 2c8b 8a3d 7c38 a6bd b705 51bc 7766 dabb

fc1.bias f4 [256]
0.04281109 -0.053217232 -0.09309745 -0.030589713 0.043029007 -0.041700576 -0.0052077817 -0.012531683
-0.04135582 -0.0684123 -0.0386919 -0.027223876 -0.049018715 0.002602563 0.066177495 -0.06013959
-0.0057045105 -0.06699415 0.031188032 0.06803138 -0.023345236 0.0010640718 -0.04543716 -0.061071794
0.04159643 -0.010227596 0.06979071 -0.062258538 0.06907821 0.0645018 0.070847616 0.007144694
-0.05836512 0.010896316 0.027032135 -0.0177956 -0.08521848 -0.0428795 -0.0324783 0.035773125
-0.032926057 -0.08036997 0.046663694 0.06904741 0.04098768 0.017171575 -0.072970055 -0.07130461
-0.07396852 0.054941755 0.07776123 0.0436605 -0.08855591 -0.026120886 0.031969152 0.08055237
-0.012863806 -0.059834186 -0.0823441 0.041308396 0.012307585 -0.04547449 0.053202134 -0.10259061
0.055959664 -0.0048882514 -0.04640172 -0.068630524 -0.046126727 0.043228064 -0.027402386 0.06798438
-0.034597177 -0.029454324 -0.07803135 0.058582895 -0.0015680862 0.01822712 -0.059134327 0.042292897
0.07732521 -0.025654629 0.032721344 0.042989906 -0.020936657 0.023809735 -0.03869275 -0.019999817
-0.028435947 -0.07848662 0.01883572 -0.0694091 -0.0021260497 0.021415764 -0.02473989 -0.034096472
-0.044130042 0.071731396 -0.07027873 0.023512417 -0.064388745 0.04701897 -0.03938986 -0.03391694
-0.0069061834 0.0568226 0.009763549 -0.07925622 0.0013143705 -0.077420056 0.08330201 -0.059267696
0.05323014 -0.053184234 -0.017324705 0.030314095 -0.031019133 0.03741443 0.054514613 -0.012677581
0.073201686 -0.07955767 -0.050259817 0.037418056 0.0022843427 -0.08621087 0.042561278 -0.0025267848
-0.06957933 -0.07299755 -0.09570581 0.08140375 0.02275631 -0.087751 -0.052654468 -0.08554397
-0.050812706 -0.026105937 0.0577504 -0.057194486 -0.025218897 -0.07057216 0.017693436 -0.004503029
0.011869617 0.032487117 0.009927039 -0.09851469 -0.004453194 0.08431042 0.01933395 -0.10065393
0.0031337524 0.066534154 0.020642277 -0.021493671 0.056590308 -0.0612094 0.066434525 0.07593977
-0.055385593 0.038994662 0.013321789 -0.06903117 -0.011071228 -0.029918943 0.0052312985 0.045910496
-0.056985524 0.030440332 -0.06450373 0.0732798 0.07502915 -0.06324574 0.022953039 -0.044458833
-0.03060212 0.07904371 0.0006723228 -0.027752697 0.056149177 0.051456384 -0.013114205 0.013074833
-0.076830335 -0.02333509 -0.06061234 -0.07883488 -0.034431163 -5.0796157e-06 0.055655308 0.074970916
0.06282005 -0.04712531 -0.01894303 -0.04558108 -0.0075317305 -0.0721204 0.017283816 0.039850995
-0.0606732 0.04756737 0.055281352 -0.008620919 -0.08602813 -0.060158037 0.07885922 -0.031086978
-0.038337912 -0.059713222 -0.007951405 0.0015600817 0.03240936 0.077339046 -0.030922243 -0.037022762
-0.0867972 -0.0570459 0.027067216 -0.040480383 0.0045021893 -0.03295108 -0.03369287 0.07169592
-0.09625355 0.0098438235 0.011523791 -0.072420165 -0.044619847 0.02917433 -0.05157814 0.05528428
-0.0913939 -0.0334044 0.026463289 -0.09025555 0.032646384 -0.08026197 -0.024940195 0.03175585
0.016513683 0.014676212 -0.061408326 -0.023403207 0.05727966 -0.07753892 -0.08241649 -0.020193093
-0.02951608 -0.065098606 -0.041425705 0.04406609 -0.07950278 0.075261004 0.042748228 0.07042036
00000000: ae5a 2f3d 50fa 59bd e0a9 bebd 4797 fabc
00000010: 2f3f 303d 39ce 2abd 0aa6 aabb b051 4dbc
00000020: b864 29bd bf1b 8cbd 667b 1ebd 9b04 dfbc
00000030: d9c7 48bd c38f 2a3b 1188 873d ee54 76bd
00000040: e7ec babb 3b34 89bd 0b7e ff3c 0954 8b3d
00000050: 823e bfbc 5378 8b3a 511c 3abd 6b26 7abd
00000060: 0561 2a3d a691 27bc 6fee 8e3d cf02 7fbd
00000070: e078 8d3d 8519 843d 8e18 913d 0a1e ea3b
00000080: 4410 6fbd 7686 323c 7f72 dd3c 14c8 91bc
00000090: 0787 aebd 6aa2 2fbd f707 05bd d786 123d
000000a0: 79dd 06bd 0399 a4bd 6e22 3f3d ba68 8d3d
000000b0: b3e2 273d 67ab 8c3c 5371 95bd 2708 92bd
000000c0: cf7c 97bd 9b0a 613d 4841 9f3d 5ad5 323d
000000d0: cd5c b5bd 78fb d5bc 16f2 023d a4f8 a43d
000000e0: b7c2 52bc b114 75bd 06a4 a8bd fe32 293d
000000f0: c1a5 493c 7543 3abd 7bea 593d 071b d2bd
00000100: f635 653d a02d a0bb bb0f 3ebd 298e 8cbd
00000110: 61ef 3cbd e90f 313d f87a e0bc 653b 8b3d
00000120: c5b5 0dbd 324a f1bc e7ce 9fbd 9ef4 6f3d
00000130: 3e88 cdba 0b51 953c d636 72bd 513b 2d3d
00000140: ae5c 9e3d a829 d2bc d106 063d 2f16 303d
00000150: 5a83 abbc a20c c33c 4a7c 1ebd a8d6 a3bc
00000160: 81f2 e8bc 98bd a0bd 5e4d 9a3c 5c26 8ebd
00000170: 3255 0bbb 1d70 af3c 4fab cabc bea8 0bbd
00000180: b4c1 34bd e9e7 923d 4bee 8fbd 1d9d c03c
00000190: 3fde 83bd f796 403d 4357 21bd 7dec 0abd
000001a0: 444d e2bb d1be 683d 4bf7 1f3c 1651 a2bd
000001b0: f546 ac3a 688e 9ebd 3f9a aa3d afc2 72bd
000001c0: d907 5a3d b6d7 59bd 8aec 8dbc 4455 f83c
000001d0: d61b febc e03f 193d b74a 5f3d a1b5 4fbc
000001e0: c4ea 953d 22ef a2bd 3ddd 4dbd ad43 193d
000001f0: e9b4 153b 538f b0bd bc54 2e3d 6a98 25bb
00000200: 9c7f 8ebd bd7f 95bd 6801 c4bd 02b7 a63d
00000210: 716b ba3c ccb6 b3bd 36ac 57bd ad31 afbd
00000220: fc20 50bd 1edc d5bc af8b 6c3d c444 6abd
00000230: dc97 cebc 2388 90bd d3f1 903c 258e 93bb
00000240: c878 423c 3611 053d 05a5 223c 12c2 c9bd
00000250: 19ec 91bb f1aa ac3d 3b62 9e3c a623 cebd
00000260: a45f 4d3b 0f43 883d fe19 a93c 7f13 b0bc
00000270: 3dcb 673d b5b6 7abd d30e 883d 4f86 9b3d
00000280: 01dc 62bd deb8 1f3d a243 5a3c 3760 8dbd
00000290: 1964 35bc 9218 f5bc 506b ab3b a50c 3c3d
000002a0: a769 69bd 015e f93c 881a 84bd b813 963d
000002b0: e2a8 993d fc86 81bd 0308 bc3c 771a 36bd
000002c0: 4cb1 fabc abe1 a13d d23e 303a a059 e3bc
000002d0: aefc 653d eec3 523d f6dc 56bc d337 563c
000002e0: 3959 9dbd 3b29 bfbc a544 78bd 2e74 a1bd
000002f0: b107 0dbd 9171 aab6 d2f6 633d 5a8a 993d
00000300: cca7 803d 7806 41bd 6a2e 9bbc 3ab3 3abd
00000310: bccc f6bb dcb3 93bd ca96 8d3c cc3a 233d
00000320: 7684 78bd 01d6 423d b36e 623d c13e 0dbc
00000330: 842f b0bd 4668 76bd f180 a13d 1eaa febc
00000340: 3708 1dbd da95 74bd 9c46 02bc a87b cc3a
00000350: adbf 043d ef63 9e3d a550 fdbc 2ea5 17bd
00000360: bbc2 b1bd f6a8 69bd 11bc dd3c c2ce 25bd
00000370: 1a87 933b b6f7 06bd 8901 0abd 4fd5 923d
00000380: 9520 c5bd fd47 213c 48ce 3c3c 0651 94bd
00000390: 4dc3 36bd 01ff ee3c 9a43 53bd c571 623d
000003a0: ba2c bbbd 0dd3 08bd 8ac9 d83c e7d7 b8bd
000003b0: 37b8 053d 6360 a4bd 614f ccbc 6c12 023d
000003c0: b447 873c 7f74 703c 4c87 7bbd 15b8 bfbc
000003d0: 149e 6a3d bacc 9ebd fac9 a8bd fc6b a5bc
000003e0: b5cb f1bc 6b52 85bd 00ae 29bd a57e 343d
000003f0: 5bd2 a2bd 7122 9a3d c418 2f3d 8d38 903d

fc2.weight f4 [128, 256]
0.02558339 -0.0088786315 -0.038030427 0.009470342 0.056971885 -0.0049813557 0.02114249 -0.023657462
-0.0425936 0.053477407 -0.009161104 0.008980616 0.0024674388 0.016049726 0.0366459 0.0608219
0.04909499 0.02584761 -0.05098622 0.010502987 0.032492496 -0.03311038 0.045051858 0.028787836
0.02934084 -0.05839386 -0.003053978 -0.015758209 -0.045855142 0.00789196 0.006148182 0.04843568
-0.009663023 0.012604187 -0.04851765 0.0515083 -0.024771955 0.012661595 -0.021163642 -0.0076351105
0.024709543 0.00060187286 0.056565218 0.03784074 -0.0025253159 -0.05705499 -0.00668892 -0.04106162
-0.024819057 0.018579734 -0.020873269 0.04121252 -0.04386158 -0.01711823 0.019133907 -0.062129535
-0.012759179 -0.059356444 0.0007688118 0.037251357 -0.030478016 -0.045120217 0.03709699 -0.03391388
0.056951493 0.050639316 -0.012258791 -0.046549376 -0.076661356 -0.030813158 0.0064293453 0.01035805
0.029098602 -0.018386047 -0.070913725 -0.023786724 0.03486976 0.028153345 0.04512718 -0.017572977
-0.050944544 -0.0492565 -0.050618302 0.02346716 0.01701498 -0.06380014 -0.06830899 -0.0050672963
-0.05998726 -0.020585306 0.012945969 -0.022974256 -0.06395895 0.020374455 0.021685384 -0.052486032
0.0039576725 0.06024045 -0.047048956 -0.06269073 0.040348448 0.050938897 -0.036449626 -0.04995948
-0.0026789305 0.05986844 -0.050464302 -0.07152014 -0.024266511 0.020525461 -0.006877236 -0.06288304
0.014287926 -0.0045647994 0.00014993548 0.0019912745 -0.03972823 -0.031559274 -0.007096842 0.009398918
-0.026876986 -0.049000386 -0.047280647 -0.020572424 -0.008330152 -0.03027685 0.028060898 0.023939133
0.03888616 -0.06940564 0.022454578 -0.05612069 0.052861392 -0.0015194714 -0.010436263 -0.062170006
-0.033316202 -0.027091734 0.014494576 -0.045649044 0.022985397 0.014478992 0.015778517 -0.052944887
0.051433735 -0.020367078 -0.051731747 -0.009258644 -0.0010412997 0.047808096 -0.043241598 -0.014256964
-0.032452162 -0.050543964 -0.046993617 0.021603353 0.029275615 -0.058215395 -0.038574826 -0.06478532
0.029612064 -0.022945903 -0.022733094 0.029034572 -0.04802374 -0.031543445 0.056500338 -0.010228769
-0.011695919 0.021194823 -0.009338122 0.050707534 -0.051202457 -0.017055456 0.024603406 -0.055735856
-0.043153882 0.03714911 -0.022669138 0.030600326 0.038575083 -0.025198273 0.051272083 -0.00860238
0.0023928995 -0.05446501 -0.010653133 0.037336327 0.045499034 -0.059288386 0.045685954 0.0300887
-0.0225238 -0.00057008374 0.026136838 0.048019186 -0.0023700967 0.054642327 -0.0069990717 -0.013107017
0.031088239 -0.06653623 0.0142700095 -0.078007266 -0.0630068 0.042087372 -0.05761074 -0.028786302
0.034650855 -0.032031447 -0.00895053 -0.031327475 0.042931326 0.060512975 0.05103636 0.01269633
-0.059119336 -0.014230199 0.015077026 0.03511052 -0.025723062 -0.0070041493 0.030183792 0.019824743
-0.015770126 0.0093664825 -0.04837715 -0.03307323 -0.021045998 -0.034496617 0.031444393 -0.04211915
-0.05283133 -0.016897978 -0.062467106 -0.054479823 -0.010347053 -0.008899502 -0.0021208744 0.05657568
-0.062115356 0.04017914 -0.05389344 -0.04423581 -0.012229785 0.028275732 0.020746589 0.055009983
0.050263636 -0.04036136 0.05613163 0.017399624 0.035945844 0.060884602 -0.003601161 -0.029520683
00000000: 4294 d13c ae77 11bc cbc5 1bbd 7e29 1b3c
00000010: 5a5b 693d a43a a3bb 0433 ad3c 4bcd c1bc
00000020: a076 2ebd 200b 5b3d 7518 16bc 6f23 133c
00000030: c1b4 213b b77a 833c 031a 163d 6220 793d
00000040: d417 493d 5ebe d33c edd6 50bd b814 2c3c
00000050: da16 053d c09e 07bd 4c88 383d 78d4 eb3c
00000060: 345c f03c 662e 6fbd 4025 48bb 5c17 81bc
00000070: 9ad2 3bbd 484d 013c b076 c93b 7e64 463d
00000080: a851 1ebc cb81 4e3c 72ba 46bd 5efa 523d
00000090: 8eee cabc 9472 4f3c 605f adbc f32f fabb
000000a0: ab6b ca3c 01c7 1d3a eeb0 673d e4fe 1a3d
000000b0: c57f 25bb 7eb2 69bd ba2e dbbb 3b30 28bd
000000c0: 5651 cbbc 8734 983c 6bfe aabc 76ce 283d
000000d0: 33a8 33bd 883b 8cbc b6be 9c3c 8a7b 7ebd
000000e0: e00b 51bc be1f 73bd 168a 493a e194 183d
000000f0: 08ad f9bc facf 38bd 03f3 173d 48e9 0abd
00000100: f845 693d 2c6b 4f3d 19d9 48bc 8faa 3ebd
00000110: a100 9dbd e06b fcbc 42ad d23b d0b4 293c
00000120: 3160 ee3c 569e 96bc 373b 91bd 60dc c2bc
00000130: 98d3 0e3d d8a1 e63c 47d7 383d 34f5 8fbc
00000140: 3aab 50bd 2fc1 49bd 2355 4fbd 343e c03c
00000150: 0063 8b3c a6a9 82bd 95e5 8bbd 900b a6bb
00000160: 33b5 75bd 84a2 a8bc 541b 543c 8234 bcbc
00000170: e9fc 82bd 54e8 a63c 8ca5 b13c 98fb 56bd
00000180: 5daf 813b b1be 763d 68b6 40bd ff63 80bd
00000190: 6a44 253d 4ea5 503d 344c 15bd 50a2 4cbd
000001a0: ff90 2fbb 9c38 753d a8b3 4ebd 2779 92bd
000001b0: 90ca c6bc 0325 a83c 705a e1bb d3c8 80bd
000001c0: e817 6a3c 5094 95bb 0038 1d39 0b80 023b
000001d0: 12ba 22bd 4c44 01bd a08c e8bb ebfd 193c
000001e0: 202d dcbc a1b4 48bd 5aa9 41bd 8087 a8bc
000001f0: 317b 08bc 2807 f8bc f8df e53c 001c c43c
00000200: 1847 1f3d 8b24 8ebd aaf2 b73c cfde 65bd
00000210: 3085 583d 0029 c7ba dcfc 2abc faa5 7ebd
00000220: 9276 08bd 7cef ddbc a87a 6d3c 7efa 3abd
00000230: df4b bc3c 4b39 6d3c f341 813c bddc 58bd
00000240: 2eac 523d dcd8 a6bc abe4 53bd 91b1 17bc
00000250: 387c 88ba 6cd2 433d 1a1e 31bd 0b96 69bc
00000260: 8fec 04bd 3007 4fbd 617c 40bd 84f9 b03c
00000270: 6ad3 ef3c 4473 6ebd a300 1ebd 2aae 84bd
00000280: 0095 f23c 0cf9 bbbc c13a babc e9d9 ed3c
00000290: 8bb4 44bd b333 01bd e66c 673d 9196 27bc
000002a0: 3da0 3fbc c4a0 ad3c ecfe 18bc b4b2 4f3d
000002b0: abb9 51bd e2b7 8bbc 158d c93c 484b 64bd
000002c0: 20c2 30bd aa29 183d a1b4 b9bc 89ad fa3c
000002d0: e800 1e3d 9c6c cebc ad02 523d fff0 0cbc
000002e0: 31d2 1c3b b416 5fbd 7a8a 2ebc faed 183d
000002f0: 325d 3a3d 61d8 72bd 3221 3b3d 947c f63c
00000300: d583 b8bc ac71 15ba ec1c d63c c4af 443d
00000310: a053 1bbb a2d0 5f3d 7858 e5bb d0be 56bc
00000320: c3ac fe3c 2644 88bd c2cc 693c 46c2 9fbd
00000330: b609 81bd cf63 2c3d 3df9 6bbd 40d1 ebbc
00000340: 0eee 0d3d 6833 03bd 3ea5 12bc 3d51 00bd
00000350: c2d8 2f3d 74dc 773d 810b 513d 4504 503c
00000360: 1e27 72bd c825 69bc a105 773c 0cd0 0f3d
00000370: 2cb9 d2bc 1083 e5bb 0044 f73c 8067 a23c
00000380: 5a30 81bc e075 193c 1e27 46bd cc77 07bd
00000390: a868 acbc 534c 0dbd d6cb 003d 2185 2cbd
000003a0: aa65 58bd a16d 8abc 82dd 7fbd 3c26 5fbd
000003b0: b086 29bc 38cf 11bc 5efe 0abb e6bb 673d
000003c0: ac6c 7ebd e292 243d 5ebf 5cbd 9c30 35bd
000003d0: 705f 48bc 82a2 e73c c0f4 a93c 2652 613d
000003e0: 3ee1 4d3d f451 25bd 48ea 653d a889 8e3c
000003f0: f33b 133d 2262 793d 7501 6cbb 5cd5 f1bc

fc2.bias f4 [128]
-0.03350684 0.01683989 -0.09130653 0.03310515 -0.11771519 -0.30034631 -0.16081312 -0.01485304
-0.14346036 0.44603825 -0.07377043 0.478427 0.0568074 -0.041222714 0.018710872 -0.055727318
-0.23673491 0.12882291 -0.008834434 -0.4211027 0.013063131 -0.11330576 0.2477682 -0.0101080695
-0.067779 -0.5386594 -0.124375455 -0.08183495 0.39064574 -0.13338374 0.3612427 0.18851785
-0.032708902 0.004044512 -0.047104802 0.25693086 0.11823899 0.08387279 -0.14431077 0.09299606
-0.6926594 -0.06270579 0.28482932 0.21591985 0.048102412 0.32403836 -0.0046287864 -0.10909195
0.4517321 -0.12860921 -0.14928645 -0.03657903 -0.24750362 0.4885683 -0.09412891 -0.30103576
-0.18742089 -0.09595025 0.14675035 0.0802387 -0.6889931 -0.038428053 0.0261026 -0.052038178
-0.051731046 -0.1246795 0.05016945 0.052213162 0.15064614 0.005220627 -0.015733413 0.022026442
0.007948133 -0.2863959 -0.049210995 -0.2628815 -0.055060897 -0.22746347 -0.06805757 -0.1063131
0.23795585 -0.017158613 0.45036322 -0.049705464 -0.41781124 -0.39686766 -0.101112634 -0.17689961
-0.05249102 0.0644758 0.25406247 -0.120946825 0.06933141 -0.06542765 -0.010997912 -0.05900574
-0.019753342 -0.008670995 -0.060916893 -0.10417044 -0.05930013 -0.083591625 -0.08449323 -0.023113066
-0.096104175 -0.11755489 -0.092628494 0.106376745 0.15419479 -0.0035671256 -0.38077977 0.4198893
-0.039260987 0.0738469 0.52503407 0.06356814 0.021661334 -0.073169254 0.06401938 -0.10144758
-0.03606529 -0.11921723 -0.027895676 -0.016550973 -0.21952301 -0.17772672 -0.90392107 -0.0042112526
00000000: 783e 09bd cff3 893c ebfe babd 4499 073d
00000010: a914 f1bd fec6 99be 32ac 24be 2a5a 73bc
00000020: 46e7 12be 205f e43e f414 97bd 62f4 f43e
00000030: e0ae 683d 26d9 28bd 8b47 993c 5442 64bd
00000040: a36a 72be 27ea 033e 4dbe 10bc c69a d7be
00000050: be06 563c da0c e8bd f2b6 7d3e 519c 25bc
00000060: b7cf 8abd 95e5 09bf 8fb8 febd 1599 a7bd
00000070: b802 c83e bf95 08be cef4 b83e d30a 413e
00000080: c5f9 05bd d387 843b f7f0 40bd 718c 833e
00000090: 4927 f23d 7fc5 ab3d 34c6 13be b874 be3d
000000a0: 2052 31bf e56b 80bd 26d5 913e 181a 5d3e
000000b0: 0907 453d 5be8 a53e 13ad 97bb 9a6b dfbd
000000c0: 6e49 e73e 22b2 03be 8cde 18be e5d3 15bd
000000d0: 9771 7dbe a025 fa3e a8c6 c0bd 5c21 9abe
000000e0: 43eb 3fbe 9181 c4bd b945 163e 3054 a43d
000000f0: da61 30bf bc66 1dbd 1fd5 d53c fc25 55bd
00000100: efe3 53bd f757 ffbd 7b7e 4d3d 78dd 553d
00000110: fb42 1a3e cb11 ab3b 5ce3 80bc cc70 b43c
00000120: e338 023c 7ca2 92be 7891 49bd 6798 86be
00000130: 8987 61bd 2fec 68be c461 8bbd afba d9bd
00000140: b3aa 733e 3890 8cbc 0296 e63e f597 4bbd
00000150: 5beb d5be 3d32 cbbe 2414 cfbd 2c25 35be
00000160: d300 57bd e30b 843d 7a14 823e f8b2 f7bd
00000170: a0fd 8d3d effe 85bd 9630 34bc 01b0 71bd
00000180: c3d1 a1bc ca10 0ebc fe83 79bd 5057 d5bd
00000190: b1e4 72bd 1632 abbd c90a adbd 9d57 bdbc
000001a0: 44d2 c4bd 9ec0 f0bd 02b4 bdbd 0ddc d93d
000001b0: 3de5 1d3e 70c6 69bb 91f5 c2be bbfb d63e
000001c0: 21d0 20bd 0b3d 973d a268 063f 0330 823d
000001d0: 1c73 b13c c3d9 95bd 981c 833d c0c3 cfbd
000001e0: 33b9 13bd 2a28 f4bd 7985 e4bc e895 87bc
000001f0: a4ca 60be fefd 35be 5f67 67bf 8cfe 89bb

fc3.weight f4 [64, 128]
0.02613598 0.1407373 -0.05922689 0.045453947 -0.11422075 0.018173506 -0.4490373 -0.028158044
0.05777149 -0.101111755 -0.02209032 -0.10504296 -0.05991917 0.022944856 -0.05618262 -0.16306782
0.055174783 -0.054808427 0.012112495 -0.057494156 -0.15259834 -0.08164323 -0.14733413 0.06573335
-0.01540355 -0.15140393 -0.005579901 0.0011571432 0.029658262 -0.094564 -0.013924088 0.033285804
-0.061446134 -0.054100674 0.060238123 -0.12990102 -0.05894374 0.072679855 0.0568556 -0.110031754
-0.103416525 -0.15156083 -0.040432245 -0.27218562 0.04035856 0.11247244 -0.14889199 -0.013083952
-0.16664402 0.118016936 0.053076513 -0.036782533 0.0034090376 0.09495618 -0.16335972 -0.0786782
-0.07112143 -0.011457464 0.03572938 0.043605227 -0.10122374 -0.03402238 0.0050208806 -0.058725428
-0.094318904 0.008045296 -0.22864664 0.017188145 0.0464124 -0.10571305 -0.036566146 -0.19014862
-0.024336403 0.028715868 -0.2701563 -0.09250232 0.05866333 -0.13321212 0.09418317 -0.11746453
-0.15141395 -0.020528628 -0.04721951 -0.025807422 -0.056658868 -0.11782145 -0.054198667 -0.2544797
-0.024948392 -0.012360326 -0.03252849 0.09762256 -0.022735804 0.04228551 -0.037480026 -0.22474921
-0.025121825 0.0006241633 -0.024894211 -0.089521445 0.05887513 0.04045952 0.055759344 -0.018462999
-0.052293833 -0.1182417 -0.09039814 -0.046561606 -0.07409356 0.05681966 -0.35039005 -0.17449538
0.036034808 -0.19771425 -0.052324273 -0.15979014 -0.0015413961 -0.1784517 0.025781183 0.019821107
-0.0307569 -0.072419025 -0.0713966 -0.014319543 -0.15726854 0.0028342179 -0.3575565 0.013645088
0.017955218 -0.180299 -0.07954711 -0.35788545 -0.15848893 -0.17465092 0.020195328 -0.07326884
0.021078752 0.025326481 -0.10242525 -0.25450167 -0.16874774 0.04700773 0.1619441 0.0021401362
0.024828574 -0.0071655526 -0.06066208 -0.14611809 0.11998836 -0.009541969 0.14456846 -0.03724721
0.06402523 -0.4046037 -0.08079878 0.05666768 -0.20098495 -0.11343608 -0.039544415 -0.092704184
-0.050672553 0.049276188 0.006524006 -0.1385198 0.09617464 0.03252737 0.45388192 0.01305044
-0.02146931 -0.1380912 0.0025556376 -0.17807902 0.115280874 0.22147645 0.012034326 0.015001772
-0.027773704 0.07514725 -0.0055496977 0.014617261 -1.7279004 -0.18931115 -0.009386728 0.17540206
0.024266941 0.061890595 -0.08762467 0.08850415 -0.06787099 -0.020502819 0.05636302 0.011120475
0.010225199 0.05043382 -0.10428177 -0.064450905 0.13933837 0.07336285 0.074081235 -0.010120761
-0.06457723 -0.027394013 -0.048045296 -0.07278388 0.019926803 -0.014244268 0.06916836 0.095356055
-0.5241566 -0.17859702 -0.1790902 -0.064309806 -0.15921527 0.086073436 -0.098335385 -0.12306451
-1.0363668 0.0347118 -0.38473818 -0.036522217 0.16318494 0.037222356 0.09039346 -0.2528405
0.018311456 0.0498355 -0.04367547 -0.06305501 -0.038236685 -0.3679924 0.029186353 -0.010623278
-0.21862142 -0.025914608 0.058201373 -0.07241048 -0.051855702 0.06189843 -0.015524648 -0.22578867
-0.042651545 -0.5838883 0.016378613 -0.0479244 0.02490199 -0.52906245 -0.107814476 -0.047750324
-0.013925568 -0.073240094 -0.17402077 -0.05243385 -0.15670663 -0.060625494 -0.07287455 0.06831616
00000000: 1f1b d63c 701d 103e e597 72bd eb2d 3a3d
00000010: 92ec e9bd 9be0 943c 38e8 e5be b3ab e6bc
00000020: cca1 6c3d ae13 cfbd c2f6 b4bc c320 d7bd
00000030: ce6d 75bd daf6 bb3c bf1f 66bd 40fb 26be
00000040: f4fe 613d cd7e 60bd 7c73 463c fe7e 6bbd
00000050: bd42 1cbe 9134 a7bd c2de 16be 359f 863d
00000060: 2c5f 7cbc a209 1bbe 9ad7 b6bb 48ab 973a
00000070: e2f5 f23c c5aa c1bd dc21 64bc b256 083d
00000080: f1ae 7bbd ab98 5dbd 40bc 763d c604 05be
00000090: fe6e 71bd 2dd9 943d 6be1 683d 5458 e1bd
000000a0: 0bcc d3bd c332 1bbe 489c 25bd ea5b 8bbe
000000b0: 044f 253d f357 e63d 2477 18be 125e 56bc
000000c0: bba4 2abe ddb2 f13d c266 593d 48a9 16bd
000000d0: 296a 5f3b 6378 c23d c547 27be 0922 a1bd
000000e0: 1da8 91bd 16b8 3bbc f858 123d 659b 323d
000000f0: 644e cfbd 0d5b 0bbd 3386 a43b 138a 70bd
00000100: 452a c1bd 6bd0 033c 5822 6abe 27ce 8c3c
00000110: ee1a 3e3d 1580 d8bd 62c6 15bd 52b6 42be
00000120: 235d c7bc 8a3d eb3c ed51 8abe db71 bdbd
00000130: f648 703d c268 08be 1be3 c03d 3e91 f0bd
00000140: 420c 1bbe a72b a8bc 3f69 41bd 166a d3bc
00000150: 2113 68bd 5f4c f1bd 6cff 5dbd 2a4b 82be
00000160: 9260 ccbc f782 4abc 983c 05bd 56ee c73d
00000170: 7040 babc 9233 2d3d a884 19bd a824 66be
00000180: 49cc cdbc e49e 233a f2ee cbbc 0557 b7bd
00000190: 0c27 713d e2b8 253d e963 643d b73f 97bc
000001a0: 0f32 56bd b428 f2bd a922 b9bd 62b7 3ebd
000001b0: 5dbe 97bd bbbb 683d 5366 b3be ebae 32be
000001c0: 3c99 133d 9b75 4abe fa51 56bd 07a0 23be
000001d0: ac08 caba 0bbc 36be 0f33 d33c e05f a23c
000001e0: e5f5 fbbc 6d50 94bd 6138 92bd 849c 6abc
000001f0: 010b 21be 49be 393b a511 b7be a68f 5f3c
00000200: d216 933c 4da0 38be 98e9 a2bd c33c b7be
00000210: ec4a 22be b1d7 32be ac70 a53c f90d 96bd
00000220: 59ad ac3c 7b79 cf3c 54c4 d1bd 0b4e 82be
00000230: 35cc 2cbe 2d8b 403d add4 253e 8741 0c3b
00000240: 4b65 cb3c 03cd eabb cd78 78bd fb9f 15be
00000250: 75bc f53d eb55 1cbc c109 143e 8890 18bd
00000260: a91f 833d 3728 cfbe d579 a5bd 5f1c 683d
00000270: 00cf 4dbe 2d51 e8bd 53f9 21bd b1db bdbd
00000280: 068e 4fbd d4d5 493d 54c7 d53b 22d8 0dbe
00000290: 36f7 c43d 6b3b 053d 3663 e83e 83d1 553c
000002a0: 68e0 afbc c867 0dbe 7c7c 273b 595a 36be
000002b0: 6118 ec3d b9ca 623e 9f2b 453c fec9 753c
000002c0: ae85 e3bc cde6 993d 3dda b5bb 3c7d 6f3c
000002d0: d72b ddbf c8da 41be caca 19bc 999c 333e
000002e0: 77cb c63c fe80 7d3d 9074 b3bd aa41 b53d
000002f0: f2ff 8abd 87f5 a7bc e9dc 663d a732 363c
00000300: 9887 273c b193 4e3d ae91 d5bd d6fe 83bd
00000310: b8ae 0e3e 433f 963d e7b7 973d 8cd1 25bc
00000320: 1141 84bd 6969 e0bc 25cb 44bd b70f 95bd
00000330: 893d a33c ca60 69bc 24a8 8d3d 094a c33d
00000340: 202f 06bf 23e2 36be 6c63 37be dcb4 83bd
00000350: 5409 23be 4547 b03d 1064 c9bd 3f09 fcbd
00000360: aba7 84bf f62d 0e3d 67fc c4be 5298 15bd
00000370: f419 273e 7876 183d 3520 b93d 4f74 81be
00000380: e801 963c 4f20 4c3d 0de5 32bd fc22 81bd
00000390: 129e 1cbd 8069 bcbe 3818 ef3c 420d 2ebc
000003a0: 4bde 5fbe df4a d4bc 9064 6e3d f24b 94bd
000003b0: a566 54bd 3589 7d3d 185b 7ebc 2535 67be
000003c0: 63b3 2ebd b479 15bf 712c 863c 604c 44bd
000003d0: 42ff cb3c a370 07bf d6cd dcbd d895 43bd
000003e0: 1128 64bc e7fe 95bd 8032 32be e0c4 56bd
000003f0: b477 20be 7052 78bd 413f 95bd 58e9 8b3d

fc3.bias f4 [64]
-0.08933369 0.25195542 -0.030170653 0.047732588 0.0099110035 -0.21859795 -0.261346 -0.28561708
-0.18249106 -0.0762898 0.06161904 -0.12768987 1.0578617 -0.026451478 0.15261562 0.34597242
0.2425206 0.5477044 0.8080085 0.2908268 -0.065473974 0.22092627 0.5338618 0.15262245
-0.27570063 0.51423335 -0.12567523 0.42363793 -0.4665873 -0.90125954 -1.2761196 -0.29728112
0.37813216 -0.37231168 0.3833752 -0.30319035 0.15675999 -0.2661467 0.15858562 0.037624914
0.32329217 0.502919 0.12477648 0.11323334 0.17843336 -1.2294191 -0.36918658 -0.14774923
-0.13390072 -0.13541369 0.35023972 0.27551606 -1.1866133 0.20442836 -1.8144515 0.7234751
-0.18061103 0.55303013 -0.63443065 -0.9698882 -0.8111836 -0.3598929 -0.5942311 0.03653401
00000000: 95f4 b6bd 4d00 813e 7228 f7bc 3f83 433d
00000010: c361 223c 24d8 5fbe 25cf 85be 673c 92be
00000020: f0de 3abe d43d 9cbd 3f64 7c3d 22c1 02be
00000030: 0368 873f c5b0 d8bc 4547 1c3e 4c23 b13e
00000040: 5257 783e 5b36 0c3f a5d9 4e3f 40e7 943e
00000050: 3817 86bd 7f3a 623e 2bab 083f 0f49 1c3e
00000060: a228 8dbe cca4 033f 02b1 00be 12e7 d83e
00000070: 88e4 eebe f2b8 66bf e357 a3bf 3b35 98be
00000080: 8a9a c13e a39f bebe c149 c43e c43b 9bbe
00000090: b185 203e 6144 88be 4564 223e 951c 1a3d
000000a0: 8d86 a53e 4dbf 003f d08a ff3d e2e6 e73d
000000b0: 3cb7 363e 9b5d 9dbf 0606 bdbe 934b 17be
000000c0: 451d 09be e3a9 0abe 9f52 b33e 7110 8d3e
000000d0: f2e2 97bf ab55 513e f23f e8bf aa35 393f
000000e0: 19f2 38be 6293 0d3f 0c6a 22bf 984a 78bf
000000f0: baa9 4fbf e243 b8be 881f 18bf b0a4 153d

fc4.weight f4 [6, 64]
0.042522095 0.025796661 0.037984736 0.03660522 0.040293034 -0.024364598 -0.055575643 0.036170397
0.015651371 -0.013891573 0.032302815 0.06151827 0.021670649 0.05750902 0.040023837 0.018257083
0.027072439 0.041911047 0.015179829 0.15730457 -0.09071713 0.031143026 0.026163056 -0.017189248
-0.10832577 0.020342592 0.07344704 0.019879587 0.0011779887 -0.020943137 -0.013961424 -0.00054935965
0.02064341 0.048674427 0.022836255 -0.01706958 -0.032512568 -0.029396186 0.012604572 -0.020074232
0.025936356 0.016502632 0.018408118 0.060624085 0.054825947 -0.04904027 0.0067434004 -0.011360466
-0.02626103 -0.015922816 0.052025113 0.09665085 -0.018486768 0.002392882 -0.030774307 0.030151946
0.076904595 0.0641905 -0.060966305 0.097425774 -0.02428792 0.17425583 -0.0002780491 -0.011734273
0.0042840634 0.025886556 0.043165427 0.026433773 0.03752958 0.0028064342 0.0577024 0.031164572
0.020846412 -0.02784431 0.03344555 0.036316514 0.021192012 0.059804637 0.036513284 0.020797044
0.025364242 0.042323485 0.014754297 0.14053048 -0.10777887 0.030675635 0.026243445 -0.036921944
-0.051097743 0.019684644 0.058155257 0.028162912 0.007929426 -0.020420915 -0.016090864 -0.005527341
0.016203798 0.049047846 0.022828128 -0.014900992 -0.024008548 -0.030699253 0.014130472 -0.018792447
0.02471084 0.018480314 0.015947046 0.061462257 0.017626148 -0.05258254 0.001382584 -0.031735945
-0.025449896 -0.011836974 0.081184186 -0.002718002 -0.016912924 0.0027482514 -0.031231306 0.02992035
0.08087177 0.056994405 -0.06259964 0.11260809 -0.024976658 0.18045916 -0.0038777657 -0.0360313
0.009312814 0.025952442 0.042595353 0.024028013 0.042128477 -0.0080487365 0.027435383 0.02568341
0.0047716587 -0.0153677855 0.0294412 0.04803266 0.02131865 0.05732824 0.034743465 0.020962818
0.028830715 0.041306492 0.015964821 0.123580106 -0.10444431 0.02699062 0.024944209 -0.005885231
-0.07886017 0.020883953 0.08250212 0.040816713 -0.0038681498 -0.020075005 -0.01658317 -0.008728209
0.02051512 0.046085566 0.046736952 -0.015115071 -0.02572908 -0.052052375 0.012914563 0.0020562657
0.017896626 0.016122108 0.013806642 0.06049892 0.040256407 -0.05152836 0.012877932 -0.033894226
-0.025315618 -0.026006743 0.050069265 0.044150308 -0.01804069 -0.034022737 -0.030093638 0.012573861
0.0915748 0.057181466 -0.062267333 0.09661863 -0.023894958 0.17499657 0.007343697 -0.051794127
0.0315869 0.027053794 0.058053087 0.051319152 0.038237013 -0.0051944507 -0.014101271 0.051895767
0.0045629437 -0.009054754 0.028730122 0.053746797 0.02183901 0.05906415 0.024038808 0.015489457
0.023256492 0.04258967 0.01750705 0.1369234 -0.10112727 0.032051254 0.01911021 -0.03104804
-0.095967755 0.020625932 0.073200144 0.020890817 0.024754995 -0.019855598 -0.016472233 -0.0018379149
0.021022031 0.044458557 0.009573171 -0.019753935 -0.019746363 -0.031118432 0.0149598615 -0.03430997
0.01294539 0.015583078 0.01389589 0.060695555 0.017639725 -0.051887494 0.018948901 -0.007840466
-0.025201099 -0.009950541 0.031260002 0.022952989 -0.019793067 0.021926811 -0.03192312 0.041773
0.10260309 0.046526827 -0.062222905 0.10365667 -0.024916284 0.15246893 -0.0024056113 -0.021207942
00000000: a62b 2e3d 8553 d33c e295 1b3d 5bef 153d
00000010: 4f0a 253d 4498 c7bc 49a3 63bd 6927 143d
00000020: 4e37 803c 7b99 63bc f54f 043d 95fa 7b3d
00000030: a586 b13c 948e 6b3d 09f0 233d e18f 953c
00000040: 05c7 dd3c ebaa 2b3d d1b4 783c 7314 213e
00000050: e7c9 b9bd a91f ff3c e853 d63c 77d0 8cbc
00000060: e7d9 ddbd 82a5 a63c 676b 963d 84da a23c
00000070: be66 9a3a f190 abbc 75be 64bc e702 10ba
00000080: 5e1c a93c d65e 473d 1913 bb3c 81d5 8bbc
00000090: e62b 05bd 45d0 f0bc 6883 4e3c b772 a4bc
000000a0: 7b78 d43c 8730 873c 9fcc 963c f650 783d
000000b0: 2c91 603d 73de 48bd bef7 dc3b 3f21 3abc
000000c0: 5f21 d7bc 9170 82bc 4918 553d e1f0 c53d
000000d0: 9071 97bc e6d1 1c3b 661a fcbc 3701 f73c
000000e0: 2880 9d3d 4f76 833d ceb7 79bd 2a87 c73d
000000f0: 76f7 c6bc 1f70 323e 1ec7 91b9 1c41 40bc
00000100: 5461 8c3b 0b10 d43c 3bce 303d a48b d83c
00000110: 9eb8 193d 27ec 373b 5a59 6c3d d84c ff3c
00000120: 18c6 aa3c c019 e4bc 33fe 083d a0c0 143d
00000130: df9a ad3c b5f5 743d f48e 153d 905e aa3c
00000140: acc8 cf3c 645b 2d3d 02bc 713c 39e7 0f3e
00000150: 2bbb dcbd 784b fb3c 7efc d63c 773b 17bd
00000160: de4b 51bd b141 a13c 3534 6e3d e8b5 e63c
00000170: 6cea 013c c349 a7bc fdd0 83bc b21e b5bb
00000180: d4bd 843c 65e6 483d 0e02 bb3c 4a23 74bc
00000190: 93ad c4bc 007d fbbc 7f83 673c 9ef2 99bc
000001a0: 636e ca3c 0764 973c 61a3 823c d9bf 7b3d
000001b0: b664 903c ca60 57bd d237 b53a 8dfd 01bd
000001c0: 4d7c d0bc deef 41bc e543 a63d 8220 32bb
000001d0: f98c 8abc 021c 343b ccd8 ffbc 861b f53c
000001e0: 19a0 a53d f772 693d 3d34 80bd 129f e63d
000001f0: d99b ccbc 49ca 383e 1d22 7ebb 8e95 13bd
00000200: c694 183c 379a d43c 7778 2e3d 65d6 c43c
00000210: e98e 2c3d d9de 03bc 2bc0 e03c 0466 d23c
00000220: 935b 9c3b 2ac9 7bbc ac2e f13c e5bd 443d
00000230: 73a4 ae3c 04d1 6a3d 2a4f 0e3d 37ba ab3c
00000240: 642e ec3c ff30 293d a8c8 823c 9117 fd3d
00000250: e6e6 d5bd 6f1b dd3c cc57 cc3c e5d8 c0bb
00000260: 7181 a1bd d314 ab3c dff6 a83d 6d2f 273d
00000270: c980 7dbb 5674 a4bc 6ed9 87bc c300 0fbc
00000280: 530f a83c 38c4 3c3d 3f6f 3f3d 34a5 77bc
00000290: cbc5 d2bc df34 55bd 9a97 533c 6ac2 063b
000002a0: f29b 923c 8312 843c 4135 623c b7cd 773d
000002b0: e7e3 243d 670f 53bd f6fd 523c acd4 0abd
000002c0: b362 cfbc 180c d5bc 6e15 4d3d f4d6 343d
000002d0: 12ca 93bc 6d5b 0bbd ef86 f6bc 9802 4e3c
000002e0: 928b bb3d 1d37 6a3d 080c 7fbd fddf c53d
000002f0: 5cbf c3bc 4d32 333e 65a3 f03b 1426 54bd
00000300: 4461 013d eb9f dd3c 13c9 6d3d 0834 523d
00000310: 6a9e 1c3d 3636 aabb 0409 67bc a890 543d
00000320: bf84 953b 645a 14bc 6f5b eb3c 9a25 5c3d
00000330: b9e7 b23c 40ed 713d 09ed c43c 7ec7 7d3c
00000340: 6684 be3c 8172 2e3d f26a 8f3c a635 0c3e
00000350: d01b cfbd 2d48 033d 048d 9c3c 7658 febc
00000360: be8a c4bd b7f7 a83c f5e9 953d 3823 ab3c
00000370: fdca ca3c 35a8 a2bc c7f0 86bc 31e6 f0ba
00000380: 6536 ac3c 2d1a 363d cad8 1c3c 01d3 a1bc
00000390: 20c3 a1bc 15ec febc 351a 753c 9c88 0cbd
000003a0: e718 543c 2b50 7f3c 96ab 633c e79b 783d
000003b0: 2f81 903c fb87 54bd ba3a 9b3c 4c75 00bc
000003c0: 8972 cebc 9807 23bc 7d0a 003d e807 bc3c
000003d0: 1225 a2bc db9f b33c d1c1 02bd 2a1a 2b3d
000003e0: 9221 d23d ea92 3e3d 72dd 7ebd f349 d43d
000003f0: 3c1d ccbc d120 1c3e 76a7 1dbb 47bc adbc

fc4.bias f4 [6]
0.64935374 0.64874935 0.648786 0.6503445 0.6497923 0.6496404
00000000: 0c3c 263f 7014 263f d716 263f fa7c 263f
00000010: ca58 263f d54e 263f
