checkpoints/2021_02_05-08_55_29/last/last_dqn-Pong-ram-v0.pt (torch, 301239 bytes, 8 tensors)

fc1.weight f4 [256, 128]
00000000: 8bb9 31bd c3e0 3f3b 91bd 4bbd 9a87 083d
00000010: 98f0 a5bd 5448 6b3d 7892 83bd a3db 8fbd
00000020: 3dfa 46bd 90ae 8a3c 831d 43bd e4b4 a7bd
00000030: aee0 31bd fa1e cdbd 5edc 0dbe 377d cabc
00000040: d823 99bd ed9b 743d 0825 b1bc d609 ee3c
00000050: c886 753d e8ea ab3c deff c53c c4ab 9f3d
00000060: e860 41bd 4d21 a93c a6c8 3fbd 0ca2 643d
00000070: 7786 813d c8f1 b5bd b97a 8b3d e8c7 0e3d
00000080: b457 ff3c a3e4 ed3c 276f 873d 45cb 9bbc
00000090: 8122 a8bd e6fa 05bd d188 8ebd f420 c5ba
000000a0: c060 c3bc 914d 60bd fe1c 7cbc 8b72 9c3d
000000b0: ada0 6abc 9ad9 94bb c51d adbc 9483 d63b
000000c0: 373e 923d 32c5 8a3d d704 133d bd3b d83c
000000d0: 2108 5d3c b684 db3c 38da 993c af3d a8bd
000000e0: 553d 50bd f983 9a3d e208 1fbb 08b0 a1bd
000000f0: 31d6 623c 3584 863d 301e babd a6ea 88bd
00000100: 760d 78bd 4801 79bb 9810 e5bc 7476 91bc
00000110: 7385 bfbd 469a 063d 6cd7 8f3d 521b 3d3d
00000120: 903b 8fbd b0f7 a0bd fc7c f03c 6cb4 afbb
00000130: 83a2 ec3c 20e2 b0bd c9af acbb 5353 7f3d
00000140: 31f4 273d 0188 533b 0d5e 8e3c 841c 09bc
00000150: 9e0f 47bd 6cd0 08bd 6579 5cbd 385b 963d
00000160: 9d39 473d ea39 fd3c acd0 8abd b0ad 8b3d
00000170: 7807 e33c d774 7a3d 236c 0ebd 8d80 993c
00000180: 7cbe b03d 5487 733d 4a2d 913d 930b 98bc
00000190: 1dea 893d b9c7 8dbd b17f fa3b 00d9 4bbd
000001a0: a8dd a8bc 316f b9bc 00b3 d83b bdc0 a43d
000001b0: 513d 333d 7e4f c4b9 eb7e 803d 5b87 39bd
000001c0: 9b95 3a3d 8f4a 06bc a2fe 7bbc 598a 293c
000001d0: a6ad 8abd 4958 273c 5b76 f33c 59c2 9a3d
000001e0: bc6f e1bc 3651 5e3c 7640 aa3d d967 39bd
000001f0: 4507 9d3d aad7 51bd 3a7d 013d 6578 df3c
00000200: b49e 843c 9126 8f3d 623d e03c 234d be3c
00000210: 03df 95bc f18f 99bd ead0 afbc 5f9b 3ebd
00000220: bec0 cc3b 7bba 25bc 96cd f9bc 134a 9a3d
00000230: fa5f 84bd 3b16 61bb 9b20 f2bd 9d66 9e3d
00000240: dd2b a03b 104e 88be 8d93 02be b85a 93bd
00000250: 1aa4 3fbd cb4c a8bd 84a4 6bbd 60c7 1dbd
00000260: 9050 00bb 537d 563d 0cfa d23c 4c8b 723d
00000270: bb11 83bd c377 88ba c950 b2bd eade 2c3d
00000280: 068a 223c 86ac 9d3d 2927 92bd 0c82 7f3d
00000290: 1a69 873d 52f2 803d 18c1 863b b32f 933d
000002a0: 84f7 4e3d 764a 6b3d 6e55 69bc f552 9cbd
000002b0: 1349 1dbc ae51 043c 68b6 8cbd 937e 72bd
000002c0: 61f6 bebd 0b09 83bd 21e3 7a3d 168d cdbb
000002d0: 98b6 63bc 8436 a2bb 0897 3b3d 01da 9fbd
000002e0: 4d2e 4ebd fbbb f0bc 7124 7bbd 36eb 173d
000002f0: b6c4 c03d 1a0a c1bd 8a09 abbd d0b0 c1bd
00000300: 275a 013c 8d48 803d 2bc3 9dbd c5e1 33bd
00000310: f7c7 a03c e8ff 85bd 7b5c 883d 3afe 383c
00000320: 759a 07bd c4d6 34bb ef1b 9c3c c3d6 22bd
00000330: c3ac 9dbd 37be 1b3a 4006 d33a 629e e93a
00000340: 6354 53bc 9874 683d 780f cabc b92b 0cbc
00000350: a7dd 143d 72e1 63bd c1e0 c13c d91a a0bc
00000360: 0da9 2d3d a164 44bd e715 563b 09ac 0d3c
00000370: c4a5 91bd 76a0 83bd bed8 0a3d 57bf d2bc
00000380: 7803 573d 7dd2 b2bd 51f7 32bd 4619 95bd
00000390: c59f 103d 90ef 27bb 510e 87bc 73ee 70bc
000003a0: 5a7e 8dbd 3d58 cd3c c562 103b fad8 79bd
000003b0: 0f3b 083d 29da e8ba 8a12 afbd 78bf 423d
000003c0: 59a6 413d 6c6c 88bc 1ef7 79bd ec92 683b
000003d0: f297 883d b7b1 a53d 32a2 88bd 8a85 23bd
000003e0: 32f2 8c3d 7377 fe3b 293d 3c3d 8103 57bd
000003f0: 2c8b 8a3d 7c38 a6bd b705 51bc 7766 dabb
-0.04338984 0.0029278256 -0.04974133 0.033332445 -0.0810253 0.057442024 -0.06424421 -0.07024314
-0.04857849 0.016928941 -0.047635566 -0.08188799 -0.043427162 -0.10015674 -0.13853595 -0.02471791
-0.0747754 0.059719015 -0.021624103 0.029057425 0.05994299 0.020986035 0.024169859 0.077964336
-0.047211558 0.020645762 -0.046822213 0.055818602 0.06324475 -0.08884007 0.06810517 0.034858614
0.03116975 0.029039687 0.066129975 -0.019017825 -0.08209706 -0.03270998 -0.069596894 -0.0015039728
-0.023849845 -0.054761473 -0.015387772 0.07639035 -0.014320535 -0.0045425417 -0.02113236 0.006546447
0.07140773 0.06775893 0.035893288 0.026395673 0.013490708 0.02679668 0.018780813 -0.0821489
-0.05083974 0.07544703 -0.002426677 -0.078949034 0.0138450125 0.06568185 -0.09087789 -0.06685381
-0.060559712 -0.0037995148 -0.027962014 -0.017756678 -0.09351625 0.03286197 0.0702351 0.046168633
-0.069937825 -0.07859743 0.029356472 -0.005362084 0.028886085 -0.0863688 -0.0052699787 0.062335324
0.041004363 0.003227711 0.017378831 -0.008368615 -0.048598878 -0.03340189 -0.05382671 0.07341617
0.04863893 0.030911405 -0.06778082 0.06820238 0.027713522 0.061146583 -0.034771096 0.018738056
0.08630082 0.05945523 0.07088716 -0.018560207 0.06734107 -0.0692286 0.0076446165 -0.049767494
-0.020613506 -0.022636028 0.0066131353 0.080445744 0.043759648 -0.0003744326 0.06274208 -0.0452951
0.04555283 -0.008196487 -0.015380533 0.010347926 -0.06771402 0.01021392 0.029719522 0.075566
-0.0275191 0.013569167 0.08313076 -0.045265052 0.07667402 -0.051231064 0.031613566 0.027279088
0.016188957 0.06989778 0.02737302 0.023230141 -0.018294817 -0.07498158 -0.021461923 -0.046534892
0.0062485626 -0.010115261 -0.030493539 0.0753366 -0.064636186 -0.0034345526 -0.11822625 0.07734416
0.0048880414 -0.26622057 -0.12751599 -0.071950376 -0.04678736 -0.08217772 -0.05752994 -0.038520217
-0.001957927 0.052365612 0.025753997 0.059214875 -0.06399866 -0.0010411668 -0.08706815 0.042204775
0.009920603 0.07698922 -0.071363755 0.06237988 0.066118434 0.06296219 0.004112374 0.07186832
0.050529018 0.05744406 -0.014241559 -0.0763301 -0.009599942 0.008076115 -0.06870729 -0.05920274
-0.09324337 -0.06398209 0.061251763 -0.0062729223 -0.013898514 -0.0049503464 0.04579833 -0.07805253
-0.050337125 -0.029386511 -0.06131405 0.03708955 0.0941252 -0.09425755 -0.08351429 -0.094575524
0.007895029 0.06263838 -0.07703241 -0.043916482 0.0196266 -0.06542951 0.06658264 0.011291081
-0.033106286 -0.002759383 0.019056289 -0.039755594 -0.07698967 0.0005941125 0.0016099885 0.0017823691
-0.012898537 0.056751817 -0.02466558 -0.008555346 0.036344197 -0.055634923 0.023666741 -0.019544052
0.042397548 -0.04794753 0.0032666863 0.008646973 -0.071116954 -0.0642709 0.033898108 -0.025726004
0.052493542 -0.08731554 -0.04369289 -0.07280211 0.035308618 -0.0025624968 -0.016486319 -0.014705288
-0.06908865 0.02506649 0.0022031527 -0.06099794 0.033259448 -0.0017765212 -0.08548458 0.04754588
0.047277782 -0.016653262 -0.061026685 0.0035487963 0.06669606 0.08090537 -0.06671561 -0.039922275
0.068821326 0.0077657043 0.045956764 -0.052493576 0.06764826 -0.08116242 -0.01275771 -0.006665047

fc1.bias f4 [256]
00000000: ae5a 2f3d 50fa 59bd e0a9 bebd 4797 fabc
00000010: 2f3f 303d 39ce 2abd 0aa6 aabb b051 4dbc
00000020: f235 36bd bf1b 8cbd 667b 1ebd 22c2 c2bc
00000030: d9c7 48bd c38f 2a3b 1188 873d ee54 76bd
00000040: e7ec babb 3b34 89bd 0b7e ff3c 0954 8b3d
00000050: 823e bfbc 5378 8b3a 511c 3abd 6b26 7abd
00000060: 0561 2a3d a691 27bc 6fee 8e3d cf02 7fbd
00000070: e078 8d3d 8519 843d 8e18 913d 0a1e ea3b
00000080: 4410 6fbd 7686 323c 7f72 dd3c 14c8 91bc
00000090: 0787 aebd 6aa2 2fbd f707 05bd d786 123d
000000a0: 79dd 06bd dd98 aabd 6e22 3f3d ba68 8d3d
000000b0: b3e2 273d 67ab 8c3c 5371 95bd 2708 92bd
000000c0: cf7c 97bd 9b0a 613d 3cc4 773d 5ad5 323d
000000d0: cd5c b5bd 78fb d5bc 16f2 023d a4f8 a43d
000000e0: b7c2 52bc 88b3 43bd 57bf cebd fe32 293d
000000f0: c1a5 493c 7543 3abd 7bea 593d 071b d2bd
00000100: f635 653d a02d a0bb eaea 84bd 298e 8cbd
00000110: 61ef 3cbd e90f 313d f87a e0bc 653b 8b3d
00000120: c5b5 0dbd 324a f1bc 045d a2bd 9ef4 6f3d
00000130: 3e88 cdba 0b51 953c d636 72bd 513b 2d3d
00000140: ae5c 9e3d a829 d2bc d7d8 d93c d484 3b3d
00000150: 5a83 abbc a20c c33c 4a7c 1ebd a8d6 a3bc
00000160: 4daf 03bb 98bd a0bd 7261 89ba 20be 5cbd
00000170: 3255 0bbb 1d70 af3c 48d8 0ebd bea8 0bbd
00000180: 398a 69bd e9e7 923d 4bee 8fbd 1d9d c03c
00000190: 3fde 83bd f796 403d e9d3 72bd 7dec 0abd
000001a0: 444d e2bb d1be 683d 4bf7 1f3c e1bb abbd
000001b0: f546 ac3a 688e 9ebd 3f9a aa3d bb4a 62bd
000001c0: d907 5a3d b6d7 59bd 8aec 8dbc 3910 203d
000001d0: d61b febc e03f 193d b74a 5f3d a1b5 4fbc
000001e0: c4ea 953d 22ef a2bd 3ddd 4dbd ad43 193d
000001f0: e9b4 153b 538f b0bd bc54 2e3d 6a98 25bb
00000200: 9c7f 8ebd bd7f 95bd 6801 c4bd 44eb d33d
00000210: 716b ba3c ccb6 b3bd 6cc1 6ebd ad31 afbd
00000220: fc20 50bd 1edc d5bc af8b 6c3d c444 6abd
00000230: dc97 cebc 2388 90bd d3f1 903c 258e 93bb
00000240: c878 423c 3611 053d 05a5 223c 12c2 c9bd
00000250: 19ec 91bb f1aa ac3d 3b62 9e3c a623 cebd
00000260: a45f 4d3b 0f43 883d 0958 a53c 7f13 b0bc
00000270: 3dcb 673d b5b6 7abd d30e 883d 4f86 9b3d
00000280: 01dc 62bd deb8 1f3d a243 5a3c 3760 8dbd
00000290: 4cb9 963c 9218 f5bc 506b ab3b a50c 3c3d
000002a0: d910 21bd 015e f93c 881a 84bd b813 963d
000002b0: e2a8 993d fc86 81bd 0308 bc3c 771a 36bd
000002c0: 4cb1 fabc abe1 a13d d23e 303a 5cb8 40bc
000002d0: aefc 653d eec3 523d f6dc 56bc 7a4a c7bc
000002e0: 3959 9dbd fd36 25bd a078 7cbd 2e74 a1bd
000002f0: b107 0dbd 9171 aab6 d2f6 633d 5a8a 993d
00000300: 4f33 6d3d 7806 41bd 6a2e 9bbc 3ab3 3abd
00000310: bccc f6bb dcb3 93bd ca96 8d3c cc3a 233d
00000320: 7684 78bd 01d6 423d b36e 623d e422 f4bc
00000330: 842f b0bd 0216 76bd f180 a13d 1eaa febc
00000340: 3708 1dbd da95 74bd 9c46 02bc a87b cc3a
00000350: adbf 043d ef63 9e3d a550 fdbc 2ea5 17bd
00000360: bbc2 b1bd f6a8 69bd 11bc dd3c c2ce 25bd
00000370: 1a87 933b b6f7 06bd 8901 0abd 4fd5 923d
00000380: 9520 c5bd fd47 213c 48ce 3c3c 0651 94bd
00000390: 4dc3 36bd 6af6 f23c 9a43 53bd c571 623d
000003a0: ba2c bbbd 0dd3 08bd 8ac9 d83c e7d7 b8bd
000003b0: e2ac 483d 6360 a4bd 614f ccbc 6c12 023d
000003c0: b447 873c 7f74 703c 3063 73bd 15b8 bfbc
000003d0: 149e 6a3d bacc 9ebd fac9 a8bd fc6b a5bc
000003e0: b5cb f1bc 6b52 85bd 00ae 29bd a57e 343d
000003f0: 5bd2 a2bd 7122 9a3d c418 2f3d 8d38 903d
0.04281109 -0.053217232 -0.09309745 -0.030589713 0.043029007 -0.041700576 -0.0052077817 -0.012531683
-0.04448504 -0.0684123 -0.0386919 -0.02377421 -0.049018715 0.002602563 0.066177495 -0.06013959
-0.0057045105 -0.06699415 0.031188032 0.06803138 -0.023345236 0.0010640718 -0.04543716 -0.061071794
0.04159643 -0.010227596 0.06979071 -0.062258538 0.06907821 0.0645018 0.070847616 0.007144694
-0.05836512 0.010896316 0.027032135 -0.0177956 -0.08521848 -0.0428795 -0.0324783 0.035773125
-0.032926057 -0.083299376 0.046663694 0.06904741 0.04098768 0.017171575 -0.072970055 -0.07130461
-0.07396852 0.054941755 0.060489878 0.0436605 -0.08855591 -0.026120886 0.031969152 0.08055237
-0.012863806 -0.047778636 -0.10095089 0.041308396 0.012307585 -0.04547449 0.053202134 -0.10259061
0.055959664 -0.0048882514 -0.06490119 -0.068630524 -0.046126727 0.043228064 -0.027402386 0.06798438
-0.034597177 -0.029454324 -0.079278976 0.058582895 -0.0015680862 0.01822712 -0.059134327 0.042292897
0.07732521 -0.025654629 0.026592655 0.04578097 -0.020936657 0.023809735 -0.03869275 -0.019999817
-0.00200935 -0.07848662 -0.0010481311 -0.053892255 -0.0021260497 0.021415764 -0.03487423 -0.034096472
-0.057016585 0.071731396 -0.07027873 0.023512417 -0.064388745 0.04701897 -0.059284125 -0.03391694
-0.0069061834 0.0568226 0.009763549 -0.083854444 0.0013143705 -0.077420056 0.08330201 -0.05524705
0.05323014 -0.053184234 -0.017324705 0.03907797 -0.031019133 0.03741443 0.054514613 -0.012677581
0.073201686 -0.07955767 -0.050259817 0.037418056 0.0022843427 -0.08621087 0.042561278 -0.0025267848
-0.06957933 -0.07299755 -0.09570581 0.10347608 0.02275631 -0.087751 -0.05828993 -0.08554397
-0.050812706 -0.026105937 0.0577504 -0.057194486 -0.025218897 -0.07057216 0.017693436 -0.004503029
0.011869617 0.032487117 0.009927039 -0.09851469 -0.004453194 0.08431042 0.01933395 -0.10065393
0.0031337524 0.066534154 0.02018358 -0.021493671 0.056590308 -0.0612094 0.066434525 0.07593977
-0.055385593 0.038994662 0.013321789 -0.06903117 0.018398903 -0.029918943 0.0052312985 0.045910496
-0.039322708 0.030440332 -0.06450373 0.0732798 0.07502915 -0.06324574 0.022953039 -0.044458833
-0.03060212 0.07904371 0.0006723228 -0.011762705 0.056149177 0.051456384 -0.013114205 -0.024327505
-0.076830335 -0.040335644 -0.061638474 -0.07883488 -0.034431163 -5.0796157e-06 0.055655308 0.074970916
0.05791026 -0.04712531 -0.01894303 -0.04558108 -0.0075317305 -0.0721204 0.017283816 0.039850995
-0.0606732 0.04756737 0.055281352 -0.029801793 -0.08602813 -0.060079582 0.07885922 -0.031086978
-0.038337912 -0.059713222 -0.007951405 0.0015600817 0.03240936 0.077339046 -0.030922243 -0.037022762
-0.0867972 -0.0570459 0.027067216 -0.040480383 0.0045021893 -0.03295108 -0.03369287 0.07169592
-0.09625355 0.0098438235 0.011523791 -0.072420165 -0.044619847 0.029658515 -0.05157814 0.05528428
-0.0913939 -0.0334044 0.026463289 -0.09025555 0.048993 -0.08026197 -0.024940195 0.03175585
0.016513683 0.014676212 -0.059420764 -0.023403207 0.05727966 -0.07753892 -0.08241649 -0.020193093
-0.02951608 -0.065098606 -0.041425705 0.04406609 -0.07950278 0.075261004 0.042748228 0.07042036

fc2.weight f4 [128, 256]
00000000: 4294 d13c ae77 11bc cbc5 1bbd 7e29 1b3c
00000010: 5a5b 693d a43a a3bb 0433 ad3c 4bcd c1bc
00000020: a076 2ebd 200b 5b3d 7518 16bc 6f23 133c
00000030: c1b4 213b b77a 833c 031a 163d 6220 793d
00000040: d417 493d 5ebe d33c edd6 50bd b814 2c3c
00000050: da16 053d c09e 07bd 4c88 383d 78d4 eb3c
00000060: 345c f03c 662e 6fbd 4025 48bb 5c17 81bc
00000070: 9ad2 3bbd 484d 013c b076 c93b 7e64 463d
00000080: a851 1ebc cb81 4e3c 72ba 46bd 5efa 523d
00000090: 8eee cabc 9472 4f3c 605f adbc f32f fabb
000000a0: ab6b ca3c 01c7 1d3a eeb0 673d e4fe 1a3d
000000b0: c57f 25bb 7eb2 69bd ba2e dbbb 3b30 28bd
000000c0: 5651 cbbc 8734 983c 6bfe aabc 76ce 283d
000000d0: 33a8 33bd 883b 8cbc b6be 9c3c 8a7b 7ebd
000000e0: e00b 51bc be1f 73bd 168a 493a e194 183d
000000f0: 08ad f9bc facf 38bd 03f3 173d 48e9 0abd
00000100: f845 693d 2c6b 4f3d 19d9 48bc 8faa 3ebd
00000110: a100 9dbd e06b fcbc 42ad d23b d0b4 293c
00000120: 3160 ee3c 569e 96bc 373b 91bd 60dc c2bc
00000130: 98d3 0e3d d8a1 e63c 47d7 383d 34f5 8fbc
00000140: 3aab 50bd 2fc1 49bd 2355 4fbd 343e c03c
00000150: 0063 8b3c a6a9 82bd 95e5 8bbd 900b a6bb
00000160: 33b5 75bd 84a2 a8bc 541b 543c 8234 bcbc
00000170: e9fc 82bd 54e8 a63c 8ca5 b13c 98fb 56bd
00000180: 5daf 813b b1be 763d 68b6 40bd ff63 80bd
00000190: 6a44 253d 4ea5 503d 344c 15bd 50a2 4cbd
000001a0: ff90 2fbb 9c38 753d a8b3 4ebd 2779 92bd
000001b0: 90ca c6bc 0325 a83c 705a e1bb d3c8 80bd
000001c0: e817 6a3c 5094 95bb 0038 1d39 0b80 023b
000001d0: 12ba 22bd 4c44 01bd a08c e8bb ebfd 193c
000001e0: 202d dcbc a1b4 48bd 5aa9 41bd 8087 a8bc
000001f0: 317b 08bc 2807 f8bc f8df e53c 001c c43c
00000200: 1847 1f3d 8b24 8ebd aaf2 b73c cfde 65bd
00000210: 3085 583d 0029 c7ba dcfc 2abc faa5 7ebd
00000220: 9276 08bd 7cef ddbc a87a 6d3c 7efa 3abd
00000230: df4b bc3c 4b39 6d3c f341 813c bddc 58bd
00000240: 2eac 523d dcd8 a6bc abe4 53bd 91b1 17bc
00000250: 387c 88ba 6cd2 433d 1a1e 31bd 0b96 69bc
00000260: 8fec 04bd 3007 4fbd 617c 40bd 84f9 b03c
00000270: 6ad3 ef3c 4473 6ebd a300 1ebd 2aae 84bd
00000280: 0095 f23c 0cf9 bbbc c13a babc e9d9 ed3c
00000290: 8bb4 44bd b333 01bd e66c 673d 9196 27bc
000002a0: 3da0 3fbc c4a0 ad3c ecfe 18bc b4b2 4f3d
000002b0: abb9 51bd e2b7 8bbc 158d c93c 484b 64bd
000002c0: 20c2 30bd aa29 183d a1b4 b9bc 89ad fa3c
000002d0: e800 1e3d 9c6c cebc ad02 523d fff0 0cbc
000002e0: 31d2 1c3b b416 5fbd 7a8a 2ebc faed 183d
000002f0: 325d 3a3d 61d8 72bd 3221 3b3d 947c f63c
00000300: d583 b8bc ac71 15ba ec1c d63c c4af 443d
00000310: a053 1bbb a2d0 5f3d 7858 e5bb d0be 56bc
00000320: c3ac fe3c 2644 88bd c2cc 693c 46c2 9fbd
00000330: b609 81bd cf63 2c3d 3df9 6bbd 40d1 ebbc
00000340: 0eee 0d3d 6833 03bd 3ea5 12bc 3d51 00bd
00000350: c2d8 2f3d 74dc 773d 810b 513d 4504 503c
00000360: 1e27 72bd c825 69bc a105 773c 0cd0 0f3d
00000370: 2cb9 d2bc 1083 e5bb 0044 f73c 8067 a23c
00000380: 5a30 81bc e075 193c 1e27 46bd cc77 07bd
00000390: a868 acbc 534c 0dbd d6cb 003d 2185 2cbd
000003a0: aa65 58bd a16d 8abc 82dd 7fbd 3c26 5fbd
000003b0: b086 29bc 38cf 11bc 5efe 0abb e6bb 673d
000003c0: ac6c 7ebd e292 243d 5ebf 5cbd 9c30 35bd
000003d0: 705f 48bc 82a2 e73c c0f4 a93c 2652 613d
000003e0: 3ee1 4d3d f451 25bd 48ea 653d a889 8e3c
000003f0: f33b 133d 2262 793d 7501 6cbb 5cd5 f1bc
0.02558339 -0.0088786315 -0.038030427 0.009470342 0.056971885 -0.0049813557 0.02114249 -0.023657462
-0.0425936 0.053477407 -0.009161104 0.008980616 0.0024674388 0.016049726 0.0366459 0.0608219
0.04909499 0.02584761 -0.05098622 0.010502987 0.032492496 -0.03311038 0.045051858 0.028787836
0.02934084 -0.05839386 -0.003053978 -0.015758209 -0.045855142 0.00789196 0.006148182 0.04843568
-0.009663023 0.012604187 -0.04851765 0.0515083 -0.024771955 0.012661595 -0.021163642 -0.0076351105
0.024709543 0.00060187286 0.056565218 0.03784074 -0.0025253159 -0.05705499 -0.00668892 -0.04106162
-0.024819057 0.018579734 -0.020873269 0.04121252 -0.04386158 -0.01711823 0.019133907 -0.062129535
-0.012759179 -0.059356444 0.0007688118 0.037251357 -0.030478016 -0.045120217 0.03709699 -0.03391388
0.056951493 0.050639316 -0.012258791 -0.046549376 -0.076661356 -0.030813158 0.0064293453 0.01035805
0.029098602 -0.018386047 -0.070913725 -0.023786724 0.03486976 0.028153345 0.04512718 -0.017572977
-0.050944544 -0.0492565 -0.050618302 0.02346716 0.01701498 -0.06380014 -0.06830899 -0.0050672963
-0.05998726 -0.020585306 0.012945969 -0.022974256 -0.06395895 0.020374455 0.021685384 -0.052486032
0.0039576725 0.06024045 -0.047048956 -0.06269073 0.040348448 0.050938897 -0.036449626 -0.04995948
-0.0026789305 0.05986844 -0.050464302 -0.07152014 -0.024266511 0.020525461 -0.006877236 -0.06288304
0.014287926 -0.0045647994 0.00014993548 0.0019912745 -0.03972823 -0.031559274 -0.007096842 0.009398918
-0.026876986 -0.049000386 -0.047280647 -0.020572424 -0.008330152 -0.03027685 0.028060898 0.023939133
0.03888616 -0.06940564 0.022454578 -0.05612069 0.052861392 -0.0015194714 -0.010436263 -0.062170006
-0.033316202 -0.027091734 0.014494576 -0.045649044 0.022985397 0.014478992 0.015778517 -0.052944887
0.051433735 -0.020367078 -0.051731747 -0.009258644 -0.0010412997 0.047808096 -0.043241598 -0.014256964
-0.032452162 -0.050543964 -0.046993617 0.021603353 0.029275615 -0.058215395 -0.038574826 -0.06478532
0.029612064 -0.022945903 -0.022733094 0.029034572 -0.04802374 -0.031543445 0.056500338 -0.010228769
-0.011695919 0.021194823 -0.009338122 0.050707534 -0.051202457 -0.017055456 0.024603406 -0.055735856
-0.043153882 0.03714911 -0.022669138 0.030600326 0.038575083 -0.025198273 0.051272083 -0.00860238
0.0023928995 -0.05446501 -0.010653133 0.037336327 0.045499034 -0.059288386 0.045685954 0.0300887
-0.0225238 -0.00057008374 0.026136838 0.048019186 -0.0023700967 0.054642327 -0.0069990717 -0.013107017
0.031088239 -0.06653623 0.0142700095 -0.078007266 -0.0630068 0.042087372 -0.05761074 -0.028786302
0.034650855 -0.032031447 -0.00895053 -0.031327475 0.042931326 0.060512975 0.05103636 0.01269633
-0.059119336 -0.014230199 0.015077026 0.03511052 -0.025723062 -0.0070041493 0.030183792 0.019824743
-0.015770126 0.0093664825 -0.04837715 -0.03307323 -0.021045998 -0.034496617 0.031444393 -0.04211915
-0.05283133 -0.016897978 -0.062467106 -0.054479823 -0.010347053 -0.008899502 -0.0021208744 0.05657568
-0.062115356 0.04017914 -0.05389344 -0.04423581 -0.012229785 0.028275732 0.020746589 0.055009983
0.050263636 -0.04036136 0.05613163 0.017399624 0.035945844 0.060884602 -0.003601161 -0.029520683

fc2.bias f4 [128]
00000000: 783e 09bd c030 123c f2d9 1ebe 99b1 cebc
00000010: a914 f1bd 0419 b9be 5709 94be 72db cf3d
00000020: af1a 76be 1678 823f 863c 31be f838 663f
00000030: 2c97 c6bd 26d9 28bd dd20 06be 5442 64bd
00000040: ede4 99be 2cb8 033e 03d4 433e 1233 d8be
00000050: f75c 353c da0c e8bd d142 453f ae1f 3ebe
00000060: aee2 94bd ace8 28bf 8fb8 febd 1599 a7bd
00000070: 189d 673e bf95 08be 40ce 5e3f 9d95 4cbd
00000080: 4e16 0fbd db25 85bb 5d87 48bd ab6c 7b3e
00000090: 14ec de3d 7fc5 ab3d 28f3 b8bd 5fae 613e
000000a0: b5d5 bbbf e56b 80bd 436e 983f 98f2 02bd
000000b0: 780a 18be 8703 ca3e 0b7c 6f3f 4c96 303f
000000c0: 8378 3a3f 22b2 03be e3de 21be dd7b 17bd
000000d0: 35d3 b93c b4ae 5a3f a8c6 c0bd c1fd 1cbf
000000e0: 5a5b 1b3e 9181 c4bd 6d2d e03e 5e83 2c3d
000000f0: b43b a2bf b357 3abd e36a 113d fc25 55bd
00000100: efe3 53bd d2ab 00be 7b7e 4d3d c394 053e
00000110: d27c c93e 6b39 f83e c949 ea3d cc70 b43c
00000120: 0223 093b 2ad8 b7be 7891 49bd 864a 4dbe
00000130: 8987 61bd 790e 80be f8a2 9ebd 7db5 eebe
00000140: 0d2b 4e3e e850 48be e4c4 c63d f597 4bbd
00000150: 80e9 09bf 1a21 4ebf 2e6c d2bd 771f b4be
00000160: 3c23 963e 1cb8 e1bc 2602 993f f8b2 f7bd
00000170: a2c1 dc3e 0249 8bbd 253e 5dbc 01b0 71bd
00000180: e547 a6bc 21a4 30bc fe83 79bd 5057 d5bd
00000190: b1e4 72bd 7c8c b7be c90a adbd 6b98 b6bd
000001a0: 853c a7be 4256 a1be 01f4 c9bd 0a5d b43d
000001b0: 61f0 7e3d 70c6 69bb 9e80 4c3d e60b f03e
000001c0: 21d0 20bd 2319 2f3d b82f 2a3e 3d40 973e
000001d0: 9772 c63c b22f a83d 586a 8f3e c0c3 cfbd
000001e0: 33b9 13bd a462 00be 7985 e4bc 08ca afbc
000001f0: d414 a7be 89f5 38be ad88 b1bf 8cfe 89bb
-0.03350684 0.008922756 -0.15512827 -0.02523117 -0.11771519 -0.36151898 -0.28913376 0.10149278
-0.24033616 1.0192897 -0.17308244 0.8993068 -0.096968025 -0.041222714 -0.13098474 -0.055727318
-0.3005747 0.12863225 0.19123845 -0.42226464 0.011069528 -0.11330576 0.7705508 -0.18566772
-0.07269798 -0.6598003 -0.124375455 -0.08183495 0.2261852 -0.13338374 0.8703346 -0.04994737
-0.03493338 -0.0040633506 -0.048957217 0.24553172 0.10884872 0.08387279 -0.090307534 0.22039174
-1.4674593 -0.06270579 1.1908649 -0.031969637 -0.14847744 0.39455816 0.9354865 0.68979335
0.72840136 -0.12860921 -0.15807681 -0.03698336 0.02268372 0.85422826 -0.09412891 -0.613247
0.15171567 -0.09595025 0.43784657 0.04211747 -1.267447 -0.045493793 0.035502326 -0.052038178
-0.051731046 -0.12565544 0.05016945 0.1304503 0.39353043 0.48481306 0.11439855 0.022026442
0.0020925407 -0.35907108 -0.049210995 -0.2004796 -0.055060897 -0.25011042 -0.077459276 -0.4662284
0.2013361 -0.19562113 0.09705523 -0.049705464 -0.5387192 -0.8051926 -0.1027454 -0.35180256
0.29323757 -0.02755361 1.1953781 -0.120946825 0.4311648 -0.068010345 -0.013503586 -0.05900574
-0.020297954 -0.010781319 -0.060916893 -0.10417044 -0.05930013 -0.3584937 -0.08449323 -0.0891579
-0.3266336 -0.31511122 -0.09860993 0.08806808 0.062240962 -0.0035671256 0.049927346 0.46884078
-0.039260987 0.04274858 0.16619766 0.29541197 0.024224563 0.08212222 0.2801082 -0.10144758
-0.03606529 -0.12537628 -0.027895676 -0.02145864 -0.32633078 -0.18062414 -1.3869835 -0.0042112526

fc3.weight f4 [64, 128]
00000000: 1f1b d63c 651b 2e3d e597 72bd d654 a93d
00000010: 92ec e9bd ddf9 a53c 65fb 51be b3ab e6bc
00000020: 9b9f b5bc 675d a3be b9b8 92bc bd6c a0bd
00000030: 516b 8fbe daf6 bb3c 7700 b2bc 40fb 26be
00000040: 5eca 6c3c cd7e 60bd 304d 69bd fe7e 6bbd
00000050: bd42 1cbe 9134 a7bd 6317 d9bd 88cb 3f3b
00000060: 2c5f 7cbc a209 1bbe 9ad7 b6bb 48ab 973a
00000070: bc78 bd3c c5aa c1bd 2b6e 7dbd 96a9 a7bd
00000080: f1ae 7bbd ab98 5dbd 40bc 763d c604 05be
00000090: fe6e 71bd 2dd9 943d cbbf 533d 1df8 47be
000000a0: 7570 49bd c332 1bbe 02ed 1bbd ea5b 8bbe
000000b0: 58ce d93d 231a e83d ec02 3dbe 456f 6bbc
000000c0: c6fc 4bbe ddb2 f13d c266 593d 48a9 16bd
000000d0: c111 12bd daee c5bc c547 27be 1700 d8bd
000000e0: cfc4 52be 16b8 3bbc 3fa7 ff3b 13ea 1f3d
000000f0: 0458 b5be 0d5b 0bbd 3386 a43b 138a 70bd
00000100: 452a c1bd 6bd0 033c 5822 6abe 7ed1 50bb
00000110: b556 563d 33b8 b2bd 62c6 15bd 52b6 42be
00000120: 235d c7bc 732c 053d ed51 8abe ff40 c5bd
00000130: f648 703d c268 08be 1be3 c03d 4012 f7bd
00000140: 6bd5 3d3c a72b a8bc 7ede 26bd 166a d3bc
00000150: f3cd f1bd cbba 9bbd 6cff 5dbd 1ae7 61be
00000160: d9c6 0fbd 27d9 dcbc 6dbc 87bd 56ee c73d
00000170: 3193 07bd 9233 2d3d a884 19bd a824 66be
00000180: 49cc cdbc e49e 233a f2ee cbbc 0557 b7bd
00000190: 0c27 713d 9009 82bd e963 643d b73f 97bc
000001a0: fea4 26be 24ae 34be a922 b9bd 62b7 3ebd
000001b0: 2abf 94bd bbbb 683d 4446 10bf 59be d0bd
000001c0: 3c99 133d 1bfb 8fbd f947 20bd 7279 503d
000001d0: ac08 caba d8d9 38be 0f33 d33c e05f a23c
000001e0: e5f5 fbbc 6d50 94bd 6138 92bd 849c 6abc
000001f0: 5c50 78be 49be 393b 5944 20be a68f 5f3c
00000200: d216 933c 3780 5d3d 29f0 8dbe f08d ea38
00000210: ec4a 22be 0ab9 6e3c 8573 5f3d be34 f0be
00000220: b304 123c cfed 25be 9103 0bbe c16f 97be
00000230: e1fa b6bc 2d8b 403d 43d9 373f 8741 0c3b
00000240: 9a43 b2be 03cd eabb 6909 e8bd c729 09be
00000250: 75bc f53d eb55 1cbc 9826 23bf b639 23bd
00000260: a91f 833d 98e2 ecbe d579 a5bd 5f1c 683d
00000270: 2301 c0be 2d51 e8bd 1fd3 88bf 8468 96be
00000280: 068e 4fbd d4d5 493d 54c7 d53b 22d8 0dbe
00000290: 6f6c cb3d 6b3b 053d f623 d5bd ea41 b0bd
000002a0: 2f65 f5bd c867 0dbe b24b 0ebf ccfb 40be
000002b0: a6ef 45be 2213 e33d c205 14be a33c 0fbe
000002c0: c5d4 0dbe cde6 993d 3dda b5bb 3c7d 6f3c
000002d0: 193b 7cbf 4e3f b5be caca 19bc 0717 f8bd
000002e0: a78a 17bf fe80 7d3d 8a7e 8e3e 6ac5 88bd
000002f0: 208e 8bbd 87f5 a7bc e9dc 663d a732 363c
00000300: 9887 273c b193 4e3d ae91 d5bd b349 3a3f
00000310: cd03 c3be b16f 223d c133 52bd 8cd1 25bc
00000320: 1141 84bd aa9b abbc 25cb 44bd 91a8 3dbc
00000330: 893d a33c ca60 69bc 24a8 8d3d ab7d 4c3d
00000340: ef45 5ebe 462d f9bd 21bb ccbe dcb4 83bd
00000350: cec3 62bd 0970 0c3e 1064 c9bd 6ecf b03c
00000360: 838e 89bf 9547 6ebe ee5a 2bbd 5298 15bd
00000370: e08e f3be 7876 183d 3520 b93d 4f74 81be
00000380: e801 963c 4f20 4c3d 0de5 32bd fc22 81bd
00000390: 129e 1cbd 0822 46be 3818 ef3c f2b2 d23b
000003a0: 107d 98be e597 3abe 9064 6e3d 1956 8cbd
000003b0: 5693 81bd 3589 7d3d 4e9e 8abd 6447 36bf
000003c0: 63b3 2ebd 9080 6abe 15e0 8ebe 1794 96bb
000003d0: 42ff cb3c 1e40 edbd d6cd dcbd d895 43bd
000003e0: 1128 64bc e7fe 95bd 8032 32be e0c4 56bd
000003f0: de43 e3be 7052 78bd b7d4 9c3d 58e9 8b3d
0.02613598 0.042506594 -0.05922689 0.08268134 -0.11422075 0.020260746 -0.20506056 -0.028158044
-0.022170832 -0.31907198 -0.017910348 -0.0783324 -0.28011563 0.022944856 -0.021728737 -0.16306782
0.014452545 -0.054808427 -0.056958377 -0.057494156 -0.15259834 -0.08164323 -0.10600164 0.0029265601
-0.01540355 -0.15140393 -0.005579901 0.0011571432 0.02312886 -0.094564 -0.061872642 -0.08186643
-0.061446134 -0.054100674 0.060238123 -0.12990102 -0.05894374 0.072679855 0.05169658 -0.19528241
-0.049179513 -0.15156083 -0.038067825 -0.27218562 0.1063506 0.1133311 -0.18458146 -0.01436979
-0.19920644 0.118016936 0.053076513 -0.036782533 -0.035661463 -0.024161745 -0.16335972 -0.10546892
-0.20582889 -0.011457464 0.0078019197 0.03904159 -0.35418713 -0.03402238 0.0050208806 -0.058725428
-0.094318904 0.008045296 -0.22864664 -0.0031863148 0.052328784 -0.087265395 -0.036566146 -0.19014862
-0.024336403 0.032513093 -0.2701563 -0.09631538 0.05866333 -0.13321212 0.09418317 -0.12064028
0.011586527 -0.020528628 -0.04073953 -0.025807422 -0.1180686 -0.07603987 -0.054198667 -0.22060814
-0.035101745 -0.026959015 -0.06627736 0.09762256 -0.033099357 0.04228551 -0.037480026 -0.22474921
-0.025121825 0.0006241633 -0.024894211 -0.089521445 0.05887513 -0.0634948 0.055759344 -0.018462999
-0.16273877 -0.17644554 -0.09039814 -0.046561606 -0.07263024 0.05681966 -0.56357217 -0.10192556
0.036034808 -0.070303164 -0.03913114 0.05089707 -0.0015413961 -0.18051851 0.025781183 0.019821107
-0.0307569 -0.072419025 -0.0713966 -0.014319543 -0.24249405 0.0028342179 -0.15651073 0.013645088
0.017955218 0.054077353 -0.2772229 0.000111844274 -0.15848893 0.014570484 0.054553527 -0.4691524
0.008912253 -0.16203998 -0.13575579 -0.2957745 -0.022336425 0.04700773 0.7181589 0.0021401362
-0.348172 -0.0071655526 -0.1132992 -0.13394843 0.11998836 -0.009541969 -0.63730764 -0.03984996
0.06402523 -0.46266627 -0.08079878 0.05666768 -0.37500867 -0.11343608 -1.0689429 -0.29376614
-0.050672553 0.049276188 0.006524006 -0.1385198 0.099327914 0.03252737 -0.1040725 -0.08606322
-0.1198219 -0.1380912 -0.5558425 -0.18846053 -0.193297 0.11087634 -0.14455321 -0.13987975
-0.13850696 0.07514725 -0.0055496977 0.014617261 -0.98527676 -0.3539986 -0.009386728 -0.12113767
-0.5919594 0.061890595 0.27830917 -0.06678279 -0.068142176 -0.020502819 0.05636302 0.011120475
0.010225199 0.05043382 -0.10428177 0.72768706 -0.38088837 0.0396573 -0.051318888 -0.010120761
-0.06457723 -0.02094825 -0.048045296 -0.011575834 0.019926803 -0.014244268 0.06916836 0.049924534
-0.21706365 -0.12166838 -0.39986518 -0.064309806 -0.055362515 0.13714613 -0.098335385 0.021583285
-1.0746616 -0.23269494 -0.041834764 -0.036522217 -0.47569942 0.037222356 0.09039346 -0.2528405
0.018311456 0.0498355 -0.04367547 -0.06305501 -0.038236685 -0.1934892 0.029186353 0.0064300233
-0.29782915 -0.18222006 0.058201373 -0.06852359 -0.0632693 0.06189843 -0.067684755 -0.71202683
-0.042651545 -0.22900605 -0.27905336 -0.0045952904 0.02490199 -0.11584495 -0.107814476 -0.047750324
-0.013925568 -0.073240094 -0.17402077 -0.05243385 -0.44387716 -0.060625494 0.0765776 0.06831616

fc3.bias f4 [64]
00000000: 9084 9bbe 55e7 603f 2d64 453c 7d30 77be
00000010: b4e4 f6bd 49ff d2be 4229 92be 600d 96be
00000020: 1328 66be 89d8 29be b2fd 043f fd23 91be
00000030: 69a6 bf3f c4e6 d5bf 95db f33e c860 703d
00000040: 8b90 563e c493 5c3f b15b e13e 5fc4 bf3d
00000050: 3320 0fbe ef61 383f fce4 173f 3a36 31bf
00000060: 3622 b7be 6b4d 77bf a7f8 54be f95c 5f3e
00000070: 1307 4cbf 97a5 e7bf eddc 11c0 f552 00be
00000080: 4200 7d3e 2e28 0fbf d810 2f3d db0a bfbe
00000090: 5236 db3e 527e 82bd e319 fb3f b98b 563d
000000a0: fb85 883e 8782 243e 20f8 e1bd f12d 813f
000000b0: 1fdc 45bd 5bd6 1fc0 d5e9 0dbf 857a 12c0
000000c0: 1da8 993e 8d55 25bf d130 ca3f 35d0 cd3e
000000d0: 12a4 bbbf 4fd3 a03f d3d3 04c0 e72e c23e
000000e0: 28a8 9bbe a062 183f b444 eebf 5672 81bf
000000f0: 8041 c0bf 69a1 ffbe 58a2 19bf 0115 14be
-0.30374575 0.87852985 0.01204781 -0.2413959 -0.120553404 -0.41210392 -0.28547102 -0.2930708
-0.22476225 -0.16586508 0.5194961 -0.2834777 1.4972659 -1.6711049 0.47628465 0.058686048
0.20953576 0.8616297 0.44015267 0.09363627 -0.13977127 0.72024435 0.5933378 -0.6922337
-0.35768288 -0.96602505 -0.20797978 0.2181281 -0.79698294 -1.8097409 -2.2791092 -0.12531646
0.2470713 -0.55920684 0.042740673 -0.3731297 0.4281488 -0.0637175 1.9617275 0.052379344
0.2666472 0.16065417 -0.11033654 1.0092145 -0.048305627 -2.4974582 -0.55434924 -2.288728
0.30011073 -0.64583665 1.5796148 0.40197912 -1.4659445 1.2564486 -2.0754287 0.3792641
-0.3040173 0.5952549 -1.8614717 -1.0113018 -1.5019989 -0.49927834 -0.6001334 -0.14461137

fc4.weight f4 [6, 64]
00000000: 0324 973d b7ad 0a3d 6998 b73d aed2 4ebb
00000010: e8b4 663d b225 a13c 5266 4cbc 8dc9 443d
00000020: 1d86 403d c8a1 13bd 4f92 2d3c 4950 1d3d
00000030: 895d 863c b29b e13c eda8 293d fbf1 50bc
00000040: 177b 7b3c 95cb ea3c 24ef d13d b48d e93d
00000050: 2d4c 9dbd 63d0 d73c d070 353c 3d64 17bd
00000060: 10f1 c6bd b764 3d3d 9c02 963d 386c 99bc
00000070: 2ccd 8e3c 4c23 2ebd 472e 22bd 4cb8 6c3c
00000080: c26f 853c c72a 963b 2b45 843c f188 8abc
00000090: d678 29bd 199d 3b3d 1273 163d 06f9 d73c
000000a0: 5fad 5e3d 9f58 623d b980 f43d cf79 083e
000000b0: 533d 003c e6dd ddbc b223 143d cee7 d9bc
000000c0: e086 3ebc 620f 91bc 4f01 6b3d f295 863c
000000d0: b0f9 8cbc f51f b3bc d39a 83bc d58d 6a3c
000000e0: 9b6e 9f3d 69e4 ec3c 575a 46bd 31f4 013e
000000f0: 871f 9bbc 6528 253e 5c3c 803d c433 60bc
00000100: b27c d63c 0c17 083d 7604 a03d 1c3d bf3b
00000110: 4b8d 423d 8267 9d3c 8efc c33d 5290 4c3d
00000120: 4e6e 383d 9770 0ebd 4ac1 bd3b 8212 dd3c
00000130: 64ea 823c f09b f73c 6ff7 553d 6985 a73c
00000140: c1e5 5e3c 9810 013d 48ab e73d 1009 033e
00000150: ee23 19bd 1164 f93c e256 2f3c b9c6 16bd
00000160: c0c5 08bd 41a5 423d 1ea6 183d ef45 babc
00000170: 004f b93c fffa b0bc 11bf 1ebd 01dc 863c
00000180: 342c d83c 76c1 b73c 273b 0839 7401 94bc
00000190: 256e 5fbd c405 2a3d aea0 143d 3076 d33c
000001a0: c061 4e3d 25bd 823d 8e13 d23d 54d4 073e
000001b0: a274 1f3b 8b34 e3bc 1fef 003d 458b b5bc
000001c0: b112 3fbc 15d3 c1bc ac00 723d f7db f5bc
000001d0: db5a 99bc e289 b5bc de0f 7cbc 7b26 783c
000001e0: 66c1 933d 7db9 a43c 9fcf 49bd b19f c73d
000001f0: 21c4 73bc b941 113e 1fd6 703d 9e06 3fbc
00000200: 1949 4f3d 16c0 103d b3e2 a83d 18c4 313c
00000210: 00fb 443d a786 5a3c 368d 403d 498b 333d
00000220: f67e f83c 4b69 edbc 2818 8d3c a722 053d
00000230: 6b09 883c 73d0 ea3c 10f0 1e3d 3985 ad3c
00000240: e111 10bc 8e95 203d 73cc a83d 14a4 b53d
00000250: 6a09 9ebd 914d fe3c 8747 573c b5ae 10bd
00000260: 894a 12bd 0b25 2e3d a3c2 973d 5a06 fabc
00000270: 65e8 e13c 6116 02bd 43ac 22bd c029 4dbd
00000280: 67e0 953c 61b0 813c 43f3 583c 815c f7bc
00000290: 7bf4 26bd 1814 183d b2f0 173d cef1 da3c
000002a0: dda0 e83c 7e67 573d ab5b 003e c236 0d3e
000002b0: 2f20 f1ba 12e5 c8bc 4848 633c b844 bebc
000002c0: 1404 3ebc 1879 e6bc 2c74 6d3d 171c 043c
000002d0: 3ae9 f23b b608 b3bc 39f7 71bc 7bab b53b
000002e0: 1a89 a63d cd66 413c 045d 47bd e016 e53d
000002f0: 1677 77bc 9d11 0a3e ac55 023d 2d26 a7bc
00000300: e22f 353d 0f2c f93c ef9b b33d b652 533b
00000310: 43ca 693d 54d7 173d d193 dcba 6ac6 803d
00000320: ebc5 2c3d bfcf d8bc f321 803b 3818 273d
00000330: 6c21 8a3c 2a9c 043d 10fa ee3c 18eb acbc
00000340: 9112 8a3c 29ea 543c 3301 053e 7633 c73d
00000350: 51e9 41bd 1916 fa3c 53b1 183c d03c b0bc
00000360: 6871 9dbd 91ec 383d f59f a73d d511 9abb
00000370: 0b57 db3c 7f13 30bd ea19 25bd 9a87 7b3c
00000380: 2a7b 153d 27bf 6f3c 6420 2b3b 43fe a23c
00000390: 7f72 24bd dd56 5b3d c1a3 153d 62f6 be3c
000003a0: 8f99 493d 8378 3e3d 527c d23d f009 123e
000003b0: 5467 52bb 6b20 d5bc 5790 4c3c f2d5 bcbc
000003c0: 35f9 3dbc a1f1 ebbc aa52 703d d2d3 f5bc
000003d0: d506 eabc 3b38 b5bc 4ef3 81bc 05a0 ab3c
000003e0: 605b 893d 9a19 8f3c b6e6 4cbd 8221 d73d
000003f0: f194 d7bc bb2b 1d3e 0484 393d 64cf fdbb
0.073799156 0.033857074 0.08964617 -0.003155868 0.05632487 0.019671295 -0.012475567 0.048043776
0.0470029 -0.03604296 0.010593965 0.038406644 0.016402023 0.027540062 0.041420866 -0.012753005
0.015349171 0.028661529 0.102506906 0.11403981 -0.07680545 0.026344484 0.01107426 -0.03696083
-0.09713948 0.046238627 0.073247164 -0.01872836 0.017431818 -0.04251413 -0.039594915 0.014448237
0.016288642 0.004582736 0.016146263 -0.016911002 -0.041375004 0.045804117 0.036730833 0.02636386
0.05436456 0.055260297 0.119386144 0.13327716 0.007827121 -0.027083348 0.036166854 -0.02659979
-0.011628836 -0.01770753 0.057374295 0.016428921 -0.017208904 -0.021865824 -0.016065037 0.014316042
0.07784768 0.028917508 -0.048426 0.12690808 -0.018935932 0.1612869 0.06261513 -0.013684217
0.026182506 0.033225104 0.07813351 0.005836142 0.04749803 0.019214395 0.09569655 0.049942322
0.04502707 -0.034775343 0.005790864 0.026986364 0.015980907 0.030225724 0.052237924 0.020449357
0.013604582 0.031509966 0.11311966 0.12796426 -0.03738778 0.030443223 0.010701867 -0.03681061
-0.033391714 0.04752088 0.037267797 -0.022738425 0.022620678 -0.02160406 -0.038756434 0.016462328
0.026388265 0.022431117 0.00012992007 -0.0180671 -0.0545484 0.041509405 0.03628605 0.025813192
0.05038619 0.06383733 0.10257636 0.1326459 0.0024330993 -0.027735015 0.031478044 -0.022161135
-0.011662171 -0.023660222 0.059082672 -0.030012114 -0.018720081 -0.022160474 -0.015384642 0.015145893
0.07214622 0.020107979 -0.04927027 0.097472556 -0.014878304 0.14185227 0.05879795 -0.0116592925
0.05060682 0.035339437 0.082463644 0.010849975 0.048090935 0.013337768 0.04700967 0.043834005
0.030333977 -0.028980872 0.017223433 0.03250375 0.016606053 0.02866385 0.03880316 0.02118169
-0.008793325 0.039205126 0.082421206 0.08869186 -0.07716639 0.031042846 0.013139612 -0.035322864
-0.035715614 0.042515796 0.07410171 -0.030520607 0.027576635 -0.031759623 -0.039715063 -0.050088644
0.01829548 0.015831174 0.013241592 -0.030195476 -0.0407605 0.037128538 0.03709478 0.02672663
0.028397018 0.052588932 0.12534969 0.1379042 -0.0018396432 -0.024523292 0.013872214 -0.023226127
-0.011597652 -0.028133914 0.05797212 0.008063338 0.0074130567 -0.02185474 -0.014768415 0.0055441237
0.08131619 0.011804295 -0.04867269 0.11186004 -0.015104076 0.13483281 0.031819984 -0.020403946
0.044235118 0.030416517 0.08769976 0.0032245344 0.057077657 0.037070587 -0.0016828721 0.062878445
0.042180937 -0.026466249 0.003910297 0.04079458 0.01686164 0.032375492 0.029171973 -0.021108195
0.016854556 0.012995281 0.12988739 0.09726612 -0.04734165 0.030528115 0.009319621 -0.021513373
-0.07687646 0.045147482 0.08184806 -0.004701833 0.026774904 -0.042987343 -0.040307917 0.015352154
0.03649441 0.014632977 0.0026111836 0.019896632 -0.040148254 0.053549636 0.03653312 0.023310844
0.04921871 0.046501648 0.102776185 0.14261603 -0.0032105045 -0.026016435 0.012485585 -0.023051236
-0.01159506 -0.028801741 0.058672585 -0.03000823 -0.02856771 -0.02212154 -0.015863087 0.020950327
0.067068815 0.017468262 -0.05002471 0.10504438 -0.026316138 0.15348713 0.045291916 -0.00774567

fc4.bias f4 [6]
00000000: f7db cc3e f052 cd3e 978e cd3e fcc4 cc3e
00000010: 8553 cc3e abd4 cd3e
0.4001157 0.4010234 0.4014785 0.39994037 0.3990747 0.40201315
