checkpoints/2021_02_05-08_55_29/last/last_dqn-Pong-ram-v0.pt (torch, 301239 bytes, 8 tensors)

fc1.weight f4 [256, 128]
-0.04338984 0.0029278256 -0.04974133 0.033332445 -0.0810253 0.057442024 -0.06424421 -0.07024314
-0.04857849 0.016928941 -0.047635566 -0.08188799 -0.043427162 -0.10015674 -0.13853595 -0.02471791
-0.0747754 0.059719015 -0.021624103 0.029057425 0.05994299 0.020986035 0.024169859 0.077964336
-0.047211558 0.020645762 -0.046822213 0.055818602 0.06324475 -0.08884007 0.06810517 0.034858614
0.03116975 0.029039687 0.066129975 -0.019017825 -0.08209706 -0.03270998 -0.069596894 -0.0015039728
-0.023849845 -0.054761473 -0.015387772 0.07639035 -0.014320535 -0.0045425417 -0.02113236 0.006546447
0.07140773 0.06775893 0.035893288 0.026395673 0.013490708 0.02679668 0.018780813 -0.0821489
-0.05083974 0.07544703 -0.002426677 -0.078949034 0.0138450125 0.06568185 -0.09087789 -0.06685381
-0.060559712 -0.0037995148 -0.027962014 -0.017756678 -0.09351625 0.03286197 0.0702351 0.046168633
-0.069937825 -0.07859743 0.029356472 -0.005362084 0.028886085 -0.0863688 -0.0052699787 0.062335324
0.041004363 0.003227711 0.017378831 -0.008368615 -0.048598878 -0.03340189 -0.05382671 0.07341617
0.04863893 0.030911405 -0.06778082 0.06820238 0.027713522 0.061146583 -0.034771096 0.018738056
0.08630082 0.05945523 0.07088716 -0.018560207 0.06734107 -0.0692286 0.0076446165 -0.049767494
-0.020613506 -0.022636028 0.0066131353 0.080445744 0.043759648 -0.0003744326 0.06274208 -0.0452951
0.04555283 -0.008196487 -0.015380533 0.010347926 -0.06771402 0.01021392 0.029719522 0.075566
-0.0275191 0.013569167 0.08313076 -0.045265052 0.07667402 -0.051231064 0.031613566 0.027279088
0.016188957 0.06989778 0.02737302 0.023230141 -0.018294817 -0.07498158 -0.021461923 -0.046534892
0.0062485626 -0.010115261 -0.030493539 0.0753366 -0.064636186 -0.0034345526 -0.11822625 0.07734416
0.0048880414 -0.26622057 -0.12751599 -0.071950376 -0.04678736 -0.08217772 -0.05752994 -0.038520217
-0.001957927 0.052365612 0.025753997 0.059214875 -0.06399866 -0.0010411668 -0.08706815 0.042204775
0.009920603 0.07698922 -0.071363755 0.06237988 0.066118434 0.06296219 0.004112374 0.07186832
0.050529018 0.05744406 -0.014241559 -0.0763301 -0.009599942 0.008076115 -0.06870729 -0.05920274
-0.09324337 -0.06398209 0.061251763 -0.0062729223 -0.013898514 -0.0049503464 0.04579833 -0.07805253
-0.050337125 -0.029386511 -0.06131405 0.03708955 0.0941252 -0.09425755 -0.08351429 -0.094575524
0.007895029 0.06263838 -0.07703241 -0.043916482 0.0196266 -0.06542951 0.06658264 0.011291081
-0.033106286 -0.002759383 0.019056289 -0.039755594 -0.07698967 0.0005941125 0.0016099885 0.0017823691
-0.012898537 0.056751817 -0.02466558 -0.008555346 0.036344197 -0.055634923 0.023666741 -0.019544052
0.042397548 -0.04794753 0.0032666863 0.008646973 -0.071116954 -0.0642709 0.033898108 -0.025726004
0.052493542 -0.08731554 -0.04369289 -0.07280211 0.035308618 -0.0025624968 -0.016486319 -0.014705288
-0.06908865 0.02506649 0.0022031527 -0.06099794 0.033259448 -0.0017765212 -0.08548458 0.04754588
0.047277782 -0.016653262 -0.061026685 0.0035487963 0.06669606 0.08090537 -0.06671561 -0.039922275
0.068821326 0.0077657043 0.045956764 -0.052493576 0.06764826 -0.08116242 -0.01275771 -0.006665047
00000000: 8bb9 31bd c3e0 3f3b 91bd 4bbd 9a87 083d
00000010: 98f0 a5bd 5448 6b3d 7892 83bd a3db 8fbd
00000020: 3dfa 46bd 90ae 8a3c 831d 43bd e4b4 a7bd
00000030: aee0 31bd fa1e cdbd 5edc 0dbe 377d cabc
00000040: d823 99bd ed9b 743d 0825 b1bc d609 ee3c
00000050: c886 753d e8ea ab3c deff c53c c4ab 9f3d
00000060: e860 41bd 4d21 a93c a6c8 3fbd 0ca2 643d
00000070: 7786 813d c8f1 b5bd b97a 8b3d e8c7 0e3d
00000080: b457 ff3c a3e4 ed3c 276f 873d 45cb 9bbc
00000090: 8122 a8bd e6fa 05bd d188 8ebd f420 c5ba
000000a0: c060 c3bc 914d 60bd fe1c 7cbc 8b72 9c3d
000000b0: ada0 6abc 9ad9 94bb c51d adbc 9483 d63b
000000c0: 373e 923d 32c5 8a3d d704 133d bd3b d83c
000000d0: 2108 5d3c b684 db3c 38da 993c af3d a8bd
000000e0: 553d 50bd f983 9a3d e208 1fbb 08b0 a1bd
000000f0: 31d6 623c 3584 863d 301e babd a6ea 88bd
00000100: 760d 78bd 4801 79bb 9810 e5bc 7476 91bc
00000110: 7385 bfbd 469a 063d 6cd7 8f3d 521b 3d3d
00000120: 903b 8fbd b0f7 a0bd fc7c f03c 6cb4 afbb
00000130: 83a2 ec3c 20e2 b0bd c9af acbb 5353 7f3d
00000140: 31f4 273d 0188 533b 0d5e 8e3c 841c 09bc
00000150: 9e0f 47bd 6cd0 08bd 6579 5cbd 385b 963d
00000160: 9d39 473d ea39 fd3c acd0 8abd b0ad 8b3d
00000170: 7807 e33c d774 7a3d 236c 0ebd 8d80 993c
00000180: 7cbe b03d 5487 733d 4a2d 913d 930b 98bc
00000190: 1dea 893d b9c7 8dbd b17f fa3b 00d9 4bbd
000001a0: a8dd a8bc 316f b9bc 00b3 d83b bdc0 a43d
000001b0: 513d 333d 7e4f c4b9 eb7e 803d 5b87 39bd
000001c0: 9b95 3a3d 8f4a 06bc a2fe 7bbc 598a 293c
000001d0: a6ad 8abd 4958 273c 5b76 f33c 59c2 9a3d
000001e0: bc6f e1bc 3651 5e3c 7640 aa3d d967 39bd
000001f0: 4507 9d3d aad7 51bd 3a7d 013d 6578 df3c
00000200: b49e 843c 9126 8f3d 623d e03c 234d be3c
00000210: 03df 95bc f18f 99bd ead0 afbc 5f9b 3ebd
00000220: bec0 cc3b 7bba 25bc 96cd f9bc 134a 9a3d
00000230: fa5f 84bd 3b16 61bb 9b20 f2bd 9d66 9e3d
00000240: dd2b a03b 104e 88be 8d93 02be b85a 93bd
00000250: 1aa4 3fbd cb4c a8bd 84a4 6bbd 60c7 1dbd
00000260: 9050 00bb 537d 563d 0cfa d23c 4c8b 723d
00000270: bb11 83bd c377 88ba c950 b2bd eade 2c3d
00000280: 068a 223c 86ac 9d3d 2927 92bd 0c82 7f3d
00000290: 1a69 873d 52f2 803d 18c1 863b b32f 933d
000002a0: 84f7 4e3d 764a 6b3d 6e55 69bc f552 9cbd
000002b0: 1349 1dbc ae51 043c 68b6 8cbd 937e 72bd
000002c0: 61f6 bebd 0b09 83bd 21e3 7a3d 168d cdbb
000002d0: 98b6 63bc 8436 a2bb 0897 3b3d 01da 9fbd
000002e0: 4d2e 4ebd fbbb f0bc 7124 7bbd 36eb 173d
000002f0: b6c4 c03d 1a0a c1bd 8a09 abbd d0b0 c1bd
00000300: 275a 013c 8d48 803d 2bc3 9dbd c5e1 33bd
00000310: f7c7 a03c e8ff 85bd 7b5c 883d 3afe 383c
00000320: 759a 07bd c4d6 34bb ef1b 9c3c c3d6 22bd
00000330: c3ac 9dbd 37be 1b3a 4006 d33a 629e e93a
00000340: 6354 53bc 9874 683d 780f cabc b92b 0cbc
00000350: a7dd 143d 72e1 63bd c1e0 c13c d91a a0bc
00000360: 0da9 2d3d a164 44bd e715 563b 09ac 0d3c
00000370: c4a5 91bd 76a0 83bd bed8 0a3d 57bf d2bc
00000380: 7803 573d 7dd2 b2bd 51f7 32bd 4619 95bd
00000390: c59f 103d 90ef 27bb 510e 87bc 73ee 70bc
000003a0: 5a7e 8dbd 3d58 cd3c c562 103b fad8 79bd
000003b0: 0f3b 083d 29da e8ba 8a12 afbd 78bf 423d
000003c0: 59a6 413d 6c6c 88bc 1ef7 79bd ec92 683b
000003d0: f297 883d b7b1 a53d 32a2 88bd 8a85 23bd
000003e0: 32f2 8c3d 7377 fe3b 293d 3c3d 8103 57bd
000003f0: 2c8b 8a3d 7c38 a6bd b705 51bc 7766 dabb

fc1.bias f4 [256]
0.04281109 -0.053217232 -0.09309745 -0.030589713 0.043029007 -0.041700576 -0.0052077817 -0.012531683
-0.04135582 -0.0684123 -0.0386919 -0.028842347 -0.049018715 0.002602563 0.066177495 -0.06013959
-0.0057045105 -0.06699415 0.031188032 0.06803138 -0.023345236 0.0010640718 -0.04543716 -0.061071794
0.04159643 -0.010227596 0.06979071 -0.062258538 0.06907821 0.0645018 0.070847616 0.007144694
-0.05836512 0.010896316 0.027032135 -0.0177956 -0.08521848 -0.0428795 -0.0324783 0.035773125
-0.032926057 -0.081517264 0.046663694 0.06904741 0.04098768 0.017171575 -0.072970055 -0.07130461
-0.07396852 0.054941755 0.07312676 0.0436605 -0.08855591 -0.026120886 0.031969152 0.08055237
-0.012863806 -0.062567264 -0.097102396 0.041308396 0.012307585 -0.04547449 0.053202134 -0.10259061
0.055959664 -0.0048882514 -0.040260166 -0.068630524 -0.046126727 0.043228064 -0.027402386 0.06798438
-0.034597177 -0.029454324 -0.073126845 0.058582895 -0.0015680862 0.01822712 -0.059134327 0.042292897
0.07732521 -0.025654629 0.033459373 0.04015391 -0.020936657 0.023809735 -0.03869275 -0.019999817
-0.037160985 -0.07848662 0.028882056 -0.0693475 -0.0021260497 0.021415764 -0.025475014 -0.034096472
-0.03884366 0.071731396 -0.07027873 0.023512417 -0.064388745 0.04701897 -0.034491174 -0.03391694
-0.0069061834 0.0568226 0.009763549 -0.07328744 0.0013143705 -0.077420056 0.08330201 -0.055571537
0.05323014 -0.053184234 -0.017324705 0.020700188 -0.031019133 0.03741443 0.054514613 -0.012677581
0.073201686 -0.07955767 -0.050259817 0.037418056 0.0022843427 -0.08621087 0.042561278 -0.0025267848
-0.06957933 -0.07299755 -0.09570581 0.06654733 0.02275631 -0.087751 -0.052622054 -0.08554397
-0.050812706 -0.008458244 0.0577504 -0.057194486 -0.025218897 -0.07057216 0.017693436 -0.004503029
0.011869617 0.032487117 0.009927039 -0.09851469 -0.004453194 0.08431042 0.01933395 -0.10065393
0.0031337524 0.066534154 0.027886089 -0.021493671 0.056590308 -0.0612094 0.066434525 0.07593977
-0.055385593 0.038994662 0.013321789 -0.06903117 -0.019929256 -0.029918943 0.0052312985 0.045910496
-0.07741629 0.030440332 -0.06450373 0.0732798 0.07502915 -0.06324574 0.022953039 -0.044458833
-0.03060212 0.07904371 0.0006723228 -0.028519187 0.056149177 0.051456384 -0.013114205 0.02098021
-0.076830335 -0.024795186 -0.06061234 -0.07883488 -0.03138846 -5.0796157e-06 0.055655308 0.074970916
0.06319618 -0.04712531 -0.01894303 -0.04558108 -0.0075317305 -0.0721204 0.017283816 0.039850995
-0.0606732 0.04756737 0.055281352 -0.005790076 -0.08602813 -0.060158037 0.07885922 -0.031086978
-0.038337912 -0.059713222 -0.007951405 0.0015600817 0.03240936 0.077339046 -0.030922243 -0.037022762
-0.0867972 -0.0570459 0.027067216 -0.040480383 0.0045021893 -0.03295108 -0.03369287 0.07169592
-0.09625355 0.0098438235 0.011523791 -0.072420165 -0.044619847 0.019017378 -0.05157814 0.05528428
-0.0913939 -0.0334044 0.026463289 -0.088076174 0.028239822 -0.08026197 -0.024940195 0.03175585
0.016513683 0.014676212 -0.06515454 -0.023403207 0.05727966 -0.07753892 -0.08241649 -0.020193093
-0.02951608 -0.065098606 -0.041425705 0.04406609 -0.07950278 0.075261004 0.042748228 0.07042036
00000000: ae5a 2f3d 50fa 59bd e0a9 bebd 4797 fabc
00000010: 2f3f 303d 39ce 2abd 0aa6 aabb b051 4dbc
00000020: b864 29bd bf1b 8cbd 667b 1ebd c946 ecbc
00000030: d9c7 48bd c38f 2a3b 1188 873d ee54 76bd
00000040: e7ec babb 3b34 89bd 0b7e ff3c 0954 8b3d
00000050: 823e bfbc 5378 8b3a 511c 3abd 6b26 7abd
00000060: 0561 2a3d a691 27bc 6fee 8e3d cf02 7fbd
00000070: e078 8d3d 8519 843d 8e18 913d 0a1e ea3b
00000080: 4410 6fbd 7686 323c 7f72 dd3c 14c8 91bc
00000090: 0787 aebd 6aa2 2fbd f707 05bd d786 123d
000000a0: 79dd 06bd 86f2 a6bd 6e22 3f3d ba68 8d3d
000000b0: b3e2 273d 67ab 8c3c 5371 95bd 2708 92bd
000000c0: cf7c 97bd 9b0a 613d 7cc3 953d 5ad5 323d
000000d0: cd5c b5bd 78fb d5bc 16f2 023d a4f8 a43d
000000e0: b7c2 52bc 4423 80bd 9fdd c6bd fe32 293d
000000f0: c1a5 493c 7543 3abd 7bea 593d 071b d2bd
00000100: f635 653d a02d a0bb d8e7 24bd 298e 8cbd
00000110: 61ef 3cbd e90f 313d f87a e0bc 653b 8b3d
00000120: c5b5 0dbd 324a f1bc 87c3 95bd 9ef4 6f3d
00000130: 3e88 cdba 0b51 953c d636 72bd 513b 2d3d
00000140: ae5c 9e3d a829 d2bc b20c 093d 6d78 243d
00000150: 5a83 abbc a20c c33c 4a7c 1ebd a8d6 a3bc
00000160: 1e36 18bd 98bd a0bd 109a ec3c 1006 8ebd
00000170: 3255 0bbb 1d70 af3c fab0 d0bc bea8 0bbd
00000180: 881a 1fbd e9e7 923d 4bee 8fbd 1d9d c03c
00000190: 3fde 83bd f796 403d 9e46 0dbd 7dec 0abd
000001a0: 444d e2bb d1be 683d 4bf7 1f3c ba17 96bd
000001b0: f546 ac3a 688e 9ebd 3f9a aa3d fb9e 63bd
000001c0: d907 5a3d b6d7 59bd 8aec 8dbc 7193 a93c
000001d0: d61b febc e03f 193d b74a 5f3d a1b5 4fbc
000001e0: c4ea 953d 22ef a2bd 3ddd 4dbd ad43 193d
000001f0: e9b4 153b 538f b0bd bc54 2e3d 6a98 25bb
00000200: 9c7f 8ebd bd7f 95bd 6801 c4bd f749 883d
00000210: 716b ba3c ccb6 b3bd 398a 57bd ad31 afbd
00000220: fc20 50bd 7294 0abc af8b 6c3d c444 6abd
00000230: dc97 cebc 2388 90bd d3f1 903c 258e 93bb
00000240: c878 423c 3611 053d 05a5 223c 12c2 c9bd
00000250: 19ec 91bb f1aa ac3d 3b62 9e3c a623 cebd
00000260: a45f 4d3b 0f43 883d 5e71 e43c 7f13 b0bc
00000270: 3dcb 673d b5b6 7abd d30e 883d 4f86 9b3d
00000280: 01dc 62bd deb8 1f3d a243 5a3c 3760 8dbd
00000290: ae42 a3bc 9218 f5bc 506b ab3b a50c 3c3d
000002a0: 6f8c 9ebd 015e f93c 881a 84bd b813 963d
000002b0: e2a8 993d fc86 81bd 0308 bc3c 771a 36bd
000002c0: 4cb1 fabc abe1 a13d d23e 303a 12a1 e9bc
000002d0: aefc 653d eec3 523d f6dc 56bc b0de ab3c
000002e0: 3959 9dbd 461f cbbc a544 78bd 2e74 a1bd
000002f0: 3091 00bd 9171 aab6 d2f6 633d 5a8a 993d
00000300: 006d 813d 7806 41bd 6a2e 9bbc 3ab3 3abd
00000310: bccc f6bb dcb3 93bd ca96 8d3c cc3a 233d
00000320: 7684 78bd 01d6 423d b36e 623d aeba bdbb
00000330: 842f b0bd 4668 76bd f180 a13d 1eaa febc
00000340: 3708 1dbd da95 74bd 9c46 02bc a87b cc3a
00000350: adbf 043d ef63 9e3d a550 fdbc 2ea5 17bd
00000360: bbc2 b1bd f6a8 69bd 11bc dd3c c2ce 25bd
00000370: 1a87 933b b6f7 06bd 8901 0abd 4fd5 923d
00000380: 9520 c5bd fd47 213c 48ce 3c3c 0651 94bd
00000390: 4dc3 36bd 55ca 9b3c 9a43 53bd c571 623d
000003a0: ba2c bbbd 0dd3 08bd 8ac9 d83c 4861 b4bd
000003b0: 3357 e73c 6360 a4bd 614f ccbc 6c12 023d
000003c0: b447 873c 7f74 703c be6f 85bd 15b8 bfbc
000003d0: 149e 6a3d bacc 9ebd fac9 a8bd fc6b a5bc
000003e0: b5cb f1bc 6b52 85bd 00ae 29bd a57e 343d
000003f0: 5bd2 a2bd 7122 9a3d c418 2f3d 8d38 903d

fc2.weight f4 [128, 256]
0.02558339 -0.0088786315 -0.038030427 0.009470342 0.056971885 -0.0049813557 0.02114249 -0.023657462
-0.0425936 0.053477407 -0.009161104 0.008980616 0.0024674388 0.016049726 0.0366459 0.0608219
0.04909499 0.02584761 -0.05098622 0.010502987 0.032492496 -0.03311038 0.045051858 0.028787836
0.02934084 -0.05839386 -0.003053978 -0.015758209 -0.045855142 0.00789196 0.006148182 0.04843568
-0.009663023 0.012604187 -0.04851765 0.0515083 -0.024771955 0.012661595 -0.021163642 -0.0076351105
0.024709543 0.00060187286 0.056565218 0.03784074 -0.0025253159 -0.05705499 -0.00668892 -0.04106162
-0.024819057 0.018579734 -0.020873269 0.04121252 -0.04386158 -0.01711823 0.019133907 -0.062129535
-0.012759179 -0.059356444 0.0007688118 0.037251357 -0.030478016 -0.045120217 0.03709699 -0.03391388
0.056951493 0.050639316 -0.012258791 -0.046549376 -0.076661356 -0.030813158 0.0064293453 0.01035805
0.029098602 -0.018386047 -0.070913725 -0.023786724 0.03486976 0.028153345 0.04512718 -0.017572977
-0.050944544 -0.0492565 -0.050618302 0.02346716 0.01701498 -0.06380014 -0.06830899 -0.0050672963
-0.05998726 -0.020585306 0.012945969 -0.022974256 -0.06395895 0.020374455 0.021685384 -0.052486032
0.0039576725 0.06024045 -0.047048956 -0.06269073 0.040348448 0.050938897 -0.036449626 -0.04995948
-0.0026789305 0.05986844 -0.050464302 -0.07152014 -0.024266511 0.020525461 -0.006877236 -0.06288304
0.014287926 -0.0045647994 0.00014993548 0.0019912745 -0.03972823 -0.031559274 -0.007096842 0.009398918
-0.026876986 -0.049000386 -0.047280647 -0.020572424 -0.008330152 -0.03027685 0.028060898 0.023939133
0.03888616 -0.06940564 0.022454578 -0.05612069 0.052861392 -0.0015194714 -0.010436263 -0.062170006
-0.033316202 -0.027091734 0.014494576 -0.045649044 0.022985397 0.014478992 0.015778517 -0.052944887
0.051433735 -0.020367078 -0.051731747 -0.009258644 -0.0010412997 0.047808096 -0.043241598 -0.014256964
-0.032452162 -0.050543964 -0.046993617 0.021603353 0.029275615 -0.058215395 -0.038574826 -0.06478532
0.029612064 -0.022945903 -0.022733094 0.029034572 -0.04802374 -0.031543445 0.056500338 -0.010228769
-0.011695919 0.021194823 -0.009338122 0.050707534 -0.051202457 -0.017055456 0.024603406 -0.055735856
-0.043153882 0.03714911 -0.022669138 0.030600326 0.038575083 -0.025198273 0.051272083 -0.00860238
0.0023928995 -0.05446501 -0.010653133 0.037336327 0.045499034 -0.059288386 0.045685954 0.0300887
-0.0225238 -0.00057008374 0.026136838 0.048019186 -0.0023700967 0.054642327 -0.0069990717 -0.013107017
0.031088239 -0.06653623 0.0142700095 -0.078007266 -0.0630068 0.042087372 -0.05761074 -0.028786302
0.034650855 -0.032031447 -0.00895053 -0.031327475 0.042931326 0.060512975 0.05103636 0.01269633
-0.059119336 -0.014230199 0.015077026 0.03511052 -0.025723062 -0.0070041493 0.030183792 0.019824743
-0.015770126 0.0093664825 -0.04837715 -0.03307323 -0.021045998 -0.034496617 0.031444393 -0.04211915
-0.05283133 -0.016897978 -0.062467106 -0.054479823 -0.010347053 -0.008899502 -0.0021208744 0.05657568
-0.062115356 0.04017914 -0.05389344 -0.04423581 -0.012229785 0.028275732 0.020746589 0.055009983
0.050263636 -0.04036136 0.05613163 0.017399624 0.035945844 0.060884602 -0.003601161 -0.029520683
00000000: 4294 d13c ae77 11bc cbc5 1bbd 7e29 1b3c
00000010: 5a5b 693d a43a a3bb 0433 ad3c 4bcd c1bc
00000020: a076 2ebd 200b 5b3d 7518 16bc 6f23 133c
00000030: c1b4 213b b77a 833c 031a 163d 6220 793d
00000040: d417 493d 5ebe d33c edd6 50bd b814 2c3c
00000050: da16 053d c09e 07bd 4c88 383d 78d4 eb3c
00000060: 345c f03c 662e 6fbd 4025 48bb 5c17 81bc
00000070: 9ad2 3bbd 484d 013c b076 c93b 7e64 463d
00000080: a851 1ebc cb81 4e3c 72ba 46bd 5efa 523d
00000090: 8eee cabc 9472 4f3c 605f adbc f32f fabb
000000a0: ab6b ca3c 01c7 1d3a eeb0 673d e4fe 1a3d
000000b0: c57f 25bb 7eb2 69bd ba2e dbbb 3b30 28bd
000000c0: 5651 cbbc 8734 983c 6bfe aabc 76ce 283d
000000d0: 33a8 33bd 883b 8cbc b6be 9c3c 8a7b 7ebd
000000e0: e00b 51bc be1f 73bd 168a 493a e194 183d
000000f0: 08ad f9bc facf 38bd 03f3 173d 48e9 0abd
00000100: f845 693d 2c6b 4f3d 19d9 48bc 8faa 3ebd
00000110: a100 9dbd e06b fcbc 42ad d23b d0b4 293c
00000120: 3160 ee3c 569e 96bc 373b 91bd 60dc c2bc
00000130: 98d3 0e3d d8a1 e63c 47d7 383d 34f5 8fbc
00000140: 3aab 50bd 2fc1 49bd 2355 4fbd 343e c03c
00000150: 0063 8b3c a6a9 82bd 95e5 8bbd 900b a6bb
00000160: 33b5 75bd 84a2 a8bc 541b 543c 8234 bcbc
00000170: e9fc 82bd 54e8 a63c 8ca5 b13c 98fb 56bd
00000180: 5daf 813b b1be 763d 68b6 40bd ff63 80bd
00000190: 6a44 253d 4ea5 503d 344c 15bd 50a2 4cbd
000001a0: ff90 2fbb 9c38 753d a8b3 4ebd 2779 92bd
000001b0: 90ca c6bc 0325 a83c 705a e1bb d3c8 80bd
000001c0: e817 6a3c 5094 95bb 0038 1d39 0b80 023b
000001d0: 12ba 22bd 4c44 01bd a08c e8bb ebfd 193c
000001e0: 202d dcbc a1b4 48bd 5aa9 41bd 8087 a8bc
000001f0: 317b 08bc 2807 f8bc f8df e53c 001c c43c
00000200: 1847 1f3d 8b24 8ebd aaf2 b73c cfde 65bd
00000210: 3085 583d 0029 c7ba dcfc 2abc faa5 7ebd
00000220: 9276 08bd 7cef ddbc a87a 6d3c 7efa 3abd
00000230: df4b bc3c 4b39 6d3c f341 813c bddc 58bd
00000240: 2eac 523d dcd8 a6bc abe4 53bd 91b1 17bc
00000250: 387c 88ba 6cd2 433d 1a1e 31bd 0b96 69bc
00000260: 8fec 04bd 3007 4fbd 617c 40bd 84f9 b03c
00000270: 6ad3 ef3c 4473 6ebd a300 1ebd 2aae 84bd
00000280: 0095 f23c 0cf9 bbbc c13a babc e9d9 ed3c
00000290: 8bb4 44bd b333 01bd e66c 673d 9196 27bc
000002a0: 3da0 3fbc c4a0 ad3c ecfe 18bc b4b2 4f3d
000002b0: abb9 51bd e2b7 8bbc 158d c93c 484b 64bd
000002c0: 20c2 30bd aa29 183d a1b4 b9bc 89ad fa3c
000002d0: e800 1e3d 9c6c cebc ad02 523d fff0 0cbc
000002e0: 31d2 1c3b b416 5fbd 7a8a 2ebc faed 183d
000002f0: 325d 3a3d 61d8 72bd 3221 3b3d 947c f63c
00000300: d583 b8bc ac71 15ba ec1c d63c c4af 443d
00000310: a053 1bbb a2d0 5f3d 7858 e5bb d0be 56bc
00000320: c3ac fe3c 2644 88bd c2cc 693c 46c2 9fbd
00000330: b609 81bd cf63 2c3d 3df9 6bbd 40d1 ebbc
00000340: 0eee 0d3d 6833 03bd 3ea5 12bc 3d51 00bd
00000350: c2d8 2f3d 74dc 773d 810b 513d 4504 503c
00000360: 1e27 72bd c825 69bc a105 773c 0cd0 0f3d
00000370: 2cb9 d2bc 1083 e5bb 0044 f73c 8067 a23c
00000380: 5a30 81bc e075 193c 1e27 46bd cc77 07bd
00000390: a868 acbc 534c 0dbd d6cb 003d 2185 2cbd
000003a0: aa65 58bd a16d 8abc 82dd 7fbd 3c26 5fbd
000003b0: b086 29bc 38cf 11bc 5efe 0abb e6bb 673d
000003c0: ac6c 7ebd e292 243d 5ebf 5cbd 9c30 35bd
000003d0: 705f 48bc 82a2 e73c c0f4 a93c 2652 613d
000003e0: 3ee1 4d3d f451 25bd 48ea 653d a889 8e3c
000003f0: f33b 133d 2262 793d 7501 6cbb 5cd5 f1bc

fc2.bias f4 [128]
-0.03350684 -0.011688252 -0.0899745 0.08456062 -0.09131216 -0.14293507 -0.1338328 -0.0061284476
0.17850065 0.34007213 -0.11937725 0.34244996 0.029201997 -0.041222714 0.039643053 -0.055514682
-0.053000778 0.12882291 0.031023622 -0.34366485 0.027260978 -0.0060385116 0.23597081 -0.0866364
-0.06360817 -0.3599283 -0.120290376 -0.08183495 0.33902836 -0.07088241 0.047932506 0.25310698
-0.032708902 0.008040246 -0.04509141 0.49239177 0.13325807 0.08387279 -0.16552386 0.11117311
-0.5133106 -0.06270579 0.10601492 0.2378668 0.08749022 0.12514983 0.052272838 -0.113746904
0.21494411 -0.12860921 -0.14202234 -0.035103854 -0.28060815 0.49589035 -0.079946764 -0.19312213
-0.14118472 -0.07823048 -0.057981346 0.10268095 -0.29553914 -0.038428053 0.026717318 -0.052038178
-0.051731046 -0.1246795 0.05016945 -0.02586448 0.14695957 0.15455969 -0.0325241 0.022026442
0.007948133 -0.17672017 -0.049210995 -0.38008866 -0.04891468 -0.14604643 -0.05074401 0.081853345
0.040321864 -0.026828704 0.33937252 -0.047426473 -0.32924148 -0.3062898 -0.101112634 -0.42778733
-0.10020375 0.012067376 0.1929932 -0.120946825 -0.015683053 -0.0641165 -0.010997912 0.005368389
-0.019753342 -0.007324373 -0.060916893 -0.09950743 -0.05930013 -0.03873129 -0.08052891 -0.02176506
-0.04795855 -0.09018599 -0.092628494 0.1407035 0.008910149 -0.0028987774 -0.37696195 0.29242995
-0.039260987 0.060074653 0.39636582 -0.04190487 0.026292624 -0.09060503 0.06401938 -0.08305695
-0.042363875 -0.11921723 -0.008055001 -0.016503459 -0.19763914 -0.17772672 -0.79084015 -0.0042112526
00000000: 783e 09bd 1580 3fbc 8d44 b8bd 1e2e ad3d
00000010: df01 bbbd 925d 12be 770b 09be 25d1 c8bb
00000020: e0c8 363e ef1d ae3e 0f7c f4bd 9a55 af3e
00000030: 0739 ef3c 26d9 28bd c160 223d 5d63 63bd
00000040: 5817 59bd 27ea 033e 4025 fe3c d7f4 afbe
00000050: 6a52 df3c b5de c5bb 55a2 713e 6d6e b1bd
00000060: 0045 82bd 8648 b8be cd5a f6bd 1599 a7bd
00000070: 2095 ad3e cc2a 91bd e054 443d 3d97 813e
00000080: c5f9 05bd 3cbb 033c c5b1 38bd c61a fc3e
00000090: ce74 083e 7fc5 ab3d 167f 29be baae e33d
000000a0: 5368 03bf e56b 80bd 5a1e d93d 5b93 733e
000000b0: 132e b33d 4727 003e 0b1c 563d 23f4 e8bd
000000c0: 4f1a 5c3e 22b2 03be 4e6e 11be 0fc9 0fbd
000000d0: dfab 8fbe 57e5 fd3e 21bb a3bd cfc1 45be
000000e0: ba92 10be 4d37 a0bd d97d 6dbd 644a d23d
000000f0: e850 97be bc66 1dbd 47de da3c fc25 55bd
00000100: efe3 53bd f757 ffbd 7b7e 4d3d bfe1 d3bc
00000110: 927c 163e e544 1e3e fe37 05bd cc70 b43c
00000120: e338 023c 22f6 34be 7891 49bd fb9a c2be
00000130: c25a 48bd 328d 15be f3d8 4fbd baa2 a73d
00000140: 8a28 253d dfc7 dbbc 3cc2 ad3e 4342 42bd
00000150: 5792 a8be 04d2 9cbe 2414 cfbd f106 dbbe
00000160: a037 cdbd 3eb6 453c 02a0 453e f8b2 f7bd
00000170: bf79 80bc 834f 83bd 9630 34bc 50e9 af3b
00000180: c3d1 a1bc 4b01 f0bb fe83 79bd 8dca cbbd
00000190: b1e4 72bd b3a4 1ebd 57ec a4bd a44c b2bc
000001a0: 2f70 44bd 6fb3 b8bd 02b4 bdbd 9414 103e
000001b0: e0fb 113c 6af9 3dbb 2801 c1be 61b9 953e
000001c0: 21d0 20bd d710 763d 76f0 ca3e 71a4 2bbd
000001d0: a163 d73c 218f b9bd 981c 833d c319 aabd
000001e0: be85 2dbd 2a28 f4bd 1ff9 03bc 4332 87bc
000001f0: ea61 4abe fefd 35be 8074 4abf 8cfe 89bb

fc3.weight f4 [64, 128]
0.02613598 0.05013816 -0.05922689 0.023834627 -0.11422075 0.021294126 -0.48059678 -0.028158044
0.05777149 0.012826461 -0.028978396 -0.092401065 -0.05991917 0.022944856 -0.053179495 -0.16306782
0.06135263 -0.054808427 0.035518344 -0.057494156 -0.15259834 -0.08164323 -0.14733413 0.06117261
-0.01540355 -0.15140393 -0.005579901 0.0011571432 0.031614378 -0.094564 -0.06698759 0.042646334
-0.061446134 -0.054100674 0.060238123 -0.12990102 -0.05894374 0.072679855 0.061920322 -0.065085195
-0.014157804 -0.15156083 -0.07513858 -0.26907876 0.042445883 0.11785654 -0.14275533 -0.013083952
-0.27280065 0.118016936 0.053076513 -0.036782533 -0.0012712937 0.0028148496 -0.16335972 -0.0786782
-0.07400091 -0.011457464 0.03903691 -0.024006817 -0.10122374 -0.03402238 0.0050208806 -0.058725428
-0.094318904 0.008045296 -0.22864664 0.02322516 0.03762579 -0.10549027 -0.036566146 -0.19014862
-0.024336403 0.03379305 -0.2701563 -0.3579416 0.05866333 -0.13321212 0.09418317 -0.18898733
-0.20088437 -0.019505028 -0.035060212 -0.025807422 -0.04584374 -0.04014172 -0.054198667 -0.28692338
-0.023081133 -0.020848913 -0.03252849 0.09762256 0.062246155 0.04228551 -0.037480026 -0.22474921
-0.025121825 0.0006241633 -0.024894211 -0.089521445 0.05887513 0.03666273 0.055759344 -0.018462999
-0.050623775 -0.03903566 -0.09039814 -0.0402549 -0.070934236 0.05681966 -0.1959026 -0.17449538
0.036034808 -0.19771425 -0.05976041 -0.15979014 -0.0015413961 -0.1784517 0.025781183 0.019821107
-0.0307569 -0.072419025 -0.0713966 -0.014319543 -0.15726854 0.0028342179 -0.36071438 0.013645088
0.017955218 0.01970595 -0.07954711 -0.06585317 -0.1591502 0.01773267 -0.24263825 -0.07326884
-0.05715027 -0.07244813 -0.042368565 -0.041283313 0.07759758 0.04700773 -0.026682692 0.0021401362
0.010331005 -0.0071655526 -0.0081762485 -0.14611809 0.12309545 -0.009541969 -0.0619273 0.07667303
0.06181472 -0.1390186 -0.08079878 0.05666768 -0.116141915 -0.14351752 -0.011116628 0.10930665
-0.050672553 0.0464309 0.006524006 -0.12981331 0.050015133 0.03252737 0.016765948 0.073416084
-0.047529485 -0.1380912 -0.15576452 -0.14230041 -0.014064433 -0.077763595 -0.059606 0.015001772
-0.25205886 0.07514725 -0.0021417006 0.014617261 -0.24641587 0.0038033258 -0.009386728 -0.14574122
0.060363848 0.09874252 -0.061151072 -0.10180761 0.00059635297 -0.020502819 0.05636302 0.011120475
0.010225199 0.05043382 -0.10428177 -0.09413274 -0.0054623685 -0.0051211086 0.074081235 -0.010120761
-0.06457723 -0.210154 -0.048045296 -0.027507495 0.019926803 -0.038663518 0.06916836 -0.062714085
-0.105400465 -0.063443966 -0.18977773 -0.064309806 -0.04857716 0.000869785 -0.098335385 -0.15902562
-0.0044402936 0.006311552 -0.13978907 -0.036522217 -0.035661355 0.037222356 0.09039346 -0.27492565
0.018311456 0.0498355 -0.04367547 -0.06305501 -0.038236685 0.0025660377 0.029186353 -0.010623278
-0.06463549 -0.042730786 0.058201373 -0.0723116 -0.17671488 0.06189843 0.09319773 -0.24075738
-0.042651545 -0.049587213 -0.04702017 -0.09345724 0.02490199 -0.09243486 -0.107814476 -0.047750324
-0.013925568 -0.073240094 -0.17701577 -0.05243385 -0.0887985 -0.060625494 -0.19830142 0.06831616
00000000: 1f1b d63c ac5d 4d3d e597 72bd d640 c33c
00000010: 92ec e9bd 0571 ae3c c810 f6be b3ab e6bc
00000020: cca1 6c3d 1426 523c 1a64 edbc c53c bdbd
00000030: ce6d 75bd daf6 bb3c bed2 59bd 40fb 26be
00000040: e54c 7b3d cd7e 60bd af7b 113d fe7e 6bbd
00000050: bd42 1cbe 9134 a7bd c2de 16be 2190 7a3d
00000060: 2c5f 7cbc a209 1bbe 9ad7 b6bb 48ab 973a
00000070: 147e 013d c5aa c1bd ca30 89bd ecad 2e3d
00000080: f1ae 7bbd ab98 5dbd 40bc 763d c604 05be
00000090: fe6e 71bd 2dd9 943d 2aa0 7d3d 634b 85bd
000000a0: 22f6 67bc c332 1bbe 41e2 99bd b1c4 89be
000000b0: bcdb 2d3d c55e f13d 742e 12be 125e 56bc
000000c0: 87ac 8bbe ddb2 f13d c266 593d 48a9 16bd
000000d0: 8aa1 a6ba 5779 383b c547 27be 0922 a1bd
000000e0: ca8d 97bd 16b8 3bbc 2be5 1f3d f2a9 c4bc
000000f0: 644e cfbd 0d5b 0bbd 3386 a43b 138a 70bd
00000100: 452a c1bd 6bd0 033c 5822 6abe b142 be3c
00000110: 801d 1a3d 480b d8bd 62c6 15bd 52b6 42be
00000120: 235d c7bc 956a 0a3d ed51 8abe 1f44 b7be
00000130: f648 703d c268 08be 1be3 c03d e585 41be
00000140: a2b4 4dbe 02c9 9fbc 4c9b 0fbd 166a d3bc
00000150: a5c6 3bbd a56b 24bd 6cff 5dbd 9fe7 92be
00000160: a514 bdbc 57cb aabc 983c 05bd 56ee c73d
00000170: d3f5 7e3d 9233 2d3d a884 19bd a824 66be
00000180: 49cc cdbc e49e 233a f2ee cbbc 0557 b7bd
00000190: 0c27 713d a92b 163d e963 643d b73f 97bc
000001a0: e05a 4fbd dbe3 1fbd a922 b9bd 52e2 24bd
000001b0: f845 91bd bbbb 683d b19a 48be ebae 32be
000001c0: 3c99 133d 9b75 4abe 55c7 74bd 07a0 23be
000001d0: ac08 caba 0bbc 36be 0f33 d33c e05f a23c
000001e0: e5f5 fbbc 6d50 94bd 6138 92bd 849c 6abc
000001f0: 010b 21be 49be 393b 8eaf b8be a68f 5f3c
00000200: d216 933c 5f6e a13c 98e9 a2bd 07de 86bd
00000210: 45f8 22be 1b44 913c 2976 78be f90d 96bd
00000220: 6716 6abd af5f 94bd a98a 2dbd b118 29bd
00000230: 7beb 9e3d 2d8b 403d a995 dabc 8741 0c3b
00000240: 6043 293c 03cd eabb acf5 05bc fb9f 15be
00000250: 7819 fc3d eb55 1cbc 7ba7 7dbd c006 9d3d
00000260: 6f31 7d3d e45a 0ebe d579 a5bd 5f1c 683d
00000270: d0db edbd 42f6 12be 8422 36bc 2adc df3d
00000280: 068e 4fbd 542e 3e3d 54c7 d53b c8ed 04be
00000290: abdc 4c3d 6b3b 053d be58 893c 2c5b 963d
000002a0: 47ae 42bd c867 0dbe bc80 1fbe 33b7 11be
000002b0: 826e 66bc 8542 9fbd 6c25 74bd fec9 753c
000002c0: dc0d 81be cde6 993d c65b 0cbb 3c7d 6f3c
000002d0: 7154 7cbe 3841 793b caca 19bc 303d 15be
000002e0: 1540 773d 8539 ca3d 8c79 7abd 8280 d0bd
000002f0: 9254 1c3a 87f5 a7bc e9dc 663d a732 363c
00000300: 9887 273c b193 4e3d ae91 d5bd aac8 c0bd
00000310: abfd b2bb f9ce a7bb e7b7 973d 8cd1 25bc
00000320: 1141 84bd 9c32 57be 25cb 44bd 6657 e1bc
00000330: 893d a33c a35d 1ebd 24a8 8d3d 3e70 80bd
00000340: 33dc d7bd e9ee 81bd 1855 42be dcb4 83bd
00000350: d8f8 46bd 4902 643a 1064 c9bd 9dd7 22be
00000360: e27f 91bb 23d1 ce3b de24 0fbe 5298 15bd
00000370: a411 12bd 7876 183d 3520 b93d 0ec3 8cbe
00000380: e801 963c 4f20 4c3d 0de5 32bd fc22 81bd
00000390: 129e 1cbd f82a 283b 3818 ef3c 420d 2ebc
000003a0: 9d5f 84bd 7a06 2fbd 9064 6e3d 1b18 94bd
000003b0: bff4 34be 3589 7d3d 74de be3d 1a89 76be
000003c0: 63b3 2ebd f61b 4bbd 3998 40bd 8266 bfbd
000003d0: 42ff cb3c 7d4e bdbd d6cd dcbd d895 43bd
000003e0: 1128 64bc e7fe 95bd 9f43 35be e0c4 56bd
000003f0: fddb b5bd 7052 78bd 870f 4bbe 58e9 8b3d

fc3.bias f4 [64]
-0.07364588 -0.06260767 0.0072655906 -0.045746192 -0.20769912 -0.09327772 -0.21797204 -0.22289409
-0.0694821 -0.000310622 0.03402867 -0.050688945 0.5196195 0.21850841 0.08266485 0.1817709
0.25660938 0.016784048 0.1942297 0.2842457 0.079130635 0.0907923 0.6209296 -0.000537665
-0.2554 0.21116933 -0.1002051 0.46749398 -0.38704383 -0.5034528 -0.620832 -0.10514848
0.3624125 -0.017411284 0.18830195 -0.35008267 0.15419881 -0.29783604 0.1759213 0.004261858
0.5401617 0.43224502 0.120585516 -0.21898304 0.23292893 -0.6951042 -0.18958063 -0.14585413
-0.19256642 -0.079179056 0.03755238 0.25109747 -0.8305427 0.22724178 -1.0738196 0.6557796
-0.16197515 0.22827557 -0.11353518 -0.8357103 -0.5477432 -0.26294205 -0.42379352 0.1398646
00000000: a7d3 96bd 7338 80bd 3114 ee3b 5c60 3bbd
00000010: 14af 54be 6408 bfbd 1034 5fbe 593e 64be
00000020: a24c 8ebd fbda a2b9 a661 0b3d 369f 4fbd
00000030: c905 053f abc0 5f3e 304c a93d 2722 3a3e
00000040: 4e62 833e b37e 893c 27e4 463e a788 913e
00000050: 3e0f a23d 50f1 b93d 3ef5 1e3f 16f2 0cba
00000060: cac3 82be c63c 583e 5538 cdbd 5f5b ef3e
00000070: 9c2a c6be 48e2 00bf d9ee 1ebf 1658 d7bd
00000080: 228e b93e 1ca2 8ebc 3ad2 403e 093e b3be
00000090: 4be6 1d3e f77d 98be b724 343e 0ea7 8b3b
000000a0: 0a48 0a3f 384f dd3e 8af5 f63d 173d 60be
000000b0: ec84 6e3e 59f2 31bf 6d21 42be c95a 15be
000000c0: 2230 45be a128 a2bd 86d0 193d d98f 803e
000000d0: 729e 54bf 12b2 683e ec72 89bf 2ce1 273f
000000e0: d0dc 25be 12c1 693e 2285 e8bd 1cf1 55bf
000000f0: e638 0cbf 57a0 86be 77fb d8be aa38 0f3e

fc4.weight f4 [6, 64]
0.00640001 0.068837635 0.06253705 0.03653457 0.023089407 -0.038536817 -0.05413031 0.068686604
0.041795146 -0.04327759 0.0379925 0.045215327 0.032943282 0.054067213 0.035580106 0.047925647
0.018036444 0.02159581 0.022007655 0.1324608 -0.03798329 0.02132322 0.032265995 0.022796331
-0.09942168 0.035873946 0.07575481 0.02379713 -0.015703129 -0.03379482 -0.031241054 -0.03633649
0.020640228 0.029684495 0.035740193 -0.019203428 -0.02935613 -0.021727122 0.049692735 -0.017608764
0.060028568 0.060908183 0.044631734 0.036066957 0.04708567 -0.02969446 0.024486812 -0.028333995
-0.018625872 -0.033706155 0.022794789 0.05028481 -0.023921903 0.024533752 -0.055722754 0.03578907
0.071906865 0.044121433 -0.026844436 0.13150653 -0.026895817 0.19114691 -0.042871933 -0.061426394
0.01701475 0.053672273 0.04844137 0.031508505 -0.013135494 -0.03358232 0.07752072 0.06346392
0.04950804 -0.04273133 0.03465018 0.044270083 0.032728784 0.057340723 0.029505033 0.03766599
0.018512186 0.021586692 0.028100839 0.1413146 -0.039135452 0.01287399 0.026867257 0.021647425
-0.057612006 0.036720436 0.067442924 0.013212672 -0.017231876 -0.030319976 -0.03283905 -0.03280897
0.017953025 0.022887899 0.036033936 -0.015767114 -0.024024615 -0.026047586 0.03719118 -0.01940924
0.058873296 0.06109704 0.031319954 0.013448973 0.037613343 -0.029176624 0.0046538766 -0.049770616
-0.018135147 -0.03724514 0.016291933 0.0176628 -0.024766495 0.024198713 -0.054142226 0.03807116
0.071516834 0.036499035 -0.040036518 0.1284876 -0.02798906 0.17667407 -0.04398217 -0.03609577
0.026982112 0.067838885 0.048235904 0.03882024 0.008724511 -0.04905171 0.046053804 0.060322404
0.047899164 -0.030170128 0.024916181 0.04610516 0.03259953 0.0525321 0.021512918 0.04506018
0.022578249 0.022760935 0.037548088 0.11734552 -0.044437747 0.0020893775 0.02947328 0.022511344
-0.07089536 0.03582262 0.074000075 -0.001275581 -0.013742398 -0.02960462 -0.031524647 -0.021696912
0.027427409 0.012077593 0.05316761 -0.018804625 -0.017455626 -0.03762862 0.05016535 -0.005398634
0.059025194 0.06280835 0.027451096 0.017413476 0.06826527 -0.028593391 0.01179737 -0.037515502
-0.01833675 -0.037012175 0.03744348 0.044501856 -0.024678184 -0.009998854 -0.053558215 0.020095637
0.06022495 0.033969715 -0.035739966 0.117655255 -0.027685842 0.18127333 -0.0298216 -0.11391026
0.0103444075 0.07110362 0.0528657 0.03889544 0.00041237567 -0.011259708 -0.029360702 0.033182297
0.041536734 -0.045281976 0.036344737 0.028309062 0.032995466 0.053511243 0.026344284 0.03865077
0.0078026187 0.02094997 0.015598101 0.11662451 -0.03778443 0.026977932 0.021751456 0.025584403
-0.11385374 0.036934976 0.056591887 -0.0017386025 -0.014206969 -0.03212326 -0.03152735 -0.02996144
0.012207178 0.036504418 0.023665883 -0.0105397245 -0.032495406 -0.02107346 0.032996908 -0.02675741
0.059056953 0.062864736 0.020128274 0.02601218 0.042578615 -0.030288711 0.012925907 0.019173924
-0.018958002 -0.03336564 0.019034782 0.032426458 -0.025415597 0.0440346 -0.053472653 0.049016252
0.067510486 0.040069625 -0.027358325 0.12271963 -0.028691959 0.15746748 -0.038513415 -0.05624776
00000000: 2db7 d13b bffa 8c3d 6d13 803d 46a5 153d
00000010: ff25 bd3c c8d8 1dbd beb7 5dbd 90ab 8c3d
00000020: 6331 2b3d d843 31bd 069e 1b3d b533 393d
00000030: 89ef 063d 9575 5d3d 72bc 113d af4d 443d
00000040: 2ac1 933c b2e9 b03c 6649 b43c cea3 073e
00000050: 5e94 1bbd 09ae ae3c 5929 043d 5fbf ba3c
00000060: 989d cbbd 8ff0 123d 5625 9b3d 33f2 c23c
00000070: d9a3 80bc 706c 0abd 3ded ffbc 92d5 14bd
00000080: b215 a93c e62c f33c 4f64 123d 8250 9dbc
00000090: 447c f0bc 14fd b1bc 9c8a 4b3d 4140 90bc
000000a0: 84e0 753d dc7a 793d c4cf 363d f2ba 133d
000000b0: e7dc 403d cc41 f3bc 9198 c83c b21c e8bc
000000c0: 4995 98bc 770f 0abd 23bc ba3c 72f7 4d3d
000000d0: def7 c3bc 02fb c83c 8b3d 64bd 8f97 123d
000000e0: e843 933d adb8 343d dde8 dbbc a6a9 063e
000000f0: 9e54 dcbc 04bc 433e 7b9a 2fbd 3e9a 7bbd
00000100: 8462 8b3c 75d7 5b3d 756a 463d 100f 013d
00000110: 4136 57bc 9d8d 09bd 2fc3 9e3d 5ff9 813d
00000120: f1c8 4a3d 0c07 2fbd 59ed 0d3d 8c54 353d
00000130: 9e0e 063d 1bde 6a3d 8ab4 f13c a747 1a3d
00000140: dea6 973c 93d6 b03c bb33 e63c c6b4 103e
00000150: 7f4c 20bd 6eed 523c b918 dc3c f155 b13c
00000160: 91fa 6bbd 2b68 163d 841f 8a3d f779 583c
00000170: dd29 8dbc 9961 f8bc 3d82 06bd b362 06bd
00000180: 3912 933c 677f bb3c 5298 133d 092a 81bc
00000190: 45cf c4bc bf61 d5bc c755 183d 2000 9fbc
000001a0: 2025 713d e440 7a3d 5a49 003d 1559 5c3c
000001b0: 7310 1a3d d103 efbc 8c7f 983b 46dc 4bbd
000001c0: 2990 94bc 5c8e 18bd a976 853c 94b1 903c
000001d0: 1be3 cabc 613c c63c 3dc4 5dbd 81f0 1b3d
000001e0: 6b77 923d 0380 153d 55fd 23bd 4192 033e
000001f0: 5049 e5bc 0cea 343e a626 34bd 28d9 13bd
00000200: 9709 dd3c 1def 8a3d 0393 453d f901 1f3d
00000210: 40f1 0e3c 72ea 48bd eaa2 3c3d a014 773d
00000220: ea31 443d 5827 f7bc 051d cc3c c4d8 3c3d
00000230: 1687 053d e62b 573d dc3b b03c 0691 383d
00000240: 05f6 b83c 2475 ba3c 06cc 193d d952 f03d
00000250: 5b04 36bd f0ed 083b f371 f13c b669 b83c
00000260: 9631 91bd bdba 123d 5a8d 973d 6531 a7ba
00000270: cb27 61bc 6385 f2bc fd1f 01bd b9bd b1bc
00000280: 72af e03c 19e1 453c 48c6 593d 280c 9abc
00000290: 1aff 8ebc 7820 1abd 2f7a 4d3d 06e7 b0bb
000002a0: 67c4 713d aaa1 803d 1fe1 e03c b5a6 8e3c
000002b0: a9ce 8b3d b03c eabc c249 413c dba9 19bd
000002c0: f436 96bc 149a 17bd 565e 193d 9447 363d
000002d0: e729 cabc 3cd2 23bc dc5f 5bbd 9b9f a43c
000002e0: 70ae 763d d423 0b3d 1264 12bd 3df5 f03d
000002f0: 6bcd e2bc b79f 393e 6e4c f4bc c849 e9bd
00000300: 977b 293c c69e 913d b489 583d d350 1f3d
00000310: 2034 d839 a37a 38bc db85 f0bc 29ea 073d
00000320: 6c22 2a3d 9879 39bd 38de 143d 68e8 e73c
00000330: 4126 073d 9b2e 5b3d f8cf d73c 4550 1e3d
00000340: 1cad ff3b 469f ab3c 2d8f 7f3c d5d8 ee3d
00000350: d9c3 1abd d300 dd3c 1c30 b23c 6296 d13c
00000360: 262c e9bd 2149 173d e5cc 673d d2e1 e3ba
00000370: 59c4 68bc ae93 03bd d322 01bd b271 f5bc
00000380: 9e00 483c a885 153d f4de c13c cfae 2cbc
00000390: e719 05bd 40a2 acbc c427 073d 5b32 dbbc
000003a0: b4e5 713d 3abf 803d 0de4 a43c 7f17 d53c
000003b0: ea66 2e3d 0820 f8bc 2fc7 533c a212 9d3c
000003c0: d04d 9bbc 69aa 08bd d5ee 9b3c 9bd1 043d
000003d0: 5f34 d0bc a05d 343d 2406 5bbd 44c5 483d
000003e0: f042 8a3d 0c20 243d 911e e0bc 6e54 fb3d
000003f0: 660b ebbc 283f 213e 3ec0 1dbd 0d64 66bd

fc4.bias f4 [6]
0.6155397 0.61553764 0.6167981 0.6167187 0.61415493 0.6170988
00000000: 0394 1d3f e093 1d3f 7be6 1d3f 47e1 1d3f
00000010: 4239 1d3f 30fa 1d3f
