checkpoints/2021_02_05-08_55_29/last/last_dqn-Pong-ram-v0.pt (torch, 301239 bytes, 8 tensors)

fc1.weight f4 [256, 128]
00000000: 82d1 31bd c3e0 3f3b faa6 5bbd 9a87 083d
00000010: c4bc a4bd ee33 6b3d 7892 83bd 20c9 90bd
00000020: 6d09 47bd cfd0 903c dadf 4abd 8855 a2bd
00000030: df1b 38bd caf3 c9bd 80bd 0bbe 82a9 cabc
00000040: f72f 99bd 69e6 683d ddfe 88bc f845 043d
00000050: d4d5 663d 6ba1 b33c deff c53c d8a2 9f3d
00000060: 6c78 41bd 38fa a83c 2242 3fbd 298b 643d
00000070: 5b7a 813d 34fd b5bd 9d6e 8b3d 05b1 0e3d
00000080: 6e27 ff3c 85b5 ed3c 1063 873d 92fb 9bbc
00000090: 982e a8bd 0613 06bd e894 8ebd 6825 c8ba
000000a0: 0691 c3bc 1b61 60bd 226b 7cbc 6e67 9c3d
000000b0: 73f9 6abc 208b 95bb a54d adbc c2d1 d53b
000000c0: 3a32 923d 8a1f 8b3d 1ce0 163d 8b9c e63c
000000d0: 20b7 5c3c 3f5c db3c b1e9 9f3c af3d a8bd
000000e0: fb2c 53bd f983 9a3d 2fcf 3eb7 b6bb a1bd
000000f0: 9f6f 7e3c 127a 863d 5328 babd a6f6 88bd
00000100: a2f3 53bd 9180 7abb 7e40 e5bc 40d2 7ebc
00000110: 7391 bfbd 6395 063d 50cb 8f3d c625 3d3d
00000120: ac47 8fbd b803 a1bd ae4c f03c 7574 b0bb
00000130: 3272 ec3c 20e2 b0bd c9af acbb 5353 7f3d
00000140: 31f4 273d 0188 533b 0d5e 8e3c 841c 09bc
00000150: 9e0f 47bd 6cd0 08bd 6579 5cbd 385b 963d
00000160: 9d39 473d ea39 fd3c acd0 8abd b0ad 8b3d
00000170: 7807 e33c d774 7a3d 236c 0ebd 8d80 993c
00000180: 7cbe b03d 5487 733d 4a2d 913d 930b 98bc
00000190: 1dea 893d b9c7 8dbd b17f fa3b 00d9 4bbd
000001a0: a8dd a8bc 316f b9bc 00b3 d83b bdc0 a43d
000001b0: 513d 333d 7e4f c4b9 eb7e 803d 5b87 39bd
000001c0: 9b95 3a3d 8f4a 06bc a2fe 7bbc 598a 293c
000001d0: a6ad 8abd 4958 273c 5b76 f33c 59c2 9a3d
000001e0: bc6f e1bc ce1b 4f3c 0c35 aa3d 927d 39bd
000001f0: 30fb 9c3d cbef 51bd c865 013d 2048 df3c
00000200: b49e 843c 9126 8f3d 623d e03c 234d be3c
00000210: 03df 95bc f18f 99bd ead0 afbc 5f9b 3ebd
00000220: bec0 cc3b 7bba 25bc 96cd f9bc 134a 9a3d
00000230: fa5f 84bd 3b16 61bb 9b20 f2bd 9d66 9e3d
00000240: dd2b a03b 104e 88be 8d93 02be b85a 93bd
00000250: 1aa4 3fbd cb4c a8bd 84a4 6bbd 60c7 1dbd
00000260: 9050 00bb 537d 563d 0cfa d23c 4c8b 723d
00000270: bb11 83bd c377 88ba c950 b2bd eade 2c3d
00000280: 068a 223c 86ac 9d3d 2927 92bd 0c82 7f3d
00000290: 1a69 873d 52f2 803d 18c1 863b b32f 933d
000002a0: 84f7 4e3d 764a 6b3d 6e55 69bc f552 9cbd
000002b0: 1349 1dbc ae51 043c 68b6 8cbd 937e 72bd
000002c0: 61f6 bebd 0b09 83bd 21e3 7a3d 168d cdbb
000002d0: 98b6 63bc 8436 a2bb 0897 3b3d 01da 9fbd
000002e0: 4d2e 4ebd fbbb f0bc 7124 7bbd 36eb 173d
000002f0: b6c4 c03d 1a0a c1bd 8a09 abbd d0b0 c1bd
00000300: 275a 013c 8d48 803d 2bc3 9dbd c5e1 33bd
00000310: f7c7 a03c e8ff 85bd 7b5c 883d 3afe 383c
00000320: 759a 07bd c4d6 34bb ef1b 9c3c c3d6 22bd
00000330: c3ac 9dbd 37be 1b3a 4006 d33a 629e e93a
00000340: 6354 53bc 9874 683d 780f cabc b92b 0cbc
00000350: a7dd 143d 72e1 63bd c1e0 c13c d91a a0bc
00000360: 0da9 2d3d a164 44bd e715 563b 09ac 0d3c
00000370: c4a5 91bd 76a0 83bd bed8 0a3d 57bf d2bc
00000380: 7803 573d 7dd2 b2bd 51f7 32bd 4619 95bd
00000390: c59f 103d 90ef 27bb 510e 87bc 73ee 70bc
000003a0: 5a7e 8dbd 3d58 cd3c c562 103b fad8 79bd
000003b0: 0f3b 083d 29da e8ba 8a12 afbd 78bf 423d
000003c0: 59a6 413d 6c6c 88bc 1ef7 79bd ec92 683b
000003d0: f297 883d b7b1 a53d 32a2 88bd 8a85 23bd
000003e0: 32f2 8c3d 7377 fe3b 293d 3c3d 8103 57bd
000003f0: 2c8b 8a3d 7c38 a6bd b705 51bc 7766 dabb
-0.043412693 0.0029278256 -0.053626038 0.033332445 -0.08043817 0.05742257 -0.06424421 -0.070696115
-0.048592974 0.017677693 -0.049529888 -0.0792647 -0.044948455 -0.09860952 -0.13646507 -0.02473903
-0.07479852 0.05686036 -0.01672309 0.03229329 0.056356266 0.021927556 0.024169859 0.07794732
-0.047233984 0.020627126 -0.04669393 0.055796776 0.063221656 -0.08886185 0.06808207 0.034836788
0.031146731 0.02901722 0.066106915 -0.019040857 -0.08212012 -0.032732986 -0.06961995 -0.0015269937
-0.023872864 -0.054780107 -0.015406402 0.07636915 -0.0143417 -0.004563704 -0.021155188 0.006525249
0.07138486 0.06793125 0.03683482 0.028150817 0.013471395 0.026777385 0.019520612 -0.0821489
-0.05155657 0.07544703 -1.1373121e-05 -0.07897131 0.015529542 0.06566252 -0.090897225 -0.066876695
-0.05174602 -0.0038223604 -0.027984854 -0.015553057 -0.09353914 0.03285731 0.07021201 0.0461786
-0.06996092 -0.078620374 0.029333439 -0.0053849765 0.028863046 -0.0863688 -0.0052699787 0.062335324
0.041004363 0.003227711 0.017378831 -0.008368615 -0.048598878 -0.03340189 -0.05382671 0.07341617
0.04863893 0.030911405 -0.06778082 0.06820238 0.027713522 0.061146583 -0.034771096 0.018738056
0.08630082 0.05945523 0.07088716 -0.018560207 0.06734107 -0.0692286 0.0076446165 -0.049767494
-0.020613506 -0.022636028 0.0066131353 0.080445744 0.043759648 -0.0003744326 0.06274208 -0.0452951
0.04555283 -0.008196487 -0.015380533 0.010347926 -0.06771402 0.01021392 0.029719522 0.075566
-0.0275191 0.0126409065 0.08310899 -0.04528577 0.07665098 -0.051254075 0.031591207 0.027256072
0.016188957 0.06989778 0.02737302 0.023230141 -0.018294817 -0.07498158 -0.021461923 -0.046534892
0.0062485626 -0.010115261 -0.030493539 0.0753366 -0.064636186 -0.0034345526 -0.11822625 0.07734416
0.0048880414 -0.26622057 -0.12751599 -0.071950376 -0.04678736 -0.08217772 -0.05752994 -0.038520217
-0.001957927 0.052365612 0.025753997 0.059214875 -0.06399866 -0.0010411668 -0.08706815 0.042204775
0.009920603 0.07698922 -0.071363755 0.06237988 0.066118434 0.06296219 0.004112374 0.07186832
0.050529018 0.05744406 -0.014241559 -0.0763301 -0.009599942 0.008076115 -0.06870729 -0.05920274
-0.09324337 -0.06398209 0.061251763 -0.0062729223 -0.013898514 -0.0049503464 0.04579833 -0.07805253
-0.050337125 -0.029386511 -0.06131405 0.03708955 0.0941252 -0.09425755 -0.08351429 -0.094575524
0.007895029 0.06263838 -0.07703241 -0.043916482 0.0196266 -0.06542951 0.06658264 0.011291081
-0.033106286 -0.002759383 0.019056289 -0.039755594 -0.07698967 0.0005941125 0.0016099885 0.0017823691
-0.012898537 0.056751817 -0.02466558 -0.008555346 0.036344197 -0.055634923 0.023666741 -0.019544052
0.042397548 -0.04794753 0.0032666863 0.008646973 -0.071116954 -0.0642709 0.033898108 -0.025726004
0.052493542 -0.08731554 -0.04369289 -0.07280211 0.035308618 -0.0025624968 -0.016486319 -0.014705288
-0.06908865 0.02506649 0.0022031527 -0.06099794 0.033259448 -0.0017765212 -0.08548458 0.04754588
0.047277782 -0.016653262 -0.061026685 0.0035487963 0.06669606 0.08090537 -0.06671561 -0.039922275
0.068821326 0.0077657043 0.045956764 -0.052493576 0.06764826 -0.08116242 -0.01275771 -0.006665047

fc1.bias f4 [256]
00000000: 32e1 2f3d 50fa 59bd e0a9 bebd 4797 fabc
00000010: cddb 323d 39ce 2abd 0aa6 aabb b051 4dbc
00000020: b864 29bd bf1b 8cbd 667b 1ebd a71f fabc
00000030: d9c7 48bd c38f 2a3b 1188 873d ee54 76bd
00000040: 5b94 5abb 3b34 89bd 0b7e ff3c 0954 8b3d
00000050: 823e bfbc 5378 8b3a 511c 3abd 6b26 7abd
00000060: 0561 2a3d a691 27bc 6fee 8e3d cf02 7fbd
00000070: e078 8d3d 8519 843d 8e18 913d 0a1e ea3b
00000080: 4410 6fbd 7686 323c 0e50 143d 14c8 91bc
00000090: 0787 aebd 6e6c 2abd f707 05bd d786 123d
000000a0: 79dd 06bd be8e a9bd 6e22 3f3d 3a97 933d
000000b0: 4a8c 283d 67ab 8c3c 5371 95bd 2708 92bd
000000c0: cf7c 97bd d2e6 6d3d 4068 7e3d 5ad5 323d
000000d0: cd5c b5bd 78fb d5bc 7d42 073d a4f8 a43d
000000e0: b7c2 52bc e7ac 72bd ab39 b9bd fe32 293d
000000f0: c1a5 493c 7543 3abd 7bea 593d 071b d2bd
00000100: f635 653d a02d a0bb dbe5 afbc 298e 8cbd
00000110: 61ef 3cbd e90f 313d f87a e0bc 653b 8b3d
00000120: cd69 0abd 324a f1bc e321 62bd 9ef4 6f3d
00000130: 3e88 cdba 0b51 953c d636 72bd 513b 2d3d
00000140: ae5c 9e3d a829 d2bc 4ef6 1c3d 1b45 fb3c
00000150: 5a83 abbc a20c c33c 4a7c 1ebd a8d6 a3bc
00000160: 4daf 40bd 98bd a0bd ffa9 3c3d 2033 6fbd
00000170: 3255 0bbb 1d70 af3c ac26 0fbd bea8 0bbd
00000180: f219 41bd e9e7 923d 4bee 8fbd 1d9d c03c
00000190: 3fde 83bd f796 403d 2d59 66bc 7dec 0abd
000001a0: 444d e2bb d1be 683d 4bf7 1f3c e24d 30bd
000001b0: f546 ac3a 688e 9ebd 3f9a aa3d 7840 48bd
000001c0: d907 5a3d b6d7 59bd 8aec 8dbc 184c 2c3d
000001d0: d61b febc e03f 193d b74a 5f3d 7d68 2abc
000001e0: c4ea 953d 2a8e 9fbd f77b 4abd ad43 193d
000001f0: e9b4 153b 538f b0bd bc54 2e3d 6a98 25bb
00000200: 9c7f 8ebd 567f 92bd 6801 c4bd 5a86 4e3d
00000210: 716b ba3c ccb6 b3bd c35b 25bd ad31 afbd
00000220: fc20 50bd d96d 9f3c af8b 6c3d c444 6abd
00000230: dc97 cebc 2388 90bd d3f1 903c 258e 93bb
00000240: c878 423c 3611 053d 05a5 223c 12c2 c9bd
00000250: 19ec 91bb f1aa ac3d 3b62 9e3c 716b cabd
00000260: 9f36 5e3b 0f43 883d e822 053d 7f13 b0bc
00000270: 03f4 723d b5b6 7abd d30e 883d 8152 9e3d
00000280: 01dc 62bd deb8 1f3d 7b3a 693c aef5 85bd
00000290: 04bb 77bc 9218 f5bc 506b ab3b a50c 3c3d
000002a0: a5fe 2ebd 015e f93c 881a 84bd b813 963d
000002b0: e2a8 993d fc86 81bd 0308 bc3c 771a 36bd
000002c0: 4cb1 fabc abe1 a13d d23e 303a c1ae fbbc
000002d0: aefc 653d eec3 523d f6dc 56bc f933 fb3c
000002e0: 3959 9dbd 9f13 59bd a544 78bd 2e74 a1bd
000002f0: 3091 00bd 9171 aab6 b2b6 6c3d 5a8a 993d
00000300: e2cc 863d 7806 41bd 6a2e 9bbc 3ab3 3abd
00000310: bccc f6bb dcb3 93bd ca96 8d3c cc3a 233d
00000320: 7684 78bd 522b 573d b36e 623d 27b1 9c3b
00000330: 842f b0bd 4668 76bd f180 a13d 1eaa febc
00000340: 3708 1dbd da95 74bd 9c46 02bc a87b cc3a
00000350: adbf 043d ef63 9e3d a550 fdbc 2ea5 17bd
00000360: bbc2 b1bd f6a8 69bd 11bc dd3c c2ce 25bd
00000370: 1a87 933b b6f7 06bd 8901 0abd 4fd5 923d
00000380: 9520 c5bd fd47 213c 48ce 3c3c 0651 94bd
00000390: 4dc3 36bd 5c79 983c 9a43 53bd c571 623d
000003a0: ba2c bbbd 0dd3 08bd 8ac9 d83c 8a74 b2bd
000003b0: e3de 893c 6360 a4bd 614f ccbc 6c12 023d
000003c0: b447 873c 7f74 703c f8ec a2bd 15b8 bfbc
000003d0: 149e 6a3d bacc 9ebd fac9 a8bd fc6b a5bc
000003e0: b5cb f1bc 6b52 85bd 00ae 29bd a57e 343d
000003f0: 5bd2 a2bd 7122 9a3d d207 3b3d 8d38 903d
0.042939372 -0.053217232 -0.09309745 -0.030589713 0.04366665 -0.041700576 -0.0052077817 -0.012531683
-0.04135582 -0.0684123 -0.0386919 -0.030532671 -0.049018715 0.002602563 0.066177495 -0.06013959
-0.0033352587 -0.06699415 0.031188032 0.06803138 -0.023345236 0.0010640718 -0.04543716 -0.061071794
0.04159643 -0.010227596 0.06979071 -0.062258538 0.06907821 0.0645018 0.070847616 0.007144694
-0.05836512 0.010896316 0.03620916 -0.0177956 -0.08521848 -0.041607313 -0.0324783 0.035773125
-0.032926057 -0.08279179 0.046663694 0.072065786 0.041149415 0.017171575 -0.072970055 -0.07130461
-0.07396852 0.058081456 0.06211114 0.0436605 -0.08855591 -0.026120886 0.033022393 0.08055237
-0.012863806 -0.059246924 -0.090442024 0.041308396 0.012307585 -0.04547449 0.053202134 -0.10259061
0.055959664 -0.0048882514 -0.021471908 -0.068630524 -0.046126727 0.043228064 -0.027402386 0.06798438
-0.033792306 -0.029454324 -0.0552081 0.058582895 -0.0015680862 0.01822712 -0.059134327 0.042292897
0.07732521 -0.025654629 0.038320832 0.0306726 -0.020936657 0.023809735 -0.03869275 -0.019999817
-0.04704218 -0.07848662 0.04606056 -0.058398366 -0.0021260497 0.021415764 -0.03494899 -0.034096472
-0.047143884 0.071731396 -0.07027873 0.023512417 -0.064388745 0.04701897 -0.014059347 -0.03391694
-0.0069061834 0.0568226 0.009763549 -0.043043025 0.0013143705 -0.077420056 0.08330201 -0.048889607
0.05323014 -0.053184234 -0.017324705 0.042064756 -0.031019133 0.03741443 0.054514613 -0.0104008885
0.073201686 -0.077907875 -0.04943463 0.037418056 0.0022843427 -0.08621087 0.042561278 -0.0025267848
-0.06957933 -0.07153194 -0.09570581 0.050421096 0.02275631 -0.087751 -0.040370714 -0.08554397
-0.050812706 0.01946156 0.0577504 -0.057194486 -0.025218897 -0.07057216 0.017693436 -0.004503029
0.011869617 0.032487117 0.009927039 -0.09851469 -0.004453194 0.08431042 0.01933395 -0.09883774
0.0033907068 0.066534154 0.032503992 -0.021493671 0.05931474 -0.0612094 0.066434525 0.0773058
-0.055385593 0.038994662 0.014235134 -0.06541 -0.015120272 -0.029918943 0.0052312985 0.045910496
-0.042723317 0.030440332 -0.06450373 0.0732798 0.07502915 -0.06324574 0.022953039 -0.044458833
-0.03060212 0.07904371 0.0006723228 -0.030722978 0.056149177 0.051456384 -0.013114205 0.03066443
-0.076830335 -0.052997228 -0.06061234 -0.07883488 -0.03138846 -5.0796157e-06 0.05779142 0.074970916
0.06582047 -0.04712531 -0.01894303 -0.04558108 -0.0075317305 -0.0721204 0.017283816 0.039850995
-0.0606732 0.052531548 0.055281352 0.0047818604 -0.08602813 -0.060158037 0.07885922 -0.031086978
-0.038337912 -0.059713222 -0.007951405 0.0015600817 0.03240936 0.077339046 -0.030922243 -0.037022762
-0.0867972 -0.0570459 0.027067216 -0.040480383 0.0045021893 -0.03295108 -0.03369287 0.07169592
-0.09625355 0.0098438235 0.011523791 -0.072420165 -0.044619847 0.018612556 -0.05157814 0.05528428
-0.0913939 -0.0334044 0.026463289 -0.08713634 0.016829913 -0.08026197 -0.024940195 0.03175585
0.016513683 0.014676212 -0.079553545 -0.023403207 0.05727966 -0.07753892 -0.08241649 -0.020193093
-0.02951608 -0.065098606 -0.041425705 0.04406609 -0.07950278 0.075261004 0.045661755 0.07042036

fc2.weight f4 [128, 256]
00000000: 4294 d13c ae77 11bc cbc5 1bbd 7e29 1b3c
00000010: 5a5b 693d a43a a3bb 0433 ad3c 4bcd c1bc
00000020: a076 2ebd 200b 5b3d 7518 16bc 5dfc 123c
00000030: c1b4 213b b77a 833c 031a 163d 6220 793d
00000040: d417 493d 5ebe d33c edd6 50bd b814 2c3c
00000050: da16 053d c09e 07bd 4c88 383d 78d4 eb3c
00000060: 345c f03c 662e 6fbd 4025 48bb 5c17 81bc
00000070: 9ad2 3bbd 484d 013c b076 c93b 7e64 463d
00000080: a851 1ebc cb81 4e3c 72ba 46bd 5efa 523d
00000090: 8eee cabc 9472 4f3c 605f adbc f32f fabb
000000a0: ab6b ca3c 800d 613b eeb0 673d e4fe 1a3d
000000b0: c57f 25bb 7eb2 69bd ba2e dbbb 3b30 28bd
000000c0: 5651 cbbc 8734 983c 6bfe aabc 76ce 283d
000000d0: 33a8 33bd 883b 8cbc b6be 9c3c 8a7b 7ebd
000000e0: e00b 51bc de6e 59bd 30bc 5e3b e194 183d
000000f0: 08ad f9bc facf 38bd 03f3 173d 48e9 0abd
00000100: f845 693d 2c6b 4f3d 19d9 48bc 8faa 3ebd
00000110: a100 9dbd e06b fcbc 42ad d23b d0b4 293c
00000120: 3160 ee3c 569e 96bc 36f1 87bd 60dc c2bc
00000130: 98d3 0e3d d8a1 e63c 47d7 383d 34f5 8fbc
00000140: 3aab 50bd 2fc1 49bd 2127 39bd c0f9 d93c
00000150: 0063 8b3c a6a9 82bd 95e5 8bbd 900b a6bb
00000160: 4ccd 68bd 84a2 a8bc 541b 543c c5c2 bbbc
00000170: e9fc 82bd 54e8 a63c 8ca5 b13c 98fb 56bd
00000180: 5daf 813b b1be 763d 68b6 40bd ff63 80bd
00000190: 6a44 253d 4ea5 503d 344c 15bd 50a2 4cbd
000001a0: ff90 2fbb 9c38 753d a8b3 4ebd 2eac 98bd
000001b0: 90ca c6bc 0325 a83c 705a e1bb d3c8 80bd
000001c0: e817 6a3c 5094 95bb 0038 1d39 ffcc a83b
000001d0: 12ba 22bd 4c44 01bd a08c e8bb ebfd 193c
000001e0: 202d dcbc a1b4 48bd 5aa9 41bd 8087 a8bc
000001f0: 317b 08bc 2807 f8bc f8df e53c 001c c43c
00000200: 1847 1f3d 8b24 8ebd aaf2 b73c 9062 66bd
00000210: 3085 583d 0029 c7ba dcfc 2abc faa5 7ebd
00000220: 9276 08bd 7cef ddbc a87a 6d3c 7efa 3abd
00000230: df4b bc3c 4b39 6d3c f341 813c bddc 58bd
00000240: 2eac 523d dcd8 a6bc abe4 53bd 91b1 17bc
00000250: 387c 88ba 6cd2 433d 1a1e 31bd 0b96 69bc
00000260: 8fec 04bd 3007 4fbd 617c 40bd 84f9 b03c
00000270: 6ad3 ef3c 4473 6ebd a300 1ebd 2aae 84bd
00000280: 0095 f23c 0cf9 bbbc c13a babc e9d9 ed3c
00000290: a6e9 3bbd b333 01bd e66c 673d 9196 27bc
000002a0: 3da0 3fbc c4a0 ad3c ecfe 18bc b4b2 4f3d
000002b0: abb9 51bd e2b7 8bbc 158d c93c 484b 64bd
000002c0: 20c2 30bd aa29 183d a1b4 b9bc 5afe 043d
000002d0: e800 1e3d 9c6c cebc ad02 523d ec1e b3bb
000002e0: 31d2 1c3b b416 5fbd 7a8a 2ebc faed 183d
000002f0: 325d 3a3d 61d8 72bd 3221 3b3d 947c f63c
00000300: d583 b8bc ac71 15ba ec1c d63c c4af 443d
00000310: a053 1bbb a2d0 5f3d 7858 e5bb d0be 56bc
00000320: c3ac fe3c 2644 88bd c2cc 693c 46c2 9fbd
00000330: b609 81bd cf63 2c3d 3df9 6bbd 40d1 ebbc
00000340: 0eee 0d3d 6833 03bd 3ea5 12bc 3d51 00bd
00000350: c2d8 2f3d 74dc 773d 810b 513d 4504 503c
00000360: 1e27 72bd c825 69bc a105 773c 0cd0 0f3d
00000370: 2cb9 d2bc 1083 e5bb 0044 f73c 8067 a23c
00000380: 5a30 81bc e075 193c 1e27 46bd cc77 07bd
00000390: a868 acbc d286 00bd d6cb 003d 2185 2cbd
000003a0: aa65 58bd a16d 8abc 82dd 7fbd 3c26 5fbd
000003b0: 6009 fdbb 38cf 11bc 5efe 0abb e6bb 673d
000003c0: ac6c 7ebd e292 243d 5ebf 5cbd 9c30 35bd
000003d0: 705f 48bc 82a2 e73c c0f4 a93c 2652 613d
000003e0: 3ee1 4d3d f451 25bd 48ea 653d a889 8e3c
000003f0: f33b 133d 2262 793d 7501 6cbb 5cd5 f1bc
0.02558339 -0.0088786315 -0.038030427 0.009470342 0.056971885 -0.0049813557 0.02114249 -0.023657462
-0.0425936 0.053477407 -0.009161104 0.008971301 0.0024674388 0.016049726 0.0366459 0.0608219
0.04909499 0.02584761 -0.05098622 0.010502987 0.032492496 -0.03311038 0.045051858 0.028787836
0.02934084 -0.05839386 -0.003053978 -0.015758209 -0.045855142 0.00789196 0.006148182 0.04843568
-0.009663023 0.012604187 -0.04851765 0.0515083 -0.024771955 0.012661595 -0.021163642 -0.0076351105
0.024709543 0.0034340322 0.056565218 0.03784074 -0.0025253159 -0.05705499 -0.00668892 -0.04106162
-0.024819057 0.018579734 -0.020873269 0.04121252 -0.04386158 -0.01711823 0.019133907 -0.062129535
-0.012759179 -0.053084247 0.003398668 0.037251357 -0.030478016 -0.045120217 0.03709699 -0.03391388
0.056951493 0.050639316 -0.012258791 -0.046549376 -0.076661356 -0.030813158 0.0064293453 0.01035805
0.029098602 -0.018386047 -0.06637804 -0.023786724 0.03486976 0.028153345 0.04512718 -0.017572977
-0.050944544 -0.0492565 -0.04520333 0.026608348 0.01701498 -0.06380014 -0.06830899 -0.0050672963
-0.05683641 -0.020585306 0.012945969 -0.022920022 -0.06395895 0.020374455 0.021685384 -0.052486032
0.0039576725 0.06024045 -0.047048956 -0.06269073 0.040348448 0.050938897 -0.036449626 -0.04995948
-0.0026789305 0.05986844 -0.050464302 -0.07454716 -0.024266511 0.020525461 -0.006877236 -0.06288304
0.014287926 -0.0045647994 0.00014993548 0.0051513906 -0.03972823 -0.031559274 -0.007096842 0.009398918
-0.026876986 -0.049000386 -0.047280647 -0.020572424 -0.008330152 -0.03027685 0.028060898 0.023939133
0.03888616 -0.06940564 0.022454578 -0.05624634 0.052861392 -0.0015194714 -0.010436263 -0.062170006
-0.033316202 -0.027091734 0.014494576 -0.045649044 0.022985397 0.014478992 0.015778517 -0.052944887
0.051433735 -0.020367078 -0.051731747 -0.009258644 -0.0010412997 0.047808096 -0.043241598 -0.014256964
-0.032452162 -0.050543964 -0.046993617 0.021603353 0.029275615 -0.058215395 -0.038574826 -0.06478532
0.029612064 -0.022945903 -0.022733094 0.029034572 -0.04587712 -0.031543445 0.056500338 -0.010228769
-0.011695919 0.021194823 -0.009338122 0.050707534 -0.051202457 -0.017055456 0.024603406 -0.055735856
-0.043153882 0.03714911 -0.022669138 0.03246913 0.038575083 -0.025198273 0.051272083 -0.0054663327
0.0023928995 -0.05446501 -0.010653133 0.037336327 0.045499034 -0.059288386 0.045685954 0.0300887
-0.0225238 -0.00057008374 0.026136838 0.048019186 -0.0023700967 0.054642327 -0.0069990717 -0.013107017
0.031088239 -0.06653623 0.0142700095 -0.078007266 -0.0630068 0.042087372 -0.05761074 -0.028786302
0.034650855 -0.032031447 -0.00895053 -0.031327475 0.042931326 0.060512975 0.05103636 0.01269633
-0.059119336 -0.014230199 0.015077026 0.03511052 -0.025723062 -0.0070041493 0.030183792 0.019824743
-0.015770126 0.0093664825 -0.04837715 -0.03307323 -0.021045998 -0.031378575 0.031444393 -0.04211915
-0.05283133 -0.016897978 -0.062467106 -0.054479823 -0.007722065 -0.008899502 -0.0021208744 0.05657568
-0.062115356 0.04017914 -0.05389344 -0.04423581 -0.012229785 0.028275732 0.020746589 0.055009983
0.050263636 -0.04036136 0.05613163 0.017399624 0.035945844 0.060884602 -0.003601161 -0.029520683

fc2.bias f4 [128]
00000000: 4fda fdbc 66fc 623c c032 a7bd 8def b43d
00000010: 7b6b 0bbd 563d 18bd 5942 4bbd 3fd0 03bc
00000020: f379 95ba 6484 063b d147 03bd 03b1 4c3d
00000030: a255 19bd 9e59 08bd 864c a43d 3a37 f93d
00000040: 19f3 a2bd 7c55 063e 78da 2c3e f12c 06be
00000050: 9652 393d f2b4 5f3c d151 2a3d 680e aebd
00000060: cc9a 49bd ac70 b9bd 41b2 f5bd 1efb a1bd
00000070: d7e7 243d ed6d 20bd dce3 bcbd 2f82 203e
00000080: 441a dbbc 6e2b 0a3d c5b1 38bd 85ca b03d
00000090: 3ec9 24bd b64e be3d ccf8 eabd 5574 39bc
000000a0: a542 8cbd 2b48 67bd 19d7 463d 626d 983b
000000b0: 7fa1 36bd 8dee da3c 6902 d9bc 9eb6 11bd
000000c0: 9260 27bd 22b2 03be 2c09 f8bc 8f5a 05bd
000000d0: 2a3c 30be 32a3 413e 276f 78bd 94ea 28bd
000000e0: c6a1 8cbd 3ba0 86bd d97d 6dbd 6ef8 75bc
000000f0: 7c9d 50bc 0856 5abd 763d 523d fc25 55bd
00000100: efe3 53bd 1317 e0bd 1cae e03b 9a2e 89bc
00000110: f05f 6fbd ea93 4b3c 6cb8 ca3b 0b33 4d3d
00000120: e338 023c 9dd9 c6bd da51 c1bc 292f 63be
00000130: c25a 48bd 7025 cabd fcf1 7b3c a00c dcbb
00000140: f43f 53bd 26e5 c3bc 4cf8 033d 5334 3cbd
00000150: d758 4fbe 7a07 a8bd ec1c cbbd bc7b 65bd
00000160: aeb9 10bd 5d94 bcbc 9ab3 bdbd 7b36 a8bd
00000170: 7fbd 8dbd 0bcf eebc 9630 34bc 8d8d 8b3c
00000180: 33a9 97bc a064 a3bb fe83 79bd 0bee 2fbe
00000190: f978 67bd aec7 18bd 7add 9bbd 01e0 34bc
000001a0: 01c8 d03d aa02 93bc 2383 15bd ab55 0b3e
000001b0: 8f8b a0bd 6af9 3dbb b198 74be 6cbd 283d
000001c0: 21d0 20bd 963d 35bd 1465 16bd 90f8 6ebd
000001d0: a163 d73c 6fc0 7cbd c47b b73c 2fba b7bd
000001e0: b780 fdbc 2716 e3bd ce20 743d 2f9d 09bc
000001f0: 1bf3 b3bd 2978 1ebe 446e 0abe 0f6b 8d3b
-0.030987887 0.013854122 -0.08163977 0.08834753 -0.03403805 -0.03716787 -0.04962382 -0.008045255
-0.0011404142 0.0020525688 -0.03205091 0.0499735 -0.03743518 -0.03328859 0.08022408 0.12168737
-0.079565234 0.13118547 0.16880214 -0.13103081 0.045244776 0.013653981 0.041581932 -0.084988415
-0.04921989 -0.090546936 -0.1199689 -0.07909225 0.040260162 -0.039167333 -0.09223148 0.15674661
-0.026745923 0.033732824 -0.04509141 0.086323775 -0.040230982 0.09292357 -0.114732355 -0.01131924
-0.06848649 -0.05646531 0.048544977 0.0046517113 -0.04458761 0.026725078 -0.026490407 -0.035574548
-0.04086358 -0.12860921 -0.030277811 -0.032557067 -0.17210451 0.1890991 -0.060652878 -0.041239336
-0.06866793 -0.0657353 -0.057981346 -0.015012844 -0.01273286 -0.053304702 0.051328145 -0.052038178
-0.051731046 -0.10941901 0.006856693 -0.016745854 -0.058441103 0.012425402 0.0061865356 0.050097506
0.007948133 -0.09709475 -0.0235986 -0.22185959 -0.04891468 -0.09870422 0.015377518 -0.006715372
-0.051574662 -0.023912977 0.032219216 -0.045948338 -0.20248733 -0.08204551 -0.09917626 -0.056026205
-0.035333328 -0.023019964 -0.09262772 -0.08213516 -0.06920909 -0.02915146 -0.010997912 0.01703527
-0.018513298 -0.0049863607 -0.060916893 -0.1718065 -0.056511853 -0.037299804 -0.07610603 -0.011039735
0.10194398 -0.017945606 -0.036502015 0.13606898 -0.07839119 -0.0028987774 -0.23886372 0.04119627
-0.039260987 -0.044248186 -0.03671749 -0.058342516 0.026292624 -0.061706956 0.022397883 -0.089710586
-0.030945165 -0.110882096 0.059601597 -0.008399292 -0.08786603 -0.15475525 -0.13518625 0.004315741

fc3.weight f4 [64, 128]
00000000: 1f1b d63c 0d8c a8bd e597 72bd 66b4 a43d
00000010: 835e fa3c 9eee 6b3d b762 dcbd b3ab e6bc
00000020: 9c9a af3d 95c3 433c 8717 a9bb 5d44 e3bc
00000030: e233 023c daf6 bb3c ce00 08bd ca0f b8bd
00000040: e54c 7b3d cd7e 60bd b340 9cbd e278 bb3d
00000050: bd42 1cbe 7cef c1bc 3bcc 27be 2190 7a3d
00000060: 2c5f 7cbc 0565 17bd 9ad7 b6bb 48ab 973a
00000070: 650c c6bd e876 a5bd 4dd3 dc3b a59d 3f3d
00000080: f1ae 7bbd a08b 6fbd 40bc 763d 8615 adbd
00000090: 110b 5f3d 2dd9 943d 7df2 913d 9e4e 8bbd
000000a0: 7905 1f3d c332 1bbe b613 9abd 202d 4c3d
000000b0: cfc1 2bbd 299d ea3d 65e3 9abd 0e88 a1bc
000000c0: 5535 a3be ddb2 f13d effa bd3d 48a9 16bd
000000d0: 76f8 813d 08fa 853b 004d cebd 1826 03bd
000000e0: ca8d 97bd 47fa 05bd 2be5 1f3d e3f3 283d
000000f0: b999 c1bd 26b2 09bd 3386 a43b 138a 70bd
00000100: 452a c1bd c143 153c 5260 69be f1e3 b93c
00000110: bfa2 62bd c715 3bbd 62c6 15bd a314 44be
00000120: 235d c7bc 0d2b c93d 7481 99be 6a36 72be
00000130: f648 703d f2a4 4abc f9c8 033e 43fd fdbd
00000140: 9648 c9bd 02c9 9fbc 5a8a c93c 600d e6bc
00000150: d0c7 ac3c c19b bfbd 6cff 5dbd 2656 30be
00000160: 66f5 c83d a90e 9dbc e0e9 a1bb 0561 b23d
00000170: d9e1 773d 6289 b73d a884 19bd 36bb 9e3c
00000180: 49cc cdbc e49e 233a f2ee cbbc 3a84 ddbc
00000190: 0c27 713d a92b 163d e963 643d b73f 97bc
000001a0: 59e1 b5bc f8a5 2a3d 724f 98bd d24c 153d
000001b0: 5f9d 043c bbbb 683d 87d5 25be 932e 16be
000001c0: 3c99 133d 972f 09be 4c2b 87bc cfc9 9cbd
000001d0: ac08 caba 32cb 17bd 85a3 1b3d e05f a23c
000001e0: e5f5 fbbc 6d50 94bd 8844 f53c 849c 6abc
000001f0: e6fc 173d 44b5 013c 796b b8be a68f 5f3c
00000200: d216 933c c88a 5b3d 98e9 a2bd 15d1 ebbc
00000210: 343a 4dbd 0e54 9ebc b827 07be f90d 96bd
00000220: 90fa 4836 0ea7 133d e1fa 103d ce4a c8bd
00000230: 0a14 543d 2d8b 403d d3f6 a03c 3345 c83b
00000240: 6043 293c 03cd eabb 7974 21bd ce20 d0bd
00000250: 7819 fc3d 5e27 e43c 1b5b ccbd 86b3 963d
00000260: 6f31 7d3d b3de 68be d579 a5bd 5f1c 683d
00000270: 00e4 38bd 45c1 02be 1743 15bb a432 8f3d
00000280: 068e 4fbd 5788 593d 54c7 d53b 92df 62bd
00000290: c77e 1c3d 6b3b 053d be58 893c b95a 963d
000002a0: c196 a23c c867 0dbe 3a04 46bd 58f3 dcbd
000002b0: c0b4 2bbc 0009 7a3d 73b5 8e3d 5b97 65bc
000002c0: fde2 0dbe cde6 993d 0a9c 253d 3c7d 6f3c
000002d0: d7d4 83be ed41 673d a3af 38bd da01 3cbe
000002e0: 1047 6a3d 8539 ca3d 8c79 7abd 0436 bcbc
000002f0: 5c4c 8abc 6c82 dbbc e9dc 663d a732 363c
00000300: 9887 273c b193 4e3d 489b 57bd aac8 c0bd
00000310: ad96 acbb fee4 c7bd e7b7 973d 8cd1 25bc
00000320: 1141 84bd 55bb 21be 25cb 44bd 115a b03c
00000330: 893d a33c d773 1cbc efa6 993d abd5 07bd
00000340: 69ef 7bbb e9ee 81bd d37c 373c dcb4 83bd
00000350: d88c 9ebd cc6d 843d 1064 c9bd df15 e6bd
00000360: 8ca2 26bc 3af6 76bd c89e f1bc 5298 15bd
00000370: a411 12bd 117c 643c 3520 b93d 238f f13b
00000380: e801 963c 4f20 4c3d 0de5 32bd 6cba 2c3c
00000390: 129e 1cbd f82a 283b 3818 ef3c 420d 2ebc
000003a0: 2491 02be e1cb fabb 5182 cc3d fb5b 153c
000003b0: 6d01 30bd 3589 7d3d a896 023e 4fc0 dabc
000003c0: 63b3 2ebd 1c00 1a3c 4e24 00bd 0c89 b8bc
000003d0: 42ff cb3c 87b3 11be d6cd dcbd d895 43bd
000003e0: 1128 64bc e7fe 95bd d572 f2bc e0c4 56bd
000003f0: e158 173e 7052 78bd 8888 febd 58e9 8b3d
0.02613598 -0.082298376 -0.05922689 0.08042221 0.030562645 0.05760061 -0.10761016 -0.028158044
0.08574411 0.011948486 -0.0051602754 -0.02774256 0.00794694 0.022944856 -0.033203892 -0.089873865
0.06135263 -0.054808427 -0.07629528 0.09153916 -0.15259834 -0.023673765 -0.16386501 0.06117261
-0.01540355 -0.036961574 -0.005579901 0.0011571432 -0.09670333 -0.0807932 0.006739056 0.0467812
-0.061446134 -0.058482766 0.060238123 -0.08451371 0.054453913 0.072679855 0.07126329 -0.068021044
0.03882358 -0.15156083 -0.07523291 0.049847722 -0.041932877 0.11455757 -0.07562903 -0.019718196
-0.31876627 0.118016936 0.092763774 -0.036782533 0.06346218 0.004088644 -0.1007328 -0.03201875
-0.07400091 -0.032709386 0.03903691 0.041248213 -0.094531484 -0.03361716 0.0050208806 -0.058725428
-0.094318904 0.009110392 -0.2279065 0.022691699 -0.055330988 -0.045675065 -0.036566146 -0.19148497
-0.024336403 0.098226644 -0.29981577 -0.2365357 0.05866333 -0.012368428 0.12869634 -0.124018215
-0.09828298 -0.019505028 0.024602104 -0.02808255 0.021091372 -0.093558796 -0.054198667 -0.17220363
0.09812431 -0.01917203 -0.00494121 0.08709911 0.06051812 0.089617506 -0.037480026 0.019376379
-0.025121825 0.0006241633 -0.024894211 -0.02704059 0.05887513 0.03666273 0.055759344 -0.018462999
-0.02220218 0.041662186 -0.07437028 0.036450215 0.008094161 0.05681966 -0.16194735 -0.14666204
0.036034808 -0.1339706 -0.016500138 -0.076556794 -0.0015413961 -0.037059017 0.03799774 0.019821107
-0.0307569 -0.072419025 0.029939905 -0.014319543 0.037106417 0.007916752 -0.36019495 0.013645088
0.017955218 0.05359915 -0.07954711 -0.028786222 -0.050104335 -0.01932719 -0.13198745 -0.07326884
2.994817e-06 0.036047988 0.035395507 -0.09779893 0.051776923 0.04700773 0.019648945 0.006111765
0.010331005 -0.0071655526 -0.039417718 -0.10162507 0.12309545 0.027850803 -0.099783145 0.0735846
0.06181472 -0.22741203 -0.08079878 0.05666768 -0.045139313 -0.12769039 -0.0022775584 0.06992081
-0.050672553 0.05310854 0.006524006 -0.055388995 0.03820684 0.03252737 0.016765948 0.07341523
0.019847276 -0.1380912 -0.048343875 -0.10788602 -0.010480106 0.06104374 0.069682024 -0.014013137
-0.1385612 0.07514725 0.040432014 0.014617261 -0.2574832 0.056459356 -0.045089375 -0.18360081
0.057196677 0.09874252 -0.061151072 -0.022974975 -0.016882114 -0.026795588 0.05636302 0.011120475
0.010225199 0.05043382 -0.052638322 -0.09413274 -0.0052669854 -0.09760474 0.074081235 -0.010120761
-0.06457723 -0.15794118 -0.048045296 0.021527322 0.019926803 -0.009549103 0.07502543 -0.033162754
-0.003844226 -0.063443966 0.011199194 -0.064309806 -0.077417076 0.064662546 -0.098335385 -0.1123464
-0.01017059 -0.060293414 -0.029494658 -0.036522217 -0.035661355 0.013945595 0.09039346 0.0073717996
0.018311456 0.0498355 -0.04367547 0.010542493 -0.038236685 0.0025660377 0.029186353 -0.010623278
-0.12750679 -0.007653699 0.099857934 0.009116168 -0.04297011 0.06189843 0.12752783 -0.026703028
-0.042651545 0.00939944 -0.031284623 -0.022526287 0.02490199 -0.1422864 -0.107814476 -0.047750324
-0.013925568 -0.073240094 -0.029595772 -0.05243385 0.14779998 -0.060625494 -0.12428385 0.06831616

fc3.bias f4 [64]
00000000: cb53 903d 854e 163e 4272 0f3e 02ff 04be
00000010: 38ad 833c 1c77 15bd 7a35 23be 6929 9bbd
00000020: b544 cabc 0bae 35be bdb0 8d3c 5f9c 1abe
00000030: f7a9 743e 7862 693e 6075 9a3e 15c1 863d
00000040: bea4 3b3e d39d 4f3c e60c 983e 6ae6 c93e
00000050: 7b38 6cbc 1810 523e 1e45 c53e 1899 5f3e
00000060: 7a33 cabd e810 22bc d6c5 923d fd72 8b3e
00000070: 7de9 0ebc 8550 c5bd 0864 b2be 716b 03be
00000080: c022 c33e b9c9 273e 9c02 05be d549 7bbe
00000090: 4da6 6abe aacc 14be 6636 63be bffd b23c
000000a0: 77b5 c33d c65b 483e 2dba 593e 2cc2 b3bd
000000b0: 200b 4e3e 2f11 d3bd 62fc fc3c 482b edbd
000000c0: 1b5e 21be 8f9f b0bd 006e 7fbd 8dff b93e
000000d0: 2767 64be c90b 4d3e 84a2 72be 0952 2d3e
000000e0: cc2f d9bd 96e3 1dbe b815 bebd e8a4 58be
000000f0: 1e6c 67be 853c f3bd 85e8 9dbd 4974 103e
0.07047232 0.1467839 0.1400843 -0.12987903 0.016073808 -0.036490545 -0.15938368 -0.07576258
-0.024690965 -0.17742173 0.01729619 -0.15098713 0.23892961 0.22791469 0.30167675 0.06579796
0.18324563 0.012671906 0.2969734 0.39433604 -0.014417763 0.20513952 0.38529295 0.21835744
-0.098730996 -0.009891726 0.071666405 0.27236167 -0.00872266 -0.096344985 -0.34841943 -0.12833954
0.3811245 0.16385545 -0.12989277 -0.24539883 -0.22915001 -0.14531198 -0.2218872 0.021849511
0.09556096 0.19566259 0.21262427 -0.0877727 0.20121431 -0.10306012 0.030882064 -0.11580521
-0.15758555 -0.086241834 -0.062360764 0.36327782 -0.22304974 0.20024027 -0.23694807 0.16925825
-0.1060482 -0.15418848 -0.09281486 -0.21156657 -0.22599837 -0.118767776 -0.07710365 0.1410686

fc4.weight f4 [6, 64]
00000000: bc60 483d aa3a 813d e911 623d 0f14 433c
00000010: 904a 3f3d eff7 0dbd ff80 93bd 701a 6b3d
00000020: 3eec ef3d 2401 0d3d 966b 013d c9d0 e13b
00000030: e0b0 193d cb93 dd3c 6035 1b3d a25d 223d
00000040: e168 643d f3a5 823d f65e 663d bf9d 9a3d
00000050: 96cd 0fbe 7362 a93d 5726 533d 6831 463d
00000060: a770 483d 5edc 4a3d 1e64 c53c fd1a 543d
00000070: 7942 5cbd 6da2 84bc 18f9 35bd 5c79 9ebd
00000080: c87c 2e3d 5c1c 8b3d 4465 9e3b 509c bbbd
00000090: 17ac 6fbd 2180 32bd b17c 523d 6c9b 9fbd
000000a0: fa5e 923d 5d97 753d 4bd3 5e3d e27e cdbc
000000b0: 6a4d 2a3d fa40 ddbc d4ed 983d 2a9d 8dbb
000000c0: 3fcb 28bd f843 73bd 9038 6c3d 302a b83d
000000d0: 9cf6 5abd 4b6e bb3d e373 a4bd 8287 223d
000000e0: bd6e 953d 51a3 343d dc21 30bd 9d3a c13d
000000f0: fdab 7fbd 1bc1 873d ea86 e93c 10ea 1cbd
00000100: 164c 633d 97f6 a03d 6447 5c3d 430d 1fbc
00000110: 8735 463d b0f8 d1bc 42c5 a13d 445e 7f3d
00000120: c2b8 ee3d 2577 bd3c 2a87 ad3c 4c38 423c
00000130: d18e 243d 827f 0e3d a735 173d 3391 233d
00000140: d82c 903d 2042 703d d025 6e3d 0a29 8b3d
00000150: 6c4f 17be 43a8 9e3d b9bd 463d f5b3 483d
00000160: 65a8 5c3d 93b3 613d 6469 033d 000b 533d
00000170: bbe5 7abd 1815 d3bc b6df 3abd dd97 a6bd
00000180: 4563 443d 3fe6 813d 7737 9f3b a511 c3bd
00000190: fae3 80bd 35b9 3cbd ed4d 0c3d 94c1 a8bd
000001a0: 439c 8c3d 7b23 823d 6d52 853d be78 c6b9
000001b0: e84d 333d 1560 46bc c73f 913d 367c 853d
000001c0: 1e6c 26bd bbd7 5fbd e799 7d3d c054 c53d
000001d0: 8732 52bd d515 993d c205 a6bd dfdb fe3c
000001e0: a9bf 833d 3ab1 b0bb 920a 16bd 7d35 bf3d
000001f0: 23d6 7abd 1aa4 a63d bf0b 22bd de76 1dbd
00000200: e78c 253d 8f6e 6c3d 1d3d 5f3d bc0f 00bc
00000210: caf6 423d 8a30 99bc c0fb 7c3d f560 883d
00000220: 3cb8 013e b5fc 063d 411b e03c 1801 a33c
00000230: 3568 123d 56f2 3d3d 6b28 123d 9bc5 693c
00000240: 8a3c a53c 7b4d 683d 9f16 683d dd6c 8b3d
00000250: 1236 14be 436b ca3d 1926 593d a108 5b3d
00000260: 284b 91bd 2bf9 203d 0c37 343b 2712 533d
00000270: 016e 37bd cfa3 bfbc 9803 32bd df20 a0bd
00000280: 9c88 113d 494f 903d 7e09 023d 4c49 b4bd
00000290: 250b 60bd 7750 d7bc 18fe 303d 948d adbd
000002a0: 5e89 953d 77b1 613d eea4 c13d 2b82 08bd
000002b0: b6a1 0d3d e8de 27bd e249 a33d 3bf3 ddbb
000002c0: ec61 24bd ecd5 94bd 2269 713d 739c b33d
000002d0: 8c9d 5dbd 87a2 b23d 0922 9abd 064f b2bb
000002e0: 22a5 6c3d 84e5 9b3d b65e 89bc dc01 b03d
000002f0: daaf 8dbd 902e 7e3d dbd4 673d 221f 40bd
00000300: 7baf 813d 1ff8 8f3d c5ca 513d 31f0 51bd
00000310: 4180 513d 9675 d6bc eee0 63bd e4bd 8f3d
00000320: 2d6a eb3d 6010 133d 98c2 423c 3fdc 87bb
00000330: 2ee8 193d 92c2 023d bc35 173d 401e b53c
00000340: 64f8 973d 9626 853d f28e 493d 1417 903d
00000350: ed9f 21be 9a0f 673d d43a 4d3d 951c 4c3d
00000360: 7157 b1bb c9a1 613d 2524 863d ae76 633d
00000370: 6dd6 69bd 859b f1bc 2526 2fbd aa89 84bd
00000380: 978a 383d 4367 8d3d c91e a6bb e358 c3bd
00000390: b555 74bd 2f03 57bd df81 873d 9079 9bbd
000003a0: dddf 873d b8a8 743d 0ecc 2b3c 6eec fd3b
000003b0: 9744 4b3d 7c0e 47bc 839b 7b3d 0b99 a03c
000003c0: 325c 27bd 1d0f 68bd 7cbd 643d 386a c03d
000003d0: 9e53 39bd 5c6f ae3d fd60 afbd 0c68 6f3d
000003e0: 1055 953d 3c65 9c3c 9bbf 96bd 7e58 bf3d
000003f0: 0a37 6abd bc10 3a3d f50b 263d 083e 18bd
0.048920378 0.063100174 0.05519286 0.011906638 0.046701968 -0.034660276 -0.072023384 0.05739826
0.117149815 0.034424916 0.031596743 0.006891344 0.037522197 0.027048012 0.0378927 0.039640076
0.055764083 0.063793086 0.056242906 0.07549619 -0.14043269 0.08270731 0.051550236 0.04838696
0.04893556 0.049526565 0.024095591 0.05178355 -0.05377433 -0.016190732 -0.044427007 -0.07737991
0.04259947 0.067925185 0.004833849 -0.091606736 -0.058513727 -0.043579224 0.051388446 -0.07793316
0.071470216 0.059958804 0.054400723 -0.025084917 0.041577734 -0.027008522 0.07467237 -0.004321714
-0.041209456 -0.059390992 0.05767113 0.089924216 -0.05345784 0.09151896 -0.08029916 0.03968001
0.07296512 0.044101063 -0.04300104 0.09435008 -0.06241988 0.06628629 0.028506715 -0.038309157
0.055492483 0.07859533 0.05377902 -0.009707752 0.04839089 -0.025631279 0.07898952 0.062345758
0.116563335 0.023128102 0.021182615 0.0118542425 0.040175263 0.03478957 0.0369164 0.039933395
0.07039803 0.05865681 0.05814153 0.06794937 -0.14776391 0.07746937 0.048520777 0.048999745
0.05387153 0.055102896 0.03208293 0.051524162 -0.061254244 -0.025766894 -0.045623504 -0.08134434
0.047946233 0.06342744 0.004858907 -0.0952485 -0.06293483 -0.046075065 0.034254003 -0.08240047
0.06865742 0.063544236 0.06509862 -0.00037855463 0.04377547 -0.012107869 0.07092243 0.06517832
-0.040630452 -0.054649096 0.06191435 0.096353054 -0.051317718 0.07474867 -0.08106567 0.031110702
0.06433041 -0.005392221 -0.036631174 0.09336374 -0.061239373 0.08136769 -0.039561983 -0.03844344
0.040417578 0.057722624 0.05450164 -0.007816251 0.047598638 -0.018699903 0.061763525 0.06659118
0.12667936 0.032955844 0.027356746 0.019897982 0.03574391 0.046373688 0.035683077 0.014268304
0.020170469 0.056714516 0.0566622 0.068078734 -0.14473751 0.0988374 0.05301485 0.053475026
-0.07094413 0.039300125 0.002749863 0.051530983 -0.044782642 -0.02339354 -0.04346046 -0.0781877
0.03553067 0.070463724 0.031747334 -0.08803043 -0.05469813 -0.026283486 0.043211073 -0.084742695
0.07301591 0.055100884 0.09455286 -0.033327263 0.034578048 -0.040984064 0.079730764 -0.00677338
-0.040132448 -0.07267365 0.058938153 0.08770075 -0.054105327 0.08722406 -0.07526023 -0.0054415492
0.05777467 0.07612136 -0.016768795 0.08594105 -0.06918307 0.062056124 0.05659948 -0.04690469
0.06332298 0.07029747 0.051218767 -0.051254455 0.051147703 -0.026179116 -0.05563443 0.07018641
0.11494861 0.03590429 0.011887215 -0.0041461284 0.03757494 0.031923838 0.03691648 0.02210915
0.074204236 0.065015 0.04920859 0.07035652 -0.15783663 0.056411363 0.05010493 0.049831945
-0.005412035 0.05508593 0.06549863 0.055533104 -0.057089258 -0.029493103 -0.042760987 -0.0647157
0.045054045 0.06904461 -0.005069588 -0.09538438 -0.05965205 -0.05249327 0.06616568 -0.075915456
0.066344954 0.059731215 0.010485662 0.007749132 0.04962596 -0.012149449 0.061427604 0.019604227
-0.04085941 -0.05665504 0.05584477 0.093952596 -0.04524576 0.08517334 -0.08563421 0.058448836
0.07291615 0.019091241 -0.073607646 0.093430504 -0.057181396 0.045426115 0.040538747 -0.037168533

fc4.bias f4 [6]
00000000: 7733 a13e 0b56 a03e e6c7 a33e c61f a03e
00000010: 7b74 a23e d51b a03e
0.31484577 0.31315646 0.31988448 0.3127424 0.31729493 0.31271234
