checkpoints/2021_02_06-10_45_16/best/best_dqn-Pong-ram-v0.pt (torch, 301183 bytes, 8 tensors)

fc1.weight f4 [256, 128]
00000000: faa1 4bbd c0e0 3f3b 2da0 96be 9a87 083d
00000010: 2cca 01bc 7263 513d 7892 83bd 21bb c5bd
00000020: 667f fabd 1c9a 8a3e 8159 533c 12ae b9be
00000030: 8798 4bbe a55b 123f 8fb3 693d e754 febc
00000040: ed17 a6bd c37f 1cbd 4935 00be e4a8 213b
00000050: edb1 7f3d 3b77 883d dcff c53c 2ebb 923d
00000060: 1149 5bbd 29ae 6a3c 9315 59bd 5cba 4a3d
00000070: 9124 693d 1fe5 c2bd 430d 7d3d 67c0 e93c
00000080: e785 cb3c 2113 ba3c 1ff6 743d 779e cfbc
00000090: 9a16 b5bd 0ae4 1fbd e77c 9bbd 4849 00bc
000000a0: a733 f7bc 9c31 7abd 19d8 b1bc 8b7f 8f3d
000000b0: 391f a9bc 560a 32bc 54f0 e0bc 73f9 6839
000000c0: 444a 853d 66b4 813d 61fe a63d b04e c43c
000000d0: 9ae3 ea3b 0db9 a73c d098 573c b03d a8bd
000000e0: 2d95 60be f983 9a3d 671c 7d3b a0a3 aebd
000000f0: 2473 ff3b 8124 733d 2310 c7bd cdde 95bd
00000100: 7706 f8bc cce4 25bc 9671 0cbd 92c9 51bc
00000110: 6f79 ccbd 1876 453d 55e3 823d 915e 273d
00000120: a72f 9cbd c1eb adbd bfaa bc3c cd7e 3fbc
00000130: 7bcf b83c 20e2 b0bd d0af acbb 5253 7f3d
00000140: 32f4 273d 0088 533b 0c5e 8e3c 801c 09bc
00000150: 9e0f 47bd 6cd0 08bd 6579 5cbd 395b 963d
00000160: 9e39 473d e839 fd3c acd0 8abd b1ad 8b3d
00000170: 7807 e33c d674 7a3d 236c 0ebd 8c80 993c
00000180: 7dbe b03d 5287 733d 492d 913d 940b 98bc
00000190: 1dea 893d bac7 8dbd b07f fa3b 00d9 4bbd
000001a0: a8dd a8bc 306f b9bc 00b3 d83b bdc0 a43d
000001b0: 523d 333d 004f c4b9 eb7e 803d 5b87 39bd
000001c0: 9a95 3a3d 904a 06bc a0fe 7bbc 588a 293c
000001d0: a6ad 8abd 4858 273c 5c76 f33c 59c2 9a3d
000001e0: bc6f e1bc d32e 153d 0ee5 993d 5f4e 53bd
000001f0: 2e13 903d 5ec0 6bbd e429 cf3c 31a5 ab3c
00000200: fa67 c93c 9126 8f3d c23a 61bd 244d be3c
00000210: 953d 87bb ad5d 88bd ecd0 afbc 9392 18be
00000220: f1f6 26bc 9a02 9a3e f194 a0be 340a 1a3d
00000230: 9590 d53e 2702 dd3f d76d b73e 3aa1 af3d
00000240: 35a7 593c 36f4 f33e c2cb 55bd 5bc6 993c
00000250: 1413 143d 698b 8cb9 84a4 6bbd 51c9 f6bc
00000260: 26fc d23b b7df 783d 41ae 0b3d b078 8a3d
00000270: edbf 63bd 1c04 f13b b41d a1bd 6c42 4f3d
00000280: a80e 963c 57df ae3d c6f4 80bd 03f4 903d
00000290: f79b 983d 4b25 923d dff1 4c3c a562 a43d
000002a0: 275b 713d acd7 863d 9f90 bfbb ae20 8bbd
000002b0: 84c4 9dba 3ff1 863c 8708 77bd d91b 50bd
000002c0: 72c3 adbd a9c7 08bf 8f98 123e 291f a7bb
000002d0: e84f b4bb 84cb 613b 70e5 803e 01da 9fbd
000002e0: de45 8cbe fabb f0bc a320 52be d14e 3a3d
000002f0: 8e55 e63b ffd7 afbd 6fd7 99bd 047e b0bd
00000300: 57e4 b83b 587b 913d 6090 8cbd 8a3f 2cbc
00000310: 3e91 e53c 9048 e2bb 928f 993d 18a7 a53c
00000320: 2a6b cabc 08b9 b83b 7ae5 e03c 0c72 00bd
00000330: ae79 8cbd 00be 1b3a 4006 d33a 809e e93a
00000340: 6054 53bc 9674 683d 780f cabc b82b 0cbc
00000350: a6dd 143d 72e1 63bd c0e0 c13c d81a a0bc
00000360: 0ea9 2d3d a164 44bd e015 563b 08ac 0d3c
00000370: c4a5 91bd 76a0 83bd bed8 0a3d 58bf d2bc
00000380: 7603 573d 7dd2 b2bd 51f7 32bd 4619 95bd
00000390: c49f 103d 80ef 27bb 500e 87bc 70ee 70bc
000003a0: 5a7e 8dbd 3c58 cd3c c062 103b fad8 79bd
000003b0: 0e3b 083d 40da e8ba 8a12 afbd 76bf 423d
000003c0: 5aa6 413d 6c6c 88bc 1ef7 79bd e092 683b
000003d0: f197 883d b7b1 a53d 32a2 88bd 8a85 23bd
000003e0: 31f2 8c3d 3df6 e63b cd20 8f3d 97a0 34bd
000003f0: 1abe 9b3d 8505 95bd e7e7 8ebb 82fa e23a
-0.04971502 0.0029278249 -0.2941908 0.033332445 -0.007921737 0.05112023 -0.06424421 -0.09654833
-0.122313306 0.270707 0.012899757 -0.36265618 -0.19882403 0.5717109 0.057056006 -0.031046344
-0.08110032 -0.03820778 -0.12520327 0.0024667317 0.062425543 0.066633664 0.024169855 0.07164608
-0.05353648 0.01432375 -0.05299909 0.049494132 0.056919638 -0.09516358 0.061780225 0.028534127
0.024844123 0.0227142 0.059805032 -0.025344117 -0.088422015 -0.039035834 -0.075921826 -0.007829972
-0.030175997 -0.061082467 -0.021709489 0.07006749 -0.020644771 -0.010866722 -0.027458347 0.00022218171
0.06508306 0.063332364 0.08153988 0.023963302 0.0071682455 0.020473981 0.013158992 -0.08214891
-0.21931906 0.07544703 0.0038621665 -0.08527303 0.0077957083 0.059360985 -0.09719875 -0.073178865
-0.03027652 -0.01012535 -0.03428801 -0.012804406 -0.09984099 0.048208326 0.063910164 0.04086167
-0.076262765 -0.08492232 0.023030637 -0.0116879465 0.022559872 -0.0863688 -0.005269982 0.06233532
0.041004367 0.0032277107 0.01737883 -0.008368611 -0.048598878 -0.03340189 -0.05382671 0.07341618
0.048638932 0.0309114 -0.06778082 0.068202384 0.027713522 0.06114658 -0.034771096 0.018738054
0.08630083 0.059455223 0.070887156 -0.018560208 0.06734107 -0.069228604 0.007644616 -0.049767494
-0.020613506 -0.022636026 0.0066131353 0.080445744 0.04375965 -0.00037442893 0.06274208 -0.0452951
0.045552827 -0.008196488 -0.015380532 0.010347925 -0.06771402 0.010213919 0.029719524 0.075566
-0.0275191 0.03642161 0.07514392 -0.051588412 0.07034908 -0.057556503 0.02528853 0.020952793
0.024585713 0.06989778 -0.054987676 0.023230143 -0.004127214 -0.06658492 -0.021461926 -0.14899664
-0.010190711 0.3008011 -0.31363633 0.037607387 0.4171187 1.7266282 0.3582599 0.085756734
0.013284494 0.47647256 -0.05219627 0.018771341 0.036151007 -0.0002680675 -0.05752994 -0.030125292
0.00643875 0.060760226 0.03410173 0.067613006 -0.055602957 0.007355226 -0.078669935 0.050600454
0.018317536 0.085386924 -0.06296687 0.070777915 0.07451623 0.07136019 0.012508838 0.080266275
0.05892482 0.06584105 -0.0058460976 -0.067933425 -0.0012036716 0.016472457 -0.060310867 -0.050807808
-0.08484544 -0.5342966 0.14316009 -0.00510015 -0.0055026896 0.003445358 0.25175047 -0.07805253
-0.27397054 -0.02938651 -0.20520262 0.04548532 0.007029242 -0.0858612 -0.07511794 -0.086177856
0.0056424546 0.07103604 -0.06863475 -0.010513196 0.028023358 -0.006905623 0.07498087 0.020221278
-0.024709303 0.005637292 0.027453173 -0.031358764 -0.06859146 0.0005941093 0.0016099885 0.0017823726
-0.012898535 0.05675181 -0.02466558 -0.008555345 0.036344193 -0.055634923 0.02366674 -0.01954405
0.04239755 -0.04794753 0.0032666847 0.0086469725 -0.071116954 -0.0642709 0.033898108 -0.025726005
0.052493535 -0.08731554 -0.04369289 -0.07280211 0.035308614 -0.002562493 -0.016486317 -0.014705285
-0.06908865 0.025066487 0.0022031516 -0.06099794 0.033259444 -0.0017765239 -0.08548458 0.047545873
0.047277786 -0.016653262 -0.061026685 0.0035487935 0.066696055 0.08090537 -0.06671561 -0.039922275
0.06882132 0.007048397 0.06988678 -0.044098463 0.07604618 -0.072764434 -0.004361141 0.0017317089

fc1.bias f4 [256]
00000000: c30d 163d b7c8 37bd 0d7f c3bd 7dc9 f9bc
00000010: 40fd 363d aa66 39bd 48a3 513b 40ff 1abc
00000020: 7f90 0abd 2149 73bd 55e8 41bd 9b83 28bd
00000030: 807a 35bd 6df4 41ba f984 8f3d ee54 76bd
00000040: 7fd4 a0bb a2bd 84bd f938 003d 7c77 8b3d
00000050: 7f48 b8bc 6194 6b3a 39b6 83bd aa6b 73bd
00000060: 0661 2a3d a891 27bc 6fee 8e3d e8b4 79bd
00000070: 54fa 8d3d 8519 843d 8f18 913d c466 1f3c
00000080: 9533 78bd c5f6 c33c ccb7 a53c 14c8 91bc
00000090: b704 acbd 5b4f 34bd f707 05bd 7cf1 0e3d
000000a0: 9c6c 8fbc 8fc2 93bd 6e22 3f3d 20ed 8d3d
000000b0: 5f80 1c3d 0758 773c f022 92bd 3ee9 93bd
000000c0: 5ce5 94bd 8c93 633d 9fb8 2d3d 363c 323d
000000d0: bc1d afbd 8e6b c0bc b11d 023d 7925 a33d
000000e0: c49b 74bc eae9 9bbd c00f afbd 6720 643d
000000f0: c0a5 493c a194 83bd 895b 583d 34e8 a8bd
00000100: 2292 693d 8353 9b3c c786 aabc 1cdd 8ebd
00000110: 9d0b 48bd ea0f 313d 566a ebbc 653b 8b3d
00000120: 7693 46bd caf3 f0bc 9b71 7ebd 9ef4 6f3d
00000130: 2372 d93b 0c51 953c 0d01 7cbd 523b 2d3d
00000140: fd23 993d 5edb 9dbc b8bb 263d 2046 023d
00000150: 5c83 abbc 2515 d03c 7f28 4ebd 0443 9fbc
00000160: d1a9 91bd 98bd a0bd c775 403d ff6d 84bd
00000170: 1da5 9cbc 46a7 c43c d190 b7bc bea8 0bbd
00000180: 22ad abbd 1952 943d 9582 8ebd 5398 263d
00000190: 8c09 7dbd f696 403d 97b1 7ebc 7dec 0abd
000001a0: 6f09 19bc d2be 683d 48f7 1f3c 18f9 3cbd
000001b0: 0047 ac3a 8476 57bd 3f9a aa3d f84f 4fbd
000001c0: b776 613d b6d7 59bd a2c4 95bc 7539 d63c
000001d0: d61b febc de3f 193d a3ca 6a3d d664 59bc
000001e0: c5ea 953d 8cdc 91bd 46b8 4ebd ae43 193d
000001f0: 1a0f 473c 538f b0bd bf65 3a3d 478f e6b9
00000200: 9c7f 8ebd d15e 94bd 5b10 c8bd 247e f03c
00000210: 03b7 c43c ccb6 b3bd e605 26bd ad31 afbd
00000220: 3eb1 4fbd b877 263c a416 693d 100c 3abd
00000230: a387 bcbc 1a53 5ebd abb0 123d 1338 b0bb
00000240: c878 423c 3611 053d 30c5 173c b9d0 c5bd
00000250: 0e2f b03c f1aa ac3d 3c62 9e3c 21ee c9bd
00000260: cc38 043c 0f43 883d 0a4b 3a3c 2fd5 91bc
00000270: 4d13 783d 1ca8 73bd 1fbc 863d faad ae3d
00000280: 01dc 62bd deb8 1f3d 19fb 853c 1f4e 5fbd
00000290: f76f bdbb 07c7 c5bc 506b ab3b 5859 f93c
000002a0: fab8 e3bc 60d9 ec3c 53dd 47bd b713 963d
000002b0: 3926 833d 316b 80bd dc3f ad3c 771a 36bd
000002c0: 4cb1 fabc 7c1a a83d 038d 4f3c 7293 36bd
000002d0: 51d8 923d f04c 583d 92e5 7abc a984 b33c
000002e0: 2e3a 9cbd 89fa 73bd 84c8 72bd 2e74 a1bd
000002f0: ab23 02bd 4e25 a53c b2b6 6c3d ac4f a13d
00000300: 5a68 9b3d 0b1f f5bc 0d5d a1bc ee87 3cbd
00000310: 70a5 e4bb c694 8dbd 106a 9a3c ca3a 233d
00000320: 1f0a 64bd 0869 4d3d 07eb 703d 5ed0 1e3c
00000330: 1603 a8bd a14b 77bd 707c a33d 58e3 133b
00000340: 3708 1dbd da95 74bd ea38 adbc 4bb4 7bba
00000350: 416c 893c 32bb 973d 6c07 febc df68 67bc
00000360: bbc2 b1bd 7acb 69bd deee d33c c2ce 25bd
00000370: 2087 933b ada4 0cbd 1b7c 03bd 4fd5 923d
00000380: 5818 e8bd caea 253c 44cc 233c 3774 acbd
00000390: 4dc3 36bd f85f 7e3c 73ad 59bd 3341 5f3d
000003a0: e43d b5bd d7ec 0ebd 8cc9 d83c dba3 abbd
000003b0: db2e b43c 6360 a4bd e07a c1bc 6258 003d
000003c0: 5b0c 883c 9bb0 743c 9701 99bd 14b8 bfbc
000003d0: 169e 6a3d 86e9 bdbd 83a9 a6bd fc6b a5bc
000003e0: b4cb f1bc 0aad 84bd 00ae 29bd a67e 343d
000003f0: 6a62 a4bd 5449 9d3d eac7 863d 0de8 8e3d
0.036634218 -0.04486915 -0.095457174 -0.030491585 0.04467511 -0.045263924 0.0031988192 -0.00946027
-0.03382921 -0.059395913 -0.04734071 -0.041141134 -0.04430628 -0.0007398788 0.070077844 -0.06013959
-0.004908144 -0.06481482 0.031304333 0.06809899 -0.022495506 0.0008986649 -0.064312406 -0.05942885
0.041596435 -0.010227598 0.06979071 -0.06096354 0.06932512 0.0645018 0.07084762 0.009729091
-0.060596067 0.02392138 0.020229243 -0.0177956 -0.08399337 -0.04402099 -0.0324783 0.034898266
-0.017507844 -0.072148435 0.046663694 0.06929994 0.03820836 0.015096671 -0.0713557 -0.07222222
-0.07270309 0.055560634 0.042412397 0.043514453 -0.08550593 -0.023488786 0.031766597 0.07966132
-0.014929716 -0.07612975 -0.08547926 0.055694964 0.012307584 -0.06424833 0.05282167 -0.08247414
0.05702413 0.01896072 -0.02081622 -0.06975767 -0.0488392 0.043228067 -0.028737228 0.06798438
-0.048480473 -0.029413123 -0.06212006 0.058582895 0.0066359206 0.018227123 -0.06152444 0.0422929
0.07477567 -0.019269641 0.040706366 0.031805158 -0.02093666 0.025400707 -0.05033159 -0.019441135
-0.07112468 -0.07848662 0.04698732 -0.064662926 -0.0191217 0.024005543 -0.022407921 -0.034096472
-0.08382632 0.072422214 -0.069585 0.04067261 -0.061776683 0.047018968 -0.01554527 -0.03391694
-0.009340628 0.056822605 0.009763546 -0.04613599 0.0013143718 -0.05260326 0.08330201 -0.050613374
0.055044856 -0.053184234 -0.018282238 0.026150445 -0.031019133 0.037414424 0.057322156 -0.01326867
0.07320169 -0.07122144 -0.050468706 0.03741806 0.012149597 -0.08621087 0.04550719 -0.00043975768
-0.06957933 -0.07244647 -0.097687446 0.029357024 0.024013048 -0.087751 -0.04053297 -0.08554397
-0.05070614 0.010160379 0.056906357 -0.04542166 -0.023013895 -0.05427847 0.035813015 -0.0053777783
0.011869617 0.032487117 0.009263322 -0.09658951 0.021506812 0.08431042 0.019333951 -0.098598726
0.008070182 0.066534154 0.01137043 -0.01780185 0.06056528 -0.059486493 0.0657885 0.08529277
-0.055385593 0.038994662 0.016355084 -0.05451786 -0.0057811695 -0.024142755 0.0052312985 0.03043811
-0.027798165 0.028912246 -0.048795056 0.07327979 0.06403775 -0.06270445 0.021148615 -0.044458833
-0.03060212 0.082081765 0.012667897 -0.04457421 0.07170165 0.05280775 -0.015313523 0.021913843
-0.076282844 -0.0595651 -0.059273258 -0.07883488 -0.031772297 0.02015939 0.05779142 0.07876524
0.07588263 -0.029922029 -0.01969769 -0.04602807 -0.0069777295 -0.06913142 0.018849403 0.039850987
-0.055673715 0.050148994 0.05881789 0.009693233 -0.082037136 -0.06037486 0.07982719 0.0022565927
-0.038337912 -0.059713222 -0.021145303 -0.0009601756 0.016775252 0.074087515 -0.031009398 -0.014124124
-0.0867972 -0.057078816 0.025870737 -0.040480383 0.004502192 -0.034336735 -0.032100778 0.07169592
-0.11332768 0.010126779 0.009997431 -0.08420604 -0.044619847 0.01552581 -0.05314393 0.05450554
-0.08849695 -0.034893837 0.026463293 -0.08380862 0.021994999 -0.08026197 -0.023618162 0.03133429
0.016607454 0.014934684 -0.07471006 -0.023403205 0.05727967 -0.09273057 -0.081378005 -0.020193093
-0.029516079 -0.06478317 -0.041425705 0.044066094 -0.080265835 0.07680002 0.06581099 0.06977854

fc2.weight f4 [128, 256]
00000000: f015 e83c 8412 dfbc f772 95bc 8aa4 2c3c
00000010: 5d4b 663d b9f9 93bb a808 2ebc e4bb efbc
00000020: 47db 05bd 06dd 143d b8bb dbbb 4ccf aa3c
00000030: 4cce e03b 3846 10bc 2a37 2e3d 6220 793d
00000040: d417 493d d800 df3c 5abd 4fbd b814 2c3c
00000050: da16 053d c09e 07bd 1186 493d b48d e43c
00000060: 345c f03c 662e 6fbd 4025 48bb 58fe 85bc
00000070: b5aa 30bd 484d 013c b076 c93b a3c0 423d
00000080: a851 1ebc 1884 3cbb 98a1 8fbd 5efa 523d
00000090: ccc0 32bd f67a a33c 605f adbc bc2f ebbb
000000a0: 979e 31b9 248f 1b3c eeb0 673d 7258 153d
000000b0: e4d6 133b 1151 6cbd 39bd 3cbc 4da7 2ebd
000000c0: 031e 60bd 7477 a13c 7ada 4bbd db86 0e3d
000000d0: 0973 1abd 883b 8cbc b35a d73c 8a7b 7ebd
000000e0: 1ef7 3aba 8f03 17bd eb66 bf3c 39d7 893c
000000f0: 08ad f9bc 0a21 32bd 0188 0a3d 55a6 09bd
00000100: f845 693d 9fc7 313d ec10 e1bb b0f5 6bbd
00000110: 2caf 98bd e06b fcbc 57f2 49bb d0b4 293c
00000120: 69ba 103d 9ec3 26bd 7c43 4dbd 60dc c2bc
00000130: 3836 253d d8a1 e63c 5085 283d 34f5 8fbc
00000140: 3cff 42bd 98e3 6dbd 8a6e 1abd a472 1d3d
00000150: 0063 8b3c 79d5 b7bd 480a 94bd 900b a6bb
00000160: 017c 8abd 84a2 a8bc b396 c93b 98ee 98bc
00000170: e824 b2bd b25a 953c 91f3 23bc 98fb 56bd
00000180: 8c87 9e3b 9dc2 643d 68b6 40bd d127 9dbd
00000190: 4ce9 9d3c 4ea5 503d 1001 1cbc 50a2 4cbd
000001a0: 6165 be3a 9c38 753d a8b3 4ebd 4807 87bd
000001b0: 90ca c6bc 4fd6 a43c 705a e1bb 107e ecbc
000001c0: 7c98 373c 5094 95bb 0038 1d39 9269 903c
000001d0: 12ba 22bd 4c44 01bd 3e98 f0bb 4912 f03b
000001e0: 202d dcbc ce49 50bd 9a8e 1bbd 8087 a8bc
000001f0: c1d6 96bc 2807 f8bc 6c34 d13c a5f2 be3c
00000200: 1847 1f3d d5c7 53bd 7c02 f33c a62b 05bd
00000210: 3085 583d 0029 c7ba eb78 743c faa5 7ebd
00000220: 9276 08bd 6d54 c8bc a87a 6d3c ab01 29bd
00000230: d653 ce3c 1310 28bc 2e75 18bc 3bf2 95bd
00000240: 2eac 523d dcd8 a6bc dab3 65bd 57ab b6bc
00000250: 46d9 3c3b 6cd2 433d 1a1e 31bd c098 77bb
00000260: b551 20bd 3007 4fbd eb93 21bd 2f38 eb3b
00000270: 9a0b 983b e10e 73bd cb50 03bd ae88 acbd
00000280: 0095 f23c 0cf9 bbbc 0b01 c4bc 8589 2a3c
00000290: 2090 4bbd da00 98bd e66c 673d c9b9 2dbb
000002a0: f977 973a 15a6 8f3c f6f7 86bc b4b2 4f3d
000002b0: 7882 3cbd c64c 9cbc 4d7e c93c 484b 64bd
000002c0: 20c2 30bd 81c6 0d3d 51a6 3bbd 07ed b33c
000002d0: 76ea f53c 9c6c cebc 2c74 3c3d 40be 4cbb
000002e0: f29a 223b c1bf 46bd 0727 68bc faed 183d
000002f0: c1e5 3e3d a984 b2bd 3221 3b3d 69b6 c23c
00000300: cd7e 11bd 8497 32b9 cd3b ff3c 2e2f 4d3d
00000310: 53a9 42bb 1989 613d b1be acbc d0be 56bc
00000320: 06af 103d ed4e 9abd ea9f 8d3c f2bc 77bd
00000330: dd18 a8bd 2b81 493d 01a5 68bd cfbf 01bd
00000340: 0eee 0d3d 6833 03bd 7a48 f4bb ebfb bbbc
00000350: 59db 2e3d 74dc 773d 9c15 1e3d 4256 91bb
00000360: 1e27 72bd beb8 73bc f0fd 763c 0cd0 0f3d
00000370: 2cb9 d2bc 1083 e5bb 0044 f73c 8067 a23c
00000380: f016 a8bc e075 193c 1e27 46bd a426 4fbd
00000390: a868 acbc b2bd f6bc 4f17 103d 98c5 0dbd
000003a0: aa65 58bd 1b6c 10bd 82dd 7fbd ccc3 87bd
000003b0: 2700 e5bb 38cf 11bc 5894 e73b e6bb 673d
000003c0: 191a 89bd e292 243d 6ae6 69bd 9c30 35bd
000003d0: 705f 48bc 3406 c63c c0f4 a93c 2652 613d
000003e0: 3ee1 4d3d f451 25bd 48ea 653d a889 8e3c
000003f0: 6482 d43c 57c8 733d bb0a 39bc 5cd5 f1bc
0.028330773 -0.027230509 -0.018243296 0.010537276 0.056224216 -0.0045158532 -0.010622181 -0.029264398
-0.032679822 0.036343597 -0.0067057274 0.0208508 0.00686053 -0.008805804 0.042533077 0.0608219
0.04909499 0.027222082 -0.05071769 0.010502987 0.032492496 -0.03311038 0.04920012 0.0278996
0.02934084 -0.05839386 -0.003053978 -0.016356632 -0.04313155 0.00789196 0.006148182 0.047546994
-0.009663023 -0.0028765257 -0.070132434 0.0515083 -0.043640897 0.019956093 -0.021163642 -0.0071773212
-0.00016939115 0.009494577 0.056565218 0.0364613 0.0022558505 -0.0576945 -0.011519724 -0.04264002
-0.05471612 0.01971028 -0.049768902 0.034796577 -0.037707362 -0.01711823 0.026288366 -0.062129535
-0.000713216 -0.036868628 0.023364505 0.016826259 -0.030478016 -0.04348854 0.03382111 -0.033605892
0.056951493 0.043403264 -0.0068684723 -0.057607353 -0.074552864 -0.030813158 -0.0030814612 0.01035805
0.035334025 -0.0407139 -0.050113186 -0.023786724 0.04033491 0.028153345 0.04114276 -0.017572977
-0.04760669 -0.05807838 -0.037703075 0.038439408 0.01701498 -0.089762636 -0.072285235 -0.0050672963
-0.06761933 -0.020585306 0.006151998 -0.018668458 -0.086984456 0.018231723 -0.010006801 -0.052486032
0.004837936 0.05584966 -0.047048956 -0.0767361 0.019276284 0.050938897 -0.009521738 -0.04995948
0.0014526063 0.05986844 -0.050464302 -0.06593186 -0.024266511 0.020121722 -0.006877236 -0.028868705
0.011205789 -0.0045647994 0.00014993548 0.017628465 -0.03972823 -0.031559274 -0.0073423674 0.0073263985
-0.026876986 -0.050851636 -0.037977792 -0.020572424 -0.01841295 -0.03027685 0.025537692 0.023309061
0.03888616 -0.051704247 0.02966427 -0.03251233 0.052861392 -0.0015194714 0.014921407 -0.062170006
-0.033316202 -0.02445432 0.014494576 -0.041261356 0.02518646 -0.010257739 -0.009305282 -0.073215924
0.051433735 -0.020367078 -0.056079723 -0.022298498 0.0028816028 0.047808096 -0.043241598 -0.0037780255
-0.039140422 -0.050543964 -0.039447706 0.0071783285 0.004640055 -0.05934036 -0.032059472 -0.08424507
0.029612064 -0.022945903 -0.023926279 0.010408764 -0.049697995 -0.074220374 0.056500338 -0.0026508442
0.001155614 0.017535249 -0.016475659 0.050707534 -0.046022862 -0.019079577 0.024596358 -0.055735856
-0.043153882 0.034613136 -0.04581291 0.02196361 0.030019026 -0.025198273 0.046009228 -0.0031241328
0.0024811593 -0.048522715 -0.014169461 0.037336327 0.04660583 -0.08716709 0.045685954 0.02376862
-0.035521317 -0.00017031847 0.031156445 0.050093822 -0.0029702976 0.055062387 -0.021087022 -0.013107017
0.035323165 -0.07534585 0.017288167 -0.060482927 -0.08207867 0.04919545 -0.056797985 -0.031677064
0.034650855 -0.032031447 -0.007454929 -0.022947272 0.042689655 0.060512975 0.038594827 -0.0044353316
-0.059119336 -0.014875589 0.015075192 0.03511052 -0.025723062 -0.0070041493 0.030183792 0.019824743
-0.02051875 0.0093664825 -0.04837715 -0.05057396 -0.021045998 -0.03011975 0.03517848 -0.03461227
-0.05283133 -0.035259347 -0.062467106 -0.06629142 -0.0069885436 -0.008899502 0.0070672445 0.05657568
-0.06694431 0.04017914 -0.057104506 -0.04423581 -0.012229785 0.02417288 0.020746589 0.055009983
0.050263636 -0.04036136 0.05613163 0.017399624 0.025941081 0.05951723 -0.011294062 -0.029520683

fc2.bias f4 [128]
00000000: 7924 f8bc 7c87 f03a 7971 b8bd 9019 653c
00000010: 574e d9bd 75b3 2ebd 1913 b33d 5757 353d
00000020: dfd4 f1bd fb48 bcbd 6242 85bd e0cf 383d
00000030: e937 0e3e 74c8 d4ba 773c de3c e578 4abb
00000040: 95e9 31bd 268e 4abc 005f 98bc 351b 183c
00000050: 8ef0 85bc dfd6 b4bd 8498 6bbd bba8 55bd
00000060: 4c88 003d b2ba 6cbd 2fc8 bebd c569 c5bd
00000070: 6257 2f3d df70 23bd f082 a7bd 24fe c83d
00000080: 68d5 2b3d 5529 2e3d 7dba abbc 1f0c db3d
00000090: db15 1ebe 3ed5 9c3c 7281 95bd 4113 0dbb
000000a0: 4635 233c 73f0 dcbc cff4 b13d eeed e13c
000000b0: 2a3a 40be a881 633c 241b 6abd ffa2 62bd
000000c0: 35cd c6bc 5137 d2bd 24aa 97bd f5e5 e93d
000000d0: 2267 07bd 45d5 bf3c d76f 96bd e835 b5bd
000000e0: 5779 8cbc cbe6 323e abb9 5e3e f6c8 d33c
000000f0: a901 a9bb bd77 33bc 7558 083c d6c3 8a3e
00000100: fd2e 10bd a987 dfbd 5826 f63a 0621 cbbc
00000110: 4b6f 85bd 3d1c 8bbc 177d ca3d 9a61 e7bc
00000120: 3ea9 0fbc 741f e5bd 3a58 90bd ef3b 5dbd
00000130: 8d63 17bd e09b f1bc 296e 1fbb 1b94 84bd
00000140: 7a7f 1dbd e511 b8bc d015 023d de86 19bd
00000150: 6742 b8bd 7dfc 84bd dab2 e3bd 093d 5a3c
00000160: d212 a83c 2989 82bc 8379 b1bd adaa cebd
00000170: 0b33 72bd 99d4 a2bb 1b45 263d f233 f7bc
00000180: 4bb9 57bd 775f a63d 912e 1fbe e06d 24bd
00000190: adbf 4ebd c650 1ebc d483 51bb 4cd6 9a3d
000001a0: ae18 74bd 75e2 9abd bfce 913d dba5 f8bb
000001b0: aace b7bb 2fb3 d33c d987 aebd ea7b b43b
000001c0: beee 34bc 9d8c a8bc 4281 f4bd b769 3f3d
000001d0: 5ace 883d 0f50 5cbd 05a5 75bd d3e4 a2bd
000001e0: f370 83bd e0fc 91bd 4ac2 e83b 1690 a13b
000001f0: f199 7fbc 6b0f e1bd d43b 3abd 16d6 74bc
-0.030290829 0.0018350924 -0.09006018 0.013983145 -0.10610645 -0.042651612 0.08743877 0.044272747
-0.1180818 -0.091936074 -0.06506802 0.04512012 0.13888516 -0.0016234056 0.027128441 -0.0030894813
-0.04343565 -0.012362992 -0.018599987 0.00928383 -0.016350057 -0.08830046 -0.057518497 -0.052162867
0.031379983 -0.057795234 -0.09315526 -0.096393146 0.042807944 -0.039902564 -0.08179271 0.098140985
0.041951567 0.042519886 -0.020962948 0.10695671 -0.15438025 0.01914465 -0.0730008 -0.0021526369
0.009961432 -0.026970124 0.08689272 0.027579274 -0.18772188 0.013885893 -0.05715479 -0.055331226
-0.024267772 -0.10264457 -0.074054986 0.11420814 -0.03305734 0.023417125 -0.073455505 -0.088481724
-0.017147703 0.17470853 0.21750514 0.025852662 -0.0051576686 -0.010953841 0.008321871 0.27102536
-0.03520106 -0.10914547 0.0018779738 -0.02479602 -0.06515368 -0.016981238 0.0988714 -0.028244782
-0.008768378 -0.1118764 -0.07048078 -0.054012235 -0.036960173 -0.029493272 -0.0024327135 -0.064735614
-0.03845165 -0.02246947 0.031759083 -0.037482135 -0.0899704 -0.06493471 -0.111180976 0.013320216
0.020516787 -0.015934544 -0.08665755 -0.100911476 -0.05913071 -0.0049691913 0.040593248 -0.030176137
-0.052666944 0.08123677 -0.15545107 -0.040143847 -0.050475765 -0.009662813 -0.0031969445 0.07560405
-0.05959385 -0.075627245 0.07119512 -0.007588131 -0.005609353 0.025842277 -0.08522005 0.005507936
-0.011043249 -0.020574862 -0.119387165 0.046731677 0.066799834 -0.053787287 -0.059971828 -0.07953801
-0.06418028 -0.0712831 0.007103239 0.0049305065 -0.015600667 -0.10989269 -0.045467213 -0.01494362

fc3.weight f4 [64, 128]
00000000: ddfe f63c 56e6 58bc 14dd be3d 87af bb3d
00000010: 89f5 bd3d 33d8 ac3d 306d b33d 6fff 40bc
00000020: 638d 533d bec0 0fbd e5b1 c1bd dee2 8bbd
00000030: b6ab dbbc 6877 393d 8be4 4cbd c9f8 b8bb
00000040: ef94 65be 861c 15be 41c4 0c3d 17b3 5ebc
00000050: e081 3cbd 7781 4fbb 5762 74bd c046 113d
00000060: 17e7 34be 4137 953d aab0 06bd e23c afbd
00000070: 2a8d b93d cabd 73bd fa12 783d 5cbb 91bc
00000080: d3df b2be 9b32 91bd ab98 6c3d 704e 7bbc
00000090: 5752 983d 79a3 c23d 8db2 6c3d bad5 4ebd
000000a0: 8aed 2cbe 0841 99bd f493 b8bd 8287 96be
000000b0: 4276 00be a648 a13d c098 503b 72cb 1b3d
000000c0: e601 85bc bd81 af3d 1cdb 353d 2abc 35be
000000d0: e630 b0bc 299c 093e 6b54 b33d 3a2b 0fbc
000000e0: 9bda 0ebd dfaa 4c3d b952 a7bc d2b6 09bc
000000f0: 4d4a 91bd f371 a63d 9ed5 5a3d 025f 59bd
00000100: 73d5 a43c 4f18 34bc 4736 13be edc3 183d
00000110: 526d 403d ce9e 21bf 528f 733c 0753 93bd
00000120: 64f1 53bc 967a 19bd 25be 483d 7951 80bd
00000130: a632 763d 9f24 11be 9a7f f4bb 1ffb 07bf
00000140: 0da9 68bd c9b8 2ebd 2d2a 8b3d 4821 79bc
00000150: c2a5 433d 6031 8fbd 1600 4bbe 4990 a6bd
00000160: 6f72 823c 3121 6a3d 77fe 663c 7751 80bd
00000170: e4ad a93d 5de7 31bd a3c7 d93c 720c 353e
00000180: 5f8c edbd 903e ff3c e420 ffbd f847 62bd
00000190: 9e10 b43d 8da0 6f3d 50d7 a1bd 4364 b0bc
000001a0: 6cd8 ea3b fc32 42bd 139a 1f3d 98f3 e93c
000001b0: 984a 9fbb aef9 423d 9718 fa3c 5e00 fdbc
000001c0: fbf2 793c 9115 80be aca2 933d 818c a33e
000001d0: b8d9 d13c f818 9fbd 3423 cabe 035a a73c
000001e0: ce0f 8bbc 630f 11be 4089 16bd b0ca 953d
000001f0: 1468 443c ea7d b83c b85b eb3c e2d6 b63c
00000200: 0b4f d33c 3489 7b3d 08b7 02be 6b21 45b8
00000210: 7fed 83bd 1658 9fbc d248 e1bd e92f a9bd
00000220: 69a0 f73c d77f 493d 55df c5bd bf37 6ebd
00000230: db9d 20bc aad7 693d 5a47 673d 6ceb a4be
00000240: 65b2 e03c 9f70 edbd 5adf 2dbe 5318 acbd
00000250: 8da1 4a3d 733c 103d 5f5a 58bd 289e 43be
00000260: ef9f b53c 4912 25bc 1c67 a7bd 5d53 1abe
00000270: 0ef3 4dbe dd62 06bd 3092 283c 3240 91bd
00000280: f3ff 143d 2a0e 583d 9c2e 823c e766 e53a
00000290: 4535 4bbe 206d b6bc 4085 9f3c d5a4 a23d
000002a0: e707 6dbd 8cff 29bc 057b 553b ef34 b4bd
000002b0: 5631 d93d 6715 9f3d 7008 5ebd c7db 8b3d
000002c0: 3a8a 86bd eae2 3e3d 69bd 443c 142d cd3c
000002d0: 34ea 8a3d dde7 813d 2abf 34bd 6b7c b1bd
000002e0: 24a2 abbb 3f8c 1c3d ac22 25bc 6c5b a03c
000002f0: c4a5 2cbd df9f 8d3c 5bb9 253d 45dd 42bc
00000300: ad75 463c f46c e13c 188e 3fbd fa23 b8bd
00000310: 295f 57bd 984d 8ebe efba a03d 14a3 893d
00000320: 5957 66bd 545c a3be 6755 2ebd 31c7 383d
00000330: f1d2 d93c 97c9 e43d 808c 7bbd 77c4 bbbd
00000340: ed11 89bd 7521 a9bd 98f0 c63c b0a5 aebd
00000350: 7151 933d 8705 9dbd ca41 16be 837d 22bd
00000360: 9486 943c aa20 233d b60e 283c 5416 5ebe
00000370: ba0e e1bc d5e5 993d 79e7 043e 3dc4 2cbd
00000380: 0605 d2bc 9d3f 58bd 44c0 3cbe cbb6 22be
00000390: 9f0f 7bbc 8dac 9ebd 795a eebd 5b8b e5bc
000003a0: 7abb 26be 2dc8 b7bd f4ba 5cbd b49e 4abe
000003b0: df4a 8d3d 7837 713d 4426 7e3d 41c0 5c3c
000003c0: 8157 39bd 7b6f 2bbe 3b82 bebe 436a 26bb
000003d0: 2361 a23d 98bf 8ebd f12b bdbd d6c0 64bd
000003e0: 2804 05bd 113e 19be 3a19 3abc 7741 efbc
000003f0: 037e 13be 4cb6 ea3c 28f5 02bb d921 943d
0.030150825 -0.01323851 0.09319511 0.091643386 0.09275348 0.08439674 0.0876106 -0.01177965
0.05164851 -0.035095923 -0.09457759 -0.06830381 -0.026815277 0.04527989 -0.050022643 -0.005644892
-0.22420095 -0.14561662 0.03436685 -0.013592503 -0.046022296 -0.003166286 -0.059664097 0.035467863
-0.17666279 0.072859295 -0.032883324 -0.08556534 0.09060128 -0.05950717 0.060564972 -0.017789535
-0.3493639 -0.0708973 0.057762783 -0.015338525 0.0743758 0.09503836 0.057787467 -0.050496794
-0.16887489 -0.07483107 -0.09012595 -0.2940026 -0.12545112 0.07875185 0.0031829327 0.038035817
-0.016236257 0.085696675 0.044398412 -0.1774756 -0.021507692 0.13438477 0.08756336 -0.008738333
-0.034876447 0.049967643 -0.020425187 -0.008405404 -0.0709425 0.08127203 0.053426377 -0.053069122
0.020121312 -0.010992124 -0.14376174 0.037296224 0.046979256 -0.6313294 0.014865713 -0.071935706
-0.01293597 -0.037470423 0.04900946 -0.0626554 0.060106896 -0.14174126 -0.0074615004 -0.53117555
-0.056801844 -0.042656694 0.06795154 -0.015205689 0.0477655 -0.069918394 -0.19824252 -0.08132989
0.015923707 0.05716056 0.014098755 -0.06265538 0.0828512 -0.043433536 0.026584452 0.17680529
-0.11599039 0.031157762 -0.12457445 -0.055244416 0.08792232 0.058502723 -0.07902396 -0.021532184
0.007166913 -0.047411904 0.038965296 0.028558537 -0.004861187 0.047601394 0.030529303 -0.030883964
0.015255685 -0.25016454 0.072087616 0.31943133 0.025616512 -0.07768434 -0.39479983 0.020428663
-0.01697531 -0.14166026 -0.036751986 0.0731405 0.011987705 0.022520978 0.028730258 0.022319261
0.025794527 0.061410144 -0.12765133 -4.6999583e-05 -0.06441783 -0.019451182 -0.110002175 -0.08261091
0.030227857 0.049194183 -0.09661738 -0.058158632 -0.009803261 0.05709044 0.05646453 -0.32210863
0.027428815 -0.115937464 -0.16979733 -0.08403077 0.049470473 0.0352139 -0.05282056 -0.191033
0.022170989 -0.01007516 -0.081739634 -0.15070863 -0.2011225 -0.032809127 0.01028876 -0.070923224
0.036376905 0.052747883 0.015891366 0.0017501981 -0.1984454 -0.022268832 0.019472718 0.079415955
-0.057868864 -0.0103758685 0.0032574546 -0.08799159 0.10605113 0.07767754 -0.054207265 0.068290286
-0.065693334 0.04660312 0.0120080495 0.025045909 0.06782952 0.063430525 -0.04412762 -0.08666309
-0.0052378345 0.038219687 -0.010079067 0.019574843 -0.042150274 0.017288147 0.040459972 -0.011893575
0.012113017 0.027517773 -0.04676637 -0.08991237 -0.052580986 -0.27793574 0.07848155 0.06720558
-0.056235645 -0.31906378 -0.042561915 0.04511184 0.026589843 0.11171263 -0.061413288 -0.09168332
-0.06692872 -0.082583345 0.024284646 -0.08527696 0.07193268 -0.0766707 -0.14673534 -0.03967048
0.018130578 0.039826073 0.010257414 -0.21688205 -0.027472842 0.0751454 0.12978925 -0.042179335
-0.025637161 -0.05279504 -0.18432719 -0.15890042 -0.015323549 -0.07747755 -0.1163835 -0.028020551
-0.16282454 -0.089737274 -0.05388923 -0.19787103 0.06899046 0.05889079 0.06204821 0.013473571
-0.045249466 -0.16741745 -0.37208733 -0.0025392927 0.079286836 -0.06970137 -0.09236897 -0.055847965
-0.032474667 -0.14965083 -0.011358554 -0.02920602 -0.14403538 0.028651379 -0.001998255 0.072330184

fc3.bias f4 [64]
00000000: 58ad 85be 867a dc3c 03b5 a9be d63a f13e
00000010: 207d dabe 1694 71bd bff8 d8bd a574 fcba
00000020: 66b3 b5bd 04ee 16be 0ced 99bd 6144 b9bd
00000030: 3e65 7d3e 79dc 45be 569c 623e 298b 17be
00000040: 0718 093e bd91 84be 87f7 92be 1bdc 21bd
00000050: cee7 4dbe b1a3 bcbc a5ae 85bc 701b 8abc
00000060: ad44 82bd 0880 94bc 8a76 483e 2925 debd
00000070: ac96 0e3f 0f18 8b3e 9b29 383d 7ffb 25be
00000080: 03aa 99bb af58 38bd 7cce 823e 8d4e 183d
00000090: 0312 02be 74dd 8e3e 3bbc 07be ac25 bb3e
000000a0: 3fa6 da3a 2a79 03be 87c8 d3be 5320 0cbc
000000b0: 4a5e dbbe f3fb 913d bb78 d1be e458 2cbd
000000c0: 9c16 0dbe 8afa 8a3b 9645 ed3e 1f82 a4be
000000d0: 7767 e0bd 3893 863e 0554 97bd 301f a2bd
000000e0: 3035 97bb b343 cdbd 5189 3a3e b063 e7bd
000000f0: 2720 dcba 1e34 4bbd b420 b2bd 28ac d8be
-0.26108813 0.026913892 -0.33145913 0.471152 -0.42673588 -0.058979116 -0.105943196 -0.0019260837
-0.08872108 -0.14739233 -0.07515916 -0.09046245 0.24745652 -0.19322385 0.2212995 -0.14799179
0.13388072 -0.2589244 -0.28704473 -0.03951655 -0.20107958 -0.023027273 -0.016318629 -0.016858786
-0.06360755 -0.018127456 0.19576469 -0.108469315 0.5569866 0.27166793 0.044961553 -0.1620922
-0.0046894564 -0.04500645 0.2554816 0.037184287 -0.12702183 0.2790333 -0.13255398 0.3655218
0.0016681625 -0.12839189 -0.41363928 -0.008552629 -0.42845374 0.071281336 -0.40912423 -0.04207696
-0.13778156 0.0042412924 0.46342152 -0.32130525 -0.10957234 0.26284194 -0.07389072 -0.07916105
-0.0046144947 -0.10022678 0.18216445 -0.11298311 -0.001679425 -0.04961025 -0.08697644 -0.42318845

fc4.weight f4 [6, 64]
00000000: a032 5c3d 2d5f 063c 365f 163d df36 c6bc
00000010: 41d1 b73d 6d96 be3c d20b 84bd de0c 8b3c
00000020: e152 95ba c9a9 323d 9c51 8dbd 3562 99bb
00000030: f443 1abd 62e1 5f3d 9ebe b3bd 4a1e aaba
00000040: 63da 59bd bd0b 1f3d 5e2c 023d 9db3 6a3d
00000050: 6ab4 c63c 2492 283e 43ce 7b3e 965a 03bc
00000060: fb75 2d3d be6b 1cbd 92ea edbc 54d4 8cbc
00000070: 85e2 3fbd 3807 25bd 6c95 a4bc 55c6 0bbd
00000080: 031f 103d 9627 fbbc 0ce9 eebc 7f06 aebc
00000090: 6086 a6bc 2e30 d4bc fafd 0f3c 9be4 41bd
000000a0: f6f5 4abd 4dc6 063d 2c17 043d a8b6 29be
000000b0: cac0 043d f8b4 f0bc 23ae 3c3d 9546 693d
000000c0: 075f bfbc 1fa2 2dbd e009 75bd 8a4b 593d
000000d0: 0245 56bd 736e 4a3b 93ff 19bd 42a2 a03c
000000e0: 243d 95bd d593 a73d 5afc e6bc b0a5 2c3d
000000f0: bda5 52bd df36 06bd 4523 be3c 1d06 273d
00000100: cc16 5b3d 26c5 623a 4368 223d 33eb a3bc
00000110: 31c2 b73d ec7a f9bc cadb 313d 35cd 863c
00000120: ce59 fcbb 6be5 7abd 4f77 88bd 69c1 6ebd
00000130: 268c 17bd 77e7 5c3d f289 afbd 9b2d 0f3c
00000140: 650d 49bd bd6a 243d 7148 063d 1e7e 623d
00000150: e8e6 b03c 411c 243e cbcd 713e 1ec4 463d
00000160: 6380 7d3d e814 50bd 9950 d0bc a09d 6fbc
00000170: 1279 45bd a9df 18bd 8323 93bc 9027 ff3c
00000180: d84d 60bd ff44 02bd 7ebb f1bc 02f5 c0bc
00000190: 9850 86bd 7def acbc 46b7 a33d 77dc 49bd
000001a0: 6de0 203d 57df 053d dc0a f93c ecf5 45be
000001b0: 8afc 033d 96fb 17bd dfc4 433d 52a6 413d
000001c0: 053f b0bc 2458 38bd 165c 77bd c6a8 523d
000001d0: 27c2 48bd 7169 e4bb 84c9 1fbd 683e c93d
000001e0: 33d5 81bd f962 923d f979 14bd f7b2 aa3c
000001f0: 3b7f 62bd 28ec 16bd d8aa 14bc 2f9e 2a3d
00000200: 4d44 d6bb effd 833c b087 ef3c ace3 d1bc
00000210: cdc0 b83d 199a f93c 3a92 b3bc 7f09 903c
00000220: 494f 263d 0974 733c 4a97 89bd d628 803d
00000230: 4674 14bd c44f 773d 45c3 b0bd 3909 2c3b
00000240: d466 6e3c 7bee 253d 2e53 033d a98e a3bd
00000250: 1a68 d43c aadc fd3d a14c 6a3e 401b 4ebd
00000260: 3b79 49bd 32fd 5bbd 6316 6ebd 3077 993d
00000270: 90fe 36bd acaf a4bc 6251 b6bc 2d66 52bd
00000280: 86c9 253d 4c34 51bd f01f edbc 9741 c8bc
00000290: b89a 04bc 46da d2bc 9aba 30bd 9ca4 40bd
000002a0: b6e7 4a3c 5e30 fe3c 75c2 f03c 69d6 fbbd
000002b0: 58a3 eb3c 2863 fcbc a665 3b3d 9c22 37bd
000002c0: 30c1 09bb 3c22 62bd 99da 70bd 55ed 443d
000002d0: 8cc3 55bd 6f90 91bb ae67 0abd 8083 80bd
000002e0: 9ddb 13bd 8470 4dbd c44c 19bd d6ad 843d
000002f0: 3eaf 5abd 001a c9bc 2b43 173d f72a 3d3d
00000300: cd36 5b3d b913 d0bc 8b79 1e3d 28db 9dbc
00000310: 855c b63d 3ca5 87bc 4c0f 99bd 6433 633c
00000320: a37a 9abd ac7f 3dba 53d1 86bd 6838 f03c
00000330: 474b 1ebd 1db3 6c3d b74d b4bd c690 cc3b
00000340: 07ed c4bc 2567 313d 25b1 063d 8422 093b
00000350: 65c8 a23c 5bbb 1c3e 2712 6e3e 90aa 303d
00000360: 597b 82bd ab90 11bd be57 633d 17a2 6abb
00000370: 4863 40bd 16f7 e2bc 0d2a e5bc b58a 7dbd
00000380: 9664 62bc 3628 b23c 20cd 00bd cded c3bc
00000390: c25a 72bd 1462 dabc afb9 d4bd 9b8e 3fbd
000003a0: f328 9abd a1f7 e13c 2f26 f13c 1d76 2fbe
000003b0: a51c cf3c 306e 0ebd 29f9 403d 7ca1 2fbd
000003c0: c991 cb3c 796f 1abd 1334 71bd 27a8 513d
000003d0: 4cb0 30bd 270a 21bd 6af7 1cbd eb27 d2bb
000003e0: f1e0 fdbc b405 2c3e e8b2 eebc b9c6 af3c
000003f0: c8fe 53bd a029 16bd 7e5a a4bc a31d 3f3d
0.053759217 0.008201403 0.036711894 -0.024196086 0.08975459 0.023265088 -0.06447567 0.016973909
-0.0011392498 0.04361895 -0.069003314 -0.0046808966 -0.03766246 0.0546583 -0.08776592 -0.0012978998
-0.053186785 0.038829554 0.031780593 0.0573002 0.02425595 0.16461998 0.24590401 -0.008017203
0.042348843 -0.03818869 -0.029042516 -0.01719109 -0.046846885 -0.040290087 -0.020090781 -0.03412469
0.035185825 -0.030658524 -0.02916386 -0.021243332 -0.020327747 -0.02590188 0.00878858 -0.047337156
-0.049550973 0.032903958 0.03224866 -0.16573584 0.03241042 -0.029383168 0.046064507 0.056952078
-0.023360742 -0.04239094 -0.05982387 0.053050555 -0.052311905 0.0030888587 -0.03759725 0.01960862
-0.07287052 0.081824936 -0.028196502 0.0421502 -0.05142759 -0.032767173 0.023210177 0.040777314
0.053488538 0.0008650593 0.039650213 -0.020009613 0.08972586 -0.030454122 0.043422498 0.016455272
-0.0077011352 -0.061253946 -0.06663381 -0.05828992 -0.03699889 0.05393168 -0.08571233 0.008738901
-0.04908504 0.040140856 0.03278393 0.055296056 0.02159448 0.16026403 0.2361366 0.048526876
0.061890017 -0.050801188 -0.025429057 -0.014624983 -0.048211165 -0.037322674 -0.01796127 0.031146795
-0.054761738 -0.03180408 -0.029508349 -0.023554329 -0.06558341 -0.02111029 0.07993941 -0.049282517
0.03927653 0.032683697 0.030400686 -0.19332093 0.032223262 -0.037105165 0.047795173 0.047277756
-0.021514425 -0.045005932 -0.060390554 0.051430486 -0.049013283 -0.0069705774 -0.03901054 0.09826356
-0.06339493 0.07147784 -0.036249135 0.02083729 -0.055297118 -0.03684631 -0.009073935 0.041654762
-0.006538904 0.016112296 0.029239506 -0.025621258 0.09021149 0.030468987 -0.021920312 0.017582653
0.040602956 0.014859208 -0.06718309 0.06257789 -0.0362437 0.060378805 -0.08630995 0.0026250614
0.014550883 0.040510636 0.03206175 -0.07986195 0.025928546 0.12395604 0.22880794 -0.050318956
-0.04918788 -0.053708263 -0.05812682 0.07493436 -0.044676363 -0.020103298 -0.022255603 -0.051366974
0.04047539 -0.051075265 -0.028945893 -0.024445338 -0.008093528 -0.025738847 -0.043146707 -0.047031984
0.012384346 0.031028923 0.0293896 -0.12296755 0.028764412 -0.030809 0.045751236 -0.04471074
-0.002101969 -0.05520843 -0.05880222 0.0480779 -0.05218844 -0.0044422667 -0.033790283 -0.06275082
-0.03609811 -0.05015613 -0.037426725 0.06478469 -0.05338978 -0.02454853 0.03692929 0.046183553
0.05351906 -0.02540003 0.03869013 -0.01926954 0.089043655 -0.016558282 -0.07473621 0.013867233
-0.07542922 -0.00072288024 -0.06582894 0.029323772 -0.03864601 0.057788003 -0.088038854 0.0062428443
-0.024038805 0.043311257 0.032883782 0.0020925114 0.019870946 0.15305845 0.23249112 0.04313141
-0.06371183 -0.035538357 0.0555036 -0.003580218 -0.046969682 -0.02770571 -0.027974153 -0.06189986
-0.013817927 0.02174769 -0.031445622 -0.023917103 -0.059168585 -0.026658095 -0.10386979 -0.04676686
-0.07527342 0.027583899 0.029437153 -0.171349 0.025282213 -0.03477305 0.047112618 -0.042878613
0.02484979 -0.037703965 -0.058887552 0.051185753 -0.04313688 -0.039316323 -0.03832189 -0.00641345
-0.03099105 0.1679905 -0.029138044 0.021457063 -0.05175665 -0.03666079 -0.020062681 0.046659123

fc4.bias f4 [6]
00000000: 3b5f b2be f900 b1be 24ed b1be 8ecf afbe
00000010: 5ce3 b1be 0ed9 b1be
-0.3483828 -0.34571055 -0.34751236 -0.3433804 -0.34743774 -0.34735912
