checkpoints/2021_02_02-17_02_52/dqn-Pong-ram-v0.pt (torch, 532267 bytes, 6 tensors)

affine1.weight f4 [512, 128]
000000 54 d7 2e bd c0 e0 3f 3b 83 dd 89 bc 9a 87 08 3d
       -0.04268582 0.0029278249 -0.016829258 0.033332445
000010 6d e9 af bd 4e 16 6e 3d 78 92 83 bd 56 65 a5 bd
       -0.08589444 0.05812674 -0.06424421 -0.08075969
000020 64 d5 56 bd a6 ea 35 3d d8 c1 f6 bc c7 ce ac 3b
       -0.0524496 0.04441323 -0.030121729 0.005273673
000030 21 62 7f bd 25 5c 22 bd c9 e8 14 3c e2 cb c4 bc
       -0.062349442 -0.039638657 0.009088703 -0.024023
000040 cd b1 97 bd a6 29 29 3d 3b 09 ae bc d8 33 e4 3c
       -0.0740696 0.041299485 -0.021244636 0.027856752
000050 62 cb 13 3d 61 68 4c 3c dc ff c5 3c 4c 0c a1 3d
       0.036082633 0.012476058 0.024169855 0.078636736
000060 31 81 3e bd 99 b5 ae 3c bd e8 3e bd f3 7d 67 3d
       -0.046509925 0.021326827 -0.046608675 0.0565166
000070 72 f8 82 3d 65 83 b4 bd b4 ec 8c 3d df a3 11 3d
       0.063950434 -0.08814124 0.06881085 0.03555667
000080 24 8f 02 3d 3c a5 f3 3c 17 e1 88 3d 1e 04 96 bc
       0.03187479 0.029741876 0.066835575 -0.01831251
000090 92 b0 a6 bd 66 17 03 bd da 16 8d bd c9 65 51 ba
       -0.08139147 -0.032004736 -0.06889124 -0.00079878845
0000a0 7e 99 bd bc ca 83 5d bd b5 f4 70 bc 16 df 9d 3d
       -0.02314448 -0.054080762 -0.01470678 0.07708566
0000b0 57 3e 5f bc 3f 2a 7c bb e0 58 a7 bc e7 49 ed 3b
       -0.013625703 -0.003847733 -0.020428121 0.007241476
0000c0 99 af 93 3d 1e 8f 3a 3d 27 53 e0 3c a5 92 52 3c
       0.07211227 0.045546643 0.0273834 0.012852346
0000d0 05 40 68 3c c5 20 e1 3c a7 07 16 bc b0 3d a8 bd
       0.01417542 0.027481446 -0.009157098 -0.08214891
0000e0 c2 1c 68 bd f9 83 9a 3d 2c f0 a0 bb 88 40 a0 bd
       -0.05666805 0.07544703 -0.004911443 -0.07824808
0000f0 f3 ea 79 3c 68 eb 87 3d fe b6 b8 bd 35 79 87 bd
       0.01525377 0.06636697 -0.09019278 -0.06614915
000100 e3 f9 2b bd 4e da 4a bb 63 4b df bc 93 57 86 bc
       -0.041986357 -0.0030952874 -0.027257627 -0.01639918
000110 16 14 be bd 52 f9 17 3d 68 49 91 3d ed a3 42 3d
       -0.09281175 0.037103005 0.07094079 0.047519613
000120 94 c9 8d bd 61 46 9f bd ea 43 f6 3c 1a 9f 98 bb
       -0.069232136 -0.077770956 0.03006168 -0.0046576383
000130 97 69 f2 3c 20 e2 b0 bd d0 af ac bb 52 53 7f 3d
       0.029591365 -0.0863688 -0.005269982 0.06233532
000140 32 f4 27 3d 00 88 53 3b 0c 5e 8e 3c 80 1c 09 bc
       0.041004367 0.0032277107 0.01737883 -0.008368611
000150 9e 0f 47 bd 6c d0 08 bd 65 79 5c bd 39 5b 96 3d
       -0.048598878 -0.03340189 -0.05382671 0.07341618
000160 9e 39 47 3d e8 39 fd 3c ac d0 8a bd b1 ad 8b 3d
       0.048638932 0.0309114 -0.06778082 0.068202384
000170 78 07 e3 3c d6 74 7a 3d 23 6c 0e bd 8c 80 99 3c
       0.027713522 0.06114658 -0.034771096 0.018738054
000180 7d be b0 3d 52 87 73 3d 49 2d 91 3d 94 0b 98 bc
       0.08630083 0.059455223 0.070887156 -0.018560208
000190 1d ea 89 3d ba c7 8d bd b0 7f fa 3b 00 d9 4b bd
       0.06734107 -0.069228604 0.007644616 -0.049767494
0001a0 a8 dd a8 bc 30 6f b9 bc 00 b3 d8 3b bd c0 a4 3d
       -0.020613506 -0.022636026 0.0066131353 0.080445744
0001b0 52 3d 33 3d 00 4f c4 b9 eb 7e 80 3d 5b 87 39 bd
       0.04375965 -0.00037442893 0.06274208 -0.0452951
0001c0 9a 95 3a 3d 90 4a 06 bc a0 fe 7b bc 58 8a 29 3c
       0.045552827 -0.008196488 -0.015380532 0.010347925
0001d0 a6 ad 8a bd 48 58 27 3c 5c 76 f3 3c 59 c2 9a 3d
       -0.06771402 0.010213919 0.029719524 0.075566
0001e0 bc 6f e1 bc a6 35 ce 3c 56 ff ab 3d 52 92 36 bd
       -0.0275191 0.025172066 0.08398311 -0.044573136
0001f0 2e 79 9e 3d 79 f4 4e bd 6d 5c 04 3d 70 3f e5 3c
       0.07737957 -0.050526116 0.032314707 0.02798435
000200 bf f5 83 3c 91 26 8f 3d f2 aa d2 be 24 4d be 3c
       0.016108392 0.06989778 -0.41146046 0.023230143
000210 a2 50 7b 3a 65 b4 99 bd ec d0 af bc af 54 cf be
       0.00095869054 -0.07505111 -0.021461926 -0.40494296
000220 99 7f 1a bd c8 14 82 bd 59 fa b7 3d e6 31 42 40
       -0.037719343 -0.0635162 0.08983297 3.0342956
000230 84 a0 03 3f 03 bd 80 be 00 b4 a3 3f 76 67 9e 3d
       0.514168 -0.25144204 1.2789307 0.07734577
000240 86 9e 9d 3b 60 ef 4b 3f 0f d9 21 40 fc 1a 13 3e
       0.004810157 0.7966213 2.5288732 0.14365762
000250 75 ed 09 3e 7c dc f5 be 84 a4 6b bd 81 12 1e bd
       0.13469489 -0.4801978 -0.05752994 -0.038591865
000260 fb 6e 05 bb 89 34 56 3d c8 57 d2 3c 7b 3d 72 3d
       -0.002036034 0.052296195 0.025676623 0.059140664
000270 35 37 83 bd 70 c9 92 ba 81 78 b2 bd 15 98 2c 3d
       -0.06407014 -0.0011198949 -0.087143905 0.042137224
000280 ae 3e 21 3c 24 84 9d 3d 5f 4a 92 bd ee 37 7f 3d
       0.009841604 0.076912194 -0.071430914 0.062309198
000290 c5 44 87 3d 6e cd 80 3d 82 34 84 3b 18 09 93 3d
       0.066049136 0.062891826 0.0040345797 0.07179469
0002a0 27 ae 4e 3d 6d 00 6b 3d bf a1 6a bc 23 79 9c bd
       0.050459053 0.057373453 -0.01432079 -0.076402925
0002b0 e5 8e 1e bc 5b 08 03 3c 3c d7 8c bd a9 ca 72 bd
       -0.009677623 0.007997598 -0.0687699 -0.059275303
0002c0 31 1e bf bd 6f ef 6d bf 1c 71 ac be e8 85 1e be
       -0.093319304 -0.9294347 -0.33680046 -0.15480769
0002d0 f2 ff 64 bc 62 ce a4 bb f6 5f c5 3f 01 da 9f bd
       -0.013977038 -0.0050294856 1.541991 -0.07805253
0002e0 e2 23 5d bf fa bb f0 bc f6 26 21 3e b1 a2 17 3d
       -0.8638288 -0.02938651 0.15737519 0.03702039
0002f0 ce 5d 43 3e 31 33 c1 bd 71 32 ab bd 27 d9 c1 bd
       0.19078752 -0.09433592 -0.0835923 -0.09465247
000300 39 33 35 bc 7e 23 80 3d 29 ea 9d bd 97 f7 fb 3c
       -0.011059576 0.062567696 -0.07710678 0.030757708
000310 ed 23 a0 3c 79 90 cd bb c9 37 88 3d 32 ff ef 3c
       0.01954838 -0.006273326 0.06651265 0.029296491
000320 db eb 07 bd b3 54 de bb b6 75 9b 3c c6 83 19 bd
       -0.033183914 -0.0067849993 0.018977027 -0.037479185
000330 21 d3 9d bd 00 be 1b 3a 40 06 d3 3a 80 9e e9 3a
       -0.07706285 0.0005941093 0.0016099885 0.0017823726
000340 60 54 53 bc 96 74 68 3d 78 0f ca bc b8 2b 0c bc
       -0.012898535 0.05675181 -0.02466558 -0.008555345
000350 a6 dd 14 3d 72 e1 63 bd c0 e0 c1 3c d8 1a a0 bc
       0.036344193 -0.055634923 0.02366674 -0.01954405
000360 0e a9 2d 3d a1 64 44 bd e0 15 56 3b 08 ac 0d 3c
       0.04239755 -0.04794753 0.0032666847 0.0086469725
000370 c4 a5 91 bd 76 a0 83 bd be d8 0a 3d 58 bf d2 bc
       -0.071116954 -0.0642709 0.033898108 -0.025726005
000380 76 03 57 3d 7d d2 b2 bd 51 f7 32 bd 46 19 95 bd
       0.052493535 -0.08731554 -0.04369289 -0.07280211
000390 c4 9f 10 3d 80 ef 27 bb 50 0e 87 bc 70 ee 70 bc
       0.035308614 -0.002562493 -0.016486317 -0.014705285
0003a0 5a 7e 8d bd 3c 58 cd 3c c0 62 10 3b fa d8 79 bd
       -0.06908865 0.025066487 0.0022031516 -0.06099794
0003b0 0e 3b 08 3d 40 da e8 ba 8a 12 af bd 76 bf 42 3d
       0.033259444 -0.0017765239 -0.08548458 0.047545873
0003c0 5a a6 41 3d 6c 6c 88 bc 1e f7 79 bd e0 92 68 3b
       0.047277786 -0.016653262 -0.061026685 0.0035487935
0003d0 f1 97 88 3d b7 b1 a5 3d 32 a2 88 bd 8a 85 23 bd
       0.066696055 0.08090537 -0.06671561 -0.039922275
0003e0 31 f2 8c 3d 08 31 5e 3a a7 da ec 3c a2 4b 57 bd
       0.06882132 0.0008475934 0.028912855 -0.052562363
0003f0 f8 65 8a 3d 8e 60 a6 bd 9d 4c 52 bc 5c 03 dd bb
       0.0675773 -0.08123885 -0.012835649 -0.0067447852

affine1.bias f4 [512]
000000 65 f1 c9 bc 6d d4 5f 3d c8 31 a0 bd 8a 78 25 3c
       -0.024651239 0.054645944 -0.07821995 0.0100995395
000010 2e 5e 53 bd 13 e8 01 bd cd 5f 9d bd ee 2a 48 3d
       -0.05160349 -0.031715464 -0.07684288 0.048869066
000020 66 b3 8e bc 48 51 f5 bc 2e 82 a2 bd d5 47 8c bd
       -0.017419528 -0.029945984 -0.07934986 -0.068496384
000030 55 57 c9 3c f2 e1 be 3c 42 25 a0 bd 00 a6 8d 3c
       0.024577776 0.023301098 -0.07819606 0.017291069
000040 99 f9 e2 39 36 72 c9 bd ec 4d 7a bc f0 76 83 3c
       0.00043292044 -0.09836237 -0.015277367 0.016047925
000050 b2 a8 7c 3b 00 8d 61 bd 98 a1 84 3d a0 2b 2d bd
       0.0038552699 -0.05506611 0.06476134 -0.042277932
000060 a2 9d 7c 3d ef 08 b0 3d 27 92 41 bd 68 8b 57 bc
       0.061673768 0.08595454 -0.047258522 -0.013155796
000070 d2 b6 ef 3b 10 c6 ea bb 00 25 f7 39 1a c8 aa 3c
       0.007315495 -0.007164724 0.00047139078 0.020847369
000080 95 cf 09 3d cd 39 57 bd 04 ed a5 3c f6 2b 48 bd
       0.03364523 -0.052545357 0.02025462 -0.04887005
000090 86 b5 e5 3c bd 4b 5a 3d 32 4b 31 bd 1c 77 73 bd
       0.028040659 0.053294886 -0.043284602 -0.059439763
0000a0 e9 54 83 bd 36 78 96 3d f4 cb 83 bd 1a 6f 37 bd
       -0.0641268 0.07347147 -0.06435385 -0.04478369
0000b0 f3 41 18 ba 0f c2 6a 3d f9 17 f1 3c 13 ef fd bc
       -0.0005808167 0.057313975 0.029430376 -0.030997789
0000c0 63 d9 9c bd 7f 19 9c bd ee 0f 5d 3d 47 83 9f 3d
       -0.07658651 -0.076220505 0.05397027 0.07788711
0000d0 ad 8d 7e 3d c4 30 9b bc 8f 7d 92 bd 68 f6 14 3d
       0.06214683 -0.018944152 -0.07152855 0.036367804
0000e0 59 23 97 3d d5 c3 a6 3d 37 a0 db bd f8 f8 8e 3d
       0.07379789 0.08142821 -0.10723918 0.06981081
0000f0 67 90 2e 3d 27 26 2e 3d ba 45 d0 bc c2 c0 a6 bd
       0.04261818 0.042516854 -0.025423873 -0.081422344
000100 29 ac 1b bd e7 cc a8 bd 5d 04 7b bd 58 7e 1d 3d
       -0.03800598 -0.08242207 -0.061283458 0.03845057
000110 94 60 3f bd 26 65 a0 bd d9 92 04 3d b5 dc 9c 3d
       -0.046722963 -0.078317925 0.032366607 0.07659284
000120 15 ab c6 bd 97 18 69 3d 3c 79 78 3c 7b 88 20 bd
       -0.097006 0.056908216 0.015165623 -0.039192658
000130 70 6a 48 bd 49 6c 94 3d 9a 61 1a 39 9b 17 a9 3d
       -0.04892963 0.07247216 0.00014722944 0.082564555
000140 03 9c 7a bd 73 2e 47 bd c0 f6 a5 bd 38 d4 46 3d
       -0.06118394 -0.04862828 -0.081037045 0.04854223
000150 b8 b2 f8 bc ed f1 ca bd 45 aa 89 bd 12 ef 84 3d
       -0.030358657 -0.09909425 -0.067219295 0.064909115
000160 fa 8d b0 3c ad 8c 8b 3d 7a 6b d5 bd 1a ef 8a bd
       0.021552075 0.06813941 -0.1042089 -0.06783886
000170 13 62 9d bd 54 51 51 bd 57 9b bb bd 9d 09 15 bd
       -0.07684722 -0.05110295 -0.09160488 -0.03638612
000180 59 e5 b2 bd 54 04 80 bc 46 f8 8d 3d a4 fb 41 bd
       -0.08735151 -0.015627064 0.0693212 -0.047359124
000190 b2 1a 4c bd 16 00 59 bd b7 b0 95 3d ef 04 3c bd
       -0.049830146 -0.052978598 0.07309096 -0.045903143
0001a0 ba c5 b0 bd 72 0c 6e 3d 14 de 99 bd f4 67 34 bd
       -0.08631463 0.058117338 -0.07513061 -0.04404445
0001b0 40 ae 69 3c 8f fb 04 3d 76 8a 36 3d cf 16 9a bd
       0.014262736 0.032466467 0.04456564 -0.07523882
0001c0 89 98 db 3a 60 4f 5a bd 6d ca 99 bb 33 08 bc bd
       0.0016753833 -0.053298354 -0.0046933205 -0.091812514
0001d0 40 de 93 3b e3 b5 0a 3d 40 b9 87 3d ca f6 98 bd
       0.0045125782 0.033864867 0.066271305 -0.07468946
0001e0 bf 85 6b bd 9b e5 87 bd f4 aa 43 3d a8 46 63 3c
       -0.057500597 -0.06635591 0.047770455 0.013871826
0001f0 6a 63 5e 3d 1d ad 8c 3d 33 8d 93 3d 4d 24 88 3d
       0.054294027 0.06868956 0.07204666 0.06647549
000200 a6 53 5a 3d 71 10 58 bd 2c b2 08 bd 21 df 6a 3a
       0.05330243 -0.052750055 -0.033373043 0.00089596404
000210 49 70 19 3c d6 a4 70 3d c1 99 94 bd 3a 91 a0 bd
       0.00936515 0.05875095 -0.07255889 -0.078402
000220 f8 5c 02 3d 56 16 75 bd b4 51 19 bc 14 1b 82 bd
       0.031826943 -0.059835754 -0.009357858 -0.06352821
000230 89 2c 31 bc 14 39 82 3c 12 eb 75 bd c1 4f 59 3d
       -0.010813841 0.015896358 -0.060038634 0.053054575
000240 c8 72 81 3c 75 48 85 3d a7 d0 9b bd fd 7f 49 bd
       0.015801802 0.06507961 -0.07608157 -0.049194325
000250 c1 b4 6a bb 48 f4 12 3c 71 f6 15 bd f6 25 23 bb
       -0.0035813304 0.008969374 -0.036611978 -0.0024894453
000260 b7 f0 97 bd c0 06 48 bb 4e b2 e6 3c 18 01 8f 3b
       -0.074189596 -0.0030521601 0.028161194 0.004364144
000270 f3 8d c5 bb cf 3a 2a bd 0e 89 cc bd 8e fa 98 bd
       -0.0060288846 -0.04155999 -0.099870786 -0.074696645
000280 f2 a6 a2 bd 71 55 b3 bd 62 a4 6a bd dd 2b 36 bd
       -0.079419985 -0.08756531 -0.057285674 -0.044475425
000290 7e 93 40 3d d6 1b d7 3b 6a 05 87 bd c3 98 0a 3d
       0.04701566 0.0065645976 -0.065928295 0.03383709
0002a0 fd e6 49 3d 27 3b 3c bd 79 46 fc bc 74 d3 b1 3c
       0.049292553 -0.04595485 -0.030795323 0.021707274
0002b0 72 46 56 3d 1c 8f f7 3b 18 26 b3 3c a9 f7 94 bd
       0.052313276 0.0075549018 0.02186875 -0.072738
0002c0 d9 2e 96 3d 55 2b 1c 3d 1e 00 a9 bd 0f a1 8b 3d
       0.07333154 0.038127262 -0.082519755 0.06817829
0002d0 f0 a0 dc 3c 00 26 c9 3c c2 f2 5c 3d 1b c2 ae bd
       0.02693221 0.024554253 0.05394245 -0.085331164
0002e0 d3 76 3a bd 0e dd 42 3c 39 e5 9d bc ec cc 8b 3c
       -0.045523476 0.011893524 -0.019274341 0.017065488
0002f0 b1 ca 3a bd 91 65 ad bc 62 c0 13 bd cc 2b 9e bd
       -0.045603458 -0.021166595 -0.036072142 -0.07723197
000300 4b b9 8c 3d c6 c0 6b 3c 39 72 58 bd e7 54 93 3d
       0.06871279 0.0143892225 -0.052843306 0.07193928
000310 af 94 9f bd 34 55 af bd 2d 66 76 3d 58 ff 5a 3c
       -0.07792031 -0.08561173 0.060156036 0.013366543
000320 95 29 61 3d 58 1e 8a 3d 02 19 c4 3b 8a 25 66 39
       0.054971296 0.06744069 0.0059844265 0.00021948494
000330 fd cc 8b bd 2a 60 2f bd ab f8 0c 3d e7 58 88 3d
       -0.06826208 -0.04281632 0.034416836 0.06657582
000340 8e fc 47 3d f8 b1 2a bc ca 26 d2 bb b6 58 c4 bd
       0.04882484 -0.010418408 -0.0064133154 -0.09587233
000350 47 3c 74 bd af 0f 3f bd 9f b3 99 3d ed 5d 4d 3d
       -0.059627797 -0.046645816 0.07504963 0.050138403
000360 ca 42 18 3d 0f ab 2c bd 54 9b 12 bd 66 49 73 bd
       0.03717307 -0.04215532 -0.035792664 -0.05939617
000370 30 13 ac bb 61 16 4a bc 18 2a 82 3d e0 9c 37 bc
       -0.0052513108 -0.012334437 0.06355685 -0.0112068355
000380 6e a6 2b 3d f9 43 ba 3c be 11 2a bd 5c c2 a2 bd
       0.041906767 0.02273749 -0.041520827 -0.07947227
000390 71 3b b1 3d c5 ba 4f 3c a6 56 5a 3c be a2 fd 3c
       0.08653916 0.012678807 0.013326323 0.03096139
0003a0 23 34 23 3d b6 ad ca bd 9c 4d a6 bc 32 77 c1 3c
       0.039844643 -0.09896414 -0.020300679 0.023616407
0003b0 26 c7 a6 bd f3 44 ad 3d 57 4f 54 bd d6 39 3f bd
       -0.08143453 0.08460417 -0.051833477 -0.046686016
0003c0 0c 0c 11 bd 03 0d 75 bc 9c db db bc 0e 0b 24 3d
       -0.03541188 -0.0149567155 -0.026838116 0.040049605
0003d0 80 b4 42 3b c8 db 5f 3d ca 63 2c bc 33 24 84 bd
       0.0029709637 0.05465296 -0.010521838 -0.06452217
0003e0 15 26 05 bd 5e 80 65 bd 48 74 36 bc 48 b6 f3 bc
       -0.03250702 -0.056030624 -0.011136122 -0.029750004
0003f0 11 81 9a bc a0 9f 42 bc 68 bd 4c 3c d8 c7 13 3b
       -0.018860372 -0.011878878 0.01249633 0.0022549536

affine2.weight f4 [128, 512]
000000 9f d5 52 3c 9e 4b 24 bd 14 36 1d bd c3 9c 14 3b
       0.012868314 -0.040111177 -0.03838165 0.0022676445
000010 2d 71 2e bd ce ee a4 bc ff a9 e0 bc bc 90 2b bd
       -0.0425884 -0.020133402 -0.02742481 -0.041886076
000020 61 d8 07 bb c4 47 d4 3c 6c 05 be 3c 9e e2 3c bd
       -0.0020728337 0.025913127 0.023195945 -0.046114556
000030 a9 9c bc 3c 98 77 d0 3c dc e9 fd 3c 24 19 28 bc
       0.02302392 0.025447652 0.030995302 -0.0102599
000040 c2 22 b9 bb 74 4f 8d bc 66 94 07 bd ad 2c 3e bc
       -0.0056498954 -0.0172498 -0.03310051 -0.011607331
000050 8e 62 c2 3c 81 f1 0c 3d b0 94 06 bd cd aa 1c 3d
       0.023728635 0.034410004 -0.032856643 0.038248826
000060 5e a2 e7 3c 98 4e 15 bd 17 d0 15 bd e7 39 f7 3b
       0.028275665 -0.036451906 -0.036575403 0.0075447443
000070 ce 1c 92 bc ec ce 8c bc 30 92 a8 3b b3 d6 cd bc
       -0.017836 -0.017188512 0.00514438 -0.02512679
000080 25 49 c9 bc b6 63 ea 3c 6a 9e 94 bb a2 82 de bc
       -0.02457101 0.028611999 -0.004535486 -0.0271619
000090 ab c3 90 3c 0f 87 42 3c 40 85 1f 3c 60 38 07 3d
       0.017671427 0.011873021 0.009736359 0.033012748
0000a0 71 49 c0 3c 9d cf 8f ba 00 40 1f 3b cf 9a ad bd
       0.02347252 -0.0010971908 0.0024299622 -0.08476793
0000b0 34 05 eb b9 a8 1c 02 3d 51 6c aa 3c d1 e1 f0 3c
       -0.0004482657 0.03176561 0.020803602 0.029404553
0000c0 a6 aa 0d bd 5a 46 a2 3c de 9d 24 bc fc 3c c1 bb
       -0.03458657 0.019808937 -0.010047404 -0.0058971625
0000d0 17 5b af bd c4 dd 09 3d 81 4f ab bc 14 66 32 bd
       -0.08562296 0.033658758 -0.020911934 -0.04355438
0000e0 7d cc e3 3c 96 83 0c 3d ef ab 52 bd 1e 44 07 3c
       0.027807469 0.034305178 -0.0514335 0.0082559865
0000f0 80 e4 92 bc bc 4d 25 3c a7 aa 81 3c 97 0e 52 b8
       -0.017931223 0.010089334 0.015828444 -5.008149e-05
000100 ed 4e ad 3b 38 91 60 bb 2e b8 fc bc e1 de 57 bd
       0.0052889497 -0.0034266245 -0.030849542 -0.05270279
000110 86 ea e2 bc 7f 11 2c 3d c4 d4 1d bc 69 34 10 3d
       -0.02769972 0.042008873 -0.009633247 0.035206232
000120 64 b9 ff bc 6e 26 12 bd 37 c5 ed bc 92 af c4 3c
       -0.03121633 -0.03568118 -0.029024703 0.0240095
000130 aa 7b 1f 3c 47 ca 1b 3d 89 93 b5 bc 9e d2 1a bd
       0.009734074 0.038034704 -0.022165077 -0.037798516
000140 d0 b8 05 3d 9f 99 3b bd c2 ed 33 3c 3c 37 11 bd
       0.032646954 -0.0458008 0.010981979 -0.035453066
000150 bf f6 17 3d 46 0a 23 bd a8 75 7f bd 30 a5 26 bc
       0.03710055 -0.03980472 -0.062368065 -0.01017122
000160 f7 50 0e 3c aa 20 a3 3c 94 6c 85 bb 00 80 60 3c
       0.008686296 0.019913036 -0.0040717814 0.013702393
000170 53 7f 75 bc 13 0c 97 3c cd 7d 23 bd 63 a8 90 bc
       -0.01498397 0.018438375 -0.039914895 -0.017658418
000180 f1 c5 13 3c 2c 1b a8 3c 72 56 fe bc 3a 77 bc bc
       0.009019361 0.020520769 -0.03104708 -0.02300607
000190 f4 24 27 bc a0 45 25 bd 40 88 59 3c 8c 2b 48 bc
       -0.010201681 -0.040349603 0.013277113 -0.012217414
0001a0 5a 23 17 bd 08 44 00 3c 8b 6d fb bc fb 4f 42 3b
       -0.03689895 0.00782872 -0.030691883 0.0029649723
0001b0 df 4a 0d 3d e3 19 bc 3c 57 46 02 3d 85 61 56 3c
       0.03449523 0.022961562 0.031805363 0.013084774
0001c0 20 e7 ba bb 38 7d 47 3c f7 02 8c bc 2c 61 2d 3c
       -0.005703822 0.012175851 -0.017091257 0.01058225
0001d0 9f e3 18 3d 98 bf 0e bd 2a a2 89 bc c5 b1 23 bd
       0.03732645 -0.034850687 -0.016800959 -0.039964456
0001e0 be 37 8d 3c ba 64 21 bd bf 6c d7 bb 1e 0f 1c bd
       0.017238494 -0.0394027 -0.006574243 -0.038100354
0001f0 d9 ca f2 3a 7a bf c4 3c 09 91 b9 bc c4 e4 fb 3c
       0.0018523588 0.024017084 -0.022652166 0.030748732
000200 7e aa 30 bd e1 50 ac bc 9b 1c 9f bc 87 db 14 3c
       -0.043131344 -0.02103466 -0.01942282 0.0090855425
000210 60 64 a3 ba 34 f6 19 3c 2f ca f7 3c 30 79 c0 3b
       -0.0012465827 0.009397078 0.030247776 0.0058738217
000220 0c 53 1a bc e4 4b 9a bc cf 89 d3 bc b1 3a 49 bc
       -0.009419214 -0.018835016 -0.025822548 -0.0122820595
000230 6d f6 39 3c 4f 19 00 bd 83 1c b9 bc ae 61 01 bd
       0.011350256 -0.031274136 -0.022596603 -0.031587295
000240 ed fd 1b bd 15 10 14 3d 65 fe c5 bd 74 30 68 bc
       -0.03808396 0.03614815 -0.096676625 -0.014171708
000250 cc 82 3d bd 60 f4 28 3b df 35 0a bd 59 80 06 bd
       -0.046267316 0.0025780424 -0.03374278 -0.032837246
000260 43 7d 8d bc 57 de 25 3d 50 46 55 be 7b 72 18 bd
       -0.017271644 0.040495243 -0.20827603 -0.037218552
000270 e8 02 24 3c 64 5e b6 3b e6 8c f4 b9 a8 e7 51 3c
       0.0100104585 0.0055654515 -0.00046644284 0.012811579
000280 58 15 32 bd c6 e9 d7 3c bf f6 35 bd 83 af ac bc
       -0.043477386 0.026356589 -0.04442477 -0.021079784
000290 82 4a 25 bd 37 23 38 ba e8 5a 06 3c 23 f5 3f bd
       -0.04035426 -0.00070242904 0.008200385 -0.04686464
0002a0 b4 de 93 3c 29 b4 15 bd 91 1c b7 bc 00 01 bf bb
       0.018050529 -0.036548767 -0.022352489 -0.0058289766
0002b0 18 e8 c3 3c 58 45 63 bc 4c 10 36 bc 48 35 5a bc
       0.023914382 -0.013871513 -0.011112284 -0.013318367
0002c0 0c 84 ed bc 3b 66 2e bd 60 f9 f4 3b 64 cf 06 3a
       -0.028993629 -0.042577963 0.007476017 0.0005142598
0002d0 18 17 09 3d 7c 8c 01 bd 76 ba 24 3d 96 d7 08 bd
       0.03346929 -0.031628117 0.040216886 -0.033408724
0002e0 b9 93 42 bd b9 0b 70 3b 62 a1 92 bc 2e fa d3 bc
       -0.04750416 0.003662808 -0.017899219 -0.02587613
0002f0 68 4e 02 bd bb b1 67 bc 88 56 bb 3b 3c 86 31 3c
       -0.031813055 -0.014141495 0.0057171024 0.010835227
000300 41 4f 3e bc f4 d2 bc 3c 61 0c dd 3c 26 37 05 3d
       -0.011615575 0.023049809 0.026983442 0.032523297
000310 32 48 fc bb 23 51 1f 3d aa 8d e6 bc 74 8d e1 bc
       -0.007699036 0.038895737 -0.028143723 -0.02753327
000320 71 32 2a 3c b8 06 e4 3c 66 47 29 3d 1e ea 04 3c
       0.010388003 0.027835235 0.041327856 0.0081124585
000330 5e 3d 9a bc ba be a9 3c 6c d3 2c 3d ed b9 e0 3b
       -0.01882809 0.020720828 0.042193815 0.0068581016
000340 68 5f 6d bc 7b e0 19 3d bd 8d de bc 97 ed 89 bc
       -0.014488079 0.037567597 -0.027167195 -0.016836924
000350 97 18 d3 3b 28 a3 74 bc 5d 33 f5 bc ab db 90 bc
       0.0064421403 -0.014931478 -0.029931718 -0.01768287
000360 3c 3d 6b 3c df 4e 3e 3c 81 80 3d bd 06 91 f1 3c
       0.014357861 0.011615484 -0.04626513 0.029488098
000370 ee 37 ce 3c be 38 bf 3c 66 bf 97 3c dd 22 b6 bc
       0.025173154 0.023342486 0.018523883 -0.022233421
000380 b8 b8 1a bd 19 18 2c bd 44 18 ed bc d6 6e c2 3c
       -0.037773818 -0.04201517 -0.028942235 0.023734491
000390 8a c7 f9 3c f3 f8 12 bd 90 39 0a bd 18 e7 c7 bc
       0.030490655 -0.035881948 -0.033746302 -0.024402186
0003a0 82 4a f6 3c d9 6d 89 3c c0 7c 19 bd 70 85 f0 3c
       0.030064825 0.016776012 -0.037472486 0.029360503
0003b0 45 ec b6 ba ac a2 4e 3c 0f ac 91 bd a3 ff d3 bc
       -0.0013955912 0.012612026 -0.07112896 -0.025878733
0003c0 87 e4 1f bd fe f2 0e bc c9 4b 37 bc be 14 5c bc
       -0.0390363 -0.008724926 -0.011187502 -0.01343268
0003d0 08 d0 07 bd 24 7e c4 bc 2a 15 a5 bc 07 7c e4 bc
       -0.03315738 -0.02398593 -0.020151693 -0.027891172
0003e0 1b 81 19 3d 86 7c 0d bd 6b 61 88 bc c1 65 25 bd
       0.03747664 -0.034542583 -0.016648015 -0.040380243
0003f0 80 9e 8e 3c cc 59 53 3c 88 33 18 bd 06 5f f2 3c
       0.017409563 0.012899827 -0.03715852 0.029586326

affine2.bias f4 [128]
000000 fb 0a d0 bb 56 b9 e0 be 76 ee 9f bf 99 58 a4 3d
       -0.006348965 -0.438914 -1.2494648 0.08024711
000010 65 ac 0d bc 5b 07 ac bd de 6a 0d 3e 14 07 5a 3f
       -0.008647059 -0.083998404 0.13810298 0.8516705
000020 bb 8a d0 3b f0 d9 91 bd c1 76 a6 bd 58 0e 0a be
       0.006364194 -0.071216464 -0.08128119 -0.13482034
000030 2e 23 d3 3e d9 d3 ff be 7d 7c 4b 3f ab 81 68 3e
       0.41237777 -0.49966314 0.7948683 0.22705714
000040 10 1d 7a bc f7 93 c7 bd 36 f9 b2 3e 2c c3 2c bf
       -0.015265718 -0.09745019 0.34955758 -0.6748531
000050 42 73 a0 bd 8d eb 14 bf 58 0c e2 3d 8f 97 8c bf
       -0.07834484 -0.5817192 0.11037511 -1.0983752
000060 11 ea db bf 6b 96 a6 3e fd b4 52 bf de 3d 56 be
       -1.7180806 0.32536635 -0.82307416 -0.20922038
000070 f2 46 5b be f5 b1 60 3e 4d 04 e9 3d d4 91 34 bf
       -0.21413782 0.21942885 0.113777734 -0.70535016
000080 27 10 9f bd 67 99 f1 bf 1e 6a bc 3e 21 db ba bf
       -0.07766753 -1.887494 0.3679971 -1.4598123
000090 10 8e 80 3f f4 55 60 3e 1a 1d 12 40 f2 ce af be
       1.0043354 0.21907789 2.2830262 -0.34337574
0000a0 e9 c8 90 bd fc dd cb bc cb 04 8f bd 67 cc a9 bd
       -0.070695706 -0.024886124 -0.06983336 -0.0829094
0000b0 ab c7 59 be 7d 28 bc 3e 3c 87 a3 be f3 18 21 be
       -0.21267574 0.3674964 -0.31939113 -0.15732174
0000c0 3d fe 00 bf 6b 88 1f bd 03 73 95 bd 5c 50 32 be
       -0.50387937 -0.038948458 -0.07297327 -0.17413467
0000d0 a8 58 c0 3e 43 46 f4 bd c3 90 8c bd 15 34 96 bd
       0.3756764 -0.11927464 -0.068635486 -0.073341526
0000e0 8a 7c 83 3e 6e 1a 97 3b c2 e5 1c 3d 26 e1 c4 bf
       0.25680953 0.004611305 0.03830505 -1.538121
0000f0 d4 d0 91 bd 0d c4 11 be f8 91 1d c0 70 e6 02 bf
       -0.07119909 -0.14234944 -2.4620342 -0.5113287
000100 78 7a 89 3f 48 da a1 3c dd 00 7f 3e 0a 7b 11 bc
       1.07405 0.019757405 0.24902673 -0.008879432
000110 f9 34 9b be 0e f3 47 3d 41 aa 5a 3e ef 8d 0a bf
       -0.30313852 0.04881578 0.21354009 -0.54122823
000120 42 fa 03 be cc bb 24 be 56 38 ca 3c 66 e7 c1 bd
       -0.12888435 -0.16087264 0.024685066 -0.09467964
000130 9b a2 bc 3d 67 45 3d bd cf 48 8a 3e a4 39 5c bd
       0.09210702 -0.046208765 0.27008674 -0.053765908
000140 5c 1b e9 3d 52 89 7b bd 9d 32 72 bc f7 2c 85 be
       0.113821715 -0.061410256 -0.014782575 -0.26010868
000150 31 d3 eb 3e 75 7e ba bc b3 fb f1 be 85 a4 67 bc
       0.46059564 -0.022765378 -0.47262344 -0.014138346
000160 84 9d 9d bf 5a 95 6f 3f 46 41 70 3f e5 79 b4 bd
       -1.2313695 0.9358727 0.938496 -0.08812312
000170 67 89 b9 bd a9 e2 1b c0 31 9e d6 be 00 60 85 be
       -0.090594105 -2.4357092 -0.41917565 -0.26049805
000180 79 08 dd 3e fc 5b a1 bd 2e e0 48 bd e6 db 63 3e
       0.43170527 -0.07878873 -0.04904192 0.22251853
000190 04 3c 07 bf 56 ab b9 bc 3d c2 3d bd fc c3 70 3e
       -0.5282595 -0.022664707 -0.04632782 0.23512262
0001a0 99 a0 ff 3e 98 41 64 3f fa 15 64 bd 86 6b 05 3f
       0.49927214 0.8916259 -0.05568502 0.5211719
0001b0 72 a8 0a be 64 3a 9f bf 99 30 95 3f f3 93 64 3f
       -0.1354082 -1.2439694 1.1655456 0.8928825
0001c0 0f 3f b0 bd bc d8 b7 bd a6 47 e1 3e b9 ea 99 bd
       -0.086057775 -0.08976886 0.43999976 -0.07515473
0001d0 96 3b 21 be 3d 1d 0a c0 dc c3 d7 bd 1a 36 15 bd
       -0.15745386 -2.1580346 -0.10535404 -0.03642855
0001e0 28 b6 13 bc 0b a0 1e bd b7 ac 1d 3f 19 20 bf bd
       -0.009015597 -0.038726848 0.61591667 -0.09332294
0001f0 a4 1d 0e be 25 04 d4 3c 2c b3 1a bd 7f d9 b7 bd
       -0.13878495 0.025880883 -0.037768528 -0.08977031

affine3.weight f4 [6, 128]
000000 fc 15 1c 3d b8 70 a3 3c f9 e7 1b bb ed 43 c8 3b
       0.038106903 0.01995121 -0.002378939 0.006111613
000010 58 78 86 3c f0 60 fd 3c ce 23 62 bd 4a 3b 17 3d
       0.016414806 0.030930012 -0.055209927 0.036921777
000020 69 92 5d 3c b2 b3 8c bd b4 0f 55 bb 64 92 40 3d
       0.013523676 -0.06870212 -0.003251058 0.04701461
000030 5e e5 e4 38 a1 e4 87 3c 2f 4a 3f bd ad c1 18 ba
       0.0001091461 0.016588511 -0.046701606 -0.00058272
000040 a0 00 74 3d 0f 2f f1 3c 31 6d 8e bb 36 a7 13 3d
       0.05957091 0.029441385 -0.0043465127 0.036048137
000050 23 6c 3d bc 1d e7 02 bd bc 24 f4 3c d6 5a 38 3b
       -0.011561426 -0.031958688 0.029802673 0.0028130314
000060 bb ba a0 bc c8 ff 9a 3d e7 4f 92 bc 67 c6 b2 bb
       -0.01962029 0.07568318 -0.017860366 -0.0054557803
000070 3e d3 44 3d aa 32 33 bb 8e 69 cb bb 14 25 50 3b
       0.04805302 -0.002734343 -0.0062076515 0.0031760382
000080 cb ea ef 3c ee 02 9a b9 fb 1e c5 bc a6 78 a9 3c
       0.029286763 -0.00029375352 -0.024062624 0.020687412
000090 1d 16 86 3a 31 23 44 bd 70 02 bf 3c 9e 2b cf 3c
       0.0010229979 -0.047885124 0.023316592 0.025289353
0000a0 ae 39 cb bc 40 74 5d 3d 25 82 8e 39 33 50 98 3d
       -0.024807777 0.054065943 0.00027181316 0.07437172
0000b0 70 7d 4e 3b f4 62 7d 3d 2e b1 e0 3c 99 51 c2 3c
       0.0031507872 0.061861947 0.027428236 0.02372055
0000c0 9b ef ff 3b f1 c1 9e 3a 7e 6c 1a 3c cc 03 aa 3c
       0.0078105456 0.0012112242 0.009425281 0.020753764
0000d0 f1 fa 92 3c b4 e0 42 3d 30 63 4d 3d 1e 55 86 3d
       0.017941924 0.047577575 0.05014342 0.065592036
0000e0 e6 3e 0f bc 63 45 80 3c 93 68 b6 bc 29 7b 37 ba
       -0.0087430235 0.015658086 -0.022266662 -0.0006999248
0000f0 01 c1 38 3c 48 5e 65 3d 1b 61 ac 3c 91 ba 2f 3b
       0.0112764845 0.055998117 0.021042397 0.0026814083
000100 b4 74 67 3c 6e 40 e6 3b 13 ba 20 3d 82 3d c0 3c
       0.014126945 0.0070267236 0.039239954 0.02346683
000110 63 00 22 3c 4d 2d c1 3c e6 fa 7a 3d 2a f3 25 3c
       0.0098877875 0.023581171 0.06127443 0.010128776
000120 ec 2d ae bb 36 d4 1d bd fd 45 dd 3c 91 a9 29 3d
       -0.005315533 -0.03853246 0.027010912 0.041421477
000130 e4 ea 38 3d b4 6a a9 3b b2 4f 51 3c 55 f3 65 3d
       0.045145884 0.0051701907 0.0127753485 0.056140263
000140 a1 f5 83 3c 55 0a a9 3c 9e 64 96 3b 17 14 8d 3d
       0.016108336 0.02063481 0.004589631 0.068885975
000150 8a e8 8e 3c 72 0c a5 bb 55 2d 1d 3c 98 6e 26 bd
       0.017444868 -0.005036884 0.0095933275 -0.040632814
000160 d4 79 da bb 19 a6 00 3c 91 ab a0 3d 7a 09 c1 3d
       -0.006667355 0.007852101 0.07845224 0.09425636
000170 60 28 7d bc 1f 01 e5 3b 2e b3 cd bb ad 88 a2 3c
       -0.015451521 0.006988659 -0.0062774634 0.019840563
000180 81 e5 67 3c 52 e1 71 3d 47 6f 44 3d 85 10 09 3d
       0.014153839 0.059052773 0.047957685 0.03346302
000190 25 ef 0c 3c af fc 6f 3c a9 a0 d9 bc 03 35 8e bd
       0.008601938 0.014647647 -0.026565867 -0.06943705
0001a0 ae 76 38 3d d6 71 a4 3b 20 9c 0f 3b de 92 43 3b
       0.045035057 0.005018453 0.0021913126 0.0029842178
0001b0 88 13 60 3d 4a 9c c0 3c 12 ab 51 3c 8d b8 91 3c
       0.054706126 0.023512024 0.012797134 0.017788196
0001c0 fb 3b 64 bd fe ba 5d 3d 47 2c d3 3b c9 d6 a2 bd
       -0.055721264 0.054133408 0.0064444873 -0.07951123
0001d0 ac 6c d5 3c 6f 5f 8c 3d 85 29 2a 3d ef e0 9c 3d
       0.026052795 0.0685414 0.041543502 0.0766009
0001e0 f8 6c 6a 3d 12 52 87 3d 32 0b f0 3d 3b 0e 4a bd
       0.057232827 0.066074505 0.11720885 -0.049329977
0001f0 45 e7 a3 bc 3e 52 3e 3c bf 92 c2 3c f5 8e 4a 3d
       -0.020007739 0.011616288 0.023751615 0.04945274
000200 31 a8 44 3d 47 25 60 3c 76 fe 82 3b 9f f5 b6 ba
       0.048011962 0.013680763 0.0039976193 -0.0013958699
000210 93 44 f6 3c 19 1e f1 bc 5e 70 e8 bc 48 9b 5a 3d
       0.030061996 -0.029433297 -0.028373893 0.053370744
000220 ad 5d 52 3c 86 bd e4 bb 8a 28 71 bd 8b 02 09 bc
       0.012839717 -0.0069806008 -0.05887655 -0.008362423
000230 8a fd bd 3b 7a 74 8f 3c a4 57 03 bd 05 34 a1 bb
       0.0057980465 0.017511595 -0.032066002 -0.0049195313
000240 a2 e3 8a 3d 77 3f ad 3c a2 8a 02 3d b1 3c 25 3c
       0.06781699 0.021148426 0.03187049 0.010085271
000250 5e bf 0a 3d 7d f1 03 bd 18 ef cf 3c 3d d7 b8 b6
       0.03387391 -0.032212723 0.025382563 -5.5086844e-06
000260 dd f9 9c bc 70 23 28 3d 33 ed 7e bb c5 97 16 bc
       -0.019162113 0.04104942 -0.0038898706 -0.009191458
000270 c5 95 08 3d bf d6 bc bb 0b 74 0c bc 6d 97 34 3c
       0.033345956 -0.0057629044 -0.008572589 0.011022431
000280 2c f7 8f bb f1 02 ce 36 49 68 1c bd f2 07 ae 3c
       -0.004393479 6.139621e-06 -0.03818539 0.021244023
000290 6b 0d 3f 3c 67 b5 53 bc d1 46 90 3c 0f fa de 3c
       0.011660914 -0.012921668 0.017611893 0.027218847
0002a0 51 8b 97 bd 3a 46 2a 3d fe 43 89 3d e4 44 91 bc
       -0.07399619 0.04157088 0.067024216 -0.017733045
0002b0 a6 e8 be 3c f5 6e 8e 3d c4 34 2a 3d 82 97 55 3c
       0.023304295 0.06954757 0.041554227 0.013036611
0002c0 83 41 f2 3b 35 f9 e4 3c 42 4f a7 3c 5e 65 a3 3c
       0.0073930635 0.027950862 0.020423535 0.019945797
0002d0 66 0e 8a 3d 03 64 a9 3d 68 8f 3d 3c 22 2c a5 3c
       0.067410275 0.08271029 0.011569835 0.020162646
0002e0 64 c1 a5 3c c6 03 81 bc 69 da 05 bd 55 9d 0b bb
       0.020233817 -0.01574887 -0.032678995 -0.0021303494
0002f0 3e ab 14 3d 54 99 8c 3c 9f 83 ba 3b 52 2b 17 3c
       0.03629612 0.017162956 0.00569196 0.009226637
000300 89 86 c0 3b 23 a2 32 3c 8b 24 0e 3d 42 ef 32 3d
       0.005875413 0.010902914 0.03470282 0.043685205
000310 df a0 25 3c 36 93 48 3d 69 09 0e 3c b0 38 bd 3a
       0.010109155 0.048968516 0.008669236 0.001443645
000320 02 af 71 3c ba 8e 5d 3b f3 cd 81 3d 82 0d fb 3c
       0.014751198 0.0033806995 0.0633811 0.03064609
000330 1a a4 2e 3d b6 a3 13 3d f0 cd c9 3c b2 76 2c bd
       0.04263697 0.0360448 0.024634331 -0.042105384
000340 6d 43 ba 3c 20 1a 21 3d af 5d e4 bc 01 54 6e 3d
       0.02273723 0.039331555 -0.027876703 0.05818558
000350 35 41 93 3b 56 55 07 3c b4 a9 16 3c 8e 4a 97 bd
       0.0044938573 0.008260092 0.009195734 -0.07387267
000360 b1 3b af bc 54 19 e8 ba a8 14 0c 3d 3f f6 c1 3c
       -0.021390768 -0.0017707744 0.034199387 0.02367699
000370 19 79 a3 bb 9e c6 c7 3b a7 4c 05 ba de 6e 2f 3c
       -0.004988801 0.006096675 -0.00050849695 0.010707585
000380 47 04 e5 3b a6 61 3b 3d e2 1d 46 3d 11 ea 41 3c
       0.0069890353 0.04574742 0.048368342 0.011835591
000390 9d 55 6b 3a 99 55 40 3d 6b 80 07 bd ec c1 67 bd
       0.0008977296 0.046956632 -0.033081453 -0.056581423
0003a0 83 fe 13 3d eb f2 39 3b e1 d0 3a 3d 63 17 9e 3c
       0.036131393 0.002837355 0.04560936 0.019298261
0003b0 f9 73 c9 3c 31 0c b5 3c cb 1a 08 3c b6 91 45 3d
       0.024591433 0.02210054 0.008307169 0.048234664
0003c0 b5 a2 ab 3c b8 f1 fd ba 28 f7 92 3a 51 c4 97 bd
       0.020951608 -0.0019374406 0.0011212574 -0.07410491
0003d0 2b b9 e1 3c fd 71 a4 3d dc 6d 2f 3d c2 5e 0f 3d
       0.027554115 0.08029554 0.04282938 0.035002477
0003e0 b4 dd 2d 3d d1 db c2 3d 23 e4 53 3d 68 ed 3e bd
       0.04244776 0.09514583 0.05173124 -0.046613127
0003f0 09 1f 05 bd 84 6a 06 3d 19 d4 d7 3c 3d 43 34 3d
       -0.0325003 0.032816425 0.026346253 0.044009436

affine3.bias f4 [6]
000000 15 62 c1 be 12 5c c1 be 84 47 c4 be 8b f2 bd be
       -0.37770143 -0.37765557 -0.38335812 -0.37099108
000010 55 c7 be be 84 30 c0 be
       -0.37261453 -0.37537014
