checkpoints/2021_02_06-18_51_04/best/best_dqn-Pong-ram-v0.pt (torch, 301239 bytes, 8 tensors)

fc1.weight f4 [256, 128]
00000000: 020a 36bd c3e0 3f3b ef65 4ebd 9a87 083d
00000010: 511f a6bd 14e2 663d 7892 83bd ef15 a1bd
00000020: 7fcc 6ebd 9d04 083d af04 06bd 38da 073d
00000030: e4d7 aabd 4c58 75bd 5e91 f4bc 3b3e d3bc
00000040: 2d4b 9bbd 9ada 753d e59e c2bc b62f b93c
00000050: dff6 783d 61a0 083c deff c53c 5571 9d3d
00000060: 1eb4 45bd 0d4b a03c 37f7 45bd c54a 603d
00000070: 2bbe 7e3d 211d b8bd 5453 893d a070 0a3d
00000080: 2eb9 f63c ff3e e53c b747 853d ac69 a4bc
00000090: f149 aabd 364a 0abd 42b0 90bd 8f85 27bb
000000a0: 36ff cbbc c8b8 64bd bde4 86bc 2645 9a3d
000000b0: ea0d 7cbc 14b4 b7bb bfbe b5bc 12ab b33b
000000c0: 2c16 903d afd3 373d eb6e be3c 918a 3b3c
000000d0: 3c6c 4b3c eab6 d23c 12fc 98bc af3d a8bd
000000e0: 31c2 6bbd f983 9a3d 6ab2 32bb 20da a3bd
000000f0: cefe cb3b 0251 843d 6351 bcbd ae12 8bbd
00000100: c791 19bd 5404 9fbb 56b1 edbc 4968 92bc
00000110: 7bad c1bd 5d7f 073d 07b0 8d3d 51e5 3a3d
00000120: f562 91bd a006 a3bd 6bde e73c e435 d2bb
00000130: 1704 e43c 20e2 b0bd c9af acbb 5353 7f3d
00000140: 31f4 273d 0188 533b 0d5e 8e3c 841c 09bc
00000150: 9e0f 47bd 6cd0 08bd 6579 5cbd 385b 963d
00000160: 9d39 473d ea39 fd3c acd0 8abd b0ad 8b3d
00000170: 7807 e33c d774 7a3d 236c 0ebd 8d80 993c
00000180: 7cbe b03d 5487 733d 4a2d 913d 930b 98bc
00000190: 1dea 893d b9c7 8dbd b17f fa3b 00d9 4bbd
000001a0: a8dd a8bc 316f b9bc 00b3 d83b bdc0 a43d
000001b0: 513d 333d 7e4f c4b9 eb7e 803d 5b87 39bd
000001c0: 9b95 3a3d 8f4a 06bc a2fe 7bbc 598a 293c
000001d0: a6ad 8abd 4958 273c 5b76 f33c 59c2 9a3d
000001e0: bc6f e1bc 7da0 c33c 632a a33d 47c6 3dbd
000001f0: cedf 9a3d 0d27 56bd e252 fa3c c7d9 d63c
00000200: a3ad 8e3c 9126 8f3d 56e9 13bd 234d be3c
00000210: 6f9f 0abc d40b 97bd ead0 afbc cf3b 85bd
00000220: 65c3 2a3c e46e 94bb 213b e7ba bede a9bd
00000230: 24b0 b73b 7526 39bd 4711 4d3c 73ee a03d
00000240: 9b65 c83b 131a debc 102a 89bd 6804 d5bb
00000250: be52 8cbd b10b 99bd 84a4 6bbd 04c1 18bd
00000260: 4c72 3fba c383 5b3d bfdc dc3c c893 773d
00000270: 468e 80bd 6e58 4339 55cc afbd b6e5 313d
00000280: a0a7 363c e130 a03d 15a3 8fbd 6e45 823d
00000290: 7ded 893d b776 833d 21fb ae3b 17b4 953d
000002a0: 58fe 533d 5e52 703d 843a 55bc c5ce 99bd
000002b0: ce2c 09bc d56d 183c f232 8abd e677 6dbd
000002c0: fb71 bcbd b3ce 1fbd a2b2 8c3d 152c 133c
000002d0: d59b 4fbc 0b00 74bb 5f50 3e3d 01da 9fbd
000002e0: 12b1 92bd fbbb f0bc 6e18 57bd faf1 1c3d
000002f0: 9148 663d 1386 bebd 8385 a8bd 672c bfbd
00000300: aa58 ea3c f6cc 823d c23e 9bbd 47da 2dbd
00000310: e6d6 aa3c 91bf 86bd efe0 8a3d df07 593c
00000320: ff92 02bd 80ac e7ba dd2a a63c 72cf 1dbd
00000330: 4f28 9bbd 37be 1b3a 4006 d33a 629e e93a
00000340: 6354 53bc 9874 683d 780f cabc b92b 0cbc
00000350: a7dd 143d 72e1 63bd c1e0 c13c d91a a0bc
00000360: 0da9 2d3d a164 44bd e715 563b 09ac 0d3c
00000370: c4a5 91bd 76a0 83bd bed8 0a3d 57bf d2bc
00000380: 7803 573d 7dd2 b2bd 51f7 32bd 4619 95bd
00000390: c59f 103d 90ef 27bb 510e 87bc 73ee 70bc
000003a0: 5a7e 8dbd 3d58 cd3c c562 103b fad8 79bd
000003b0: 0f3b 083d 29da e8ba 8a12 afbd 78bf 423d
000003c0: 59a6 413d 6c6c 88bc 1ef7 79bd ec92 683b
000003d0: f297 883d b7b1 a53d 32a2 88bd 8a85 23bd
000003e0: 32f2 8c3d c44c 3e3d 53e9 413d e2fc 51bd
000003f0: 890f 8d3d 18b4 a3bd 0ee9 3cbc 2a2c b2bb
-0.044443138 0.0029278256 -0.05039018 0.033332445 -0.08111442 0.05636795 -0.06424421 -0.078655116
-0.05830049 0.033207525 -0.03271931 0.033167094 -0.08341959 -0.05989866 -0.029854473 -0.02578651
-0.07582698 0.060022928 -0.023757407 0.022605758 0.06078231 0.008339019 0.024169859 0.07687632
-0.048267476 0.019567037 -0.048331466 0.054758806 0.062193077 -0.08989931 0.06705347 0.033798814
0.030117597 0.02798414 0.06507819 -0.02006992 -0.083148845 -0.03376218 -0.070648685 -0.0025561785
-0.024901967 -0.055840284 -0.016466493 0.0753272 -0.015384177 -0.005606184 -0.022185681 0.0054830397
0.07035479 0.04487961 0.02324625 0.011446611 0.012415942 0.025721986 -0.018674884 -0.0821489
-0.057558242 0.07544703 -0.0027266988 -0.080005884 0.0062254434 0.064607635 -0.09195211 -0.06790672
-0.03749254 -0.004852811 -0.029015224 -0.017871993 -0.09456917 0.033080447 0.0691834 0.04562885
-0.07098953 -0.07960248 0.0283043 -0.0064151157 0.027833981 -0.0863688 -0.0052699787 0.062335324
0.041004363 0.003227711 0.017378831 -0.008368615 -0.048598878 -0.03340189 -0.05382671 0.07341617
0.04863893 0.030911405 -0.06778082 0.06820238 0.027713522 0.061146583 -0.034771096 0.018738056
0.08630082 0.05945523 0.07088716 -0.018560207 0.06734107 -0.0692286 0.0076446165 -0.049767494
-0.020613506 -0.022636028 0.0066131353 0.080445744 0.043759648 -0.0003744326 0.06274208 -0.0452951
0.04555283 -0.008196487 -0.015380533 0.010347926 -0.06771402 0.01021392 0.029719522 0.075566
-0.0275191 0.023880238 0.07967069 -0.04633167 0.075622186 -0.052283335 0.0305571 0.026226891
0.01741678 0.06989778 -0.0361112 0.023230141 -0.0084608635 -0.07375303 -0.021461923 -0.06505548
0.010422562 -0.0045298208 -0.0017641523 -0.08294438 0.0056057144 -0.04520269 0.012516326 0.078579806
0.006115628 -0.027112043 -0.06697476 -0.0065007694 -0.06851719 -0.07472933 -0.05752994 -0.03729345
-0.00073031033 0.053592455 0.026960729 0.06044367 -0.062771365 0.00018629592 -0.08583895 0.04343196
0.011148363 0.07821823 -0.07013527 0.06360899 0.067347504 0.064191274 0.0053399955 0.0730974
0.051756233 0.0586723 -0.0130144395 -0.07510141 -0.008372499 0.00930353 -0.06747998 -0.057975672
-0.092014275 -0.039015483 0.06870009 0.008982678 -0.012671431 -0.003723147 0.046463367 -0.07805253
-0.0716268 -0.029386511 -0.052513532 0.038316704 0.05622155 -0.093029164 -0.0822859 -0.09334641
0.028606731 0.063867494 -0.075803295 -0.042444494 0.020854425 -0.06579507 0.06781184 0.0132465055
-0.031878468 -0.001767531 0.02028411 -0.038527913 -0.07576048 0.0005941125 0.0016099885 0.0017823691
-0.012898537 0.056751817 -0.02466558 -0.008555346 0.036344197 -0.055634923 0.023666741 -0.019544052
0.042397548 -0.04794753 0.0032666863 0.008646973 -0.071116954 -0.0642709 0.033898108 -0.025726004
0.052493542 -0.08731554 -0.04369289 -0.07280211 0.035308618 -0.0025624968 -0.016486319 -0.014705288
-0.06908865 0.02506649 0.0022031527 -0.06099794 0.033259448 -0.0017765212 -0.08548458 0.04754588
0.047277782 -0.016653262 -0.061026685 0.0035487963 0.06669606 0.08090537 -0.06671561 -0.039922275
0.068821326 0.04645993 0.047341656 -0.05126656 0.06887729 -0.079933345 -0.011530174 -0.0054373937

fc1.bias f4 [256]
00000000: 202c 293d 3109 55bd f2a6 bebd 4458 05bd
00000010: 1b20 3a3d adda 25bd 029a d83c ff71 3ebc
00000020: 3a79 11bd 0908 8dbd f626 11bd 1a04 c0bd
00000030: b5d1 61bd 4b68 53bb e53d 8e3d ee54 76bd
00000040: 0202 83bb 41e1 8dbd b46c 523d 5841 873d
00000050: f8de bbbc 7c90 063b fc48 e9bd 5014 98ba
00000060: 0561 2a3d a691 27bc 6fee 8e3d 62db 74bd
00000070: f134 8b3d 8519 843d 8e18 913d 7600 ba3b
00000080: 15d4 6ebd a95b 9a3b f526 223c 14c8 91bc
00000090: 4dc7 b0bd 13cb 3cbd f707 05bd af2b 043d
000000a0: af06 00bd 299c 21be 6e22 3f3d 63a2 3c3d
000000b0: 3c7e 223d c0e8 863c 0df1 94bd 240b 8fbd
000000c0: 4898 8dbd d733 623d 46b5 283d bed8 343d
000000d0: 454a 92bd 06e5 d4bc 8a0b 023d 10c2 a13d
000000e0: 6f0c 3dbc 6845 a1bd af88 adbd 53dc 113d
000000f0: 2b07 163c d1a5 33bd 8c83 593d c409 cfbd
00000100: 5f48 6a3d c276 6fbb 44d8 c2bc 69d5 86bd
00000110: 9d4b 33bd e90f 313d a402 23bd 653b 8b3d
00000120: abad 88bd d735 00bd 3572 c2bc 9ef4 6f3d
00000130: c44e cf3b 0b51 953c 8cc2 e7bd 513b 2d3d
00000140: cd1f 8f3d e5e9 edbc 88fb 253d d5c1 e73c
00000150: 5a83 abbc 5788 c23c 60d5 29bd 7018 b8bc
00000160: 8c57 93bd 98bd a0bd 1af8 b53d f019 85bd
00000170: 93c3 2d3d b4e5 673b faec 2dbd bea8 0bbd
00000180: 6a07 92bd 6f95 8d3d 9f40 93bd 3a5e a63c
00000190: cc1f 85bd f796 403d e9e3 6cbc 7dec 0abd
000001a0: af1c 07bc d1be 683d 4bf7 1f3c 0dd5 bdbd
000001b0: f546 ac3a 62ce 9abd 3f9a aa3d 9548 13be
000001c0: 9b0b ff3d b6d7 59bd 04bb 9bbc c4fa c33d
000001d0: d61b febc d06d 0e3d 5453 6b3d 1982 b8bc
000001e0: c4ea 953d 8006 92bd 395a 07bd ad43 193d
000001f0: 39b2 1c3a 538f b0bd a547 303d 9281 d7b9
00000200: 9c7f 8ebd 7c17 9abd b3b2 ccbd 58b8 e73c
00000210: 7cc7 c33c ccb6 b3bd b2a0 21bd ad31 afbd
00000220: 6296 55bd 4aa7 2f3d 73cd a83c 36a1 6abd
00000230: 971c dbbc 0e92 35bd ec5d b43c 5393 35bb
00000240: c878 423c 3611 053d e5f6 b13b 20ca cbbd
00000250: 81de 923d f1aa ac3d 3b62 9e3c 4af8 d2bd
00000260: cb29 573b 0f43 883d 93cc 213c bfd3 aabc
00000270: 6112 693d 7f7a dbbd 0634 823d a32c 973d
00000280: 01dc 62bd deb8 1f3d 43bd 643c 732f bbbd
00000290: a132 6dbb c1e5 10bd 506b ab3b e122 913d
000002a0: ed40 0abe 30f2 cf3c a369 8bbd b813 963d
000002b0: 4f68 9b3d a8c6 5cbd c671 ae3c 771a 36bd
000002c0: 4cb1 fabc a311 a33d 4a8e 063b bad0 debc
000002d0: c508 a23d 83e3 5b3d 0fd9 44bc 6c2c 3abc
000002e0: c53c a1bd c169 0ebe a7c8 7dbd 2e74 a1bd
000002f0: 618c 6dbd 58be 223a 076e 633d d28b 963d
00000300: 8b8c 683d ba66 4dbd 41ab aabc dced 3bbd
00000310: 542e 0bbc 6d04 95bd fdb5 a23c cc3a 233d
00000320: 83ae 69bd 88ac 523d df06 733d a576 babc
00000330: 3a66 aebd 0fa6 7fbd 0287 a23d f50c a73c
00000340: 3708 1dbd da95 74bd 7611 14bc b872 263c
00000350: 15ea f93c c03e 6a3d e06c 35bd 79aa 1bbd
00000360: bbc2 b1bd e5f1 22bc e4a2 123d c2ce 25bd
00000370: 1a87 933b 11df 0fbd 0b9b 0fbd 4fd5 923d
00000380: d848 bdbd 5c79 263c de44 1d3c ea0f 91bd
00000390: 4dc3 36bd cdaa 5c3b 8f58 77bc 95b6 5d3d
000003a0: 5b14 b8bd ec5b 0cbd 8ac9 d83c 8f70 9abd
000003b0: 6ea8 b13c 6360 a4bd 2fbe bebc 440e 053d
000003c0: 057b 3cbc 5fec 743c 3299 68bd 15b8 bfbc
000003d0: 149e 6a3d ae3b a7bd 9902 a8bd fc6b a5bc
000003e0: b5cb f1bc 8167 97bd 00ae 29bd a57e 343d
000003f0: 7624 b5bd 1e24 9a3d baf0 d73d 0c77 8f3d
0.041301847 -0.05201072 -0.09309186 -0.03255488 0.045440774 -0.04049175 0.026440624 -0.0116238585
-0.035516 -0.06886298 -0.035437547 -0.09375782 -0.055131633 -0.0032258208 0.06945399 -0.06013959
-0.003998042 -0.069277294 0.0513732 0.0660426 -0.022933468 0.0020532897 -0.11390874 -0.0011602733
0.04159643 -0.010227596 0.06979071 -0.059779532 0.06797207 0.0645018 0.070847616 0.0056763245
-0.058307726 0.004710634 0.009896983 -0.0177956 -0.086317636 -0.046092104 -0.0324783 0.032268222
-0.031256374 -0.15782227 0.046663694 0.0460533 0.039671168 0.016468406 -0.07272539 -0.06984547
-0.06913811 0.05522522 0.0411885 0.044152014 -0.07143072 -0.025988113 0.031749286 0.078983426
-0.011538609 -0.07874566 -0.08473336 0.03561051 0.009156982 -0.043859307 0.05310397 -0.101092845
0.057197925 -0.003653929 -0.023784764 -0.065836735 -0.043773282 0.043228064 -0.03979744 0.06798438
-0.066737495 -0.031301346 -0.023736099 0.058582895 0.0063265283 0.01822712 -0.11316404 0.042292897
0.069884874 -0.029042194 0.040523082 0.028290669 -0.020936657 0.023746653 -0.041463256 -0.02247259
-0.071944326 -0.07848662 0.08885212 -0.06499088 0.042422842 0.0035384716 -0.042462327 -0.034096472
-0.0713032 0.06913268 -0.0719006 0.020308603 -0.065002054 0.04701897 -0.014458635 -0.03391694
-0.008246585 0.0568226 0.009763549 -0.09269152 0.0013143705 -0.07558896 0.08330201 -0.14383157
0.124533854 -0.053184234 -0.019010074 0.09569314 -0.031019133 0.034772694 0.057452515 -0.022522973
0.073201686 -0.07130146 -0.033045027 0.037418056 0.0005977485 -0.08621087 0.043037076 -0.00041104533
-0.06957933 -0.075240105 -0.09995022 0.028286144 0.023898832 -0.087751 -0.03945989 -0.08554397
-0.05214537 0.04288415 0.020605778 -0.05728265 -0.026747031 -0.04432874 0.022017442 -0.002770622
0.011869617 0.032487117 0.0054310434 -0.09950662 0.071713455 0.08431042 0.01933395 -0.10301264
0.0032831307 0.066534154 0.009875434 -0.020852922 0.056902293 -0.10716724 0.06357579 0.07381561
-0.055385593 0.038994662 0.013961139 -0.091399096 -0.0036193507 -0.03537536 0.0052312985 0.07086731
-0.1350133 0.025384039 -0.06807258 0.0732798 0.07588255 -0.05390039 0.021294486 -0.044458833
-0.03060212 0.07962348 0.0020531588 -0.027199138 0.07911829 0.05368377 -0.012014641 -0.01136313
-0.07872919 -0.1390753 -0.061958935 -0.07883488 -0.057995204 0.0006208173 0.055524852 0.07350887
0.056774657 -0.050146796 -0.020833613 -0.045881137 -0.008494932 -0.07276235 0.01986217 0.039850995
-0.057051193 0.05143407 0.059332725 -0.022761652 -0.08515592 -0.062414225 0.07935907 0.02039192
-0.038337912 -0.059713222 -0.009037366 0.010159187 0.030507127 0.05718875 -0.044293284 -0.038004372
-0.0867972 -0.009945367 0.035799876 -0.040480383 0.0045021893 -0.035124842 -0.03505997 0.07169592
-0.092424095 0.01016077 0.009598939 -0.070831135 -0.044619847 0.003367114 -0.015096798 0.054129202
-0.089882575 -0.03426735 0.026463289 -0.07541 0.021686759 -0.08026197 -0.023284046 0.032484308
-0.0115039395 0.014948933 -0.056786723 -0.023403207 0.05727966 -0.0816568 -0.082036205 -0.020193093
-0.02951608 -0.07392789 -0.041425705 0.04406609 -0.08844845 0.0752642 0.10543962 0.07005128

fc2.weight f4 [128, 256]
00000000: a8f9 db3c 5e2f d9ba 3237 f5bc 4607 303c
00000010: e22a 663d b01e e5bb be9d 753c df80 d7bc
00000020: 4c9e 00bd b5e4 5c3d 1d8f 16bc 4659 8fbb
00000030: a32a 3a3c 71ed fabb 2a37 2e3d 6220 793d
00000040: d417 493d 3ad0 cc3c 3667 73bd b814 2c3c
00000050: da16 053d c09e 07bd b121 1f3c 36fe 1dba
00000060: 345c f03c 662e 6fbd 4025 48bb 7a93 bfbc
00000070: 31b7 6abd 484d 013c b076 c93b c6ee 233d
00000080: a851 1ebc 9401 933c eb3f 3abd 5efa 523d
00000090: b8c0 88bc 303d 853b 605f adbc 8512 babb
000000a0: b46e 183d 024a 583b eeb0 673d 4cc8 a23c
000000b0: e15c 873a 9edb 6ebd c3a3 6cba 1a87 2cbd
000000c0: 5efd 97bc de2c ad3c 7fd9 babc 6488 463d
000000d0: da71 4fbd 883b 8cbc ba25 d83c 8a7b 7ebd
000000e0: 8cce 59bc 288e 0fbd eb4b b93c 0c32 023d
000000f0: 08ad f9bc 6bec 2dbd 3161 c33c 2d6d 1dbd
00000100: f845 693d 5278 613d eb13 91bc 7170 4cbd
00000110: 2771 a4bd e06b fcbc 94f6 7f3c d0b4 293c
00000120: 7b9d 633c 5dae 81bc dad9 63bd 60dc c2bc
00000130: 0196 243d d8a1 e63c a03b 723c 34f5 8fbc
00000140: 15c8 4fbd 7ec4 4cbd 7dcb 18bd 30d8 0d3d
00000150: 0063 8b3c ed3e 86bd a024 8dbd f0f6 aabc
00000160: 0e31 66bd 84a2 a8bc f683 43bc 884b 73bc
00000170: 8be3 babd 2c30 8c3c 20e3 903c 98fb 56bd
00000180: 9502 493c a0f9 543d ed99 44bd 6df6 60bd
00000190: 6a44 253d 4ea5 503d c06b 59bc 50a2 4cbd
000001a0: 9796 7e39 9c38 753d a8b3 4ebd 7b2d 70bd
000001b0: 90ca c6bc 32ee 863c 705a e1bb f2c4 69bd
000001c0: 9bfb d2bb 5094 95bb 7df9 58bb 83db 2b3c
000001d0: 12ba 22bd 4c44 01bd 22bb f7bb 36ed 833c
000001e0: 202d dcbc 3bdf 4ebd 0886 5dbd 8087 a8bc
000001f0: ecfd c2bb 2807 f8bc 6c34 d13c 5c2a bb3c
00000200: 1847 1f3d 15f1 6cbd 5b59 e13c 2580 06bd
00000210: 3085 583d 0029 c7ba b821 513b faa5 7ebd
00000220: 9276 08bd d36f 02bd ca2c 98bb 846c 39bd
00000230: 0e24 ef3c 692c 193c 5153 bd3c 5f92 4fbd
00000240: 2eac 523d dcd8 a6bc 4b3d 3bbd 6643 fdbb
00000250: 207e c3bc 6cd2 433d 1a1e 31bd a746 89bc
00000260: 02db d4bc 3007 4fbd 5a46 1dbd 3c36 553c
00000270: a86d 0e3d 11ba 8fbd 70b8 14bd 1a5a 79bd
00000280: 0095 f23c 0cf9 bbbc 008c babc 37af b43c
00000290: afbf 2fbd 6d46 2dbd e66c 673d 5585 f1bc
000002a0: 44d6 27bb 965b 973c 04d8 adbb b4b2 4f3d
000002b0: 587c 62bd 7a60 25bd 254e e73c 484b 64bd
000002c0: 20c2 30bd 7db3 033d e64e abbc 4ac4 7a3d
000002d0: 0c5e a63c 3252 fabc 8fad 4b3d d10f 01bd
000002e0: 9852 81b9 df17 6abd 40da 75bc faed 183d
000002f0: aa24 b33c 08df 5bbd 3221 3b3d 0ebe ed3c
00000300: 324a 4dbc 4ac1 873b 6e64 eb3c cb8d 2e3d
00000310: 784d 4ebb e5f3 4d3d 0f59 00bc d0be 56bc
00000320: c0b2 d93c c27c 79bd 0dbc a03c e854 40bd
00000330: 1c6a 6fbd 6f21 4b3d defc 64bd b429 1cbd
00000340: 0eee 0d3d 6833 03bd ad3e 07bc 3b38 2dbd
00000350: d122 4e3d 3da0 1d3d 8f87 103d ed1e 983c
00000360: 1e27 72bd c07c 2dbd 155f 0f3c 0cd0 0f3d
00000370: 2cb9 d2bc 1083 e5bb 2c48 e23c 8067 a23c
00000380: 2069 19bc 0cf1 173c 9255 4bbd d9ca e6bc
00000390: a868 acbc 2e52 52bd d0cc b03c effa 3bbd
000003a0: aa65 58bd bfa6 86bc 82dd 7fbd 9440 64bd
000003b0: b1ea 7b3c 38cf 11bc b459 9e3b e6bb 673d
000003c0: c0f1 94bd e292 243d c9ae 7cbd 9c30 35bd
000003d0: 705f 48bc 34ff e43c c0f4 a93c 2652 613d
000003e0: 3ee1 4d3d 05fe 3bbd 48ea 653d a889 8e3c
000003f0: 228f a83c 2262 793d 0162 89bc 5cd5 f1bc
0.026852444 -0.0016569903 -0.029933546 0.010743922 0.05619324 -0.0069921836 0.014991222 -0.026306568
-0.031400964 0.05392905 -0.009189394 -0.004374656 0.011362704 -0.0076576998 0.042533077 0.0608219
0.04909499 0.025001634 -0.0594246 0.010502987 0.032492496 -0.03311038 0.0097126225 -0.0006026955
0.02934084 -0.05839386 -0.003053978 -0.023385752 -0.05730361 0.00789196 0.006148182 0.040022634
-0.009663023 0.017945088 -0.045471113 0.0515083 -0.016693458 0.004066132 -0.021163642 -0.005678477
0.03721495 0.0033003096 0.056565218 0.0198709 0.0010327363 -0.058314912 -0.0009027088 -0.04212103
-0.018553432 0.021139558 -0.022808788 0.048469916 -0.050645687 -0.01711823 0.026385177 -0.062129535
-0.0132938735 -0.03504768 0.022619208 0.03178601 -0.030478016 -0.042461794 0.023850055 -0.038434196
0.056951493 0.055046387 -0.017709693 -0.04991192 -0.080293946 -0.030813158 0.015622754 0.01035805
0.013892527 -0.015830213 -0.05562768 -0.023786724 0.040182117 0.028153345 0.0147847235 -0.017572977
-0.050727922 -0.049992077 -0.037303437 0.03463 0.01701498 -0.06554971 -0.06891751 -0.020869702
-0.056199126 -0.020585306 -0.011933317 -0.014849551 -0.091254316 0.017112814 0.017686427 -0.052486032
0.012268682 0.051995873 -0.047998358 -0.05492251 0.040348448 0.050938897 -0.0132703185 -0.04995948
0.00024279427 0.05986844 -0.050464302 -0.058637124 -0.024266511 0.016471002 -0.006877236 -0.057072587
-0.006438685 -0.0045647994 -0.003310769 0.010489347 -0.03972823 -0.031559274 -0.0075601498 0.016104322
-0.026876986 -0.050505858 -0.0540829 -0.020572424 -0.00595068 -0.03027685 0.025537692 0.022847347
0.03888616 -0.0578471 0.027508428 -0.032837052 0.052861392 -0.0015194714 0.0031910967 -0.062170006
-0.033316202 -0.031844925 -0.004644011 -0.045269504 0.029191997 0.009348967 0.023111017 -0.0506767
0.051433735 -0.020367078 -0.04571275 -0.007728982 -0.023863852 0.047808096 -0.043241598 -0.016757322
-0.025983337 -0.050543964 -0.03839717 0.013013419 0.034772545 -0.07017911 -0.036308706 -0.060876943
0.029612064 -0.022945903 -0.022771835 0.022056205 -0.042907413 -0.04230349 0.056500338 -0.029482523
-0.002560989 0.018476289 -0.005305292 0.050707534 -0.055294365 -0.04037521 0.028235504 -0.055735856
-0.043153882 0.032153595 -0.020911645 0.061222352 0.020308517 -0.030556772 0.049726065 -0.031509224
-0.00024666335 -0.05715167 -0.015005648 0.037336327 0.021868069 -0.053679496 0.045685954 0.02902129
-0.012529897 0.004142915 0.028734412 0.042615693 -0.003147928 0.050281424 -0.007833733 -0.013107017
0.026574492 -0.060909994 0.01962092 -0.046955973 -0.058450803 0.04959243 -0.055905215 -0.03812571
0.034650855 -0.032031447 -0.008254689 -0.042289954 0.050326172 0.038482893 0.03528553 0.018569434
-0.059119336 -0.0423553 0.008750697 0.03511052 -0.025723062 -0.0070041493 0.027622305 0.019824743
-0.009363443 0.009273779 -0.049642153 -0.028172897 -0.021045998 -0.051347904 0.021582037 -0.045893606
-0.05283133 -0.016436933 -0.062467106 -0.05572565 0.015375779 -0.008899502 0.004832471 0.05657568
-0.07272673 0.04017914 -0.061690126 -0.04423581 -0.012229785 0.027953722 0.020746589 0.055009983
0.050263636 -0.04589655 0.05613163 0.017399624 0.020576064 0.060884602 -0.016770365 -0.029520683

fc2.bias f4 [128]
00000000: 2b18 12bd 19c6 feb9 ed17 58be 7b3b 8a3c
00000010: 7da3 8abc b8ad aabe db0e 0b3f 5066 a7be
00000020: 314e 303c ca33 4dbe 533f d1be cb2e c4be
00000030: 22ea bfbc 5ce8 513b 9c6f 45be d0a1 e2bc
00000040: 4145 26bd 2b90 4d3c ca23 27bf f98b cabc
00000050: e5f6 56bf e3ab c3bd b14f 25bd e56b 8d3e
00000060: 427c 03bd bbcf 4cbd 73a1 dabe d20f d0be
00000070: 44f6 84be 18f8 2e3c 7932 243a d5d3 0bbd
00000080: e970 7d3c c25a 5b3d 5fcd efbc c8dc 163e
00000090: 6b26 88be cf2c 19be cecc a4bd 4ce9 cebb
000000a0: 45b7 25bf 2f53 5bbc d526 e5bc f0f2 a03b
000000b0: 2f87 e9be 75ad 3d3c 10b8 66bd 3ff9 c8be
000000c0: 8966 013f 132f a13e a616 8d3c e907 45bd
000000d0: f32d 71bc 89bd 73bc 8a29 3ebc 3a05 afbd
000000e0: ae54 99be aeb3 c4be 1c94 4a3e 5afe 4abd
000000f0: 5eeb 143b b87a 88be fac1 913c f2bc 973e
00000100: cea1 b2bd 2798 8bbe c869 a53e 5e6d eabc
00000110: b4ea 093f d0d2 ac3e bac2 ff3c 4ce2 85bb
00000120: 04c4 bcbc 0a11 0b3e 6262 30bf 9ef1 6dbd
00000130: 8dde efbc d3c9 85bd 023b 8b3e eb1d 82bd
00000140: 995f 64bd 1d9b debe d592 083d 3826 68bd
00000150: 154b 5dbd a618 54bf 1f37 23be aa85 0d3d
00000160: 54bf 253d d2d9 6dbf f9d5 ccbd 8039 3cbd
00000170: 5738 b0bd a478 583e 005a 9d3e 61fc 01bd
00000180: 3a32 2dbc bf2a 13be 5533 30bd 9888 303c
00000190: 504c 8dbd 7cb1 c7be 3f9e 02bf 2f0e 7c3c
000001a0: ba3d 37bc f7ab 05be b124 b4be 0ad9 8abc
000001b0: 117f 52be 3a28 5dbe ba6f a8bd 7e55 18bf
000001c0: dd20 073e 8cea 98bd aef7 1ebf 7f19 98bc
000001d0: 1db8 013f 8243 dcbd 438d d5be 9d24 a4bd
000001e0: 3a06 c0be a9f3 c53e 7391 c13b f0c6 003c
000001f0: fcab 443f 14bc 19be 46c1 803e 7ca2 f73c
-0.03566758 -0.0004859425 -0.21102877 0.016874066 -0.01692366 -0.33335662 0.5431954 -0.32695246
0.01076083 -0.20039287 -0.40868625 -0.3831695 -0.023427073 0.0032029366 -0.19280857 -0.027665049
-0.04059339 0.012546579 -0.65288985 -0.024724947 -0.8397048 -0.09554269 -0.040359203 0.2762138
-0.032100923 -0.050002795 -0.427013 -0.4063707 -0.25969136 0.010679267 0.00062636245 -0.034137566
0.015468814 0.05355335 -0.029272733 0.14732659 -0.2659181 -0.149585 -0.08046876 -0.0063144322
-0.6473277 -0.013386532 -0.027972618 0.004911773 -0.4561095 0.011577 -0.05632788 -0.3925266
0.5054708 0.31481227 0.017222714 -0.048103247 -0.014720428 -0.014876732 -0.011606583 -0.08545919
-0.29947418 -0.38418335 0.19783062 -0.049558975 0.0022723298 -0.26656127 0.01779269 0.2963634
-0.08722268 -0.2726452 0.32307267 -0.028616603 0.53873754 0.33754587 0.031220783 -0.0040858146
-0.023042686 0.13580719 -0.6890012 -0.058091752 -0.029280925 -0.065326355 0.27193457 -0.06353363
-0.05575523 -0.43477717 0.033343155 -0.056677073 -0.054026682 -0.8285011 -0.15938996 0.0345513
0.040465668 -0.9291049 -0.100017495 -0.045953274 -0.08604496 0.21139771 0.30732727 -0.031734828
-0.010571057 -0.14371775 -0.043017704 0.010774754 -0.06899321 -0.39002597 -0.51022714 0.015384241
-0.01118415 -0.1305388 -0.35184243 -0.016949195 -0.20556284 -0.21597376 -0.08224435 -0.5950545
0.1319613 -0.07466611 -0.6209668 -0.018566845 0.5067156 -0.107550636 -0.41709337 -0.08014796
-0.3750475 0.3866246 0.0059072315 0.00785993 0.7682493 -0.15013152 0.25147456 0.030228846

fc3.weight f4 [64, 128]
00000000: 8f61 003c 8412 a0bc 6bb7 66bd 2e39 a23d
00000010: af30 09bd 626c 47bd 25fe 973d 0eb6 933d
00000020: bbd0 a4bd 7eb0 e9bc 3b43 f6be d8f9 3ebf
00000030: 66bc 0e3c 2cb9 0b3d 731b 203c c287 49bd
00000040: 5303 8b3c 1eaf 83bd b2fa 9cba 47d4 f43c
00000050: 065b febd a9af f63b da02 15bd 032e 24bd
00000060: 3769 41bd b5ae dc3a 2cfd f0bd 273f 963b
00000070: e650 03be 6ed1 a63c 36a8 5dbe 47da 3f3d
00000080: 233f 6ebd f72c 99bd cdec b83d cb1a 94bb
00000090: c8f9 54bf 3ea8 1cbf d54a 633d 9605 9abd
000000a0: 2a10 7a3d b101 8fbd fe36 303d 1a29 023d
000000b0: 365a b13d eaf4 983d a11d a73c 2c84 b5bc
000000c0: bfde 823c abc9 03be 5b4b 89bc db3d 4abd
000000d0: 0d0c d6bc 132f 883c cd92 303d 5a6e e2bc
000000e0: 580e a8bd d55e cbbc 9c90 933b d766 4e3e
000000f0: 69c4 8bbd 33a2 6abe 6838 33bc fe05 293e
00000100: 8cf2 05bd 1206 14be 7eac cc3c 0cbd a13d
00000110: 5118 80bd 64b0 3e3d b34b 86bc 1300 29bd
00000120: 544f 77bc 7938 8dbd cbc8 b0be 4187 d23d
00000130: bc59 e83c fc50 213d 64ad 193e 3207 a0bd
00000140: adf4 29bc 2daf e1bd 4279 853d cc79 e33d
00000150: 75d4 0c3d d9e6 4fbe 6efd 263e a915 dabd
00000160: 873f aa3c 2363 4cbe 161e 07bc 94e9 3f3d
00000170: 49e5 973d 6dd7 b83c 4f19 a0bc e66d 853d
00000180: dadf 213b da28 f1bd aa5f 4cbc cdd5 68be
00000190: f344 293d 5b69 30bd 130f 4ebc 1974 b0bc
000001a0: 5824 733c fc09 9fbd 257c 8f3d ea47 0c3d
000001b0: ae68 143d a054 2ebe 9f93 83bd 8bf6 11be
000001c0: b2f0 c33d 57ca edbc 3bbd c9bd b5a5 1b3c
000001d0: 9a3f 423e 98d7 22be 56b6 a1bd b311 a63c
000001e0: 59ee acbf 8b82 27be 995f 10bd a45c 0dbd
000001f0: 7add 13bd c560 b03d 1329 55be c104 153d
00000200: 3262 e23c 3287 993d f6fd 34bc 9b71 41bb
00000210: 24b6 77bd eb41 eabd 6b5f 36be c15a f0bd
00000220: 87c7 3ebc c12e 073e 591a 9e3d 9def 9a3d
00000230: a3e1 6f3d 4b83 6e3d 83ac 023e d670 3bbd
00000240: df3a 253b 2d61 f5bc d959 3dbc c911 9cbc
00000250: 25a9 8c3d 3340 8c3d 2b2e 41bd 0d9c fabb
00000260: 3046 583d 0cad 9ebd d6c3 06bc 29a3 d43b
00000270: ed5a 513d b8cf 00be f30d 44bf 12bb 66bd
00000280: 1f8e b5bc 045e 833d 4344 1e3b b944 b9bd
00000290: 81a9 bebd 3338 db3d 4292 8a3c d5a4 a23d
000002a0: 600b 2dbf f6ed 5b3b 87a2 e83d a3fc c43c
000002b0: d3b0 bebe 6815 9f3d b83c e33c d9f0 12bf
000002c0: 1292 8f3e e775 2abe 2452 37be 904d beb9
000002d0: b0c0 733d 75a4 273d caec 59bd 05cd b3bd
000002e0: c254 943d 5db7 91be 1c71 07be 5dc2 2a3c
000002f0: 80e4 12bd dbaa 1fbe 6ed4 4d3d 12eb a7bf
00000300: c6c8 d33c 2296 8cbc cc95 03be da20 46be
00000310: c533 6fbe 3285 82bc 682c 513d 71af 8e3d
00000320: 5957 66bd 8688 29be acb4 e8be 1600 b23e
00000330: aff2 003d 46ca 9b3d bc0b 7cbe f651 a7bd
00000340: 848e 493d 607e 843b 97f0 c63c 5864 10be
00000350: 6850 9abe 9cf2 813d e4e8 10bf f752 0dbd
00000360: c061 9fbc bf43 04be 424b 693a 77d9 c0bc
00000370: ba0e e1bc e763 42bd 8943 83bd 6c14 04bd
00000380: 7385 d03c b25a d6bd c4e4 85bd 9b9f d9be
00000390: 82c3 f5bc 28f7 97bd 8a3c 89bd 1f84 94bc
000003a0: 6d66 78bd cb21 633d 47f1 9d3d 415e e8bc
000003b0: e03e 97bc 3d2a 72bd 55c4 ddbd 2738 2d3e
000003c0: bcf3 e4be 387d c73c 0d6c d7be e779 293c
000003d0: 5b6f a0bc 5821 ddbd a9b3 71be 2730 4bbd
000003e0: 1ef8 5c3d 521e 37be 9ffe 3dbc 042b 59bd
000003f0: 870a b1bd d300 323d f97f 763c ba69 c03c
0.00783576 -0.019540079 -0.056327265 0.079210624 -0.033493694 -0.048687346 0.07421521 0.072124586
-0.08047625 -0.02852654 -0.48098168 -0.7459998 0.00871191 0.03411214 0.009772169 -0.049201734
0.016969359 -0.06429885 -0.0011976568 0.029886378 -0.12419705 0.0075282645 -0.036379673 -0.040082943
-0.04721948 0.0016836735 -0.11767039 0.004585165 -0.12823829 0.020363536 -0.21646199 0.046839025
-0.05816568 -0.074792795 0.09029541 -0.0045197955 -0.83193636 -0.6119422 0.055491287 -0.07520597
0.06105057 -0.069827445 0.043021195 0.03177748 0.086597845 0.07468589 0.02039987 -0.022157751
0.015975354 -0.12869899 -0.016759565 -0.049375396 -0.026128793 0.01662401 0.04310875 -0.02764051
-0.08205861 -0.024825493 0.0045033228 0.20156418 -0.06824572 -0.22913437 -0.010938741 0.16506192
-0.032702014 -0.1445544 0.024984594 0.07897386 -0.06254638 0.046554938 -0.016393518 -0.041259836
-0.015094597 -0.06895537 -0.34528193 0.10279704 0.028363101 0.039383873 0.1500755 -0.078138724
-0.010373277 -0.1101974 0.06517269 0.11107215 0.034382302 -0.20302905 0.16307613 -0.106486626
0.020782245 -0.19959693 -0.008246919 0.046853617 0.074167795 0.02256366 -0.019543318 0.06515102
0.0024700076 -0.1177537 -0.01247398 -0.22737809 0.04132552 -0.043069225 -0.012576836 -0.021539735
0.014840208 -0.07765576 0.070061006 0.03424827 0.036232643 -0.1702447 -0.06424641 -0.14254205
0.09567393 -0.029027147 -0.09850546 0.009499957 0.18969575 -0.15902555 -0.07896106 0.020272112
-1.3510238 -0.16358392 -0.03524742 -0.034512177 -0.03609989 0.08612207 -0.2081645 0.036381487
0.027634714 0.074964896 -0.011046877 -0.0029517177 -0.060476437 -0.11438354 -0.17809837 -0.1173606
-0.011644251 0.13201429 0.07719869 0.07565234 0.058564793 0.05823068 0.1276112 -0.045761906
0.0025212092 -0.029953564 -0.011557066 -0.01905145 0.06868199 0.068481825 -0.04716317 -0.0076479972
0.05280131 -0.0774785 -0.008225402 0.006489177 0.051112104 -0.12579238 -0.76583785 -0.056330748
-0.022162495 0.064144164 0.0024149574 -0.09046311 -0.09309674 0.107040785 0.016915444 0.079415955
-0.6759548 0.0033558584 0.11359125 0.024046248 -0.3724428 0.07767755 0.027738914 -0.57398754
0.2804113 -0.16646539 -0.17902428 -0.00036297413 0.059509933 0.040928323 -0.053204335 -0.08779339
0.07242729 -0.28460208 -0.13226742 0.010422316 -0.035862446 -0.1559252 0.050251417 -1.3118613
0.025852572 -0.017161433 -0.12850112 -0.1934847 -0.23359592 -0.015932653 0.05106774 0.069670565
-0.056235645 -0.16555986 -0.45450342 0.3476569 0.03148144 0.0760694 -0.24613851 -0.0816993
0.04920818 0.0040433854 0.024284644 -0.14100778 -0.3013947 0.06345102 -0.5660536 -0.03450295
-0.01945579 -0.12916468 0.0008899459 -0.023541195 -0.027472842 -0.047458556 -0.06409366 -0.03224604
0.025454259 -0.104665175 -0.06537774 -0.42504582 -0.030000452 -0.07420188 -0.06701 -0.018129406
-0.060644556 0.05545215 0.077120356 -0.028365256 -0.018462598 -0.059122313 -0.10828463 0.16915952
-0.44717205 0.024351701 -0.42074624 0.010344005 -0.019584348 -0.107973754 -0.23603691 -0.04960647
0.05394756 -0.1788266 -0.011596351 -0.05301954 -0.08644586 0.043457817 0.0150451595 0.023487914

fc3.bias f4 [64]
00000000: 2da2 c33e 3f1d b13e e65d 953e d393 2dbe
00000010: 8e7e f63e 474f a5be 0fbe 1ebf e812 c7bd
00000020: 615f 0cbf 36e5 5cbe 4451 4abe eab0 08c0
00000030: b5cc d8bd a1be b63e fbdc eebe 5c6d f1be
00000040: 0947 aa3c 73d9 08bf 0ebf 94bd 7b9b 46be
00000050: c441 c1be 60ac 27bf 5599 87be 8bea ecbe
00000060: 4c62 2abd dbe8 3dbe 82b2 4dbe cc9e 99be
00000070: 847e 4b3f 7381 c2be 4a22 89bd a197 fcbd
00000080: 1ae8 12bf 5902 013e 2e9d 84be a308 01bf
00000090: c153 753f 6f2a 23bf 5982 40be 52ca b73f
000000a0: 8cd9 40bd a16a 393f 81c8 443e f881 bcbe
000000b0: 49cf 8cbe 42cf 673f 3327 a6bf 1b4f ebbd
000000c0: 4dfc 5abf d042 b6be 5877 303f cef4 cdbf
000000d0: 0984 d2bd 96e4 e93e 98e1 04be f7ab e0bd
000000e0: d895 c9bd 6b48 1ebe b786 b03d 580a 72be
000000f0: 293f 333f b9e0 3bbe 9cf5 68bf 4aad 4bbe
0.38209668 0.34592625 0.291732 -0.16950922 0.4814343 -0.32287046 -0.62008756 -0.09720403
-0.54833037 -0.21571812 -0.19757563 -2.135798 -0.1058592 0.35692313 -0.4665297 -0.47153747
0.020785825 -0.534568 -0.07263003 -0.19395249 -0.37745488 -0.654974 -0.2648417 -0.46272692
-0.04159765 -0.18545859 -0.20087627 -0.30003965 0.7948992 -0.37989387 -0.06695993 -0.123336084
-0.5738541 0.12598552 -0.2590117 -0.50403804 0.95830923 -0.63736624 -0.18799724 1.4358618
-0.04708247 0.7242833 0.19217111 -0.36817908 -0.27501896 0.90550625 -1.2980713 -0.114896975
-0.8554123 -0.3559785 0.68932104 -1.6090333 -0.1027909 0.4568221 -0.12976682 -0.109703
-0.098430336 -0.15457313 0.08619445 -0.23636758 0.7001825 -0.18347444 -0.9099977 -0.19890323

fc4.weight f4 [6, 64]
00000000: 8d66 b9bc 9249 6c3d 0e43 d13b f61f 35bc
00000010: 43bf 873d 3c00 273c 0aea afbc 3b46 433d
00000020: 3b56 be3e 9e81 323c 4c11 163c 2861 843c
00000030: 6982 51bd c1f0 afbc 41a9 9a3c 4f09 88bd
00000040: 9c12 cdbb 49e5 30bb 3a29 ccbc b6bf de3c
00000050: 6318 2dba a203 b03c 51d2 5a3d c53d ee3c
00000060: 11a1 d43d d197 423c aee3 35bd 6b80 693d
00000070: 54c6 813c 97b1 3abc 758d ccbc 0241 41bd
00000080: fcdd 033d 63a1 9d3c 561b adbc 86f0 9cbc
00000090: 4ab8 e2bc b1d7 70bc 6258 dd3c 98aa f4bc
000000a0: 67e3 88bc cbb8 c6bc 1f20 d9bc d06e 4dbc
000000b0: db53 d83c 3aa5 acbc aaec 9e3c ca19 d5ba
000000c0: 66e7 2abd 10e4 57bd e174 babc a5d7 b13c
000000d0: 5c67 b2bc a6c3 ee3c ec6c 07bd f640 5c3d
000000e0: 6f9f 1c3d c3c5 e93b 4781 c7bc 90fc 8d3d
000000f0: 7ba9 eb3c 5cb9 5abd b338 bc3c b21f a63d
00000100: 826e 97bc 1c9a 6a3d 9f86 1d3c 5559 4ebc
00000110: c9fa 8e3d c3e9 aa3c 9e2b d4bc b4ce 6aba
00000120: 6c52 c03e 1c89 5fbd 99d8 963d 50ed 773c
00000130: 0787 e5bc ba27 d3bc ecb1 bb3c 8121 8abd
00000140: 9065 a1bb 4884 42bd 1bc9 bcbc 7a65 683c
00000150: 8dca d23d 5c20 a53c b82c 533d ec4c d23c
00000160: cd7c ec3d d4d5 50bd 4b6f 40bd a2d4 713d
00000170: 676c 9a3c 93b6 aabc 74d6 babc d96e 9b3c
00000180: 2844 f53c 31a2 083d 231b f9bc 0de0 98bc
00000190: c128 e3bc 5f04 86bc f83e 373d e770 ffbc
000001a0: 3bf9 0c3a f1f2 c3bc e964 04bd c85b 57bc
000001b0: e1fc a83c b37d b6bc 7dd4 9f3c 6b20 1f3d
000001c0: fa4b 28bd 8338 46bd 39af b6bc 615b cd3c
000001d0: ecc1 c9bc b4c9 d83c 97a0 0ebd e167 653d
000001e0: 39a4 03bb 636d bbbd b94d 223d baa0 843d
000001f0: 95ce ed3c 0467 34bc 3e34 b43c bb6d 813d
00000200: 220a 00bd 9afc 6a3d 3f34 5dbd 4ab6 fbbc
00000210: e687 abbb 4f24 0f3c 4347 d1bc 1be9 90bd
00000220: d4d4 a03e 6846 e03c fa58 eb3c b24a 953c
00000230: a939 16bd 108c 663c 9f36 e23c 17c3 88bd
00000240: a87b d039 ba65 073d 2395 733c fe46 8d3c
00000250: 873f 8abc 53aa 863c 6714 663d dc9e 053d
00000260: a161 bebd b5ff fcbc 3486 15bc b99c 463d
00000270: 9639 15bd 6654 2dbc 4749 99bc d0f8 b1bd
00000280: baac ed3c 8a93 b53c a014 8dbc db97 a5bc
00000290: 1722 efbc 82f3 90bc 5e40 4bbd 6dd6 febc
000002a0: 715d 82bc 7b54 c3bc 8234 023d b970 24bc
000002b0: 0edb 953c fbf3 babc 3c3d 8d3c 387f 68bc
000002c0: 3a8f 20bd 35db 69bd 35a2 99bc 9999 b93c
000002d0: 332c c9bc 4609 d23a bc21 ccbc 4d77 92bc
000002e0: ee26 6cbc 0323 373d d49d 95bc e055 013d
000002f0: 8ad6 ed3c d195 813b eeba b13c 296e 413d
00000300: 8112 a7bb d108 703d de30 1d3c 9200 43bc
00000310: cde2 2cbc ca72 93bc 9be8 f2bc 24f1 09bd
00000320: 48ca ba3e 9373 643b e405 813d b2d6 5d3c
00000330: 09c3 0e3d a164 f5bc d851 cb3c 5706 7ebd
00000340: 75a9 91bb 41fe 2d3d 7400 22bd 84a9 ae3c
00000350: 9698 c03d 8b84 de3c 816d 543d 3820 f23c
00000360: 934c c8bc fa8a f6bc 9798 753c bf1c 6c3d
00000370: ddf7 a33c 3593 7abc cabd afbc 8eec 1ebd
00000380: d9f3 b53c f638 25bc b9f8 d2bc f906 86bc
00000390: 713e d8bc 1fdf 6dbc 32bb 4cbd 21d5 f6bc
000003a0: 49bc 18bc 6470 abbc 7faa fdbc 212e 4cbc
000003b0: 4bb0 5d3c 72b3 bbbc 58dc 9f3c 6145 82bd
000003c0: bd03 27bd 5891 1ebd 959c b7bc ae98 c43c
000003d0: 86ba c0bc f558 26bc bd26 f2bd 6739 b43a
000003e0: def9 013d b42d 5abd c6c9 39ba 41dd a83d
000003f0: f4b6 ce3c 49dd 1a3c 93ca b13c 57f4 6e3d
-0.022631908 0.05768735 0.0063861674 -0.011054983 0.06628277 0.010192927 -0.021473903 0.0476744
0.37175164 0.010895161 0.009159397 0.016159609 -0.05114976 -0.021477105 0.018879535 -0.066424005
-0.006258322 -0.0026992133 -0.024922002 0.027191024 -0.000660306 0.021486107 0.05342323 0.029082188
0.103822835 0.011877016 -0.044406585 0.057007235 0.01584164 -0.01139488 -0.024969796 -0.047181137
0.032194123 0.019241994 -0.021131199 -0.01915766 -0.027675766 -0.014699862 0.027019683 -0.029866502
-0.016709996 -0.024258038 -0.026504574 -0.012538627 0.026407173 -0.02107488 0.01939996 -0.0016258296
-0.041724585 -0.05270773 -0.02276081 0.021709273 -0.021777801 0.029146027 -0.03306286 0.05377289
0.038237985 0.0071341707 -0.024353636 0.06932938 0.028767338 -0.05339943 0.022976255 0.08111514
-0.018485311 0.057275876 0.009614616 -0.012594541 0.06981427 0.02086342 -0.025899705 -0.0008957193
0.37562883 -0.054574117 0.073655315 0.015132263 -0.028018488 -0.025775779 0.022911988 -0.067446716
-0.0049254373 -0.047489434 -0.023045113 0.01418435 0.1029254 0.020157032 0.05155632 0.025671445
0.11547241 -0.050985172 -0.046981137 0.059040673 0.018850518 -0.020839011 -0.022807337 0.018973755
0.029939726 0.033357803 -0.030408448 -0.018661523 -0.027729394 -0.016359506 0.044737786 -0.031181766
0.00053777144 -0.023919554 -0.032322798 -0.013144441 0.020628395 -0.022276735 0.019510502 0.038849276
-0.041088082 -0.048393738 -0.02230035 0.025067987 -0.024628602 0.026463367 -0.03482112 0.05600727
-0.0020086898 -0.09151723 0.039624903 0.06475969 0.02902917 -0.011010889 0.021997567 0.063197576
-0.031259663 0.057369806 -0.054004904 -0.03072657 -0.005234706 0.008736684 -0.025546676 -0.07075711
0.31412375 0.027377322 0.02872895 0.018224094 -0.036676083 0.014071479 0.027613936 -0.066778354
0.00039764983 0.033056 0.0148671 0.017245766 -0.016875995 0.016438639 0.0561718 0.032622203
-0.09295965 -0.03088365 -0.009126235 0.048489306 -0.03643187 -0.010579204 -0.0187117 -0.08690035
0.029013027 0.022165079 -0.017221749 -0.020214012 -0.02919106 -0.017694239 -0.049621932 -0.031108106
-0.015913697 -0.023843994 0.031788357 -0.010036641 0.01829293 -0.022821417 0.017241113 -0.014190488
-0.03919909 -0.057093818 -0.018754104 0.022656249 -0.024557209 0.0016024492 -0.02491843 -0.017879153
-0.014413578 0.044711124 -0.018263735 0.031576037 0.029032964 0.003954627 0.02169558 0.047224198
-0.0050986414 0.058602158 0.00959417 -0.011901991 -0.01055212 -0.017999072 -0.02965193 -0.033677235
0.36482453 0.0034858927 0.06299952 0.013539957 0.03485397 -0.02995521 0.0248193 -0.062017765
-0.0044452497 0.042478804 -0.039551213 0.021321066 0.094041035 0.02716281 0.051862244 0.029556379
-0.024450576 -0.030095566 0.014989994 0.057644602 0.020015651 -0.015293886 -0.021452803 -0.038799815
0.022211002 -0.010084381 -0.025753366 -0.016360747 -0.026396962 -0.014518528 -0.04998321 -0.030130925
-0.009322234 -0.020927615 -0.030965088 -0.01246217 0.013530801 -0.022912715 0.019514248 -0.06360889
-0.04077505 -0.03871283 -0.022413531 0.023998585 -0.023526441 -0.010153045 -0.11823795 0.0013750017
0.031732433 -0.053266242 -0.00070872565 0.08245326 0.025233723 0.009452173 0.02170304 0.05833849

fc4.bias f4 [6]
00000000: 6c36 67be 7388 65be f51c 58be e4fd 4ebe
00000010: 122e 63be cbf6 5cbe
-0.22579354 -0.22415332 -0.21104796 -0.20214039 -0.22185543 -0.21578519
