checkpoints/2021_02_06-18_51_04/best/best_dqn-Pong-ram-v0.pt (torch, 301239 bytes, 8 tensors)

fc1.weight f4 [256, 128]
-0.044443138 0.0029278256 -0.05039018 0.033332445 -0.08111442 0.05636795 -0.06424421 -0.078655116
-0.05830049 0.033207525 -0.03271931 0.033167094 -0.08341959 -0.05989866 -0.029854473 -0.02578651
-0.07582698 0.060022928 -0.023757407 0.022605758 0.06078231 0.008339019 0.024169859 0.07687632
-0.048267476 0.019567037 -0.048331466 0.054758806 0.062193077 -0.08989931 0.06705347 0.033798814
0.030117597 0.02798414 0.06507819 -0.02006992 -0.083148845 -0.03376218 -0.070648685 -0.0025561785
-0.024901967 -0.055840284 -0.016466493 0.0753272 -0.015384177 -0.005606184 -0.022185681 0.0054830397
0.07035479 0.04487961 0.02324625 0.011446611 0.012415942 0.025721986 -0.018674884 -0.0821489
-0.057558242 0.07544703 -0.0027266988 -0.080005884 0.0062254434 0.064607635 -0.09195211 -0.06790672
-0.03749254 -0.004852811 -0.029015224 -0.017871993 -0.09456917 0.033080447 0.0691834 0.04562885
-0.07098953 -0.07960248 0.0283043 -0.0064151157 0.027833981 -0.0863688 -0.0052699787 0.062335324
0.041004363 0.003227711 0.017378831 -0.008368615 -0.048598878 -0.03340189 -0.05382671 0.07341617
0.04863893 0.030911405 -0.06778082 0.06820238 0.027713522 0.061146583 -0.034771096 0.018738056
0.08630082 0.05945523 0.07088716 -0.018560207 0.06734107 -0.0692286 0.0076446165 -0.049767494
-0.020613506 -0.022636028 0.0066131353 0.080445744 0.043759648 -0.0003744326 0.06274208 -0.0452951
0.04555283 -0.008196487 -0.015380533 0.010347926 -0.06771402 0.01021392 0.029719522 0.075566
-0.0275191 0.023880238 0.07967069 -0.04633167 0.075622186 -0.052283335 0.0305571 0.026226891
0.01741678 0.06989778 -0.0361112 0.023230141 -0.0084608635 -0.07375303 -0.021461923 -0.06505548
0.010422562 -0.0045298208 -0.0017641523 -0.08294438 0.0056057144 -0.04520269 0.012516326 0.078579806
0.006115628 -0.027112043 -0.06697476 -0.0065007694 -0.06851719 -0.07472933 -0.05752994 -0.03729345
-0.00073031033 0.053592455 0.026960729 0.06044367 -0.062771365 0.00018629592 -0.08583895 0.04343196
0.011148363 0.07821823 -0.07013527 0.06360899 0.067347504 0.064191274 0.0053399955 0.0730974
0.051756233 0.0586723 -0.0130144395 -0.07510141 -0.008372499 0.00930353 -0.06747998 -0.057975672
-0.092014275 -0.039015483 0.06870009 0.008982678 -0.012671431 -0.003723147 0.046463367 -0.07805253
-0.0716268 -0.029386511 -0.052513532 0.038316704 0.05622155 -0.093029164 -0.0822859 -0.09334641
0.028606731 0.063867494 -0.075803295 -0.042444494 0.020854425 -0.06579507 0.06781184 0.0132465055
-0.031878468 -0.001767531 0.02028411 -0.038527913 -0.07576048 0.0005941125 0.0016099885 0.0017823691
-0.012898537 0.056751817 -0.02466558 -0.008555346 0.036344197 -0.055634923 0.023666741 -0.019544052
0.042397548 -0.04794753 0.0032666863 0.008646973 -0.071116954 -0.0642709 0.033898108 -0.025726004
0.052493542 -0.08731554 -0.04369289 -0.07280211 0.035308618 -0.0025624968 -0.016486319 -0.014705288
-0.06908865 0.02506649 0.0022031527 -0.06099794 0.033259448 -0.0017765212 -0.08548458 0.04754588
0.047277782 -0.016653262 -0.061026685 0.0035487963 0.06669606 0.08090537 -0.06671561 -0.039922275
0.068821326 0.04645993 0.047341656 -0.05126656 0.06887729 -0.079933345 -0.011530174 -0.0054373937
00000000: 020a 36bd c3e0 3f3b ef65 4ebd 9a87 083d
00000010: 511f a6bd 14e2 663d 7892 83bd ef15 a1bd
00000020: 7fcc 6ebd 9d04 083d af04 06bd 38da 073d
00000030: e4d7 aabd 4c58 75bd 5e91 f4bc 3b3e d3bc
00000040: 2d4b 9bbd 9ada 753d e59e c2bc b62f b93c
00000050: dff6 783d 61a0 083c deff c53c 5571 9d3d
00000060: 1eb4 45bd 0d4b a03c 37f7 45bd c54a 603d
00000070: 2bbe 7e3d 211d b8bd 5453 893d a070 0a3d
00000080: 2eb9 f63c ff3e e53c b747 853d ac69 a4bc
00000090: f149 aabd 364a 0abd 42b0 90bd 8f85 27bb
000000a0: 36ff cbbc c8b8 64bd bde4 86bc 2645 9a3d
000000b0: ea0d 7cbc 14b4 b7bb bfbe b5bc 12ab b33b
000000c0: 2c16 903d afd3 373d eb6e be3c 918a 3b3c
000000d0: 3c6c 4b3c eab6 d23c 12fc 98bc af3d a8bd
000000e0: 31c2 6bbd f983 9a3d 6ab2 32bb 20da a3bd
000000f0: cefe cb3b 0251 843d 6351 bcbd ae12 8bbd
00000100: c791 19bd 5404 9fbb 56b1 edbc 4968 92bc
00000110: 7bad c1bd 5d7f 073d 07b0 8d3d 51e5 3a3d
00000120: f562 91bd a006 a3bd 6bde e73c e435 d2bb
00000130: 1704 e43c 20e2 b0bd c9af acbb 5353 7f3d
00000140: 31f4 273d 0188 533b 0d5e 8e3c 841c 09bc
00000150: 9e0f 47bd 6cd0 08bd 6579 5cbd 385b 963d
00000160: 9d39 473d ea39 fd3c acd0 8abd b0ad 8b3d
00000170: 7807 e33c d774 7a3d 236c 0ebd 8d80 993c
00000180: 7cbe b03d 5487 733d 4a2d 913d 930b 98bc
00000190: 1dea 893d b9c7 8dbd b17f fa3b 00d9 4bbd
000001a0: a8dd a8bc 316f b9bc 00b3 d83b bdc0 a43d
000001b0: 513d 333d 7e4f c4b9 eb7e 803d 5b87 39bd
000001c0: 9b95 3a3d 8f4a 06bc a2fe 7bbc 598a 293c
000001d0: a6ad 8abd 4958 273c 5b76 f33c 59c2 9a3d
000001e0: bc6f e1bc 7da0 c33c 632a a33d 47c6 3dbd
000001f0: cedf 9a3d 0d27 56bd e252 fa3c c7d9 d63c
00000200: a3ad 8e3c 9126 8f3d 56e9 13bd 234d be3c
00000210: 6f9f 0abc d40b 97bd ead0 afbc cf3b 85bd
00000220: 65c3 2a3c e46e 94bb 213b e7ba bede a9bd
00000230: 24b0 b73b 7526 39bd 4711 4d3c 73ee a03d
00000240: 9b65 c83b 131a debc 102a 89bd 6804 d5bb
00000250: be52 8cbd b10b 99bd 84a4 6bbd 04c1 18bd
00000260: 4c72 3fba c383 5b3d bfdc dc3c c893 773d
00000270: 468e 80bd 6e58 4339 55cc afbd b6e5 313d
00000280: a0a7 363c e130 a03d 15a3 8fbd 6e45 823d
00000290: 7ded 893d b776 833d 21fb ae3b 17b4 953d
000002a0: 58fe 533d 5e52 703d 843a 55bc c5ce 99bd
000002b0: ce2c 09bc d56d 183c f232 8abd e677 6dbd
000002c0: fb71 bcbd b3ce 1fbd a2b2 8c3d 152c 133c
000002d0: d59b 4fbc 0b00 74bb 5f50 3e3d 01da 9fbd
000002e0: 12b1 92bd fbbb f0bc 6e18 57bd faf1 1c3d
000002f0: 9148 663d 1386 bebd 8385 a8bd 672c bfbd
00000300: aa58 ea3c f6cc 823d c23e 9bbd 47da 2dbd
00000310: e6d6 aa3c 91bf 86bd efe0 8a3d df07 593c
00000320: ff92 02bd 80ac e7ba dd2a a63c 72cf 1dbd
00000330: 4f28 9bbd 37be 1b3a 4006 d33a 629e e93a
00000340: 6354 53bc 9874 683d 780f cabc b92b 0cbc
00000350: a7dd 143d 72e1 63bd c1e0 c13c d91a a0bc
00000360: 0da9 2d3d a164 44bd e715 563b 09ac 0d3c
00000370: c4a5 91bd 76a0 83bd bed8 0a3d 57bf d2bc
00000380: 7803 573d 7dd2 b2bd 51f7 32bd 4619 95bd
00000390: c59f 103d 90ef 27bb 510e 87bc 73ee 70bc
000003a0: 5a7e 8dbd 3d58 cd3c c562 103b fad8 79bd
000003b0: 0f3b 083d 29da e8ba 8a12 afbd 78bf 423d
000003c0: 59a6 413d 6c6c 88bc 1ef7 79bd ec92 683b
000003d0: f297 883d b7b1 a53d 32a2 88bd 8a85 23bd
000003e0: 32f2 8c3d c44c 3e3d 53e9 413d e2fc 51bd
000003f0: 890f 8d3d 18b4 a3bd 0ee9 3cbc 2a2c b2bb

fc1.bias f4 [256]
0.041301847 -0.05201072 -0.09309186 -0.03255488 0.045440774 -0.04049175 0.027273774 -0.0116238585
-0.035516 -0.06886298 -0.035437547 -0.09323223 -0.055131633 -0.0032258208 0.06945399 -0.06013959
-0.003998042 -0.069277294 0.05149271 0.0660426 -0.022933468 0.0020532897 -0.11246344 -0.0019804372
0.04159643 -0.010227596 0.06979071 -0.059779532 0.06797207 0.0645018 0.070847616 0.0056763245
-0.058307726 0.004710634 0.009896983 -0.0177956 -0.086317636 -0.046092104 -0.0324783 0.032268222
-0.031256374 -0.15743025 0.046663694 0.046227653 0.039671168 0.016468406 -0.07272539 -0.06984547
-0.06943147 0.05522522 0.0411885 0.044152014 -0.07172612 -0.025988113 0.031749286 0.078983426
-0.011538609 -0.07874566 -0.08473336 0.035604406 0.009156982 -0.043859307 0.05310397 -0.101092845
0.057197925 -0.003653929 -0.022281384 -0.065836735 -0.044014055 0.043228064 -0.03979744 0.06798438
-0.06404103 -0.031301346 -0.02427375 0.058582895 0.0063265283 0.01822712 -0.114176296 0.042292897
0.069884874 -0.029042194 0.040523082 0.028290669 -0.020936657 0.023746653 -0.041463256 -0.02247259
-0.071944326 -0.07848662 0.0872864 -0.06499088 0.041153684 0.0035384716 -0.042462327 -0.034096472
-0.0713032 0.06913268 -0.0719006 0.021274062 -0.065002054 0.04701897 -0.014458635 -0.03391694
-0.008246585 0.0568226 0.009763549 -0.09124691 0.0013143705 -0.07558896 0.08330201 -0.1426038
0.123407364 -0.053184234 -0.019010074 0.09142572 -0.031019133 0.034772694 0.057452515 -0.022634264
0.073201686 -0.07130146 -0.031562213 0.037418056 0.0005977485 -0.08621087 0.043037076 -0.00041104533
-0.06957933 -0.075240105 -0.09995022 0.028286144 0.023898832 -0.087751 -0.03945989 -0.08554397
-0.05214537 0.042487938 0.020771895 -0.05806745 -0.026747031 -0.046053775 0.022017442 -0.002770622
0.011869617 0.032487117 0.0054310434 -0.09950662 0.070836954 0.08431042 0.01933395 -0.10301264
0.0032831307 0.066534154 0.009875434 -0.020852922 0.056902293 -0.10464967 0.06357579 0.07381561
-0.055385593 0.038994662 0.013961139 -0.09255189 -0.004081066 -0.034329068 0.0052312985 0.07114023
-0.13167492 0.025384039 -0.06807258 0.0732798 0.07588255 -0.054447163 0.024264637 -0.044458833
-0.03060212 0.07962348 0.0020531588 -0.027199138 0.080138505 0.05368377 -0.012014641 -0.010654974
-0.07872919 -0.13677394 -0.061958935 -0.07883488 -0.0568196 0.0006208173 0.055524852 0.07350887
0.056774657 -0.050146796 -0.020833613 -0.045881137 -0.008494932 -0.07419294 0.01986217 0.039850995
-0.057051193 0.05143407 0.059332725 -0.022394333 -0.08515592 -0.062414225 0.07935907 0.016708681
-0.038337912 -0.059713222 -0.009037366 0.01262904 0.030507127 0.056773875 -0.044293284 -0.038004372
-0.0867972 -0.009888931 0.035799876 -0.040480383 0.0045021893 -0.035124842 -0.03505997 0.07169592
-0.092424095 0.01016077 0.009598939 -0.070831135 -0.044619847 0.003500391 -0.014883259 0.054129202
-0.089882575 -0.03426735 0.026463289 -0.07192801 0.021686759 -0.08026197 -0.023284046 0.032484308
-0.010185313 0.014948933 -0.056560334 -0.023403207 0.05727966 -0.0816568 -0.082036205 -0.020193093
-0.02951608 -0.07392789 -0.041425705 0.04406609 -0.08844845 0.0752642 0.10538578 0.07005128
00000000: 202c 293d 3109 55bd f2a6 bebd 4458 05bd
00000010: 1b20 3a3d adda 25bd 406d df3c ff71 3ebc
00000020: 3a79 11bd 0908 8dbd f626 11bd 8af0 bebd
00000030: b5d1 61bd 4b68 53bb e53d 8e3d ee54 76bd
00000040: 0202 83bb 41e1 8dbd 05ea 523d 5841 873d
00000050: f8de bbbc 7c90 063b 3b53 e6bd 39ca 01bb
00000060: 0561 2a3d a691 27bc 6fee 8e3d 62db 74bd
00000070: f134 8b3d 8519 843d 8e18 913d 7600 ba3b
00000080: 15d4 6ebd a95b 9a3b f526 223c 14c8 91bc
00000090: 4dc7 b0bd 13cb 3cbd f707 05bd af2b 043d
000000a0: af06 00bd 6535 21be 6e22 3f3d 3559 3d3d
000000b0: 3c7e 223d c0e8 863c 0df1 94bd 240b 8fbd
000000c0: 1632 8ebd d733 623d 46b5 283d bed8 343d
000000d0: 25e5 92bd 06e5 d4bc 8a0b 023d 10c2 a13d
000000e0: 6f0c 3dbc 6845 a1bd af88 adbd edd5 113d
000000f0: 2b07 163c d1a5 33bd 8c83 593d c409 cfbd
00000100: 5f48 6a3d c276 6fbb 7387 b6bc 69d5 86bd
00000110: 1548 34bd e90f 313d a402 23bd 653b 8b3d
00000120: f227 83bd d735 00bd bed9 c6bc 9ef4 6f3d
00000130: c44e cf3b 0b51 953c 43d5 e9bd 513b 2d3d
00000140: cd1f 8f3d e5e9 edbc 88fb 253d d5c1 e73c
00000150: 5a83 abbc 5788 c23c 60d5 29bd 7018 b8bc
00000160: 8c57 93bd 98bd a0bd 36c3 b23d f019 85bd
00000170: c490 283d b4e5 673b faec 2dbd bea8 0bbd
00000180: 6a07 92bd 6f95 8d3d 9f40 93bd f146 ae3c
00000190: cc1f 85bd f796 403d e9e3 6cbc 7dec 0abd
000001a0: af1c 07bc d1be 683d 4bf7 1f3c a9df babd
000001b0: f546 ac3a 62ce 9abd 3f9a aa3d bb06 12be
000001c0: 00bd fc3d b6d7 59bd 04bb 9bbc 683d bb3d
000001d0: d61b febc d06d 0e3d 5453 6b3d 7e6b b9bc
000001e0: c4ea 953d 8006 92bd 6147 01bd ad43 193d
000001f0: 39b2 1c3a 538f b0bd a547 303d 9281 d7b9
00000200: 9c7f 8ebd 7c17 9abd b3b2 ccbd 58b8 e73c
00000210: 7cc7 c33c ccb6 b3bd b2a0 21bd ad31 afbd
00000220: 6296 55bd d507 2e3d d229 aa3c 22d8 6dbd
00000230: 971c dbbc e2a2 3cbd ec5d b43c 5393 35bb
00000240: c878 423c 3611 053d e5f6 b13b 20ca cbbd
00000250: f712 913d f1aa ac3d 3b62 9e3c 4af8 d2bd
00000260: cb29 573b 0f43 883d 93cc 213c bfd3 aabc
00000270: 6112 693d 9152 d6bd 0634 823d a32c 973d
00000280: 01dc 62bd deb8 1f3d 43bd 643c d88b bdbd
00000290: 77ba 85bb a39c 0cbd 506b ab3b f8b1 913d
000002a0: cad5 06be 30f2 cf3c a369 8bbd b813 963d
000002b0: 4f68 9b3d fd03 5fbd a2c6 c63c 771a 36bd
000002c0: 4cb1 fabc a311 a33d 4a8e 063b bad0 debc
000002d0: a81f a43d 83e3 5b3d 0fd9 44bc 3392 2ebc
000002e0: c53c a1bd 780e 0cbe a7c8 7dbd 2e74 a1bd
000002f0: abbb 68bd 58be 223a 076e 633d d28b 963d
00000300: 8b8c 683d ba66 4dbd 41ab aabc dced 3bbd
00000310: 542e 0bbc 78f2 97bd fdb5 a23c cc3a 233d
00000320: 83ae 69bd 88ac 523d df06 733d 5274 b7bc
00000330: 3a66 aebd 0fa6 7fbd 0287 a23d a5e0 883c
00000340: 3708 1dbd da95 74bd 7611 14bc 08ea 4e3c
00000350: 15ea f93c b98b 683d e06c 35bd 79aa 1bbd
00000360: bbc2 b1bd 2f05 22bc e4a2 123d c2ce 25bd
00000370: 1a87 933b 11df 0fbd 0b9b 0fbd 4fd5 923d
00000380: d848 bdbd 5c79 263c de44 1d3c ea0f 91bd
00000390: 4dc3 36bd d166 653b ead8 73bc 95b6 5d3d
000003a0: 5b14 b8bd ec5b 0cbd 8ac9 d83c fe4e 93bd
000003b0: 6ea8 b13c 6360 a4bd 2fbe bebc 440e 053d
000003c0: 4de0 26bc 5fec 743c cfab 67bd 15b8 bfbc
000003d0: 149e 6a3d ae3b a7bd 9902 a8bd fc6b a5bc
000003e0: b5cb f1bc 8167 97bd 00ae 29bd a57e 343d
000003f0: 7624 b5bd 1e24 9a3d 80d4 d73d 0c77 8f3d

fc2.weight f4 [128, 256]
0.026852444 -0.0016569903 -0.029933546 0.010743922 0.05619324 -0.0069921836 0.014991222 -0.026306568
-0.031400964 0.05392905 -0.009189394 -0.004374656 0.011362704 -0.0076576998 0.042533077 0.0608219
0.04909499 0.025001634 -0.0594246 0.010502987 0.032492496 -0.03311038 0.0097126225 -0.0006026955
0.02934084 -0.05839386 -0.003053978 -0.023385752 -0.05730361 0.00789196 0.006148182 0.040022634
-0.009663023 0.017945088 -0.045471113 0.0515083 -0.016693458 0.004066132 -0.021163642 -0.005678477
0.03721495 0.0033003096 0.056565218 0.0198709 0.0010327363 -0.058314912 -0.0009027088 -0.04212103
-0.018553432 0.021139558 -0.022808788 0.048469916 -0.050645687 -0.01711823 0.026385177 -0.062129535
-0.0132938735 -0.03504768 0.022619208 0.03178601 -0.030478016 -0.042461794 0.023850055 -0.038434196
0.056951493 0.055046387 -0.017709693 -0.04991192 -0.080293946 -0.030813158 0.015622754 0.01035805
0.013892527 -0.015830213 -0.05562768 -0.023786724 0.040182117 0.028153345 0.0147847235 -0.017572977
-0.050727922 -0.049992077 -0.037303437 0.03463 0.01701498 -0.06554971 -0.06891751 -0.020869702
-0.056199126 -0.020585306 -0.011933317 -0.014849551 -0.091254316 0.017112814 0.017686427 -0.052486032
0.012268682 0.051995873 -0.047998358 -0.05492251 0.040348448 0.050938897 -0.0132703185 -0.04995948
0.00024279427 0.05986844 -0.050464302 -0.058637124 -0.024266511 0.016471002 -0.006877236 -0.057072587
-0.006438685 -0.0045647994 -0.003310769 0.010489347 -0.03972823 -0.031559274 -0.0075601498 0.016104322
-0.026876986 -0.050505858 -0.0540829 -0.020572424 -0.00595068 -0.03027685 0.025537692 0.022847347
0.03888616 -0.0578471 0.027508428 -0.032837052 0.052861392 -0.0015194714 0.0031910967 -0.062170006
-0.033316202 -0.031844925 -0.004644011 -0.045269504 0.029191997 0.009348967 0.023111017 -0.0506767
0.051433735 -0.020367078 -0.04571275 -0.007728982 -0.023863852 0.047808096 -0.043241598 -0.016757322
-0.025983337 -0.050543964 -0.03839717 0.013013419 0.034772545 -0.07017911 -0.036308706 -0.060876943
0.029612064 -0.022945903 -0.022771835 0.022056205 -0.042907413 -0.04230349 0.056500338 -0.029482523
-0.002560989 0.018476289 -0.005305292 0.050707534 -0.055294365 -0.04037521 0.028235504 -0.055735856
-0.043153882 0.032153595 -0.020911645 0.061222352 0.020308517 -0.030556772 0.049726065 -0.031509224
-0.00024666335 -0.05715167 -0.015005648 0.037336327 0.021868069 -0.053679496 0.045685954 0.02902129
-0.012529897 0.004142915 0.028734412 0.042615693 -0.003147928 0.050281424 -0.007833733 -0.013107017
0.026574492 -0.060909994 0.01962092 -0.046955973 -0.058450803 0.04959243 -0.055905215 -0.03812571
0.034650855 -0.032031447 -0.008254689 -0.042289954 0.050326172 0.038482893 0.03528553 0.018569434
-0.059119336 -0.0423553 0.008750697 0.03511052 -0.025723062 -0.0070041493 0.027622305 0.019824743
-0.009363443 0.009273779 -0.049642153 -0.028172897 -0.021045998 -0.051347904 0.021582037 -0.045893606
-0.05283133 -0.016436933 -0.062467106 -0.05572565 0.015375779 -0.008899502 0.004832471 0.05657568
-0.07272673 0.04017914 -0.061690126 -0.04423581 -0.012229785 0.027953722 0.020746589 0.055009983
0.050263636 -0.04589655 0.05613163 0.017399624 0.020576064 0.060884602 -0.016770365 -0.029520683
00000000: a8f9 db3c 5e2f d9ba 3237 f5bc 4607 303c
00000010: e22a 663d b01e e5bb be9d 753c df80 d7bc
00000020: 4c9e 00bd b5e4 5c3d 1d8f 16bc 4659 8fbb
00000030: a32a 3a3c 71ed fabb 2a37 2e3d 6220 793d
00000040: d417 493d 3ad0 cc3c 3667 73bd b814 2c3c
00000050: da16 053d c09e 07bd b121 1f3c 36fe 1dba
00000060: 345c f03c 662e 6fbd 4025 48bb 7a93 bfbc
00000070: 31b7 6abd 484d 013c b076 c93b c6ee 233d
00000080: a851 1ebc 9401 933c eb3f 3abd 5efa 523d
00000090: b8c0 88bc 303d 853b 605f adbc 8512 babb
000000a0: b46e 183d 024a 583b eeb0 673d 4cc8 a23c
000000b0: e15c 873a 9edb 6ebd c3a3 6cba 1a87 2cbd
000000c0: 5efd 97bc de2c ad3c 7fd9 babc 6488 463d
000000d0: da71 4fbd 883b 8cbc ba25 d83c 8a7b 7ebd
000000e0: 8cce 59bc 288e 0fbd eb4b b93c 0c32 023d
000000f0: 08ad f9bc 6bec 2dbd 3161 c33c 2d6d 1dbd
00000100: f845 693d 5278 613d eb13 91bc 7170 4cbd
00000110: 2771 a4bd e06b fcbc 94f6 7f3c d0b4 293c
00000120: 7b9d 633c 5dae 81bc dad9 63bd 60dc c2bc
00000130: 0196 243d d8a1 e63c a03b 723c 34f5 8fbc
00000140: 15c8 4fbd 7ec4 4cbd 7dcb 18bd 30d8 0d3d
00000150: 0063 8b3c ed3e 86bd a024 8dbd f0f6 aabc
00000160: 0e31 66bd 84a2 a8bc f683 43bc 884b 73bc
00000170: 8be3 babd 2c30 8c3c 20e3 903c 98fb 56bd
00000180: 9502 493c a0f9 543d ed99 44bd 6df6 60bd
00000190: 6a44 253d 4ea5 503d c06b 59bc 50a2 4cbd
000001a0: 9796 7e39 9c38 753d a8b3 4ebd 7b2d 70bd
000001b0: 90ca c6bc 32ee 863c 705a e1bb f2c4 69bd
000001c0: 9bfb d2bb 5094 95bb 7df9 58bb 83db 2b3c
000001d0: 12ba 22bd 4c44 01bd 22bb f7bb 36ed 833c
000001e0: 202d dcbc 3bdf 4ebd 0886 5dbd 8087 a8bc
000001f0: ecfd c2bb 2807 f8bc 6c34 d13c 5c2a bb3c
00000200: 1847 1f3d 15f1 6cbd 5b59 e13c 2580 06bd
00000210: 3085 583d 0029 c7ba b821 513b faa5 7ebd
00000220: 9276 08bd d36f 02bd ca2c 98bb 846c 39bd
00000230: 0e24 ef3c 692c 193c 5153 bd3c 5f92 4fbd
00000240: 2eac 523d dcd8 a6bc 4b3d 3bbd 6643 fdbb
00000250: 207e c3bc 6cd2 433d 1a1e 31bd a746 89bc
00000260: 02db d4bc 3007 4fbd 5a46 1dbd 3c36 553c
00000270: a86d 0e3d 11ba 8fbd 70b8 14bd 1a5a 79bd
00000280: 0095 f23c 0cf9 bbbc 008c babc 37af b43c
00000290: afbf 2fbd 6d46 2dbd e66c 673d 5585 f1bc
000002a0: 44d6 27bb 965b 973c 04d8 adbb b4b2 4f3d
000002b0: 587c 62bd 7a60 25bd 254e e73c 484b 64bd
000002c0: 20c2 30bd 7db3 033d e64e abbc 4ac4 7a3d
000002d0: 0c5e a63c 3252 fabc 8fad 4b3d d10f 01bd
000002e0: 9852 81b9 df17 6abd 40da 75bc faed 183d
000002f0: aa24 b33c 08df 5bbd 3221 3b3d 0ebe ed3c
00000300: 324a 4dbc 4ac1 873b 6e64 eb3c cb8d 2e3d
00000310: 784d 4ebb e5f3 4d3d 0f59 00bc d0be 56bc
00000320: c0b2 d93c c27c 79bd 0dbc a03c e854 40bd
00000330: 1c6a 6fbd 6f21 4b3d defc 64bd b429 1cbd
00000340: 0eee 0d3d 6833 03bd ad3e 07bc 3b38 2dbd
00000350: d122 4e3d 3da0 1d3d 8f87 103d ed1e 983c
00000360: 1e27 72bd c07c 2dbd 155f 0f3c 0cd0 0f3d
00000370: 2cb9 d2bc 1083 e5bb 2c48 e23c 8067 a23c
00000380: 2069 19bc 0cf1 173c 9255 4bbd d9ca e6bc
00000390: a868 acbc 2e52 52bd d0cc b03c effa 3bbd
000003a0: aa65 58bd bfa6 86bc 82dd 7fbd 9440 64bd
000003b0: b1ea 7b3c 38cf 11bc b459 9e3b e6bb 673d
000003c0: c0f1 94bd e292 243d c9ae 7cbd 9c30 35bd
000003d0: 705f 48bc 34ff e43c c0f4 a93c 2652 613d
000003e0: 3ee1 4d3d 05fe 3bbd 48ea 653d a889 8e3c
000003f0: 228f a83c 2262 793d 0162 89bc 5cd5 f1bc

fc2.bias f4 [128]
-0.03566758 -0.0004859425 -0.18980888 0.016874066 -0.01692366 -0.32234144 0.53599685 -0.3206648
0.01076083 -0.19365817 -0.40617642 -0.35865414 -0.023427073 0.0032029366 -0.18677281 -0.027665049
-0.04059339 0.012546579 -0.63560617 -0.024724947 -0.8021987 -0.09554269 -0.040359203 0.27630046
-0.032100923 -0.050002795 -0.427306 -0.3825328 -0.2551837 0.009296146 0.001175938 -0.034137566
0.00949656 0.05355335 -0.029272733 0.15217325 -0.2625627 -0.15407252 -0.08046876 -0.0063144322
-0.6343042 -0.013386532 -0.020524096 0.0060070064 -0.44807234 0.011577 -0.05632788 -0.39259076
0.4966722 0.30846253 0.015888996 -0.048103247 -0.014720428 -0.014876732 -0.011606583 -0.08545919
-0.2849635 -0.37684858 0.19255456 -0.04169444 0.0022723298 -0.2640625 0.01779269 0.2997639
-0.08435045 -0.27568924 0.3185414 -0.030174838 0.5403412 0.33946913 0.031220783 -0.0040858146
-0.023042686 0.1368424 -0.6758361 -0.060832612 -0.029280925 -0.065326355 0.26569068 -0.06353363
-0.05575523 -0.43086308 0.033343155 -0.059418168 -0.05544041 -0.81029433 -0.14939503 0.030288637
0.040465668 -0.8959466 -0.100017495 -0.045953274 -0.08604496 0.20694214 0.30356592 -0.031734828
-0.010571057 -0.13520661 -0.043017704 0.011275501 -0.06899321 -0.37274325 -0.49532163 0.015384241
-0.009039044 -0.12280937 -0.34019506 -0.016949195 -0.20772226 -0.21020404 -0.08810144 -0.58163434
0.1288126 -0.07466611 -0.61998266 -0.018566845 0.49907425 -0.10701384 -0.4044445 -0.08014796
-0.36591956 0.37806317 0.0059072315 0.00785993 0.74878377 -0.14207795 0.24501327 0.030801691
00000000: 2b18 12bd 19c6 feb9 425d 42be 7b3b 8a3c
00000010: 7da3 8abc f009 a5be 1737 093f 2d2e a4be
00000020: 314e 303c 544e 46be 5bf6 cfbe 84a1 b7be
00000030: 22ea bfbc 5ce8 513b 5f41 3fbe d0a1 e2bc
00000040: 4145 26bd 2b90 4d3c 16b7 22bf f98b cabc
00000050: e55c 4dbf e3ab c3bd b14f 25bd 4177 8d3e
00000060: 427c 03bd bbcf 4cbd dac7 dabe 57db c3be
00000070: 70a7 82be dd4e 183c ef21 9a3a d5d3 0bbd
00000080: 7697 1b3c c25a 5b3d 5fcd efbc 4ed3 1b3e
00000090: 9e6e 86be 30c5 1dbe cecc a4bd 4ce9 cebb
000000a0: c361 22bf 2f53 5bbc 2622 a8bc 6cd6 c43b
000000b0: bd69 e5be 75ad 3d3c 10b8 66bd a801 c9be
000000c0: d24b fe3e cdee 9d3e a429 823c e907 45bd
000000d0: f32d 71bc 89bd 73bc 8a29 3ebc 3a05 afbd
000000e0: bce6 91be 4cf2 c0be 062d 453e cac7 2abd
000000f0: 5eeb 143b 3333 87be fac1 913c a77a 993e
00000100: eebf acbd 2427 8dbe dc17 a33e 3931 f7bc
00000110: cd53 0a3f e6ce ad3e bac2 ff3c 4ce2 85bb
00000120: 04c4 bcbc 6a20 0c3e 9803 2dbf 9e2b 79bd
00000130: 8dde efbc d3c9 85bd 9c08 883e eb1d 82bd
00000140: 995f 64bd 169a dcbe d592 083d 7760 73bd
00000150: 7c15 63bd 736f 4fbf 03fb 18be e01f f83c
00000160: 54bf 253d c25c 65bf f9d5 ccbd 8039 3cbd
00000170: 5738 b0bd a4e8 533e fe6c 9b3e 61fc 01bd
00000180: 3a32 2dbc 9a73 0abe 5533 30bd e1bc 383c
00000190: 504c 8dbd 34d8 bebe cc9a fdbe 2f0e 7c3c
000001a0: 8018 14bc 7b83 fbbd 0c2e aebe 0ad9 8abc
000001b0: 25b5 54be ba3f 57be 876e b4bd fde5 14bf
000001c0: 73e7 033e 8cea 98bd 2fb7 1ebf 7f19 98bc
000001d0: a986 ff3e 122a dbbd 5913 cfbe 9d24 a4bd
000001e0: cf59 bbbe 7f91 c13e 7391 c13b f0c6 003c
000001f0: 4bb0 3f3f e27c 11be c2e4 7a3e d453 fc3c

fc3.weight f4 [64, 128]
0.00783576 -0.019540079 -0.076771915 0.079210624 -0.033493694 -0.07269333 0.0931093 0.09204222
-0.08047625 -0.0052984566 -0.33542597 -0.7950956 0.00871191 0.03411214 -0.026672626 -0.049201734
0.016969359 -0.06429885 0.004673297 0.029886378 -0.18905589 0.0075282645 -0.036379673 -0.061371014
-0.04721948 0.0016836735 -0.09816704 0.018508738 -0.14263116 -0.004636951 -0.19416617 0.046839025
-0.035892952 -0.074792795 0.09029541 -0.018543933 -0.82671946 -0.72039956 0.055491287 -0.07520597
0.07281431 -0.069827445 0.054450072 0.024531398 0.0594002 0.07468589 0.02039987 0.06910618
0.017003559 -0.11048399 -0.010690249 -0.049375396 -0.026128793 0.01662401 0.04310875 -0.02764051
-0.037969496 -0.041291706 0.016407415 0.18448997 -0.06824572 -0.16422409 -0.010938741 0.17184885
-0.032702014 -0.090178646 0.026604831 0.0822077 -0.07866082 0.04768757 -0.016393518 -0.041259836
-0.015094597 -0.07012649 -0.30507544 0.10298849 0.028363101 0.039383873 0.1672336 -0.078138724
-0.010373277 -0.11748617 0.06517269 0.08073604 0.012639766 -0.18220665 0.16195004 -0.06316948
0.020782245 -0.107784726 -0.008246919 0.046853617 0.074167795 0.027340427 -0.03702489 0.06515102
0.0024700076 -0.11721228 -0.01247398 -0.24774763 0.04132552 -0.039299224 -0.04006733 -0.021539735
0.014840208 -0.08775539 0.098982215 0.03424827 0.049972594 -0.20689856 -0.07588803 -0.19337103
0.09470907 -0.029027147 -0.09852548 0.009499957 0.20248534 -0.12855507 -0.084171444 0.020272112
-1.2460333 -0.13928893 -0.03524742 -0.034512177 -0.029932654 0.09025306 -0.23429865 -0.0204779
0.027634714 0.074964896 -0.048633303 -0.0029517177 -0.060476437 -0.15174675 -0.17809837 -0.12045707
-0.011644251 0.12796053 0.08461991 0.055990636 0.058564793 0.05823068 0.13212878 -0.045761906
0.0025212092 -0.029953564 -0.014544004 -0.01905145 0.05649406 0.068481825 -0.04716317 -0.02864319
0.05280131 -0.0774785 0.021842206 0.0018841972 0.050246336 -0.16388851 -0.7410551 -0.056330748
-0.036362033 0.064144164 0.0024149574 -0.020526888 -0.06987654 0.09439776 0.016915444 0.079415955
-0.72144836 0.0033558584 0.15926097 0.05068331 -0.33366126 0.07767755 0.027738914 -0.57034534
0.23922133 -0.16328937 -0.16743974 -0.00036297413 0.059509933 0.040928323 -0.053204335 -0.08779339
0.08180091 -0.33047262 -0.13226742 -0.011374625 -0.035862446 -0.13519171 0.050251417 -1.3399646
0.025852572 -0.015926966 -0.13904539 -0.18699615 -0.21544543 -0.0040194904 0.05106774 0.069670565
-0.056235645 -0.17544103 -0.45450342 0.35639516 0.03148144 0.0760694 -0.26747403 -0.0816993
0.04920818 0.019038927 0.024284644 -0.1378383 -0.3038101 0.0004908695 -0.5473076 -0.020265874
-0.01945579 -0.15002774 0.0008899459 -0.023541195 -0.027472842 -0.04788755 -0.027405811 -0.03224604
0.025454259 -0.15945488 -0.06537774 -0.37097135 -0.030000452 -0.08375888 -0.06952911 -0.018129406
-0.060644556 0.04519789 0.08595066 -0.028365256 -0.018462598 -0.039276533 -0.118295245 0.16290788
-0.44717205 0.024351701 -0.41495487 0.010344005 -0.009362801 -0.06971381 -0.23603691 -0.04960647
0.058444135 -0.18639262 -0.011596351 -0.05301954 -0.08382601 0.06088016 -0.003149749 0.002306554
00000000: 8f61 003c 8412 a0bc 983a 9dbd 2e39 a23d
00000010: af30 09bd 3ee0 94bd 17b0 be3d a280 bc3d
00000020: bbd0 a4bd ad9e adbb f4bc abbe 638b 4bbf
00000030: 66bc 0e3c 2cb9 0b3d 8d80 dabc c287 49bd
00000040: 5303 8b3c 1eaf 83bd 7522 993b 47d4 f43c
00000050: de97 41be a9af f63b da02 15bd 2c60 7bbd
00000060: 3769 41bd b5ae dc3a cd0b c9bd a39f 973c
00000070: e70d 12be 90f1 97bb 7fd3 46be 47da 3f3d
00000080: 7d04 13bd f72c 99bd cdec b83d 72e9 97bc
00000090: e3a3 53bf 1b6c 38bf d54a 633d 9605 9abd
000000a0: ab1f 953d b101 8fbd 0a07 5f3d 12f6 c83c
000000b0: a04d 733d eaf4 983d a11d a73c 8a87 8d3d
000000c0: 0c4b 8b3c 6e45 e2bd 2726 2fbc db3d 4abd
000000d0: 0d0c d6bc 132f 883c cd92 303d 5a6e e2bc
000000e0: e785 1bbd 7e21 29bd d868 863c f0ea 3c3e
000000f0: 69c4 8bbd 5c2a 28be 6838 33bc 25f9 2f3e
00000100: 8cf2 05bd 95af b8bd 60f2 d93c 835c a83d
00000110: ed18 a1bd 0b54 433d b34b 86bc 1300 29bd
00000120: 544f 77bc 7a9e 8fbd d932 9cbe a1eb d23d
00000130: bc59 e83c fc50 213d 493f 2b3e 3207 a0bd
00000140: adf4 29bc 979c f0bd 4279 853d f058 a53d
00000150: 0517 4f3c 6194 3abe 3bd6 253e 005f 81bd
00000160: 873f aa3c 3dbe dcbd 161e 07bc 94e9 3f3d
00000170: 49e5 973d 08f9 df3c 69a7 17bd e66d 853d
00000180: dadf 213b fe0c f0bd aa5f 4cbc 8eb1 7dbe
00000190: f344 293d 39f8 20bd a41d 24bd 1974 b0bc
000001a0: 5824 733c 19b9 b3bd 30b7 ca3d ea47 0c3d
000001b0: 10b0 4c3d 37dd 53be 2f6b 9bbd 0e03 46be
000001c0: d4f6 c13d 57ca edbc bac7 c9bd b5a5 1b3c
000001d0: 5158 4f3e f1a3 03be 1462 acbd b311 a63c
000001e0: 057e 9fbf c2a1 0ebe 995f 10bd a45c 0dbd
000001f0: 5335 f5bc 99d6 b83d fceb 6fbe 45c1 a7bc
00000200: 3262 e23c 3287 993d b733 47bd 9b71 41bb
00000210: 24b6 77bd 8063 1bbe 6b5f 36be 32b2 f6bd
00000220: 87c7 3ebc 1608 033e 344d ad3d 7056 653d
00000230: a3e1 6f3d 4b83 6e3d c44c 073e d670 3bbd
00000240: df3a 253b 2d61 f5bc f949 6ebc c911 9cbc
00000250: 5166 673d 3340 8c3d 2b2e 41bd 20a5 eabc
00000260: 3046 583d 0cad 9ebd 6dee b23c 2bf7 f63a
00000270: 1acf 4d3d 64d2 27be c9b5 3dbf 12bb 66bd
00000280: 5bf0 14bd 045e 833d 4344 1e3b 0128 a8bc
00000290: 6e1b 8fbd 9d53 c13d 4292 8a3c d5a4 a23d
000002a0: d7b0 38bf f6ed 5b3b 4f15 233e 4d99 4f3d
000002b0: a6d5 aabe 6815 9f3d b83c e33c 2702 12bf
000002c0: 70f6 743e 5435 27be 5375 2bbe 904d beb9
000002d0: b0c0 733d 75a4 273d caec 59bd 05cd b3bd
000002e0: 3c87 a73d b533 a9be 1c71 07be a35c 3abc
000002f0: 80e4 12bd b26f 0abe 6ed4 4d3d f683 abbf
00000300: c6c8 d33c 4579 82bc ea61 0ebe eb7b 3fbe
00000310: ba9d 5cbe eeb5 83bb 682c 513d 71af 8e3d
00000320: 5957 66bd d0a6 33be acb4 e8be 6d79 b63e
00000330: aff2 003d 46ca 9b3d 5bf2 88be f651 a7bd
00000340: 848e 493d 86f7 9b3c 97f0 c63c 7c25 0dbe
00000350: ff8c 9bbe b2ad 003a 5a1c 0cbf 9e04 a6bc
00000360: c061 9fbc dfa0 19be 424b 693a 77d9 c0bc
00000370: ba0e e1bc bc25 44bd 2782 e0bc 6c14 04bd
00000380: 7385 d03c 2448 23be c4e4 85bd f5ef bdbe
00000390: 82c3 f5bc c789 abbd 4765 8ebd 1f84 94bc
000003a0: 6d66 78bd 6c21 393d e606 b03d 415e e8bc
000003b0: e03e 97bc 6ee0 20bd c744 f2bd 53d1 263e
000003c0: bcf3 e4be 387d c73c f774 d4be e779 293c
000003d0: 6f66 19bc 1dc6 8ebd a9b3 71be 2730 4bbd
000003e0: 1e63 6f3d b5dd 3ebe 9ffe 3dbc 042b 59bd
000003f0: f9ac abbd 7a5d 793d 056c 4ebb 8e29 173b

fc3.bias f4 [64]
0.38902664 0.30802423 0.30435112 -0.14010131 0.47662526 -0.28973013 -0.56527835 -0.09720403
-0.52703357 -0.21560208 -0.20279054 -2.0999563 -0.11220225 0.34851602 -0.424141 -0.4588977
0.016013531 -0.51440793 -0.07905575 -0.1792705 -0.34761173 -0.69444495 -0.25261253 -0.43187955
-0.04159765 -0.16104004 -0.18013757 -0.33569527 0.7883827 -0.3725722 -0.062876135 -0.11698789
-0.5761324 0.11771228 -0.21290535 -0.49706727 0.9747905 -0.56234264 -0.18799724 1.4320112
-0.070364244 0.7120052 0.169011 -0.31672105 -0.26218963 0.94152826 -1.2585883 -0.114896975
-0.81343263 -0.3255643 0.7032166 -1.5762407 -0.10536089 0.451457 -0.122131854 -0.112874925
-0.095848866 -0.15457313 0.07497096 -0.22677483 0.6800799 -0.18347444 -0.8943363 -0.21758237
00000000: 802e c73e 5ab5 9d3e e9d3 9b3e b876 0fbe
00000010: 3a08 f43e 8257 94be 15b6 10bf e812 c7bd
00000020: aceb 06bf cbc6 5cbe 53a8 4fbe af65 06c0
00000030: 4bca e5bd b170 b23e 0229 d9be a4f4 eabe
00000040: cf2e 833c 3db0 03bf fbe7 a1bd b092 37be
00000050: 2afa b1be 25c7 31bf 6e56 81be 511f ddbe
00000060: 4c62 2abd aee7 24be fc75 38be 40e0 abbe
00000070: 73d3 493f c9c1 bebe 34c5 80bd 5997 efbd
00000080: 6a7d 13bf 2313 f13d dc03 5abe 9a7f febe
00000090: df8b 793f b0f5 0fbf 5982 40be 254c b73f
000000a0: 211b 90bd f945 363f 3811 2d3e 4329 a2be
000000b0: b83d 86be ff07 713f 6c19 a1bf 1b4f ebbd
000000c0: 1f3d 50bf 5db0 a6be 0106 343f 41c2 c9bf
000000d0: 73c7 d7bd 5f25 e73e 4420 fabd f82a e7bd
000000e0: 694c c4bd 6b48 1ebe 608a 993d a937 68be
000000f0: b719 2e3f b9e0 3bbe 39f3 64bf eacd 5ebe

fc4.weight f4 [6, 64]
-0.016799537 0.061383303 0.0019158964 -0.017331252 0.07022563 0.015678916 -0.023254499 0.0476744
0.3797875 0.010890196 0.0028025685 0.016525058 -0.047973942 -0.02296277 0.016119089 -0.06494779
-0.0047104456 -0.027503215 -0.025294833 0.02530687 0.0054690563 0.019605841 0.058045056 0.03210482
0.103822835 0.010720399 -0.03968525 0.05993579 0.01518681 -0.017324876 -0.02775816 -0.047181137
0.03286027 0.015977195 -0.021024302 -0.01954408 -0.02920931 -0.015842156 0.027019683 -0.031529963
-0.026882244 -0.024770333 -0.028114626 -0.013700108 0.019498574 -0.022526953 0.019750975 -0.0016258296
-0.042272914 -0.055492416 -0.02300626 0.024224028 -0.023381935 0.02790328 -0.048516348 0.050597653
0.035910055 0.0071341707 -0.025938699 0.07068381 0.029274253 -0.05339943 0.022233492 0.060055558
-0.016239027 0.060606968 0.009801924 -0.015184179 0.07313572 0.016456058 -0.027725762 -0.0008957193
0.38940614 -0.054574117 0.06741116 0.015935326 -0.028018488 -0.025904717 0.011613705 -0.06338007
-0.0020385608 -0.053634897 -0.0308607 0.011084248 0.106340945 0.020978238 0.053937446 0.03442505
0.11547241 -0.049035303 -0.04699925 0.06297986 0.018926548 -0.013485855 -0.024321036 0.018973755
0.029340535 0.03397285 -0.03173326 -0.019077629 -0.02808219 -0.012588814 0.044737786 -0.030689247
0.0029437048 -0.0239268 -0.03219091 -0.014553527 0.026690556 -0.023218565 0.021654896 0.038849276
-0.043248765 -0.044286136 -0.018821707 0.023521427 -0.02464531 0.02634346 -0.044164553 0.05600727
0.009631118 -0.09151723 0.039661143 0.067532 0.029678619 -0.011010889 0.02279569 0.06488813
-0.034171913 0.06160578 -0.05201421 -0.029390486 -0.009467351 0.017244566 -0.027489418 -0.07075711
0.3176815 0.027377322 0.046133526 0.020182956 -0.0335002 0.01389294 0.026495518 -0.07026835
-0.0062580067 0.03446878 0.009475353 0.01108933 -0.020980215 0.014935987 0.05334489 0.03386605
-0.09295965 -0.044045217 -0.0107640885 0.052842043 -0.03796213 -0.016557455 -0.01992813 -0.08982115
0.032611858 0.020802181 -0.018801372 -0.02406345 -0.02827583 -0.018753873 -0.049621932 -0.032536775
-0.040043235 -0.024325121 0.026946256 -0.011955384 0.022142736 -0.02297494 0.017019793 -0.014190488
-0.04317688 -0.048816662 -0.019750845 0.024164356 -0.024422029 0.0003768194 -0.019102262 -0.017879153
-0.034506824 0.044711124 -0.022621455 0.0354773 0.02963959 0.003954627 0.021978648 0.0483281
-0.0029334235 0.059232462 0.0069654994 -0.013420487 -0.0016827935 -0.025559174 -0.024950406 -0.033677235
0.3853753 0.0034858927 0.053861856 0.016848646 0.03485397 -0.030721901 0.025966361 -0.055990957
-0.0057049445 0.03934574 -0.041789327 0.022248764 0.101910815 0.02834227 0.061524507 0.037405238
-0.024450576 -0.03400729 0.01619096 0.05811205 0.01196766 -0.014814424 -0.019880852 -0.041975882
0.017548565 -0.008995686 -0.01983404 -0.018413076 -0.026679475 -0.01485264 -0.04998321 -0.031379774
-0.020957043 -0.022116221 -0.037776638 -0.013826194 0.017883426 -0.024734309 0.020021513 -0.06360889
-0.043752227 -0.04110202 -0.022532102 0.026106942 -0.023630802 -0.015797194 -0.097962454 0.0013750017
0.025839884 -0.053266242 -0.0009654309 0.07398013 0.025238385 0.009452173 0.023523668 0.0581113
00000000: 2f9f 89bc 0f6d 7b3d d11e fb3a 45fa 8dbc
00000010: 75d2 8f3d 1271 803c 3880 bebc 3b46 433d
00000020: 8273 c23e cb6c 323c 4cab 373b 8f5f 873c
00000030: 5380 44bd 6b1c bcbc 2e0c 843c 5903 85bd
00000040: 155a 9abb 6c4e e1bc 1c37 cfbc 5a50 cf3c
00000050: c535 b33b 6e9c a03c a7c0 6d3d 5880 033d
00000060: 11a1 d43d 9da4 2f3c 008d 22bd 3b7f 753d
00000070: 19d2 783c e6ec 8dbc 1565 e3bc 0241 41bd
00000080: 7e98 063d 9be2 823c 283b acbc e81a a0bc
00000090: 5d48 efbc 69c7 81bc 6258 dd3c 9025 01bd
000000a0: 2738 dcbc 27eb cabc a550 e6bc 6b76 60bc
000000b0: 79bb 9f3c 728a b8bc cccc a13c ca19 d5ba
000000c0: 5d26 2dbd 044c 63bd a077 bcbc 7871 c63c
000000d0: 798b bfbc 6b95 e43c 14b9 46bd 7c3f 4f3d
000000e0: 6c16 133d c3c5 e93b 657d d4bc acc2 903d
000000f0: 8fd0 ef3c 5cb9 5abd 0323 b63c d1fc 753d
00000100: b507 85bc 033f 783d 4098 203c 10c7 78bc
00000110: 2ec8 953d dbce 863c 2321 e3bc b4ce 6aba
00000120: 3e60 c73e 1c89 5fbd dd0e 8a3d cd8a 823c
00000130: 0787 e5bc 2136 d4bc 6947 3e3c 69cd 81bd
00000140: 6099 05bb 44b0 5bbd 94cf fcbc b59a 353c
00000150: 48c9 d93d 8eda ab3c 83ed 5c3d 4801 0d3d
00000160: cd7c ec3d 3ed9 48bd 4982 40bd 96fb 803d
00000170: d90b 9b3c c7f3 5cbc e93c c7bc d96e 9b3c
00000180: 905b f03c 1d27 0b3d bcfa 01bd b048 9cbc
00000190: 9f0c e6bc 5041 4ebc f83e 373d 0468 fbbc
000001a0: 2ceb 403b 2302 c4bc 9eda 03bd eb71 6ebc
000001b0: 27a6 da3c dc34 bebc 9c65 b13c 6b20 1f3d
000001c0: 9e25 31bd 6165 35bd fb2f 9abc 02b0 c03c
000001d0: f6e4 c9bc 3dce d73c e4e5 34bd e167 653d
000001e0: d6cb 1d3c 636d bbbd b973 223d 384e 8a3d
000001f0: 9320 f33c 0467 34bc 07be ba3c 11e4 843d
00000200: d9f7 0bbd 5856 7c3d da0c 55bd 51c4 f0bc
00000210: f31c 1bbc 7a44 8d3c 7d31 e1bc 1be9 90bd
00000220: 26a7 a23e 6846 e03c 82f6 3c3d ba56 a53c
00000230: 8137 09bd 379f 633c 210d d93c dae8 8fbd
00000240: f70f cdbb 232f 0d3d 833e 1b3c 05b0 353c
00000250: b3de abbc 12b6 743c 2c80 5a3d 21b7 0a3d
00000260: a161 bebd c268 34bd dc5b 30bc e670 583d
00000270: 2e7e 1bbd 80a3 87bc 5140 a3bc 27f4 b7bd
00000280: 0394 053d 5669 aa3c 5605 9abc b620 c5bc
00000290: b7a2 e7bc b9a1 99bc 5e40 4bbd 4845 05bd
000002a0: 6004 24bd 7a45 c7bc 65be dc3c 84e0 43bc
000002b0: af64 b53c f135 bcbc 186d 8b3c 387f 68bc
000002c0: 3dda 30bd fbf3 47bd 86cc a1bc 54f4 c53c
000002d0: b510 c8bc d88f c539 597c 9cbc 4d77 92bc
000002e0: 0757 0dbd 0323 373d a150 b9bc a550 113d
000002f0: bace f23c d195 813b 910c b43c b0f3 453d
00000300: ae3e 40bb bd9d 723d d83e e43b 9ae1 5bbc
00000310: 2e91 dcba 7961 d1bc cb64 ccbc 24f1 09bd
00000320: e94f c53e 9373 643b 409e 5c3d 2c06 8a3c
00000330: 09c3 0e3d 7fac fbbc 68b7 d43c c656 65bd
00000340: 8bf0 babb 0029 213d 492b 2bbd 0a43 b63c
00000350: 9eb6 d03d 0c2e e83c 1f01 7c3d 3c36 193d
00000360: 934c c8bc 3a4b 0bbd e7a2 843c e706 6e3d
00000370: 0114 443c 33b8 72bc 2bdd a2bc e7ee 2bbd
00000380: 02c2 8f3c a462 13bc ff7a a2bc 05d7 96bc
00000390: ea8e dabc 7d58 73bc 32bb 4cbd 1488 00bd
000003a0: 1bae abbc 142d b5bc adbb 1abd 4387 62bc
000003b0: 4380 923c 9b9f cabc 2804 a43c 6145 82bd
000003c0: 8935 33bd 975a 28bd 3e95 b8bc 3ade d53c
000003d0: 6295 c1bc 1e69 81bc 8aa0 c8bd 6739 b43a
000003e0: 2aae d33c b42d 5abd f914 7dba e582 973d
000003f0: bbc0 ce3c 49dd 1a3c b5b4 c03c 1d06 6e3d

fc4.bias f4 [6]
-0.24336587 -0.23759173 -0.22174488 -0.2188738 -0.23210144 -0.22701521
00000000: e734 79be 3f4b 73be 1711 63be 7420 60be
00000010: 00ac 6dbe ad76 68be
