checkpoints/2021_02_04-08_17_57/dqn-Pong-ram-v0.pt (torch, 301239 bytes, 8 tensors)

fc1.weight f4 [256, 128]
-0.022419093 0.0029278256 -0.013195335 0.033332445 -0.0053700283 0.07841189 -0.06424421 -0.080646195
-0.0007900393 -0.0065578246 -0.008632981 0.58314115 -0.121708326 0.10752316 -0.0676107 -0.0037391956
-0.05380676 -0.74050415 -0.24413517 -0.07892547 0.015416325 0.0007637404 0.024169859 0.0989353
-0.026239365 0.041619763 -0.025726777 0.0767855 0.084210195 -0.067876086 0.08907061 0.05583368
0.05213846 0.05001042 0.087095596 0.0019523655 -0.061130915 -0.011739639 -0.04862679 0.019467123
-0.0028791325 -0.033787202 0.0055863573 0.09735695 0.0066518243 0.016430208 -0.00016143899 0.027518345
0.09237397 -0.23945943 0.015668672 -0.016592434 0.03446314 0.047770448 -0.19972616 -0.0821489
-13.487679 0.07544703 -0.24933296 -0.05798099 0.036128268 0.08665172 -0.06991169 -0.045883834
0.01144789 0.017171403 -0.006991534 -0.010416403 -0.072550096 0.01209376 0.091200545 -0.009439661
-0.048968364 -0.049385257 0.05032584 0.02684766 0.04985616 -0.0863688 -0.0052699787 0.062335324
0.041004363 0.003227711 0.017378831 -0.008368615 -0.048598878 -0.03340189 -0.05382671 0.07341617
0.04863893 0.030911405 -0.06778082 0.06820238 0.027713522 0.061146583 -0.034771096 0.018738056
0.08630082 0.05945523 0.07088716 -0.018560207 0.06734107 -0.0692286 0.0076446165 -0.049767494
-0.020613506 -0.022636028 0.0066131353 0.080445744 0.043759648 -0.0003744326 0.06274208 -0.0452951
0.04555283 -0.008196487 -0.015380533 0.010347926 -0.06771402 0.01021392 0.029719522 0.075566
-0.0275191 -0.00078815385 0.10578958 -0.024291974 0.09763961 -0.030258741 0.052583493 0.04824957
0.014968103 0.06989778 0.007361561 0.023230141 -0.00935154 -0.07618136 -0.021461923 -0.10983767
0.014317326 -0.07181721 0.08180755 0.07369916 0.015302419 -0.12921177 0.054510657 0.07611996
0.0036660947 -0.20891526 -0.08881514 -0.028996475 -0.07279434 -0.0838999 -0.05752994 -0.039707504
-0.0031763182 0.051168837 0.025248306 0.058001272 -0.06522092 -0.0022559948 -0.08828884 0.04098966
0.008698717 0.07577167 -0.07258495 0.061159167 0.0648977 0.061741583 0.002890665 0.07064773
0.04930681 0.056248713 -0.015438194 -0.07754016 -0.010811113 0.0068648886 -0.06992872 -0.060414393
-0.09446293 -0.059117675 0.059529506 0.0013388717 -0.015099216 -0.0061509428 0.019546704 -0.07805253
-0.07527196 -0.029386511 -0.08856681 0.035872098 0.0825071 -0.095456846 -0.084713586 -0.09579511
-0.0071938345 0.061418816 -0.078251995 -0.040783655 0.018405752 -0.06912215 0.06536195 0.010789953
-0.034328245 -0.0057143094 0.017834328 -0.040976014 -0.07821037 0.0005941125 0.0016099885 0.0017823691
-0.012898537 0.056751817 -0.02466558 -0.008555346 0.036344197 -0.055634923 0.023666741 -0.019544052
0.042397548 -0.04794753 0.0032666863 0.008646973 -0.071116954 -0.0642709 0.033898108 -0.025726004
0.052493542 -0.08731554 -0.04369289 -0.07280211 0.035308618 -0.0025624968 -0.016486319 -0.014705288
-0.06908865 0.02506649 0.0022031527 -0.06099794 0.033259448 -0.0017765212 -0.08548458 0.04754588
0.047277782 -0.016653262 -0.061026685 0.0035487963 0.06669606 0.08090537 -0.06671561 -0.039922275
0.068821326 0.014753847 0.045801636 -0.05370231 0.066427566 -0.082383014 -0.013975743 -0.007886884
00000000: 3fa8 b7bc c3e0 3f3b 3f31 58bc 9a87 083d
00000010: 10f7 afbb 6a96 a03d 7892 83bd d529 a5bd
00000020: a41a 4fba 05e3 d6bb 5971 0dbc bd48 153f
00000030: 3742 f9bd 1a35 dc3d 7b77 8abd 4b0d 75bb
00000040: 7a64 5cbd ae91 3dbf 92fe 79be ada3 a1bd
00000050: c194 7c3c c035 483a deff c53c 979e ca3d
00000060: f0f3 d6bc 7c79 2a3d f6c0 d2bc b741 9d3d
00000070: 6576 ac3d 9e02 8bbd a76a b63d dbb1 643d
00000080: 238f 553d bad7 4c3d 2d5f b23d 84e6 ff3a
00000090: 6964 7abd 9d57 40bc e32c 47bd 8479 9f3c
000000a0: d4af 3cbb 7364 0abd c30d b73b 1563 c73d
000000b0: 8cf7 d93b a598 863c f347 29b9 276e e13c
000000c0: 902e bd3d da34 75be 965b 803c dbec 87bc
000000d0: 3929 0d3d f2aa 433d 0485 4cbe af3d a8bd
000000e0: 88cd 57c1 f983 9a3d 2451 7fbe 797d 6dbd
000000f0: 3cfb 133d 7576 b13d dc2d 8fbd b0f0 3bbd
00000100: ee8f 3b3c 0bab 8c3c 3d19 e5bb 90a9 2abc
00000110: 2595 94bd e824 463c 5ac7 ba3d cfa8 1abc
00000120: 0d93 48bd 3248 4abd 7822 4e3d a0ef db3c
00000130: f935 4c3d 20e2 b0bd c9af acbb 5353 7f3d
00000140: 31f4 273d 0188 533b 0d5e 8e3c 841c 09bc
00000150: 9e0f 47bd 6cd0 08bd 6579 5cbd 385b 963d
00000160: 9d39 473d ea39 fd3c acd0 8abd b0ad 8b3d
00000170: 7807 e33c d774 7a3d 236c 0ebd 8d80 993c
00000180: 7cbe b03d 5487 733d 4a2d 913d 930b 98bc
00000190: 1dea 893d b9c7 8dbd b17f fa3b 00d9 4bbd
000001a0: a8dd a8bc 316f b9bc 00b3 d83b bdc0 a43d
000001b0: 513d 333d 7e4f c4b9 eb7e 803d 5b87 39bd
000001c0: 9b95 3a3d 8f4a 06bc a2fe 7bbc 598a 293c
000001d0: a6ad 8abd 4958 273c 5b76 f33c 59c2 9a3d
000001e0: bc6f e1bc 1c9c 4eba 35a8 d83d f6ff c6bc
000001f0: 47f7 c73d 2ee1 f7bc ca61 573d 57a1 453d
00000200: c63c 753c 9126 8f3d 4039 f13b 234d be3c
00000210: 3437 19bc f904 9cbd ead0 afbc 93f2 e0bd
00000220: 3893 6a3c e714 93bd b78a a73d 96ef 963d
00000230: ffb6 7a3c 1750 04be 9146 5f3d c8e4 9b3d
00000240: dd42 703b e2ed 55be b6e4 b5bd 048a edbc
00000250: 3315 95bd b6d3 abbd 84a4 6bbd 56a4 22bd
00000260: c729 50bb 6a96 513d 89d5 ce3c be92 6d3d
00000270: 8c92 85bd 50d9 13bb c8d0 b4bd c6e4 273d
00000280: 1085 0e3c 2d2e 9b3d 6ba7 94bd 0982 7a3d
00000290: 16e9 843d bee4 7c3d 5071 3d3b c2af 903d
000002a0: f0f5 493d 0d65 663d 7bf0 7cbc 60cd 9ebd
000002b0: 1821 31bc dcf2 e03b ca36 8fbd 1575 77bd
000002c0: c875 c1bd 6025 72bd 36d5 733d 147d af3a
000002d0: b462 77bc d98d c9bb 6920 a03c 01da 9fbd
000002e0: 2f28 9abd fbbb f0bc 8462 b5bd 9fee 123d
000002f0: 7cf9 a83d e17e c3bd 517e adbd 3a30 c4bd
00000300: 42ba ebbb 4c92 7b3d 9542 a0bd c30c 27bd
00000310: a9c7 963c ea8f 8dbd 7cdc 853d 58c8 303c
00000320: c69b 0cbd 1a3f bbbb 4c19 923c 77d6 27bd
00000330: c22c a0bd 37be 1b3a 4006 d33a 629e e93a
00000340: 6354 53bc 9874 683d 780f cabc b92b 0cbc
00000350: a7dd 143d 72e1 63bd c1e0 c13c d91a a0bc
00000360: 0da9 2d3d a164 44bd e715 563b 09ac 0d3c
00000370: c4a5 91bd 76a0 83bd bed8 0a3d 57bf d2bc
00000380: 7803 573d 7dd2 b2bd 51f7 32bd 4619 95bd
00000390: c59f 103d 90ef 27bb 510e 87bc 73ee 70bc
000003a0: 5a7e 8dbd 3d58 cd3c c562 103b fad8 79bd
000003b0: 0f3b 083d 29da e8ba 8a12 afbd 78bf 423d
000003c0: 59a6 413d 6c6c 88bc 1ef7 79bd ec92 683b
000003d0: f297 883d b7b1 a53d 32a2 88bd 8a85 23bd
000003e0: 32f2 8c3d 1fba 713c 7f9a 3b3d f4f6 5bbd
000003f0: 2d0b 883d 6db8 a8bd 84fa 64bc fd37 01bc

fc1.bias f4 [256]
0.06390376 -0.053723216 -0.092520885 -0.02917768 0.021362945 -0.039653104 -0.0053431215 -0.012951368
-0.034254644 -0.073060654 -0.05639279 -0.050658524 -0.04997164 -0.00028216167 0.0674286 -0.06013959
-0.0036969488 -0.06972308 0.0304817 0.06650291 -0.024272664 0.0010735501 -0.047530316 -0.05955761
0.04159643 -0.010227596 0.06979071 -0.06033886 0.067846686 0.0645018 0.070847616 0.008895364
-0.06072838 0.012280292 0.02179567 -0.0177956 -0.08917629 -0.02665808 -0.0324783 0.03700304
0.008651849 -0.07363398 0.046663694 0.06142981 0.0403465 0.011831724 -0.06920537 -0.05474131
-0.076313145 0.049960166 0.042651717 0.043445315 -0.091052644 -0.023617368 0.028137533 0.08007534
-0.012232104 -0.076705456 -0.11854235 0.043939315 0.011295028 -0.04452171 0.05194752 -0.10229008
0.056852754 -0.0031005607 -0.037069593 -0.06732034 -0.047126364 0.043228064 -0.028696295 0.06798438
-0.03849895 -0.024348198 -0.08041458 0.058582895 0.0013726625 0.01822712 -0.0605976 0.042292897
0.076265655 -0.033528782 0.03615494 0.023557821 -0.020936657 0.027368892 -0.039333753 -0.018198797
-0.06782153 -0.07848662 0.035822924 -0.065632515 -0.0011409976 0.021083055 -0.04222051 -0.034096472
-0.068731375 0.07376972 -0.07067555 0.022353373 -0.068144746 0.04701897 -0.017369542 -0.03391694
-0.010452875 0.0568226 0.009763549 -0.043034095 0.0013143705 -0.07807614 0.08330201 -0.067529514
0.09089306 -0.053184234 -0.017959267 0.049574 -0.031019133 0.03480028 0.055433646 0.016591378
0.073201686 -0.07201912 -0.053237725 0.037418056 0.00708767 -0.08621087 0.04576104 -0.0015277179
-0.06957933 -0.07539307 -0.09598623 0.08542399 0.022404872 -0.087751 -0.037952688 -0.08554397
-0.051358406 -0.010484101 0.055657666 -0.05640708 -0.035046663 -0.07251407 0.074161746 -0.0027312578
0.011869617 0.032487117 0.0031970567 -0.08218808 -0.010679042 0.08431042 0.01933395 -0.084257826
0.0075997333 0.066534154 0.011886397 -0.016082298 0.05945175 -0.05929398 0.06622147 0.074824356
-0.055385593 0.038994662 0.015195759 -0.0663035 -0.036996208 -0.057128895 0.0052312985 0.04479552
-0.027880128 0.0288419 -0.06480383 0.0732798 0.073796645 -0.06339707 0.034100197 -0.044458833
-0.03060212 0.082029365 0.0012566532 -0.029083647 0.06919116 0.06298439 -0.009830264 0.014863088
-0.07763148 -0.05349683 -0.058866482 -0.07883488 -0.03298518 -0.00013028986 0.057764042 0.074157774
0.05550396 -0.045431107 -0.018294053 -0.05425799 -0.0091961045 -0.06918967 0.019213604 0.039850995
-0.057995927 0.0512434 0.058329325 0.0004712983 -0.086140655 -0.060923923 0.07755116 -0.045504995
-0.038337912 -0.059713222 -0.014023691 0.002211134 0.032831483 0.07746683 -0.032054555 -0.040254597
-0.0867972 -0.0369784 0.029922582 -0.040480383 0.0045021893 -0.030676235 -0.033296205 0.07169592
-0.1352445 0.010140336 0.00934722 -0.07024932 -0.044619847 0.019373946 -0.05385211 0.058086574
-0.091495976 -0.035422094 0.026463289 -0.08557775 0.025873244 -0.08026197 -0.025766175 0.030040313
0.017092388 0.035603274 -0.09476296 -0.023403207 0.05727966 -0.08053623 -0.08275623 -0.020193093
-0.02951608 -0.06612506 -0.041425705 0.04406609 -0.08677655 0.07714445 0.045842823 0.0692742
00000000: f9df 823d e00c 5cbd 977b bdbd 0806 efbc
00000010: 5801 af3c 4b6b 22bd 5a15 afbb f931 54bc
00000020: 994e 0cbd d3a0 95bd 20fc 66bd 507f 4fbd
00000030: 10af 4cbd 19ef 93b9 0118 8a3d ee54 76bd
00000040: 8248 72bb f9ca 8ebd c2b4 f93c ad32 883d
00000050: 77d7 c6bc 5db6 8c3a 26af 42bd aef2 73bd
00000060: 0561 2a3d a691 27bc 6fee 8e3d e125 77bd
00000070: 34f3 8a3d 8519 843d 8e18 913d dcbd 113c
00000080: 52be 78bd 4733 493c d58c b23c 14c8 91bc
00000090: 0fa2 b6bd 0c62 dabc f707 05bd 8090 173d
000000a0: 7cc0 0d3c 69cd 96bd 6e22 3f3d d39d 7b3d
000000b0: 5f42 253d d9d9 413c 8cbb 8dbd 6d38 60bd
000000c0: 114a 9cbd 08a3 4c3d 91b3 2e3d b7f3 313d
000000d0: cf79 babd 3679 c1bc af80 e63c 8afe a33d
000000e0: 2a69 48bc c017 9dbd 55c6 f2bd b6f9 333d
000000f0: c80e 393c 665c 36bd ecc6 543d 767d d1bd
00000100: 6fde 683d c732 4bbb 49d6 17bd 3fdf 89bd
00000110: 9307 41bd e90f 313d 7e14 ebbc 653b 8b3d
00000120: 13b1 1dbd df75 c7bc 66b0 a4bd 9ef4 6f3d
00000130: e9ea b33a 0b51 953c 3035 78bd 513b 2d3d
00000140: 2b31 9c3d 7a55 09bd 3417 143d 55fc c03c
00000150: 5a83 abbc ba34 e03c 6e1c 21bd a515 95bc
00000160: 04e6 8abd 98bd a0bd 0fbb 123d 576a 86bd
00000170: 878d 95ba 5fb6 ac3c 6aef 2cbd bea8 0bbd
00000180: 09c3 8cbd 9414 973d 58be 90bd 6c1e b73c
00000190: 798f 8bbd f796 403d 924a 8ebc 7dec 0abd
000001a0: 8942 2bbc d1be 683d 4bf7 1f3c 8544 30bd
000001b0: f546 ac3a 62e6 9fbd 3f9a aa3d ea4c 8abd
000001c0: 2426 ba3d b6d7 59bd 501f 93bc 1b0e 4b3d
000001d0: d61b febc bd8a 0e3d 640e 633d a4ea 873c
000001e0: c4ea 953d c37e 93bd cd0f 5abd ad43 193d
000001f0: af3f e83b 538f b0bd ee6f 3b3d b53d c8ba
00000200: 9c7f 8ebd af67 9abd 6e94 c4bd c6f2 ae3d
00000210: 6c8a b73c ccb6 b3bd 4774 1bbd ad31 afbd
00000220: 315d 52bd 82c5 2bbc 4bf9 633d 1c0b 67bd
00000230: 178d 0fbd 4282 94bd 1de2 973d e7fe 32bb
00000240: c878 423c 3611 053d b685 513b 3952 a8bd
00000250: 26f7 2ebc f1aa ac3d 3b62 9e3c 5e8f acbd
00000260: 2f07 f93b 0f43 883d 2abf 423c 06bf 83bc
00000270: ae83 733d 3fde 72bd 1f9f 873d 833d 993d
00000280: 01dc 62bd deb8 1f3d a2f7 783c 21ca 87bd
00000290: 5689 17bd fdff 69bd 506b ab3b 827b 373d
000002a0: de64 e4bc d945 ec3c dfb7 84bd b813 963d
000002b0: b222 973d 53d6 81bd a6ac 0b3d 771a 36bd
000002c0: 4cb1 fabc 03ff a73d 49b6 a43a d440 eebc
000002d0: 18b4 8d3d f6fd 803d 1e0f 21bc 4f84 733c
000002e0: 41fd 9ebd 7e1f 5bbd fb1d 71bd 2e74 a1bd
000002f0: 781b 07bd 6b9e 08b9 fd99 6c3d 08e0 973d
00000300: 1f58 633d f815 3abd 69dd 95bc a03d 5ebd
00000310: 42ab 16bc 50b3 8dbd d965 9d3c cc3a 233d
00000320: 238d 6dbd 99e4 513d bbea 6e3d 9618 f739
00000330: 836a b0bd 5d8b 79bd 24d3 9e3d 7263 3abd
00000340: 3708 1dbd da95 74bd a0c3 65bc ace8 103b
00000350: 4e7a 063d eea6 9e3d a34b 03bd 01e2 24bd
00000360: bbc2 b1bd aa76 17bd 3420 f53c c2ce 25bd
00000370: 1a87 933b ba4c fbbc 9a61 08bd 4fd5 923d
00000380: 897d 0abe a723 263c 1525 193c e0de 8fbd
00000390: 4dc3 36bd 1cb6 9e3c 0894 5cbd 30ec 6d3d
000003a0: 3e62 bbbd c216 11bd 8ac9 d83c 6343 afbd
000003b0: 20f4 d33c 6360 a4bd 9613 d3bc 1a17 f63c
000003c0: 5605 8c3c bdd4 113d 1513 c2bd 15b8 bfbc
000003d0: 149e 6a3d 2ef0 a4bd 197c a9bd fc6b a5bc
000003e0: b5cb f1bc 936c 87bd 00ae 29bd a57e 343d
000003f0: e7b7 b1bd e9fd 9d3d afc5 3b3d a2df 8d3d

fc2.weight f4 [128, 256]
0.010072963 -0.016519984 -0.035503518 0.011200257 -0.09598147 -0.018430723 -0.0034939928 -0.025378818
-0.034584377 0.026837455 -0.002564977 -0.022142107 0.0044753114 0.017193273 0.042533077 0.0608219
0.04909499 0.0008811452 -0.06393142 0.010502987 0.032492496 -0.03311038 0.040228624 0.028787836
0.02934084 -0.05839386 -0.003053978 -0.015758209 -0.04398576 0.00789196 0.006148182 0.052769843
-0.009663023 0.012765117 -0.05516101 0.0515083 -0.04917226 -0.0056192577 -0.021163642 -0.026073774
0.012381965 0.0013435879 0.056565218 -0.050046477 0.0019239801 -0.05764402 -0.009966515 -0.030179128
-0.024452787 -0.04258243 -0.0457357 0.040836763 -0.0503088 -0.01711823 0.019480642 -0.062129535
-0.014150464 -0.035434343 -0.073858105 0.031467382 -0.030478016 -0.041949175 0.03673905 -0.04391601
0.056951493 0.050891437 -0.001961598 -0.05094453 -0.0772846 -0.030813158 -0.008782968 0.01035805
0.020166405 -0.05156759 -0.116080485 -0.023786724 0.027508812 0.028153345 0.042675704 -0.017572977
-0.057931833 -0.06065961 -0.045270715 0.0021816916 0.01701498 -0.06746827 -0.06802019 -0.0050672963
-0.05172716 -0.020585306 0.0018715862 -0.016468886 -0.07817364 0.016968245 0.017413406 -0.052486032
-0.0033917052 0.05222796 -0.056547638 -0.054515965 0.040348448 0.050938897 -0.009521738 -0.04995948
0.0008518866 0.05986844 -0.050464302 -0.06924648 -0.024266511 0.002503839 -0.006877236 -0.15548918
-0.09124229 -0.0045647994 0.00014993548 -0.0087900525 -0.03972823 -0.031559274 -0.007096842 -0.036141805
-0.026876986 -0.049460035 -0.07045494 -0.020572424 0.008307274 -0.03027685 0.025537692 0.023939133
0.03888616 -0.06304119 0.021543343 -0.06565605 0.052861392 -0.0015194714 0.009058401 -0.062170006
-0.033316202 -0.1330422 0.014494576 -0.046481367 -0.0013372547 0.006135367 -0.02289631 -0.0542056
0.051433735 -0.020367078 -0.04565275 -0.022898778 -0.010040709 0.047808096 -0.043241598 0.023637615
-0.034782916 -0.050543964 -0.05089226 -0.016154999 0.023501381 -0.065569125 -0.04463621 -0.0823039
0.029612064 -0.022945903 -0.026081262 0.01643439 -0.055230215 -0.029030465 0.056500338 -0.0055064093
0.001354867 0.018620929 -0.03574911 0.050707534 -0.057883702 -0.015323281 -0.03864313 -0.055735856
-0.043153882 0.024994168 -0.028031029 0.05409274 0.034800086 -0.08377628 0.047254287 -0.027850308
-0.003414875 -0.040808946 -0.019439021 0.037336327 0.04723075 -0.058073174 0.045685954 0.0300887
-0.02550112 -0.012558901 0.02164673 0.017432436 -0.0023700967 0.04590647 -0.0065636383 -0.013107017
0.036238596 -0.06829584 0.0135824 -0.09250663 -0.0665929 0.035654265 -0.06713538 -0.03195518
0.034650855 -0.032031447 -0.019023465 -0.030640436 0.037484642 0.060512975 0.046371587 0.008586721
-0.059119336 -0.045928296 0.011176646 0.03511052 -0.025723062 -0.0070041493 0.030183792 0.019824743
-0.039197855 0.0093664825 -0.048949473 -0.050916217 -0.021045998 -0.05202997 0.0012776647 -0.05616535
-0.05283133 -0.016435433 -0.062467106 -0.055214506 -0.021548294 -0.008899502 -0.009300619 0.05657568
-0.062115356 -0.021129973 -0.06264388 -0.04423581 -0.012229785 0.0219828 0.020746589 0.055009983
0.050263636 -0.04036136 0.05613163 0.017399624 0.0023623374 0.060884602 -0.015156091 -0.029520683
00000000: 1209 253c eb54 87bc 236c 11bd 4881 373c
00000010: ef91 c4bd 07fc 96bc 79fb 64bb 3de7 cfbc
00000020: 59a8 0dbd 39da db3c 2c19 28bb 5d63 b5bc
00000030: a2a5 923b e8d8 8c3c 2a37 2e3d 6220 793d
00000040: d417 493d a7fc 663a 7aee 82bd b814 2c3c
00000050: da16 053d c09e 07bd c5c6 243d 78d4 eb3c
00000060: 345c f03c 662e 6fbd 4025 48bb 5c17 81bc
00000070: 6a2a 34bd 484d 013c b076 c93b 3125 583d
00000080: a851 1ebc c824 513c 83f0 61bd 5efa 523d
00000090: da68 49bd c021 b8bb 605f adbc ab98 d5bc
000000a0: badd 4a3c 541b b03a eeb0 673d 89fd 4cbd
000000b0: 0f2e fc3a 231c 6cbd 984a 23bc 383a f7bc
000000c0: 3651 c8bc ea6a 2ebd 5b55 3bbd 7344 273d
000000d0: 9a10 4ebd 883b 8cbc de95 9f3c 8a7b 7ebd
000000e0: 59d7 67bc 9a23 11bd eb42 97bd f1e3 003d
000000f0: 08ad f9bc e6d2 2bbd b07b 163d 46e1 33bd
00000100: f845 693d 8a73 503d 278e 00bb 36ab 50bd
00000110: 6347 9ebd e06b fcbc 70e6 0fbc d0b4 293c
00000120: 0434 a53c 8a38 53bd 9bbb edbd 60dc c2bc
00000130: 295a e13c d8a1 e63c b8cc 2e3d 34f5 8fbc
00000140: ee49 6dbd 3676 78bd c96d 39bd b6fa 0e3b
00000150: 0063 8b3c ce2c 8abd 2b4e 8bbd 900b a6bb
00000160: dcdf 53bd 84a2 a8bc 0350 f53a c2e9 86bc
00000170: 8019 a0bd fd00 8b3c 8fa6 8e3c 98fb 56bd
00000180: 5f47 5ebb fcec 553d 7f9e 67bd 224c 5fbd
00000190: 6a44 253d 4ea5 503d 1001 1cbc 50a2 4cbd
000001a0: 2451 5f3a 9c38 753d a8b3 4ebd 19d1 8dbd
000001b0: 90ca c6bc 7317 243b 705a e1bb 8e38 1fbe
000001c0: 3ddd babd 5094 95bb 0038 1d39 2704 10bc
000001d0: 12ba 22bd 4c44 01bd a08c e8bb 6e09 14bd
000001e0: 202d dcbc 9b96 4abd ae4a 90bd 8087 a8bc
000001f0: 3c1b 083c 2807 f8bc 6c34 d13c 001c c43c
00000200: 1847 1f3d bd1b 81bd aa7b b03c ae76 86bd
00000210: 3085 583d 0029 c7ba b069 143c faa5 7ebd
00000220: 9276 08bd 373c 08be a87a 6d3c 3f63 3ebd
00000230: d246 afba 300b c93b 0b91 bbbc b106 5ebd
00000240: 2eac 523d dcd8 a6bc 61fe 3abd 3896 bbbc
00000250: c981 24bc 6cd2 433d 1a1e 31bd aca3 c13c
00000260: 8878 0ebd 3007 4fbd 6774 50bd 7d57 84bc
00000270: f885 c03c 1b49 86bd 75d4 36bd f28e a8bd
00000280: 0095 f23c 0cf9 bbbc 5fa8 d5bc 6aa1 863c
00000290: 1439 62bd 4cd1 edbc e66c 673d 1c6f b4bb
000002a0: cb95 b13a eb8a 983c a96d 12bd b4b2 4f3d
000002b0: 7617 6dbd 800e 7bbc 4248 1ebd 484b 64bd
000002c0: 20c2 30bd 92c0 cc3c 54a1 e5bc 5990 5d3d
000002d0: 898a 0e3d e692 abbd b68d 413d 5426 e4bc
000002e0: 18cc 5fbb 4827 27bd 953e 9fbc faed 183d
000002f0: 0875 413d 23de 6dbd 3221 3b3d 947c f63c
00000300: bae7 d0bc d9c3 4dbc 7c54 b13c 78ce 8e3c
00000310: a053 1bbb 6c08 3c3d ca13 d7bb d0be 56bc
00000320: ec6e 143d b0de 8bbd b788 5e3c 1e74 bdbd
00000330: dc61 88bd 350a 123d 467e 89bd 6fe3 02bd
00000340: 0eee 0d3d 6833 03bd 19d7 9bbc a701 fbbc
00000350: 7f89 193d 74dc 773d 22f0 3d3d 51af 0c3c
00000360: 1e27 72bd 4f1f 3cbd 401e 373c 0cd0 0f3d
00000370: 2cb9 d2bc 1083 e5bb 0044 f73c 8067 a23c
00000380: ee8d 20bd e075 193c 3e7f 48bd 868d 50bd
00000390: a868 acbc 611d 55bd 5077 a73a a30d 66bd
000003a0: aa65 58bd 9aa3 86bc 82dd 7fbd 9b28 62bd
000003b0: 0c86 b0bc 38cf 11bc a061 18bc e6bb 673d
000003c0: ac6c 7ebd c418 adbc 6f4b 80bd 9c30 35bd
000003d0: 705f 48bc 4615 b43c c0f4 a93c 2652 613d
000003e0: 3ee1 4d3d f451 25bd 48ea 653d a889 8e3c
000003f0: 72d1 1a3b 2262 793d 4151 78bc 5cd5 f1bc

fc2.bias f4 [128]
-0.058753837 0.12951961 0.02650164 0.024701895 -0.06976267 0.038038675 -0.03675884 -0.025254397
-0.0067034946 -0.00904456 -0.029987881 -0.0704438 0.12802084 -0.006431187 0.021689953 0.038764574
-0.16795687 0.034913596 0.3083258 0.021550776 -0.034741867 -0.08425986 -0.048308283 -0.070367284
0.07393603 0.26057953 -0.4760016 -0.10815217 -0.006509088 0.038008384 -0.08184712 0.011833121
0.048386134 0.086344935 0.21433681 -0.19581667 0.19118658 0.018568194 -0.09185758 -0.017015025
-0.06646926 0.0006530652 0.06057026 -0.094483085 -0.0763483 -0.0071142465 -0.052533474 -0.03579484
-0.013334892 -0.18980841 -0.079769835 0.039109718 -0.04492528 -0.03756453 -0.059866592 -0.023401454
-0.048896737 -0.041977357 0.21688206 -0.1664738 -0.016836723 -0.1874686 0.017020538 -0.008634508
-0.07956804 -0.08387118 0.046802584 -0.027360981 -0.08107096 -0.25815994 -0.18907706 -0.017325353
0.0027712293 0.32090202 0.3898484 -0.090815865 -0.047220163 -0.22715496 0.06360584 -0.0674153
-0.04116192 -0.04473211 -0.11304606 -0.09787709 -0.10792469 -0.06275977 -0.07236693 -0.006699577
0.027013725 -0.080600545 -0.10741142 0.036884885 -0.08640795 -0.11218181 -0.19147119 -0.14741272
-0.24167782 -0.12934865 0.024043513 -0.27909353 -0.015393065 -0.020615764 0.025824461 -0.013630638
-0.03433632 0.07839468 -0.35460767 0.0147748655 -0.033590835 0.015362686 -0.26100534 0.027853506
-0.038932983 -0.106347546 -0.055252723 -0.023820136 0.014499741 -0.08576487 -0.06794484 0.09656134
-0.061198864 -0.11813833 -0.014639818 -0.12445905 -0.07160301 -0.11177289 -0.048203245 -0.00059196854
00000000: dda7 70bd caa0 043e f819 d93c a15b ca3c
00000010: bbdf 8ebd 71ce 1b3d 7090 16bd 4fe2 cebc
00000020: fda8 dbbb a22f 14bc 25a9 f5bc d744 90bd
00000030: e517 033e b5bc d2bb 21af b13c 9ac7 1e3d
00000040: e3fc 2bbe 8f01 0f3d e1dc 9d3e 418b b03c
00000050: 7d4d 0ebd 6f90 acbd e8de 45bd b91c 90bd
00000060: c66b 973d ae6a 853e 7bb6 f3be e37e ddbd
00000070: 304a d5bb aeae 1b3d 769f a7bd b5df 413c
00000080: 8a30 463d 9dd5 b03d 1c7b 5b3e 2a84 48be
00000090: 6ac6 433e 531c 983c d41f bcbd 1863 8bbc
000000a0: 0921 88bd 7732 2b3a 8518 783d 5980 c1bd
000000b0: 7f5c 9cbd a01e e9bb 572d 57bd 9c9d 12bd
000000c0: 977a 5abc 235d 42be 5e5e a3bd 8331 203d
000000d0: 9203 38bd 44dd 19bd ac36 75bd 68b4 bfbc
000000e0: f247 48bd 73f0 2bbd 5516 5e3e 1c78 2abe
000000f0: 2bed 89bc c5f7 3fbe a86e 8b3c c077 0dbc
00000100: 92f4 a2bd a7c4 abbd 11b4 3f3d 2324 e0bc
00000110: 8808 a6bd 8a2d 84be 6b9d 41be e6ed 8dbc
00000120: 839d 353b 454d a43e 369a c73e abfd b9bd
00000130: ee69 41bd 4f9b 68be c743 823d 0811 8abd
00000140: 6799 28bd 0439 37bd b184 e7bd c973 c8bd
00000150: 9f07 ddbd 3288 80bd 1d35 94bd 2088 dbbb
00000160: e34b dd3c e611 a5bd 85fa dbbd 9b14 173d
00000170: a7f6 b0bd 94bf e5bd 0611 44be 5cf3 16be
00000180: 647a 77be f973 04be e7f6 c43c 59e5 8ebe
00000190: 3233 7cbc 64e2 a8bc d28d d33c 0a53 5fbc
000001a0: 3ea4 0cbd 648d a03d 238f b5be 4712 723c
000001b0: 8b96 09bd c6b3 7b3c 7ea2 85be 092d e43c
000001c0: 3178 1fbd becc d9bd ae50 62bd 7222 c3bc
000001d0: 5290 6d3c 7ea5 afbd aa26 8bbd f4c1 c53d
000001e0: a9ab 7abd 82f2 f1bd d9db 6fbc 63e4 febd
000001f0: 99a4 92bd 2fe9 e4bd c470 45bd 562e 1bba

fc3.weight f4 [64, 128]
0.030771475 -0.22774681 -0.21680748 0.0708387 -0.062242523 0.023425179 -0.16184677 -0.03722023
0.07397441 -0.30918723 -0.05809326 -0.062234998 -0.34620926 0.050790526 -0.06838082 -0.07339703
-0.022146065 -0.056269042 -0.0074833217 -0.1622204 -0.06388396 0.036793694 -0.054108735 0.05594534
-0.044689648 -0.063709825 -0.09390412 -0.08253067 -0.043047905 -0.056899175 0.05645894 0.08126087
-0.24173002 -0.22350341 -0.05910555 -0.044804674 0.095320284 0.06595923 0.071283914 -0.05483704
-0.016796581 -0.09518305 -0.047822714 -0.029048696 -0.09247672 -0.021577911 0.024831539 0.0011079718
-0.24987532 0.07494577 -0.01896239 -0.2914992 0.006580844 -0.06752777 -0.06954646 -0.032533713
-0.06255015 -0.043713585 -0.04474602 -0.08025694 -0.05790133 -0.029423475 0.024963753 -0.38038847
-0.079395875 -0.0028060095 -0.26658 0.022864504 0.06301483 -0.1120774 -0.12150627 -0.01735826
-0.26492766 -0.035004117 -0.02636034 -0.055309422 0.039573606 -0.009947858 0.061154287 -0.06637117
-0.0836998 -0.051803734 -0.012132361 -0.05703948 0.03887859 -0.30369216 -0.0877364 -0.06902045
0.017546773 0.055532284 -0.028948748 -0.30197427 0.008834102 -0.09069689 -0.014857339 -0.051731713
-0.10362208 -0.1431831 -0.15283754 0.014580032 0.06147677 0.06908212 -0.022797419 -0.024205452
-0.026855795 -0.06354007 -0.08040296 0.015706021 0.04837832 0.060972217 -0.016087696 -0.14950791
0.012935686 -0.038344663 0.021435263 -0.059260365 -0.029204668 -0.043660585 -0.012919087 -0.0059095887
-0.1701935 -0.08860696 -0.027513597 -0.14012802 -0.027043436 -0.064267956 -0.048838068 0.007358048
0.027787302 -0.0030564694 -0.32182625 0.0075634522 -0.07378528 -0.042447526 -0.029458836 -0.09499747
-0.0014596818 0.055722192 0.064879544 -0.08793421 -0.11667623 0.057090435 0.057109274 -0.060017787
0.07671241 -0.054273725 -0.096319556 -0.18551068 0.02527255 0.06977894 -0.044229403 0.076966345
-0.015904853 -0.1292908 -0.34883893 -0.009289119 -0.10802119 -0.124629006 0.010288762 -0.0672733
0.0083773155 -0.021784054 -0.087569766 -0.024706982 0.11111637 0.026960485 0.018678064 0.076797634
-0.015894802 0.00021888727 -0.022456685 -0.11188606 0.0061266813 0.13394864 0.04276942 0.022221567
-0.11308615 0.082926854 -0.02086149 -0.16086204 0.054564424 -0.20231807 -0.41371626 -0.18321241
0.057466414 0.06444231 0.010120696 -0.12217825 -0.11971744 0.060291234 0.050943043 -0.08065309
0.15372086 0.027517771 -0.24199077 -0.08834002 -0.046501633 0.11767568 -0.25413042 0.06243823
-0.056235645 -0.9538657 -0.43560645 0.0388899 0.03148144 0.11271565 -0.23128349 -0.077023946
0.0462192 -0.082583345 -0.034625493 -0.210446 0.06838691 -0.17732117 -0.10261285 -0.027302928
0.011249199 -0.06732376 0.00085336866 -0.21498303 0.0014194036 -0.030269194 0.17480172 0.02159887
0.015444205 0.11815196 0.09874993 -0.2341775 -0.037796136 -0.08047821 -0.094109796 -0.024434825
-0.052280206 -0.05813152 -0.18467048 0.019662602 0.06899046 0.055930827 -0.028490975 0.19974984
-0.045249466 0.018235272 -0.034182515 0.023841426 0.04921519 -0.06970137 -0.0061022067 -0.0129500395
-0.09015148 -0.08762353 -0.009232841 -0.17076528 -0.119455695 0.0483624 -0.045304332 0.06831616
00000000: 7614 fc3c 7636 69be c802 5ebe e113 913d
00000010: 04f2 7ebd 29e6 bf3c 29bb 25be 3d74 18bd
00000020: e57f 973d ca4d 9ebe 33f3 6dbd 20ea 7ebd
00000030: 5742 b1be ba09 503d 3e0b 8cbd 2f51 96bd
00000040: aa6b b5bc 5e7a 66bd a736 f5bb 1b1d 26be
00000050: 98d5 82bd fcb4 163d 1fa1 5dbd f126 653d
00000060: 7e0c 37bd 4c7a 82bd ce50 c0bd d705 a9bd
00000070: 0053 30bd 1c0f 69bd 7d41 673d 196c a63d
00000080: 1388 77be 14de 64be a918 72bd 1b85 37bd
00000090: 4837 c33d a215 873d 4dfd 913d ce9c 60bd
000000a0: fc98 89bc 55ef c2bd c0e1 43bd 88f7 edbc
000000b0: 6f64 bdbd 29c4 b0bc 836b cb3c 5d39 913a
000000c0: 51df 7fbe 2b7d 993d 0457 9bbc 623f 95be
000000d0: 1fa4 d73b 004c 8abd 606e 8ebd 1242 05bd
000000e0: 4b1a 80bd 040d 33bd 9a47 37bd c05d a4bd
000000f0: f229 6dbd 8009 f1bc c980 cc3c 47c2 c2be
00000100: 4e9a a2bd 07e5 37bb 2c7d 88be 574e bb3c
00000110: eb0d 813d d688 e5bd 47d8 f8bd e932 8ebc
00000120: 99a4 87be 7a60 0fbd a4f1 d7bc 228c 62bd
00000130: ef17 223d 57fc 22bc eb7c 7a3d 9ced 87bd
00000140: cd6a abbd 2730 54bd cfc6 46bc 3ba2 69bd
00000150: 283f 1f3d 8a7d 9bbe 24af b3bd 985a 8dbd
00000160: 40be 8f3c d275 633d ed25 edbc 5f9c 9abe
00000170: e9bc 103c 4bbf b9bd 326c 73bc a2e4 53bd
00000180: d037 d4bd 979e 12be 7281 1cbe 16e1 6e3c
00000190: 11cf 7b3d ed7a 8d3d a7c1 babc 834a c6bc
000001a0: af00 dcbc 4c21 82bd 4faa a4bd eaa9 803c
000001b0: 5828 463d 01be 793d 58ca 83bc 9a18 19be
000001c0: 33f0 533c 4b0f 1dbd 0199 af3c ffba 72bd
000001d0: a13e efbc 71d5 32bd 94aa 53bc 39a5 c1bb
000001e0: 3447 2ebe 9177 b5bd 3264 e1bc b87d 0fbe
000001f0: 328a ddbc eb9e 83bd 6d0a 48bd c81b f13b
00000200: 32a2 e33c 0c4f 48bb 69c6 a4be d6d6 f73b
00000210: bd1c 97bd 75dd 2dbd a853 f1bc 098e c2bd
00000220: cb52 bfba f43c 643d 91df 843d da16 b4bd
00000230: f3f3 eebd a9d7 693d 6aeb 693d 36d5 75bd
00000240: 651b 9d3d 204e 5ebd 3043 c5bd 83f6 3dbe
00000250: 6108 cf3c 43e8 8e3d e429 35bd 88a0 9d3d
00000260: e54a 82bc cf64 04be 049b b2be 6431 18bc
00000270: 373a ddbd 7e3d ffbd 3292 283c 95c6 89bd
00000280: 0241 093c 7974 b2bc c757 b3bd 4c66 cabc
00000290: fb90 e33d 3cdc dc3c bd02 993c 1448 9d3d
000002a0: d135 82bc 1b85 6539 15f7 b7bc 8524 e5bd
000002b0: 54c2 c83b d529 093e fd2e 2f3d 010a b63c
000002c0: b699 e7bd 8ed5 a93d b7e5 aabc 05b9 24be
000002d0: f27e 5f3d 782c 4fbe 9ed2 d3be 099c 3bbe
000002e0: e761 6b3d 54fa 833d 47d1 253c 9738 fabd
000002f0: 6b2e f5bd f1f3 763d a7a9 503d 722d a5bd
00000300: 0069 1d3e f36c e13c 6ecc 77be 9deb b4bd
00000310: 7f78 3ebd f2ff f03d 621d 82be 3bbf 7f3d
00000320: 5957 66bd 8b30 74bf cf07 dfbe 044b 1f3d
00000330: aff2 003d 76d7 e63d 94d5 6cbe bbbe 9dbd
00000340: 5850 3d3d 7521 a9bd 76d3 0dbd 287f 57be
00000350: 700e 8c3d ae93 35be b026 d2bd 64aa dfbc
00000360: 8f4e 383c 0ae1 89bd 9ab4 5f3a 8324 5cbe
00000370: 480b ba3a 1af7 f7bc 39ff 323e 1df0 b03c
00000380: b109 7d3c a8f9 f13d 673d ca3d 3acc 6fbe
00000390: 1fd0 1abd c2d1 a4bd a3bc c0bd 8b2b c8bc
000003a0: c523 56bd 511b 6ebd 421a 3dbe 7713 a13c
000003b0: df4a 8d3d b917 653d e865 e9bc 398b 4c3e
000003c0: 8157 39bd 2362 953c f702 0cbd 184f c33c
000003d0: de95 493d 98bf 8ebd 05f5 c7bb 672c 54bc
000003e0: 57a1 b8bd f773 b3bd 5845 17bc 18dd 2ebe
000003f0: 30a5 f4bd a717 463d 0991 39bd 58e9 8b3d

fc3.bias f4 [64]
-0.012564949 -0.6660978 0.123174086 -0.5917014 -0.42302307 -0.49363157 -0.0889713 0.50949633
0.7826617 1.1721512 0.9773344 0.565612 0.059171602 -0.393903 0.21876106 -0.14965542
0.51268315 0.108347766 0.45171607 0.05366078 -0.23734087 0.3665589 0.006489603 -0.1057455
-1.116339 0.25897858 -0.19990508 0.9460781 0.13616706 -0.043040946 -0.12597847 -0.5953689
0.3730585 -0.2839883 -0.3180143 -0.65053993 -0.66595316 -0.59629375 0.26558992 -1.0079026
-0.24755974 0.2927138 -0.057306893 -0.93181705 0.47715846 -0.8071598 0.12279064 -0.8537031
-0.66472816 -0.22392271 -0.028264204 1.0135247 0.11865566 0.79746324 -0.16812007 -0.2575198
-0.7366999 0.012732564 -1.0470828 0.6333838 -0.6609559 -0.2553743 -0.17074317 0.43148738
00000000: 37dd 4dbc 6385 2abf b242 fc3d be79 17bf
00000010: 7b96 d8be 47bd fcbe 9636 b6bd 5a6e 023f
00000020: 845c 483f 0d09 963f 9632 7a3f f3cb 103f
00000030: ec5d 723d a7ad c9be e602 603e 453f 19be
00000040: 343f 033f 6fe5 dd3d 5447 e73e 68cb 5b3d
00000050: 7c09 73be 9cad bb3e bca6 d43b 1991 d8bd
00000060: 32e4 8ebf d798 843e ebb3 4cbe 2d32 723f
00000070: 616f 0b3e b44b 30bd 8000 01be 196a 18bf
00000080: 8601 bf3e ea66 91be c5d2 a2be c989 26bf
00000090: e87b 2abf b5a6 18bf 67fb 873e f402 81bf
000000a0: 4d80 7dbe 95de 953e a2ba 6abd 908b 6ebf
000000b0: 1d4e f43e 06a2 4ebf a979 fb3d 498c 5abf
000000c0: a02b 2abf ff4b 65be 558a e7bc 2dbb 813f
000000d0: bd01 f33d 8d26 4c3f ab27 2cbe a3d9 83be
000000e0: 5d98 3cbf 3e9c 503c cf06 86bf 7125 223f
000000f0: 6834 29bf 6cc0 82be 4cd7 2ebe eaeb dc3e

fc4.weight f4 [6, 64]
0.022708813 0.079887085 -0.05920681 -0.04386344 0.039593216 -0.081179954 -0.016515046 0.037884183
0.037418284 0.032340046 0.05537452 0.0387015 0.097522326 0.044806484 0.0037309788 0.16715442
0.20626028 -0.0058817007 0.021680957 0.014267846 0.04103594 0.020894712 0.04163083 0.033916328
-0.07390458 0.0009503395 -0.03264889 0.028103618 0.06703944 0.06543109 0.047216747 0.017264403
0.05699047 -0.11974515 -0.028440481 -0.0234019 -0.03228826 -0.027366338 0.05164806 -0.018305497
0.109974034 0.028657112 0.0131418165 -0.023725042 -0.10041148 -0.01225433 0.042345297 -0.025808815
-0.051042862 -0.07600097 0.056418497 0.035429936 -0.039886326 0.0465555 -0.10223255 -0.0022194926
0.0543572 0.02577494 -0.02386966 0.020989694 -0.11139144 -0.09111915 0.0020449334 -0.08110409
0.016511356 0.08102446 -0.04539798 -0.04340237 0.0051061916 -0.082693234 -0.013760887 0.008489464
0.04026878 0.03415426 0.06419151 0.041801408 0.09171975 0.04626103 0.007292053 0.1687203
0.20080754 0.015689427 0.020199051 0.047818646 0.041704446 0.021165172 0.05397833 0.025361398
-0.075124584 -0.008271626 -0.02582707 0.027544305 0.06756828 0.083055176 0.043759126 0.022852164
0.033865243 -0.13253774 -0.028001068 -0.02054775 -0.03249525 -0.023831792 0.045401014 -0.017995449
0.11497718 0.031406645 0.021352366 -0.029200293 -0.10127282 -0.013068215 0.039169043 -0.021573903
-0.050982423 -0.083544366 0.106116146 0.038121913 -0.043534208 0.043066412 -0.100872986 0.008752687
0.050066255 0.026446477 -0.023610592 0.019624861 -0.1095594 -0.07988993 0.010257971 -0.08046614
-0.01605156 0.08269341 -0.0492227 -0.040484384 0.030467752 -0.073787615 -0.013226305 0.02897561
0.03988491 0.033844005 0.041976586 0.03816573 0.11341748 0.04689638 0.010996376 0.18140908
0.19999309 0.034704722 0.021756066 0.026148306 0.038172342 0.019318737 0.051529307 0.030289825
-0.0686684 -0.02301701 -0.019901203 0.025916696 0.07905482 0.08709065 0.04971012 0.035646036
0.042436358 -0.10898397 -0.03287359 -0.02126338 -0.03260169 -0.004687885 0.047286592 -0.018344987
0.11042312 0.0142724095 0.03323037 -0.029543914 -0.106675886 -0.012270306 0.04929715 -0.014570469
-0.04929995 -0.044621877 0.07426559 0.038845077 -0.040365607 0.04523122 -0.100479566 0.026193827
0.047098324 0.024607703 -0.02126711 0.021747025 -0.10873142 -0.08883913 0.013118896 -0.08578688
-7.348768e-05 0.0785598 -0.08379391 -0.047940042 0.028507505 -0.06743763 -0.016183287 0.046424326
0.037119895 0.031460922 0.0614817 0.026837612 0.09625398 0.05006012 -0.028339298 0.17113806
0.20280671 -0.022707894 0.021650575 0.021097565 0.043057103 0.021542016 0.04992935 0.027990047
-0.07350609 0.010318561 -0.008565586 0.02927768 0.01946388 0.08178547 0.050740562 0.016327731
0.065420926 -0.13829924 -0.02314446 -0.02022129 -0.031015294 -0.0352366 0.052764956 -0.01868805
0.103380054 0.017450517 0.023546608 -0.020058565 -0.09175165 -0.011867955 0.056939654 -0.029581716
-0.04767591 -0.06978784 0.08760356 0.045317516 -0.040373493 0.046594426 -0.10058406 0.0032230373
0.050892673 0.026694063 -0.021571424 0.020678228 -0.1056721 -0.10369928 -0.0063660652 -0.082183525
00000000: d507 ba3c d79b a33d d782 72bd 27aa 33bd
00000010: 7f2c 223d ad41 a6bd 904a 87bc 722c 1b3d
00000020: ea43 193d ff76 043d 65d0 623d 7785 1e3d
00000030: c9b9 c73d 0187 373d 7083 743b 872a 2b3e
00000040: e535 533e 48bb c0bb 439c b13c afc3 693c
00000050: 4d15 283d 632b ab3c 1785 2a3d d9eb 0a3d
00000060: 495b 97bd 3420 793a d8ba 05bd 8f39 e63c
00000070: f94b 893d bc00 863d 5966 413d 146e 8d3c
00000080: d76e 693d f23c f5bd 03fc e8bc 57b5 bfbc
00000090: b240 04bd 5f2f e0bc eb8c 533d 69f5 95bc
000000a0: 113a e13d 52c2 ea3c c650 573c 055b c2bc
000000b0: 89a4 cdbd 63c6 48bc 4372 2d3d 026d d3bc
000000c0: 5212 51bd 66a6 9bbd 1517 673d fb1e 113d
000000d0: d85f 23bd fbb0 3e3d 4d5f d1bd e874 11bb
000000e0: a8a5 5e3d f825 d33c 4e8a c3bc 94f2 ab3c
000000f0: 3221 e4bd ad9c babd 4a04 063b e719 a6bd
00000100: d342 873c 27f0 a53d 3bf3 39bd afc6 31bd
00000110: d751 a73b 125b a9bd 5875 61bc 6517 0b3c
00000120: e0f0 243d 56e5 0b3d d776 833d f437 2b3d
00000130: 90d7 bb3d 357c 3d3d 2df2 ee3b 04c5 2c3e
00000140: 7ea0 4d3e 1d87 803c 7b78 a53c 7cdd 433d
00000150: 48d2 2a3d 9562 ad3c 6218 5d3d b5c2 cf3c
00000160: ebda 99bd b785 07bc 4b93 d3bc 98a4 e13c
00000170: 3d61 8a3d d518 aa3d c53c 333d 7634 bb3c
00000180: 48b6 0a3d f9b7 07be 7f62 e5bc c153 a8bc
00000190: bd19 05bd e43a c3bc 6af6 393d 316b 93bc
000001a0: 2879 eb3d 41a4 003d 28eb ae3c 7435 efbc
000001b0: 2068 cfbd 111c 56bc b86f 203d c1bb b0bc
000001c0: f2d2 50bd 4f19 abbd 6c53 d93d b925 1c3d
000001d0: ed50 32bd 6866 303d 7f96 cebd 6e67 0f3c
000001e0: 4612 4d3d 48a6 d83c 006b c1bc 51c4 a03c
000001f0: ae60 e0bd 559d a3bd 0c11 283c 6ecb a4bd
00000200: 907e 83bc 2a5b a93d be9d 49bd f4d2 25bd
00000210: 8297 f93c f61d 97bd 25b3 58bc 425e ed3c
00000220: 5c5e 233d 03a0 0a3d a4ef 2b3d ab53 1c3d
00000230: 6c47 e83d 6b16 403d 252a 343c 4dc3 393e
00000240: fdca 4c3e 8a26 0e3d c739 b23c f934 d63c
00000250: 9a5a 1c3d 5442 9e3c 6510 533d 5e22 f83c
00000260: 05a2 8cbd 2b8e bcbc d907 a3bc 404f d43c
00000270: 7ee7 a13d 955c b23d d79c 4b3d 9401 123d
00000280: bfd1 2d3d fd32 dfbd 75a6 06bd 8a30 aebc
00000290: 5a89 05bd d49c 99bb 96af 413d 3a48 96bc
000002a0: 8425 e23d d3d6 693c 921c 083d 1406 f2bc
000002b0: e378 dabd 6509 49bc cfeb 493d fab8 6ebc
000002c0: bfee 49bd 6ec5 36bd 8f18 983d 041c 1f3d
000002d0: 6856 25bd 5f44 393d 3bc8 cdbd 7094 d63c
000002e0: 2cea 403d 1896 c93c 5d38 aebc d126 b23c
000002f0: 94ae debd 4af1 b5bd a3f0 563c 08b1 afbd
00000300: 661d 9ab8 f6e3 a03d 249c abbd c75c 44bd
00000310: 9288 e93c bd1c 8abd d092 84bc 6f27 3e3d
00000320: 080b 183d 2bdd 003d 3cd4 7b3d 8dda db3c
00000330: cf20 c53d d70b 4d3d d127 e8bc d13e 2f3e
00000340: 90ac 4f3e e805 babc 8c5c b13c cdd4 ac3c
00000350: a55c 303d e278 b03c b882 4c3d 624b e53c
00000360: 5c8a 96bd 2f0f 293c ac56 0cbc bfd7 ef3c
00000370: b772 9f3c 247f a73d 56d5 4f3d bcc1 853c
00000380: 68fb 853d 519e 0dbe 7399 bdbc 1ea7 a5bc
00000390: c913 febc 4154 10bd 1120 583d ae17 99bc
000003a0: ecb8 d33d 63f4 8e3c d1e4 c03c dc51 a4bc
000003b0: 4ae8 bbbd d071 42bc 8e39 693d 5b55 f2bc
000003c0: d147 43bd edec 8ebd 7f69 b33d dc9e 393d
000003d0: ad5e 25bd ccd9 3e3d 04ff cdbd 9839 533b
000003e0: d674 503d 82ad da3c 8eb6 b0bc 6365 a93c
000003f0: 9d6a d8bd 4a60 d4bd 6d9a d0bb d64f a8bd

fc4.bias f4 [6]
0.6552054 0.65396374 0.65721315 0.6557263 0.65554774 0.6571545
00000000: 8bbb 273f 2b6a 273f 1f3f 283f aedd 273f
00000010: fad1 273f 473b 283f
