checkpoints/2021_02_04-08_17_57/dqn-Pong-ram-v0.pt (torch, 301239 bytes, 8 tensors)

fc1.weight f4 [256, 128]
-0.030463628 0.0029278256 -0.0031829558 0.033332445 -0.0053557847 0.070373274 -0.06424421 0.05377276
-0.0039410754 -0.036342148 0.8861552 -0.22248271 0.08003877 0.112585425 0.2243852 -0.011673868
-0.061848637 -0.5248784 0.007038385 0.103344806 -0.0025186073 0.036346655 0.024169859 0.090894975
-0.034284364 0.033570077 -0.033920344 0.06874875 0.07617434 -0.07591283 0.08103476 0.047785744
0.044092275 0.04196362 0.079059266 -0.0060922937 -0.06916777 -0.019784363 -0.056673236 0.0114231985
-0.01092359 -0.04183548 -0.0024625382 0.08931852 -0.001394889 0.008383511 -0.008206784 0.019472538
0.08433687 -0.03543383 0.051263854 -0.015423944 0.026416011 0.03972129 -0.0974777 -0.0821489
-31.991125 0.07544703 -0.1333762 -0.06601774 0.017834136 0.07861156 -0.07795185 -0.053930912
-0.0018641253 0.009125733 -0.015036957 -0.0058664973 -0.080587216 -0.02008119 0.08316469 -0.02020261
-0.057014547 -0.06468901 0.042279657 0.016405242 0.041809976 -0.0863688 -0.0052699787 0.062335324
0.041004363 0.003227711 0.017378831 -0.008368615 -0.048598878 -0.03340189 -0.05382671 0.07341617
0.04863893 0.030911405 -0.06778082 0.06820238 0.027713522 0.061146583 -0.034771096 0.018738056
0.08630082 0.05945523 0.07088716 -0.018560207 0.06734107 -0.0692286 0.0076446165 -0.049767494
-0.020613506 -0.022636028 0.0066131353 0.080445744 0.043759648 -0.0003744326 0.06274208 -0.0452951
0.04555283 -0.008196487 -0.015380533 0.010347926 -0.06771402 0.01021392 0.029719522 0.075566
-0.0275191 0.008106283 0.09582136 -0.032336768 0.08960412 -0.038304694 0.04453694 0.040203124
0.014968103 0.06989778 0.007361561 0.023230141 -0.00935154 -0.07618136 -0.021461923 -0.10983767
0.014317326 -0.07181721 0.08180755 0.07369916 0.015302419 -0.12921177 0.054510657 0.07611996
0.0036660947 -0.20891526 -0.08881514 -0.028996475 -0.07279434 -0.0838999 -0.05752994 -0.039707504
-0.0031763182 0.051168837 0.025248306 0.058001272 -0.06522092 -0.0022559948 -0.08828884 0.04098966
0.008698717 0.07577167 -0.07258495 0.061159167 0.0648977 0.061741583 0.002890665 0.07064773
0.04930681 0.056248713 -0.015438194 -0.07754016 -0.010811113 0.0068648886 -0.06992872 -0.060414393
-0.09446293 -0.059117675 0.059529506 0.0013388717 -0.015099216 -0.0061509428 0.019546704 -0.07805253
-0.07527196 -0.029386511 -0.08856681 0.035872098 0.0825071 -0.095456846 -0.084713586 -0.09579511
-0.0071938345 0.061418816 -0.078251995 -0.040783655 0.018405752 -0.06912215 0.06536195 0.010789953
-0.034328245 -0.0057143094 0.017834328 -0.040976014 -0.07821037 0.0005941125 0.0016099885 0.0017823691
-0.012898537 0.056751817 -0.02466558 -0.008555346 0.036344197 -0.055634923 0.023666741 -0.019544052
0.042397548 -0.04794753 0.0032666863 0.008646973 -0.071116954 -0.0642709 0.033898108 -0.025726004
0.052493542 -0.08731554 -0.04369289 -0.07280211 0.035308618 -0.0025624968 -0.016486319 -0.014705288
-0.06908865 0.02506649 0.0022031527 -0.06099794 0.033259448 -0.0017765212 -0.08548458 0.04754588
0.047277782 -0.016653262 -0.061026685 0.0035487963 0.06669606 0.08090537 -0.06671561 -0.039922275
0.068821326 0.014753847 0.045801636 -0.05370231 0.066427566 -0.082383014 -0.013975743 -0.007886884
00000000: dc8e f9bc c3e0 3f3b 2399 50bb 9a87 083d
00000010: 947f afbb dd1f 903d 7892 83bd d340 5c3d
00000020: 2324 81bb 81db 14bd 11db 623f 82d2 63be
00000030: 5eeb a33d 3093 e63d 3cc5 653e c043 3fbc
00000040: ff54 7dbd 6e5e 06bf 41a2 e63b 71a6 d33d
00000050: 380f 25bb 3be0 143d deff c53c 2527 ba3d
00000060: c36d 0cbd c780 093d 0ff0 0abd 25cc 8c3d
00000070: 4b01 9c3d 3078 9bbd 8df5 a53d fcba 433d
00000080: 1a9a 343d 0be2 2b3d d3e9 a13d dda1 c7bb
00000090: d5a7 8dbd d112 a2bc 3222 68bd 5e28 3b3c
000000a0: dbf8 32bc ae5b 2bbd 8962 21bb a1ec b63d
000000b0: b5d4 b6ba fe5a 093c bf75 06bc df84 9f3c
000000c0: cfb8 ac3d 1023 11bd 0cfa 513d b6b4 7cbc
000000d0: 6466 d83c cbb2 223d 63a2 c7bd af3d a8bd
000000e0: d3ed ffc1 f983 9a3d c593 08be 4f34 87bd
000000f0: e518 923c 19ff a03d 38a5 9fbd a9e6 5cbd
00000100: aa55 f4ba 1984 153c 925d 76bc bf3b c0bb
00000110: e90a a5bd 4f81 a4bc 4052 aa3d f27f a5bc
00000120: 1688 69bd ac7b 84bd 6f2d 2d3d 4964 863c
00000130: f040 2b3d 20e2 b0bd c9af acbb 5353 7f3d
00000140: 31f4 273d 0188 533b 0d5e 8e3c 841c 09bc
00000150: 9e0f 47bd 6cd0 08bd 6579 5cbd 385b 963d
00000160: 9d39 473d ea39 fd3c acd0 8abd b0ad 8b3d
00000170: 7807 e33c d774 7a3d 236c 0ebd 8d80 993c
00000180: 7cbe b03d 5487 733d 4a2d 913d 930b 98bc
00000190: 1dea 893d b9c7 8dbd b17f fa3b 00d9 4bbd
000001a0: a8dd a8bc 316f b9bc 00b3 d83b bdc0 a43d
000001b0: 513d 333d 7e4f c4b9 eb7e 803d 5b87 39bd
000001c0: 9b95 3a3d 8f4a 06bc a2fe 7bbc 598a 293c
000001d0: a6ad 8abd 4958 273c 5b76 f33c 59c2 9a3d
000001e0: bc6f e1bc 37d0 043c fd3d c43d 8f73 04bd
000001f0: 5d82 b73d 62e5 1cbd 5e6c 363d 08ac 243d
00000200: c63c 753c 9126 8f3d 4039 f13b 234d be3c
00000210: 3437 19bc f904 9cbd ead0 afbc 93f2 e0bd
00000220: 3893 6a3c e714 93bd b78a a73d 96ef 963d
00000230: ffb6 7a3c 1750 04be 9146 5f3d c8e4 9b3d
00000240: dd42 703b e2ed 55be b6e4 b5bd 048a edbc
00000250: 3315 95bd b6d3 abbd 84a4 6bbd 56a4 22bd
00000260: c729 50bb 6a96 513d 89d5 ce3c be92 6d3d
00000270: 8c92 85bd 50d9 13bb c8d0 b4bd c6e4 273d
00000280: 1085 0e3c 2d2e 9b3d 6ba7 94bd 0982 7a3d
00000290: 16e9 843d bee4 7c3d 5071 3d3b c2af 903d
000002a0: f0f5 493d 0d65 663d 7bf0 7cbc 60cd 9ebd
000002b0: 1821 31bc dcf2 e03b ca36 8fbd 1575 77bd
000002c0: c875 c1bd 6025 72bd 36d5 733d 147d af3a
000002d0: b462 77bc d98d c9bb 6920 a03c 01da 9fbd
000002e0: 2f28 9abd fbbb f0bc 8462 b5bd 9fee 123d
000002f0: 7cf9 a83d e17e c3bd 517e adbd 3a30 c4bd
00000300: 42ba ebbb 4c92 7b3d 9542 a0bd c30c 27bd
00000310: a9c7 963c ea8f 8dbd 7cdc 853d 58c8 303c
00000320: c69b 0cbd 1a3f bbbb 4c19 923c 77d6 27bd
00000330: c22c a0bd 37be 1b3a 4006 d33a 629e e93a
00000340: 6354 53bc 9874 683d 780f cabc b92b 0cbc
00000350: a7dd 143d 72e1 63bd c1e0 c13c d91a a0bc
00000360: 0da9 2d3d a164 44bd e715 563b 09ac 0d3c
00000370: c4a5 91bd 76a0 83bd bed8 0a3d 57bf d2bc
00000380: 7803 573d 7dd2 b2bd 51f7 32bd 4619 95bd
00000390: c59f 103d 90ef 27bb 510e 87bc 73ee 70bc
000003a0: 5a7e 8dbd 3d58 cd3c c562 103b fad8 79bd
000003b0: 0f3b 083d 29da e8ba 8a12 afbd 78bf 423d
000003c0: 59a6 413d 6c6c 88bc 1ef7 79bd ec92 683b
000003d0: f297 883d b7b1 a53d 32a2 88bd 8a85 23bd
000003e0: 32f2 8c3d 1fba 713c 7f9a 3b3d f4f6 5bbd
000003f0: 2d0b 883d 6db8 a8bd 84fa 64bc fd37 01bc

fc1.bias f4 [256]
0.05570799 -0.053723216 -0.092520885 -0.02917768 -0.013339914 -0.039653104 -0.0053431215 -0.012951368
-0.034254644 -0.073060654 -0.032993536 -0.034319047 -0.04997164 -0.00028216167 0.0674286 -0.06013959
-0.0036969488 -0.06972308 0.0304817 0.06650291 -0.028829928 0.0010735501 -0.047530316 -0.05955761
0.04159643 -0.010227596 0.06979071 -0.06033886 0.067846686 0.0645018 0.070847616 0.008895364
-0.06072838 0.012280292 0.02147993 -0.0177956 -0.08917629 -0.036894314 -0.0324783 0.03700304
0.002791176 -0.07363398 0.046663694 0.06293193 0.0403465 0.011831724 -0.06920537 -0.032141753
-0.076313145 0.048173625 0.042651717 0.043445315 -0.101509675 -0.023617368 0.028137533 0.08007534
-0.012232104 -0.07711523 -0.14532275 0.041994505 0.011295028 -0.04452171 0.05194752 -0.10229008
0.056852754 -0.0031005607 -0.07717443 -0.06732034 -0.049626354 0.043228064 -0.028696295 0.06798438
-0.044130377 -0.025247095 -0.108321086 0.058582895 0.0013726625 0.01822712 -0.0605976 0.042292897
0.076265655 -0.033528782 0.03615494 0.023557821 -0.020936657 0.027368892 -0.039333753 -0.019450719
-0.06782153 -0.07848662 0.035822924 -0.065632515 -0.0011409976 0.021083055 -0.04222051 -0.034096472
-0.10493992 0.07376972 -0.07067555 0.022353373 -0.068144746 0.04701897 -0.017369542 -0.03391694
-0.010452875 0.0568226 0.009763549 -0.056870297 0.0013143705 -0.07807614 0.08330201 -0.067529514
0.14920749 -0.053184234 -0.017959267 0.04049516 -0.031019133 0.03480028 0.055433646 0.06351576
0.073201686 -0.07201912 -0.053237725 0.037418056 -0.004527871 -0.08621087 0.04576104 -0.0015277179
-0.06957933 -0.07539307 -0.09598623 0.10481656 0.022404872 -0.087751 -0.037952688 -0.08554397
-0.051358406 -0.0126713365 0.055657666 -0.05640708 -0.013790529 -0.07251407 0.11124208 -0.0027312578
0.011869617 0.032487117 0.0031970567 -0.0918611 -0.013348058 0.08431042 0.01933395 -0.10016962
0.0075997333 0.066534154 0.011886397 -0.011092996 0.05945175 -0.05929398 0.06622147 0.074824356
-0.055385593 0.038994662 0.015195759 -0.0663035 -0.036996208 -0.06047818 0.0052312985 0.04479552
-0.027880128 0.0288419 -0.06689841 0.0732798 0.073796645 -0.06339707 0.031230086 -0.044458833
-0.03060212 0.082029365 0.0012566532 -0.029083647 0.06919116 0.063558936 -0.009830264 0.014863088
-0.07763148 -0.05349683 -0.058866482 -0.07883488 -0.03298518 -0.00013028986 0.057764042 0.074157774
0.05550396 -0.045431107 -0.018294053 -0.056348313 -0.0091961045 -0.06918967 0.019213604 0.039850995
-0.057995927 0.0512434 0.058329325 0.0004712983 -0.086140655 -0.061824255 0.07755116 -0.045504995
-0.038337912 -0.059713222 -0.014023691 0.002211134 0.032831483 0.07746683 -0.032054555 -0.040254597
-0.0867972 -0.032002915 0.029922582 -0.040480383 0.0045021893 -0.030676235 -0.033296205 0.07169592
-0.12141346 0.010140336 0.00934722 -0.07024932 -0.044619847 0.024583196 -0.05385211 0.055923708
-0.091495976 -0.035422094 0.026463289 -0.08557775 0.017229045 -0.08026197 -0.025766175 0.030040313
0.017092388 0.046780836 -0.09476296 -0.023403207 0.05727966 -0.08053623 -0.08275623 -0.020193093
-0.02951608 -0.06612506 -0.041425705 0.04406609 -0.08677655 0.07714445 0.045842823 0.0692742
00000000: 102e 643d e00c 5cbd 977b bdbd 0806 efbc
00000010: a88f 5abc 4b6b 22bd 5a15 afbb f931 54bc
00000020: 994e 0cbd d3a0 95bd 3b24 07bd 2192 0cbd
00000030: 10af 4cbd 19ef 93b9 0118 8a3d ee54 76bd
00000040: 8248 72bb f9ca 8ebd c2b4 f93c ad32 883d
00000050: be2c ecbc 5db6 8c3a 26af 42bd aef2 73bd
00000060: 0561 2a3d a691 27bc 6fee 8e3d e125 77bd
00000070: 34f3 8a3d 8519 843d 8e18 913d dcbd 113c
00000080: 52be 78bd 4733 493c aef6 af3c 14c8 91bc
00000090: 0fa2 b6bd 7e1e 17bd f707 05bd 8090 173d
000000a0: 2aec 363b 69cd 96bd 6e22 3f3d 75e2 803d
000000b0: 5f42 253d d9d9 413c 8cbb 8dbd 12a7 03bd
000000c0: 114a 9cbd b551 453d 91b3 2e3d b7f3 313d
000000d0: 4ee4 cfbd 3679 c1bc af80 e63c 8afe a33d
000000e0: 2a69 48bc 97ee 9dbd 7dcf 14be 6e02 2c3d
000000f0: c80e 393c 665c 36bd ecc6 543d 767d d1bd
00000100: 6fde 683d c732 4bbb a10d 9ebd 3fdf 89bd
00000110: 0145 4bbd e90f 313d 7e14 ebbc 653b 8b3d
00000120: 0ec2 34bd ffd2 cebc 72d7 ddbd 9ef4 6f3d
00000130: e9ea b33a 0b51 953c 3035 78bd 513b 2d3d
00000140: 2b31 9c3d 7a55 09bd 3417 143d 55fc c03c
00000150: 5a83 abbc ba34 e03c 6e1c 21bd 1d57 9fbc
00000160: 04e6 8abd 98bd a0bd 0fbb 123d 576a 86bd
00000170: 878d 95ba 5fb6 ac3c 6aef 2cbd bea8 0bbd
00000180: beea d6bd 9414 973d 58be 90bd 6c1e b73c
00000190: 798f 8bbd f796 403d 924a 8ebc 7dec 0abd
000001a0: 8942 2bbc d1be 683d 4bf7 1f3c d4f0 68bd
000001b0: f546 ac3a 62e6 9fbd 3f9a aa3d ea4c 8abd
000001c0: d9c9 183e b6d7 59bd 501f 93bc 41de 253d
000001d0: d61b febc bd8a 0e3d 640e 633d 8d14 823d
000001e0: c4ea 953d c37e 93bd cd0f 5abd ad43 193d
000001f0: 895e 94bb 538f b0bd ee6f 3b3d b53d c8ba
00000200: 9c7f 8ebd af67 9abd 6e94 c4bd 11aa d63d
00000210: 6c8a b73c ccb6 b3bd 4774 1bbd ad31 afbd
00000220: 315d 52bd 709b 4fbc 4bf9 633d 1c0b 67bd
00000230: acf1 61bc 4282 94bd e3d2 e33d e7fe 32bb
00000240: c878 423c 3611 053d b685 513b ac21 bcbd
00000250: d0b1 5abc f1aa ac3d 3b62 9e3c bb25 cdbd
00000260: 2f07 f93b 0f43 883d 2abf 423c 66bf 35bc
00000270: ae83 733d 3fde 72bd 1f9f 873d 833d 993d
00000280: 01dc 62bd deb8 1f3d a2f7 783c 21ca 87bd
00000290: 5689 17bd f8b7 77bd 506b ab3b 827b 373d
000002a0: de64 e4bc d945 ec3c 0902 89bd b813 963d
000002b0: b222 973d 53d6 81bd 3dd6 ff3c 771a 36bd
000002c0: 4cb1 fabc 03ff a73d 49b6 a43a d440 eebc
000002d0: 18b4 8d3d 302b 823d 1e0f 21bc 4f84 733c
000002e0: 41fd 9ebd 7e1f 5bbd fb1d 71bd 2e74 a1bd
000002f0: 781b 07bd 6b9e 08b9 fd99 6c3d 08e0 973d
00000300: 1f58 633d f815 3abd 69dd 95bc 7dcd 66bd
00000310: 42ab 16bc 50b3 8dbd d965 9d3c cc3a 233d
00000320: 238d 6dbd 99e4 513d bbea 6e3d 9618 f739
00000330: 836a b0bd 6e3b 7dbd 24d3 9e3d 7263 3abd
00000340: 3708 1dbd da95 74bd a0c3 65bc ace8 103b
00000350: 4e7a 063d eea6 9e3d a34b 03bd 01e2 24bd
00000360: bbc2 b1bd 7d15 03bd 3420 f53c c2ce 25bd
00000370: 1a87 933b ba4c fbbc 9a61 08bd 4fd5 923d
00000380: 9fa7 f8bd a723 263c 1525 193c e0de 8fbd
00000390: 4dc3 36bd b362 c93c 0894 5cbd 4210 653d
000003a0: 3e62 bbbd c216 11bd 8ac9 d83c 6343 afbd
000003b0: ed23 8d3c 6360 a4bd 9613 d3bc 1a17 f63c
000003c0: 5605 8c3c 439d 3f3d 1513 c2bd 15b8 bfbc
000003d0: 149e 6a3d 2ef0 a4bd 197c a9bd fc6b a5bc
000003e0: b5cb f1bc 936c 87bd 00ae 29bd a57e 343d
000003f0: e7b7 b1bd e9fd 9d3d afc5 3b3d a2df 8d3d

fc2.weight f4 [128, 256]
0.010072963 -0.016519984 -0.035503518 0.011200257 -0.09598147 -0.018430723 -0.0034939928 -0.025378818
-0.034584377 0.026837455 -0.002564977 -0.022142107 0.0044753114 0.017193273 0.042533077 0.0608219
0.04909499 0.0008811452 -0.06393142 0.010502987 0.032492496 -0.03311038 0.040228624 0.028787836
0.02934084 -0.05839386 -0.003053978 -0.015758209 -0.04398576 0.00789196 0.006148182 0.052769843
-0.009663023 0.012765117 -0.05516101 0.0515083 -0.04917226 -0.0056192577 -0.021163642 -0.026073774
0.012381965 0.0013435879 0.056565218 -0.050046477 0.0019239801 -0.05764402 -0.009966515 -0.030179128
-0.024452787 -0.04258243 -0.0457357 0.040836763 -0.0503088 -0.01711823 0.019480642 -0.062129535
-0.014150464 -0.035434343 -0.073858105 0.031467382 -0.030478016 -0.041949175 0.03673905 -0.04391601
0.056951493 0.050891437 -0.001961598 -0.05094453 -0.0772846 -0.030813158 -0.008782968 0.01035805
0.020166405 -0.05156759 -0.116080485 -0.023786724 0.027508812 0.028153345 0.042675704 -0.017572977
-0.057931833 -0.06065961 -0.045270715 0.0021816916 0.01701498 -0.06746827 -0.06802019 -0.0050672963
-0.05172716 -0.020585306 0.0018715862 -0.016468886 -0.07817364 0.016968245 0.017413406 -0.052486032
-0.0033917052 0.05222796 -0.056547638 -0.054515965 0.040348448 0.050938897 -0.009521738 -0.04995948
0.0008518866 0.05986844 -0.050464302 -0.06924648 -0.024266511 0.002503839 -0.006877236 -0.15548918
-0.09124229 -0.0045647994 0.00014993548 -0.0087900525 -0.03972823 -0.031559274 -0.007096842 -0.036141805
-0.026876986 -0.049460035 -0.07045494 -0.020572424 0.008307274 -0.03027685 0.025537692 0.023939133
0.03888616 -0.06304119 0.021543343 -0.06565605 0.052861392 -0.0015194714 0.009058401 -0.062170006
-0.033316202 -0.1330422 0.014494576 -0.046481367 -0.0013372547 0.006135367 -0.02289631 -0.0542056
0.051433735 -0.020367078 -0.04565275 -0.022898778 -0.010040709 0.047808096 -0.043241598 0.023637615
-0.034782916 -0.050543964 -0.05089226 -0.016154999 0.023501381 -0.065569125 -0.04463621 -0.0823039
0.029612064 -0.022945903 -0.026081262 0.01643439 -0.055230215 -0.029030465 0.056500338 -0.0055064093
0.001354867 0.018620929 -0.03574911 0.050707534 -0.057883702 -0.015323281 -0.03864313 -0.055735856
-0.043153882 0.024994168 -0.028031029 0.05409274 0.034800086 -0.08377628 0.047254287 -0.027850308
-0.003414875 -0.040808946 -0.019439021 0.037336327 0.04723075 -0.058073174 0.045685954 0.0300887
-0.02550112 -0.012558901 0.02164673 0.017432436 -0.0023700967 0.04590647 -0.0065636383 -0.013107017
0.036238596 -0.06829584 0.0135824 -0.09250663 -0.0665929 0.035654265 -0.06713538 -0.03195518
0.034650855 -0.032031447 -0.019023465 -0.030640436 0.037484642 0.060512975 0.046371587 0.008586721
-0.059119336 -0.045928296 0.011176646 0.03511052 -0.025723062 -0.0070041493 0.030183792 0.019824743
-0.039197855 0.0093664825 -0.048949473 -0.050916217 -0.021045998 -0.05202997 0.0012776647 -0.05616535
-0.05283133 -0.016435433 -0.062467106 -0.055214506 -0.021548294 -0.008899502 -0.009300619 0.05657568
-0.062115356 -0.021129973 -0.06264388 -0.04423581 -0.012229785 0.0219828 0.020746589 0.055009983
0.050263636 -0.04036136 0.05613163 0.017399624 0.0023623374 0.060884602 -0.015156091 -0.029520683
00000000: 1209 253c eb54 87bc 236c 11bd 4881 373c
00000010: ef91 c4bd 07fc 96bc 79fb 64bb 3de7 cfbc
00000020: 59a8 0dbd 39da db3c 2c19 28bb 5d63 b5bc
00000030: a2a5 923b e8d8 8c3c 2a37 2e3d 6220 793d
00000040: d417 493d a7fc 663a 7aee 82bd b814 2c3c
00000050: da16 053d c09e 07bd c5c6 243d 78d4 eb3c
00000060: 345c f03c 662e 6fbd 4025 48bb 5c17 81bc
00000070: 6a2a 34bd 484d 013c b076 c93b 3125 583d
00000080: a851 1ebc c824 513c 83f0 61bd 5efa 523d
00000090: da68 49bd c021 b8bb 605f adbc ab98 d5bc
000000a0: badd 4a3c 541b b03a eeb0 673d 89fd 4cbd
000000b0: 0f2e fc3a 231c 6cbd 984a 23bc 383a f7bc
000000c0: 3651 c8bc ea6a 2ebd 5b55 3bbd 7344 273d
000000d0: 9a10 4ebd 883b 8cbc de95 9f3c 8a7b 7ebd
000000e0: 59d7 67bc 9a23 11bd eb42 97bd f1e3 003d
000000f0: 08ad f9bc e6d2 2bbd b07b 163d 46e1 33bd
00000100: f845 693d 8a73 503d 278e 00bb 36ab 50bd
00000110: 6347 9ebd e06b fcbc 70e6 0fbc d0b4 293c
00000120: 0434 a53c 8a38 53bd 9bbb edbd 60dc c2bc
00000130: 295a e13c d8a1 e63c b8cc 2e3d 34f5 8fbc
00000140: ee49 6dbd 3676 78bd c96d 39bd b6fa 0e3b
00000150: 0063 8b3c ce2c 8abd 2b4e 8bbd 900b a6bb
00000160: dcdf 53bd 84a2 a8bc 0350 f53a c2e9 86bc
00000170: 8019 a0bd fd00 8b3c 8fa6 8e3c 98fb 56bd
00000180: 5f47 5ebb fcec 553d 7f9e 67bd 224c 5fbd
00000190: 6a44 253d 4ea5 503d 1001 1cbc 50a2 4cbd
000001a0: 2451 5f3a 9c38 753d a8b3 4ebd 19d1 8dbd
000001b0: 90ca c6bc 7317 243b 705a e1bb 8e38 1fbe
000001c0: 3ddd babd 5094 95bb 0038 1d39 2704 10bc
000001d0: 12ba 22bd 4c44 01bd a08c e8bb 6e09 14bd
000001e0: 202d dcbc 9b96 4abd ae4a 90bd 8087 a8bc
000001f0: 3c1b 083c 2807 f8bc 6c34 d13c 001c c43c
00000200: 1847 1f3d bd1b 81bd aa7b b03c ae76 86bd
00000210: 3085 583d 0029 c7ba b069 143c faa5 7ebd
00000220: 9276 08bd 373c 08be a87a 6d3c 3f63 3ebd
00000230: d246 afba 300b c93b 0b91 bbbc b106 5ebd
00000240: 2eac 523d dcd8 a6bc 61fe 3abd 3896 bbbc
00000250: c981 24bc 6cd2 433d 1a1e 31bd aca3 c13c
00000260: 8878 0ebd 3007 4fbd 6774 50bd 7d57 84bc
00000270: f885 c03c 1b49 86bd 75d4 36bd f28e a8bd
00000280: 0095 f23c 0cf9 bbbc 5fa8 d5bc 6aa1 863c
00000290: 1439 62bd 4cd1 edbc e66c 673d 1c6f b4bb
000002a0: cb95 b13a eb8a 983c a96d 12bd b4b2 4f3d
000002b0: 7617 6dbd 800e 7bbc 4248 1ebd 484b 64bd
000002c0: 20c2 30bd 92c0 cc3c 54a1 e5bc 5990 5d3d
000002d0: 898a 0e3d e692 abbd b68d 413d 5426 e4bc
000002e0: 18cc 5fbb 4827 27bd 953e 9fbc faed 183d
000002f0: 0875 413d 23de 6dbd 3221 3b3d 947c f63c
00000300: bae7 d0bc d9c3 4dbc 7c54 b13c 78ce 8e3c
00000310: a053 1bbb 6c08 3c3d ca13 d7bb d0be 56bc
00000320: ec6e 143d b0de 8bbd b788 5e3c 1e74 bdbd
00000330: dc61 88bd 350a 123d 467e 89bd 6fe3 02bd
00000340: 0eee 0d3d 6833 03bd 19d7 9bbc a701 fbbc
00000350: 7f89 193d 74dc 773d 22f0 3d3d 51af 0c3c
00000360: 1e27 72bd 4f1f 3cbd 401e 373c 0cd0 0f3d
00000370: 2cb9 d2bc 1083 e5bb 0044 f73c 8067 a23c
00000380: ee8d 20bd e075 193c 3e7f 48bd 868d 50bd
00000390: a868 acbc 611d 55bd 5077 a73a a30d 66bd
000003a0: aa65 58bd 9aa3 86bc 82dd 7fbd 9b28 62bd
000003b0: 0c86 b0bc 38cf 11bc a061 18bc e6bb 673d
000003c0: ac6c 7ebd c418 adbc 6f4b 80bd 9c30 35bd
000003d0: 705f 48bc 4615 b43c c0f4 a93c 2652 613d
000003e0: 3ee1 4d3d f451 25bd 48ea 653d a889 8e3c
000003f0: 72d1 1a3b 2262 793d 4151 78bc 5cd5 f1bc

fc2.bias f4 [128]
-0.058753837 -0.12023687 -0.13955916 0.014883863 -0.06976267 0.01568255 0.018325435 -0.025254397
-0.0067034946 -0.19167207 -0.029987881 -0.16658407 -0.3206806 -0.008581509 0.012619518 0.038764574
-0.3081949 0.034913596 0.23737954 0.5766033 -0.034858868 -0.08425986 -0.048308283 -0.034778297
0.0019651495 0.8058172 0.037063666 -0.117933474 -0.0029978894 0.038008384 -0.08184712 0.0032271657
0.113077536 0.5772857 0.25924352 -0.4833813 0.4269082 0.009422184 -0.09185758 -0.017015025
-0.85352707 0.0006530652 0.085809566 -0.15485927 -0.0789096 -0.0071142465 -0.060583506 -0.045229945
-0.022702163 -0.13598762 -0.0870102 -0.060494117 -0.053439494 0.2307077 0.31144536 0.030550992
-0.19590501 -0.058839835 0.08420333 0.25374007 -0.040036082 -0.16063523 -0.0018049192 0.1556175
-0.09071488 -0.085942715 0.20108467 -0.029711254 -0.08191306 -0.14773469 0.058153868 -0.017325353
0.0027712293 0.4925621 0.42336896 -0.10498973 -0.047220163 -0.29548118 -0.11728137 -0.07323543
-0.04116192 -0.054685798 -0.055805337 0.059922196 -0.10792469 -0.16035093 -0.07236693 -0.006699577
0.023408487 -0.09980006 -0.11818733 -0.024513284 -0.27765158 -0.07605495 -0.19773604 0.3227323
-0.65783685 -0.2778769 0.14239469 -1.1720046 -0.015393065 -0.020615764 -0.0020196436 -0.016134921
-0.03746512 0.37859648 0.12842864 -0.11868354 -0.044620447 0.0038666143 0.019196581 0.5163778
-0.038932983 -0.106347546 -0.058732904 -0.025533987 0.014499741 -0.09487536 -0.06794484 0.21962537
-0.07714069 -0.11813833 -0.014639818 -0.0036270663 -0.69832236 -0.11841447 -0.048203245 -0.00059196854
00000000: dda7 70bd c03e f6bd 99e8 0ebe 72db 733c
00000010: bbdf 8ebd b178 803c 391f 963c 4fe2 cebc
00000020: fda8 dbbb af45 44be 25a9 f5bc 0495 2abe
00000030: 3f30 a4be 7599 0cbc 18c2 4e3c 9ac7 1e3d
00000040: b9cb 9dbe 8f01 0f3d 9f13 733e 469c 133f
00000050: 2cc8 0ebd 6f90 acbd e8de 45bd b073 0ebd
00000060: bdc9 003b 094a 4e3f 12d0 173d 1b87 f1bd
00000070: 3d78 44bb aeae 1b3d 769f a7bd db7e 533b
00000080: 3295 e73d ffc8 133f 91bb 843e c17d f7be
00000090: b693 da3e 815f 1a3c d41f bcbd 1863 8bbc
000000a0: c080 5abf 7732 2b3a edbc af3d 6e93 1ebe
000000b0: 5b9b a1bd a01e e9bb 6926 78bd 0943 39bd
000000c0: e3f9 b9bc 5740 0bbe 6732 b2bd aec8 77bd
000000d0: 5fe3 5abd a43e 6c3e c475 9f3e 1346 fa3c
000000e0: 539b 48be 0a02 71bd cc72 ac3d 38ea 813e
000000f0: e0fc 23bd 907d 24be 0a93 ecba 325a 1f3e
00000100: b9c8 b9bd bc02 b0bd 24e9 4d3e 0465 f3bc
00000110: 09c2 a7bd c347 17be c032 6e3d e6ed 8dbc
00000120: 839d 353b 1931 fc3e d1c3 d83e db04 d7bd
00000130: ee69 41bd 4f49 97be 3731 f0bd 75fc 95bd
00000140: 6799 28bd 37fe 5fbd 2394 64bd fa70 753d
00000150: 9f07 ddbd 0933 24be 1d35 94bd 2088 dbbb
00000160: 28c3 bf3c f963 ccbd 330c f2bd 15d0 c8bc
00000170: 5928 8ebe b3c2 9bbd 517b 4abe 2b3d a53e
00000180: ff67 28bf e245 8ebe eacf 113e 3f04 96bf
00000190: 3233 7cbc 64e2 a8bc ff5b 04bb 622d 84bc
000001a0: 0775 19bd 66d7 c13e cc82 033e 5b10 f3bd
000001b0: eec3 36bd 0667 7d3b 2642 9d3c 5631 043f
000001c0: 3178 1fbd becc d9bd ea91 70bd a72c d1bc
000001d0: 5290 6d3c 034e c2bd aa26 8bbd 79e5 603e
000001e0: f0fb 9dbd 82f2 f1bd d9db 6fbc 13b4 6dbb
000001f0: 41c5 32bf 4983 f2bd c470 45bd 562e 1bba

fc3.weight f4 [64, 128]
0.030771475 -0.22774681 -0.21680748 0.0708387 -0.062242523 0.023425179 -0.16483372 -0.03722023
0.07397441 -0.3065847 -0.05809326 -0.062234998 -0.34620926 0.04761469 -0.06838082 -0.07339703
-0.038800776 -0.056269042 -0.0074833217 -0.15331194 -0.06388396 0.036793694 -0.054108735 0.035318725
-0.044689648 -0.08394835 -0.12218932 -0.08253067 -0.046084985 -0.056899175 0.05645894 0.08126087
-0.24168685 -0.23250866 -0.05910555 -0.15224656 0.058057677 0.06595923 0.071283914 -0.05483704
0.004456027 -0.09518305 -0.053508084 -0.029048696 -0.09247672 -0.021577911 0.024831539 0.0011079718
-0.24987532 -0.029056236 -0.01896239 -0.4245886 0.006580844 -0.10920992 -0.07108169 -0.032533713
-0.06255015 -0.043713585 -0.04474602 -0.102434754 -0.06407244 -0.11094859 0.021821326 -0.39361206
-0.081789926 -0.0028060095 -0.2629271 0.022864504 0.06301483 -0.11141918 -0.120453246 -0.01735826
-0.26492766 -0.035004117 -0.028313082 -0.055309422 0.039573606 -0.009947858 0.036680896 -0.06637117
-0.0836998 -0.051803734 -0.0501638 -0.05703948 0.03887859 -0.30369216 -0.0877364 -0.06902045
0.017546773 0.055532284 -0.028948748 -0.30197427 0.008545164 -0.09069689 -0.014857339 -0.084475696
-0.12555012 -0.1431831 -0.011066157 0.014580032 0.06147677 0.06908212 -0.022797419 -0.024205452
-0.026855795 -0.06354007 -0.09467355 0.006849871 0.04837832 0.060972217 0.017164424 -0.150674
0.012935686 -0.038344663 0.021435263 -0.059260365 -0.029204668 -0.043660585 -0.012919087 -0.0059095887
-0.18318683 -0.08860696 -0.027513597 -0.23351686 -0.06763435 -0.064267956 -0.048838068 0.007358048
0.027787302 -0.103680074 -0.0630558 0.0075634522 -0.07378528 -0.045634713 -0.22352922 -0.09499747
-0.0014596818 0.044491515 0.064879544 -0.24070886 -0.13827728 0.057090435 0.057109274 -0.060017787
-0.046744704 -0.054273725 -0.097084366 -0.33112276 0.02527255 0.06977894 -0.044229403 -0.1410693
0.06482726 -0.14246897 0.0027724411 -0.009289119 -0.13105951 -0.124629006 0.010288762 -0.0672733
-0.017756164 -0.18950383 -0.03688416 -0.15665698 -0.0534886 0.026960485 0.018678064 0.076797634
-0.022484627 0.00021888727 -0.09559187 -0.11188606 0.0061266813 0.13394864 0.04276942 0.022221567
-0.11308615 0.00995407 -0.02086149 -0.22635883 0.05651816 -0.19153266 -0.6921057 -0.12477017
0.057466414 0.06444231 2.279904e-06 -0.044923954 -0.07118276 -0.022646205 -0.04860741 -0.33018774
0.21380664 0.027517771 -0.20072186 -0.08834002 -0.046501633 -0.42260832 -0.30362538 0.06243823
-0.056235645 -1.2347164 -0.45908993 0.0388899 0.03148144 0.038155988 -0.12891972 -0.077023946
0.0462192 -0.082583345 -0.042168055 -0.22620136 0.06838691 -0.18639435 -0.10261285 -0.027302928
0.011249199 -0.06732376 0.00085336866 -0.2666652 -0.011394805 -0.030269194 0.17267095 -0.6010237
-0.11809557 0.02297305 0.034053095 -0.23251122 -0.037796136 -0.08047821 -0.085342035 -0.024434825
-0.052280206 0.061523408 -0.048199352 0.05536319 0.06899046 0.055930827 -0.14188112 -0.2313213
-0.045249466 0.018235272 -0.034182515 0.023841426 0.04921519 -0.06970137 -0.0061022067 -0.26299894
-0.052908435 -0.08762353 -0.009232841 -0.16600792 -0.093179576 0.0483624 -0.045304332 0.06831616
00000000: 7614 fc3c 7636 69be c802 5ebe e113 913d
00000010: 04f2 7ebd 29e6 bf3c 2cca 28be 3d74 18bd
00000020: e57f 973d abf8 9cbe 33f3 6dbd 20ea 7ebd
00000030: 5742 b1be 9f07 433d 3e0b 8cbd 2f51 96bd
00000040: 90ed 1ebd 5e7a 66bd a736 f5bb cefd 1cbe
00000050: 98d5 82bd fcb4 163d 1fa1 5dbd 5eaa 103d
00000060: 7e0c 37bd 1ded abbd 653e fabd d705 a9bd
00000070: 9cc3 3cbd 1c0f 69bd 7d41 673d 196c a63d
00000080: c27c 77be c016 6ebe a918 72bd 86e6 1bbe
00000090: e3cd 6d3d a215 873d 4dfd 913d ce9c 60bd
000000a0: dd03 923b 55ef c2bd 4b2b 5bbd 88f7 edbc
000000b0: 6f64 bdbd 29c4 b0bc 836b cb3c 5d39 913a
000000c0: 51df 7fbe 5807 eebc 0457 9bbc ad63 d9be
000000d0: 1fa4 d73b 73a9 dfbd 4793 91bd 1242 05bd
000000e0: 4b1a 80bd 040d 33bd 9a47 37bd 50c9 d1bd
000000f0: 6938 83bd 0439 e3bd a3c2 b23c 8587 c9be
00000100: 7a81 a7bd 07e5 37bb 619e 86be 574e bb3c
00000110: eb0d 813d bd2f e4bd 31b0 f6bd e932 8ebc
00000120: 99a4 87be 7a60 0fbd d6f0 e7bc 228c 62bd
00000130: ef17 223d 57fc 22bc b53e 163d 9ced 87bd
00000140: cd6a abbd 2730 54bd 8f78 4dbd 3ba2 69bd
00000150: 283f 1f3d 8a7d 9bbe 24af b3bd 985a 8dbd
00000160: 40be 8f3c d275 633d ed25 edbc 5f9c 9abe
00000170: 0401 0c3c 4bbf b9bd 326c 73bc 9801 adbd
00000180: 3690 00be 979e 12be d44e 35bc 16e1 6e3c
00000190: 11cf 7b3d ed7a 8d3d a7c1 babc 834a c6bc
000001a0: af00 dcbc 4c21 82bd 35e4 c1bd e274 e03b
000001b0: 5828 463d 01be 793d 689c 8c3c 494a 1abe
000001c0: 33f0 533c 4b0f 1dbd 0199 af3c ffba 72bd
000001d0: a13e efbc 71d5 32bd 94aa 53bc 39a5 c1bb
000001e0: 5495 3bbe 9177 b5bd 3264 e1bc 0b1f 6fbe
000001f0: e183 8abd eb9e 83bd 6d0a 48bd c81b f13b
00000200: 32a2 e33c 3856 d4bd 6623 81bd d6d6 f73b
00000210: bd1c 97bd 77eb 3abd d8e4 64be 098e c2bd
00000220: cb52 bfba bc3c 363d 91df 843d 627c 76be
00000230: 8f98 0dbe a9d7 693d 6aeb 693d 36d5 75bd
00000240: 6077 3fbd 204e 5ebd 2bd4 c6bd ec88 a9be
00000250: 6108 cf3c 43e8 8e3d e429 35bd 7874 10be
00000260: 28c4 843d 63e3 11be d8b1 353b 6431 18bc
00000270: 7734 06be 7e3d ffbd 3292 283c 95c6 89bd
00000280: 6075 91bc 4b0d 42be d813 17bd b06a 20be
00000290: dd16 5bbd 3cdc dc3c bd02 993c 1448 9d3d
000002a0: ae31 b8bc 1b85 6539 acc5 c3bd 8524 e5bd
000002b0: 54c2 c83b d529 093e fd2e 2f3d 010a b63c
000002c0: b699 e7bd 6516 233c b7e5 aabc 9cca 67be
000002d0: 967f 673d 2321 44be d72d 31bf 8187 ffbd
000002e0: e761 6b3d 54fa 833d 7400 1936 2e02 38bd
000002f0: 44c8 91bd 8984 b9bc 9018 47bd 5e0e a9be
00000300: 21f0 5a3e f36c e13c 088a 4dbe 9deb b4bd
00000310: 7f78 3ebd 1e60 d8be c974 9bbe 3bbf 7f3d
00000320: 5957 66bd 300b 9ebf d60d ebbe 044b 1f3d
00000330: aff2 003d 7449 1c3d 8803 04be bbbe 9dbd
00000340: 5850 3d3d 7521 a9bd 69b8 2cbd 54a1 67be
00000350: 700e 8c3d 29de 3ebe b026 d2bd 64aa dfbc
00000360: 8f4e 383c 0ae1 89bd 9ab4 5f3a 5788 88be
00000370: 47b1 3abc 1af7 f7bc a7d0 303e b0dc 19bf
00000380: 17dc f1bd fa31 bc3c 427b 0b3d 6c17 6ebe
00000390: 1fd0 1abd c2d1 a4bd cec7 aebd 8b2b c8bc
000003a0: c523 56bd f8ff 7b3d af6c 45bd 83c4 623d
000003b0: df4a 8d3d b917 653d 4949 11be 7edf 6cbe
000003c0: 8157 39bd 2362 953c f702 0cbd 184f c33c
000003d0: de95 493d 98bf 8ebd 05f5 c7bb cca7 86be
000003e0: 84b6 58bd f773 b3bd 5845 17bc fbfd 29be
000003f0: efd4 bebd a717 463d 0991 39bd 58e9 8b3d

fc3.bias f4 [64]
-0.18744175 -0.6401458 0.14898624 -0.4198246 -1.6488004 -0.73625445 -0.5867209 0.4960977
1.0893646 -0.4694708 0.37708843 0.12749752 0.26570317 -2.6403935 0.10262733 -0.24545823
2.3627062 1.092264 0.47473115 0.24232975 -2.118204 -0.17277484 -0.42526487 -0.15662327
-1.2918051 -0.3492183 -0.82658505 0.5718159 -0.32620633 -0.19701453 1.1588796 0.8591019
0.73524827 -0.1639695 0.21039212 -1.7637225 0.8063245 -0.7529659 -0.033647973 1.5626916
0.15771022 -0.026343053 0.077973165 -1.6776055 0.8439608 -1.0337211 -0.838386 -2.0909703
-0.96800286 -1.0478526 -0.14543515 1.0013946 1.2294209 -0.043486476 -0.15255082 -1.8237907
-1.2239268 -0.40471143 -1.5212557 -3.745276 -5.6958055 0.3174193 -0.2686654 1.9332273
00000000: bbf0 3fbe 98e0 23bf d98f 183e 40f3 d6be
00000010: e40b d3bf 2c7b 3cbf 5733 16bf 8500 fe3e
00000020: 4d70 8b3f 7a5e f0be bc11 c13e b68e 023e
00000030: 3f0a 883e 35fc 28c0 472e d23d 6759 7bbe
00000040: 9436 1740 4fcf 8b3f f60f f33e 4a25 783e
00000050: a890 07c0 e3eb 30be 51bc d9be da61 20be
00000060: df59 a5bf becc b2be 149b 53bf 8762 123f
00000070: 8404 a7be 2dbe 49be 2b56 943f 1aee 5b3f
00000080: 3b39 3c3f 9fe7 27be 0871 573e a9c1 e1bf
00000090: 486b 4e3f 60c2 40bf 75d2 09bd 4706 c83f
000000a0: ca7e 213e 63cd d7bc 65b0 9f3d c7bb d6bf
000000b0: d10d 583f f950 84bf 77a0 56bf 75d2 05c0
000000c0: 09cf 77bf 0920 86bf f4ec 14be b32d 803f
000000d0: aa5d 9d3f e01e 32bd 4836 1cbe f971 e9bf
000000e0: a2a9 9cbf 5636 cfbe 82b8 c2bf 9ab2 6fc0
000000f0: 0a44 b6c0 c884 a23e 838e 89be fe73 f73f

fc4.weight f4 [6, 64]
0.08115408 0.0035643908 -0.064163156 -0.022807239 -0.028961604 0.029478962 0.024965985 0.06827939
-0.21163714 0.06275916 0.1351628 -0.036377106 0.20852302 0.028662536 0.039208815 0.049758017
0.13491203 -0.018873636 0.12458389 0.06708301 -0.016244447 0.06943977 -0.015255038 0.026466819
-0.10773178 0.02627864 -0.1993712 0.028681016 0.021219175 0.054497838 0.006018144 0.081775144
0.083542764 -0.049511723 -0.015631985 -0.02268302 -0.04747868 -0.007895607 0.032277912 0.06794771
0.004354125 0.020764712 0.028416904 0.04004434 -0.040040184 -0.14749122 -0.01869258 0.04030413
-0.030518379 -0.016300611 0.053103134 -0.067484975 -0.08316726 0.036275484 -0.019454096 0.12823623
-0.040797345 0.038523942 -0.008953845 0.030712072 -0.056727257 0.022083895 -0.039160218 0.000120136785
0.07890679 0.004811916 -0.048652682 -0.024107462 -0.01890073 0.0004936172 0.025529582 0.08163127
-0.24921954 0.062304072 0.13841185 -0.033230264 0.13597246 0.029287558 0.06565995 0.022067789
0.13693194 -0.02001445 0.13104087 0.06220687 -0.020233864 0.04557612 -0.015232022 0.010818249
-0.07764064 0.020802515 -0.21870954 0.029878551 0.0283416 0.066417396 0.0016683693 0.08456206
0.08605159 -0.046681024 -0.018137362 -0.023475943 -0.047627896 -0.0028408845 0.065050945 0.052733954
-0.0060294457 0.020825807 0.028235089 0.04964731 -0.03475651 -0.07823408 -0.018375743 0.034175497
-0.039967947 -0.01856464 0.058605637 -0.11177101 -0.06010714 0.036201667 -0.021101948 0.12574211
-0.037777945 0.038970917 -0.0017066873 0.030418398 -0.058965176 0.024292355 -0.021830918 0.01702847
0.059031583 -0.056357555 -0.04964921 -0.023314955 -0.03476591 0.025708634 0.006465528 0.073952414
-0.21797106 0.061433606 0.18864363 -0.035040993 0.16922036 0.028966952 0.06343456 -0.022308914
0.12488313 -0.017332489 0.10821087 0.0074512335 -0.034858786 0.048550054 -0.018612254 0.028922064
-0.14478812 0.013111064 -0.18896095 0.028157962 0.01823866 0.033612367 -0.00036771217 0.07932679
0.04931623 -0.06669664 -0.014293115 -0.021385629 -0.04752086 0.022662126 0.046405103 0.083725184
0.0042181043 -0.00079139357 0.03751088 0.044702474 -0.037622478 -0.11505024 -0.019145582 0.034709208
-0.001420283 -0.025451593 0.06070817 -0.08398992 -0.09117336 0.08099786 -0.03187909 0.12755318
-0.029147722 0.027390232 0.003190624 0.028987586 -0.050991286 0.023785323 -0.020619186 0.011339208
0.07633878 -0.018727632 -0.055376593 -0.014843654 -0.0437794 0.045675613 0.002910639 0.08947984
-0.24317487 0.059966467 0.10075958 -0.035942793 0.13204286 0.029367 0.01419681 0.057181034
0.13520578 -0.017554034 0.11669658 0.04870547 0.008936483 0.04434276 -0.016591158 0.03234537
-0.13809913 0.040837117 -0.21402152 0.033975083 0.02345392 0.051634315 0.004970627 0.08221448
0.048593726 -0.02719029 -0.016334703 -0.022365255 -0.049176153 -0.028950315 0.033830736 0.09141377
0.004025954 0.016815709 0.026351005 0.019806772 -0.03416838 -0.06750036 -0.017565956 -0.007882892
-0.02619475 0.00027896007 0.08685012 -0.1057514 -0.07426934 -0.018823376 -0.020510297 0.13969997
-0.034736928 0.040498883 -0.0010485187 0.027774531 -0.057898 0.0056161005 -0.05100482 0.015060889
00000000: 1c34 a63d 8e98 693b f967 83bd 3fd6 babc
00000010: e340 edbc dd7d f13c 7785 cc3c 11d6 8b3d
00000020: 68b7 58be e087 803d 1e68 0a3e 2900 15bd
00000030: 0f87 553e b2cd ea3c 6c99 203d 10cf 4b3d
00000040: 6126 0a3e e29c 9abc d725 ff3d d162 893d
00000050: 1313 85bc 7036 8e3d 44f0 79bc f1d0 d83c
00000060: 7ba2 dcbd 4d46 d73c f727 4cbe 73f4 ea3c
00000070: d6d3 ad3c 2039 5f3d da33 c53b ba79 a73d
00000080: 7818 ab3d cecc 4abd a60e 80bc bed1 b9bc
00000090: 0179 42bd 935c 01bc d835 043d 2b28 8b3d
000000a0: 0cad 8e3b c21a aa3c 91ca e83c 8905 243d
000000b0: 2d01 24bd f007 17be 2e21 99bc f215 253d
000000c0: ae01 fabc dc88 85bc ac82 593d 9035 8abd
000000d0: 9953 aabd 9a95 143d 325e 9fbc 5c50 033e
000000e0: 1e1b 27bd 48cb 1d3d 26b3 12bc e297 fb3c
000000f0: d75a 68bd 49e9 b43c 7766 20bd f2f1 fb38
00000100: e299 a13d 47ad 9d3b 0948 47bd 037d c5bc
00000110: b4d5 9abc 1766 013a 6a23 d13c 4c2e a73d
00000120: 6833 7fbe 8e32 7f3d d6bb 0d3e 751c 08bd
00000130: 5d3c 0b3e 76ec ef3c b978 863d 82c7 b43c
00000140: e337 0c3e 58f5 a3bc 942f 063e a2cc 7e3d
00000150: 7dc1 a5bc 07ae 3a3d bb8f 79bc 063f 313c
00000160: 0e02 9fbd 096a aa3c 65f5 5fbe ddc3 f43c
00000170: a52c e83c d805 883d 2fad da3a e02e ad3d
00000180: d13b b03d 9a34 3fbd ce94 94bc 9f50 c0bc
00000190: 7815 43bd 222e 3abb 6e39 853d 8fff 573d
000001a0: a892 c5bb e29a aa3c 464d e73c fa5a 4b3d
000001b0: d85c 0ebd 3039 a0bd ba88 96bc 9bfb 0b3d
000001c0: 6eb5 23bd df14 98bc 770c 703d 33e8 e4bd
000001d0: e832 76bd 3348 143d fedd acbc 8ac2 003e
000001e0: 0cbd 1abd f89f 1f3d ecb2 dfba 0130 f93c
000001f0: 7885 71bd c300 c73c c1d6 b2bc 4a7f 8b3c
00000200: 1acb 713d 2ed7 66bd f85c 4bbd 01ff bebc
00000210: b366 0ebd ea9a d23c c8dc d33b 5d74 973d
00000220: ce33 5fbe cea1 7b3d cc2b 413e 2587 0fbd
00000230: 1a48 2d3e 1a4c ed3c fbe9 813d 2fc1 b6bc
00000240: bac2 ff3d ddfc 8dbc a99d dd3d 7a29 f43b
00000250: 16c8 0ebd 6cdc 463d ba78 98bc f7ed ec3c
00000260: 5643 14be cacf 563c fb7e 41be 87ab e63c
00000270: 3e69 953c 1fad 093d 7ec9 c0b9 1676 a23d
00000280: d1ff 493d 3f98 88bd ab2d 6abc ea30 afbc
00000290: 3ca5 42bd eca5 b93c 4713 3e3d 1c78 ab3d
000002a0: 0638 8a3b 8675 4fba 02a5 193d f119 373d
000002b0: 071a 1abd 769f ebbd 32d7 9cbc 3e2b 0e3d
000002c0: ca28 baba dc7f d0bc 21a9 783d e802 acbd
000002d0: 19b9 babd 35e2 a53d a693 02bd 4d9d 023e
000002e0: 34c7 eebc 7b61 e03c ca19 513b 6077 ed3c
000002f0: 3ddc 50bd 70d9 c23c 91e9 a8bc 16c8 393c
00000300: 8257 9c3d b16a 99bc 91d2 62bd cc32 73bc
00000310: 0752 33bd 5a16 3b3d 6bc0 3e3b 3541 b73d
00000320: d502 79be 669f 753d 0a5b ce3d c038 13bd
00000330: 3e36 073e 1093 f03c bd99 683c a936 6a3d
00000340: 6273 0a3e 7acd 8fbc 9efe ee3d 637f 473d
00000350: 546a 123c c1a0 353d 2eea 87bc 947c 043d
00000360: dc69 0dbe d244 273d 7528 5bbe 7529 0b3d
00000370: 6f22 c03c 817e 533d a4e0 a23b 1160 a83d
00000380: 370a 473d 2cbe debc 5bd0 85bc 5737 b7bc
00000390: ef6c 49bd 3629 edbc 1992 0a3d 2537 bb3d
000003a0: 26ec 833b 19c1 893c 10de d73c d041 a23c
000003b0: 25f4 0bbd a13d 8abd 7be6 8fbc 3f27 01bc
000003c0: 5f96 d6bc 6341 9239 7ade b13d 3194 d8bd
000003d0: 861a 98bd 7b33 9abc 3605 a8bc 820d 0f3e
000003e0: 4f48 0ebd 28e2 253d 736e 89ba 6a87 e33c
000003f0: 7426 6dbd 4407 b83b 6eea 50bd f2c1 763c

fc4.bias f4 [6]
0.72155106 0.72022206 0.72294074 0.71841884 0.72226167 0.721577
00000000: 92b7 383f 7960 383f a512 393f 4cea 373f
00000010: 24e6 383f 45b9 383f
