checkpoints/2021_02_04-22_08_10/last/last_dqn-Pong-ram-v0.pt (torch, 959187 bytes, 10 tensors)

fc1.weight f4 [512, 128]
-0.04288945 0.0029278249 -0.062193204 0.033332445 -0.087945506 0.057946403 -0.06424421 -0.075891905
-0.086174235 0.03095425 -0.007982679 0.0873459 -0.09960176 -0.05081837 -0.051375147 -0.024217777
-0.07427508 0.06738844 -0.030485466 0.0182186 0.066479884 0.009172544 0.024169855 0.07847202
-0.046710547 0.021151092 -0.046144668 0.05632024 0.06374506 -0.08833821 0.068605475 0.035360243
0.031669855 0.029540697 0.06663028 -0.018517673 -0.081596754 -0.03220973 -0.06909656 -0.0010038839
-0.023349587 -0.05425629 -0.014882508 0.076892875 -0.013818238 -0.004040253 -0.020631995 0.0070486534
0.071908474 0.043796074 0.024079738 0.007691718 0.013995169 0.027301058 -0.01802518 -0.08214891
-0.068410404 0.07544703 -0.0043471586 -0.078447774 0.000572845 0.066186555 -0.090373196 -0.06635342
-0.039730065 -0.003299194 -0.027461592 -0.016062826 -0.09301562 0.031821612 0.07073542 0.04690307
-0.06943751 -0.07787304 0.029856652 -0.004861808 0.029386368 -0.0863688 -0.005269982 0.06233532
0.041004367 0.0032277107 0.01737883 -0.008368611 -0.048598878 -0.03340189 -0.05382671 0.07341618
0.048638932 0.0309114 -0.06778082 0.068202384 0.027713522 0.06114658 -0.034771096 0.018738054
0.08630083 0.059455223 0.070887156 -0.018560208 0.06734107 -0.069228604 0.007644616 -0.049767494
-0.020613506 -0.022636026 0.0066131353 0.080445744 0.04375965 -0.00037442893 0.06274208 -0.0452951
0.045552827 -0.008196488 -0.015380532 0.010347925 -0.06771402 0.010213919 0.029719524 0.075566
-0.0275191 0.038857568 0.082261905 -0.04476226 0.07717441 -0.050730962 0.03211457 0.027779292
0.017403912 0.06989778 -0.108423434 0.023230143 -0.011974993 -0.073779784 -0.021461926 -0.08693346
0.015573499 -0.03559894 -0.041752018 -0.017228702 -0.009113963 -0.056169253 0.057039775 0.07854916
0.0061034346 -0.14614911 -0.1212572 -0.058513768 -0.06370289 -0.09491701 -0.05752994 -0.037328817
-0.000745162 0.053562313 0.027159352 0.06042626 -0.062782995 0.0001687341 -0.08585079 0.043414526
0.011136467 0.07820392 -0.0701464 0.06359721 0.06733566 0.064179495 0.0053276396 0.073085666
0.051744606 0.05864298 -0.013044226 -0.07512173 -0.008392731 0.009283495 -0.06749292 -0.057995617
-0.09202716 -0.14092807 0.048511464 0.003786325 -0.01269873 -0.003750549 0.029375529 -0.07805253
-0.14188834 -0.02938651 -0.07146695 0.038301077 0.09987647 -0.0930563 -0.08231304 -0.09335924
0.009763964 0.06385467 -0.07581612 -0.03467515 0.020841558 -0.073571846 0.0678 0.015602699
-0.031890363 -0.0015303208 0.02027222 -0.038540546 -0.075772315 0.0005941093 0.0016099885 0.0017823726
-0.012898535 0.05675181 -0.02466558 -0.008555345 0.036344193 -0.055634923 0.02366674 -0.01954405
0.04239755 -0.04794753 0.0032666847 0.0086469725 -0.071116954 -0.0642709 0.033898108 -0.025726005
0.052493535 -0.08731554 -0.04369289 -0.07280211 0.035308614 -0.002562493 -0.016486317 -0.014705285
-0.06908865 0.025066487 0.0022031516 -0.06099794 0.033259444 -0.0017765239 -0.08548458 0.047545873
0.047277786 -0.016653262 -0.061026685 0.0035487935 0.066696055 0.08090537 -0.06671561 -0.039922275
0.06882132 0.02843854 0.04886936 -0.051288635 0.0688655 -0.07994503 -0.011545328 -0.005449529
00000000: d9ac 2fbd c0e0 3f3b 4dbe 7ebd 9a87 083d
00000010: c61c b4bd 3559 6d3d 7892 83bd 376d 9bbd
00000020: 1e7c b0bd c493 fd3c c8c9 02bc 68e2 b23d
00000030: 02fc cbbd ec26 50bd bf6e 52bd 5c64 c6bc
00000040: 881d 98bd f302 8a3d a8bc f9bc 2c3f 953c
00000050: 9b26 883d 7048 163c dcff c53c f0b5 a03d
00000060: 8f53 3fbd 0e45 ad3c 3102 3dbd 0db0 663d
00000070: c58c 823d aaea b4bd 0781 8c3d e7d5 103d
00000080: 40b8 013d 55ff f13c 7575 883d 60b2 97bc
00000090: 331c a7bd 5aee 03bd 7f82 8dbd c194 83ba
000000a0: a247 bfbc d83b 5ebd c3d5 73bc 037a 9d3d
000000b0: e465 62bc 1964 84bb 6e04 a9bc 64f8 e63b
000000c0: c044 933d 8363 333d df42 c53c cf0a fc3b
000000d0: fe4b 653c 78a6 df3c 8ba9 93bc b03d a8bd
000000e0: c11a 8cbd f983 9a3d 9c72 8ebb 3aa9 a0bd
000000f0: fa2a 163a d18c 873d 9515 b9bd 4de4 87bd
00000100: febb 22bd 4a37 58bb 22f7 e0bc 3096 83bc
00000110: f97e bebd 6157 023d bbdd 903d 6f1d 403d
00000120: 4135 8ebd e77b 9fbd f095 f43c cd4f 9fbb
00000130: aebb f03c 20e2 b0bd d0af acbb 5253 7f3d
00000140: 32f4 273d 0088 533b 0c5e 8e3c 801c 09bc
00000150: 9e0f 47bd 6cd0 08bd 6579 5cbd 395b 963d
00000160: 9e39 473d e839 fd3c acd0 8abd b1ad 8b3d
00000170: 7807 e33c d674 7a3d 236c 0ebd 8c80 993c
00000180: 7dbe b03d 5287 733d 492d 913d 940b 98bc
00000190: 1dea 893d bac7 8dbd b07f fa3b 00d9 4bbd
000001a0: a8dd a8bc 306f b9bc 00b3 d83b bdc0 a43d
000001b0: 523d 333d 004f c4b9 eb7e 803d 5b87 39bd
000001c0: 9a95 3a3d 904a 06bc a0fe 7bbc 588a 293c
000001d0: a6ad 8abd 4858 273c 5c76 f33c 59c2 9a3d
000001e0: bc6f e1bc 1d29 1f3d ee78 a83d a258 37bd
000001f0: 9e0d 9e3d 45cb 4fbd 918a 033d 6691 e33c
00000200: a692 8e3c 9126 8f3d 1b0d debd 244d be3c
00000210: c332 44bc db19 97bd ecd0 afbc 2b0a b2bd
00000220: fd27 7f3c 32d0 11bd 2a04 2bbd 3523 8dbc
00000230: bb52 15bc bb11 66bd 8aa2 693d 62de a03d
00000240: 52ff c73b 1da8 15be b255 f8bd 22ac 6fbd
00000250: a976 82bd d963 c2bd 84a4 6bbd 1ae6 18bd
00000260: fa56 43ba 2864 5b3d 4a7d de3c 8781 773d
00000270: 5f94 80bd 37ee 3039 8ad2 afbd 6ed3 313d
00000280: ba75 363c 6029 a03d eaa8 8fbd 413f 823d
00000290: 47e7 893d 8a70 833d 7b93 ae3b f0ad 953d
000002a0: 27f2 533d 9f33 703d 73b7 55bc 6cd9 99bd
000002b0: aa81 09bc cd19 183c ba39 8abd d08c 6dbd
000002c0: bc78 bcbd 734f 10be f5b3 463d fe23 783b
000002d0: 560e 50bc c5cb 75bb f3a4 f03c 01da 9fbd
000002e0: 2d4b 11be fabb f0bc 445d 92bd 97e1 1c3d
000002f0: 098c cc3d 4d94 bebd bd93 a8bd 2133 bfbd
00000300: 09f9 1f3c 3dc6 823d 7b45 9bbd 8807 0ebd
00000310: eabb aa3c d6ac 96bd bada 8a3d 76a2 7f3c
00000320: 789f 02bd 0c95 c8ba ed11 a63c b1dc 1dbd
00000330: 842e 9bbd 00be 1b3a 4006 d33a 809e e93a
00000340: 6054 53bc 9674 683d 780f cabc b82b 0cbc
00000350: a6dd 143d 72e1 63bd c0e0 c13c d81a a0bc
00000360: 0ea9 2d3d a164 44bd e015 563b 08ac 0d3c
00000370: c4a5 91bd 76a0 83bd bed8 0a3d 58bf d2bc
00000380: 7603 573d 7dd2 b2bd 51f7 32bd 4619 95bd
00000390: c49f 103d 80ef 27bb 500e 87bc 70ee 70bc
000003a0: 5a7e 8dbd 3c58 cd3c c062 103b fad8 79bd
000003b0: 0e3b 083d 40da e8ba 8a12 afbd 76bf 423d
000003c0: 5aa6 413d 6c6c 88bc 1ef7 79bd e092 683b
000003d0: f197 883d b7b1 a53d 32a2 88bd 8a85 23bd
000003e0: 31f2 8c3d f1f7 e83c 3d2b 483d 0814 52bd
000003f0: 5b09 8d3d 38ba a3bd 9e28 3dbc f691 b2bb

fc1.bias f4 [512]
-0.024186919 0.05612574 -0.07976235 0.010288341 -0.045902293 -0.03288028 -0.077605605 0.04961944
-0.015712792 -0.022501988 -0.11759843 -0.061345648 0.023608686 0.022523222 -0.08244901 0.017291069
0.0017335133 -0.10221155 0.027799483 0.020485494 0.0067885593 -0.053291406 0.073227726 -0.046287727
0.061673768 0.08595454 -0.047258522 -0.033431426 0.0071127918 -0.007164724 0.00047139078 0.017204054
0.033296138 -0.051145818 0.04692685 -0.04887005 0.031579584 0.065803096 -0.043284602 -0.058751203
-0.06661701 0.023443477 -0.06435385 -0.01940194 -0.0035032793 0.055293404 0.0026571248 -0.028082723
-0.0635562 -0.07576035 0.054707214 0.07449608 0.07099466 -0.02269806 -0.07278864 0.036847826
0.06873262 0.07912158 -0.05793498 0.069985315 0.04542524 0.04667028 -0.02447084 -0.0833689
-0.03951569 -0.07064242 -0.06643229 0.037155356 -0.0035862236 -0.078317925 0.035543323 0.07659284
-0.11061698 0.058397364 -0.004142988 -0.039192658 -0.06385047 0.07247216 -0.0006431951 0.082564555
-0.06225574 -0.03213809 -0.07669052 0.053873908 -0.030358657 -0.09667489 -0.05011721 0.06340597
0.020283138 0.06813941 -0.07452604 -0.07369475 -0.07714084 -0.07169902 -0.036041476 -0.03638612
-0.084447235 -0.020825239 0.07441287 -0.046817604 -0.049246427 -0.052978598 0.070870735 -0.045903143
-0.0841552 0.058117338 -0.07513061 -0.06974665 0.014262736 0.032586154 0.04456564 -0.08102055
0.020066325 -0.053298354 -0.0063979 -0.09067508 0.0045125782 0.0363073 0.08460239 -0.07532714
-0.057500597 -0.06807824 0.046242263 0.013871826 0.052240822 0.06868956 0.07146328 0.06773733
0.05330243 -0.053449053 -0.031364918 -0.0040203757 0.008859916 0.05875095 -0.069801584 -0.078402
0.033911943 -0.05648034 -0.008917125 -0.054955546 -0.009755017 0.01620069 -0.05314728 0.07968772
0.015801802 0.06507961 -0.09546551 -0.042810436 -0.00626995 0.008969374 -0.036611978 -0.0005810236
-0.07441074 -0.0030521601 0.012595623 0.028807063 -0.0067727454 -0.04188692 -0.094667934 -0.07418818
-0.079419985 -0.08756531 -0.055609766 -0.047099892 0.049451593 0.008033565 -0.065928295 0.03692425
0.04708597 -0.0436033 -0.03418782 0.021707274 0.049953382 0.008773245 0.024815897 -0.072738
0.07333154 0.03524637 -0.08055925 0.06829734 0.021997243 0.025181914 0.05705559 -0.08108715
-0.045488022 0.011145438 -0.019749822 0.017065488 -0.0530341 -0.017971672 -0.037358608 -0.08058503
0.06638873 0.012724196 -0.05377633 0.07226428 -0.07691579 -0.08484664 0.060963828 0.013366543
0.053417873 0.0665191 0.004644446 -0.015340206 -0.0671777 -0.02834954 0.03893073 0.06832382
0.04882484 -0.010418408 -0.0074942154 -0.090114884 -0.061570205 -0.043443494 0.07551233 0.045250863
0.03717307 -0.02778647 -0.03721728 -0.05939617 -0.0052513108 -0.010908379 0.065921634 -0.0112068355
0.02317924 0.014481722 -0.0442469 -0.09380656 0.08653916 0.03854004 0.014790113 0.02911876
0.040915065 -0.068458855 -0.020300679 0.031157546 -0.07175392 0.08460417 -0.024689484 -0.04668514
-0.03294034 -0.015708713 -0.026744409 0.040049605 0.0029709637 0.04521598 -0.01011083 -0.06452217
-0.03250702 -0.05657974 -0.011136122 -0.029750004 -0.033822887 -0.01132289 -0.0018660127 0.003933408
00000000: a523 c6bc 1be4 653d 715a a3bd 6e90 283c
00000010: 0b04 3cbd 79ad 06bd b0ef 9ebd c13d 4b3d
00000020: 1db8 80bc 1756 b8bc 72d7 f0bd 9345 7bbd
00000030: 0167 c13c 9f82 b83c 07db a8bd 00a6 8d3c
00000040: 0e37 e33a 4a54 d1bd bebb e33c 32d1 a73c
00000050: 9072 de3b 1748 5abd 6bf8 953d 3398 3dbd
00000060: a29d 7c3d ef08 b03d 2792 41bd 64ef 08bd
00000070: 6c12 e93b 10c6 eabb 0025 f739 84ef 8c3c
00000080: 8861 083d 477e 51bd 5e36 403d f62b 48bd
00000090: 9859 013d c6c3 863d 324b 31bd 1aa5 70bd
000000a0: 806e 88bd 890c c03c f4cb 83bd d1f0 9ebc
000000b0: 4697 65bb 567b 623d 2823 2e3b bd0d e6bc
000000c0: c129 82bd 3e28 9bbd ac14 603d 6791 983d
000000d0: a665 913d 48f1 b9bc 3612 95bd bfed 163d
000000e0: b0c3 8c3d 7f0a a23d 3b4d 6dbd 7654 8f3d
000000f0: d10f 3a3d 5629 3f3d 1277 c8bc 50bd aabd
00000100: 34db 21bd f9ac 90bd a70d 88bd 3730 183d
00000110: d906 6bbb 2665 a0bd e095 113d b5dc 9c3d
00000120: 288b e2bd 1332 6f3d e7c1 87bb 7b88 20bd
00000130: 09c4 82bd 496c 943d 189c 28ba 9b17 a93d
00000140: e0ff 7ebd 3ba3 03bd eb0f 9dbd e3aa 5c3d
00000150: b8b2 f8bc 7cfd c5bd b447 4dbd fdda 813d
00000160: d328 a63c ad8c 8b3d 1ca1 98bd 46ed 96bd
00000170: 04fc 9dbd f0d6 92bd 3aa0 13bd 9d09 15bd
00000180: acf2 acbd b199 aabc c665 983d d1c3 3fbd
00000190: 9fb6 49bd 1600 59bd ad24 913d ef04 3cbd
000001a0: 9059 acbd 720c 6e3d 14de 99bd 55d7 8ebd
000001b0: 40ae 693c 0f79 053d 768a 363d 1aee a5bd
000001c0: 2262 a43c 604f 5abd 7aa5 d1bb dbb3 b9bd
000001d0: 40de 933b f7b6 143d 0544 ad3d 1e45 9abd
000001e0: bf85 6bbd 9b6c 8bbd 8768 3d3d a846 633c
000001f0: 79fa 553d 1dad 8c3d 575b 923d dfb9 8a3d
00000200: a653 5a3d 65ed 5abd 8078 00bd 5bbd 83bb
00000210: 2e29 113c d6a4 703d 22f4 8ebd 3a91 a0bd
00000220: 40e7 0a3d ee57 67bd 2219 12bc 1119 61bd
00000230: 82d3 1fbc 4fb7 843c f6b0 59bd 5133 a33d
00000240: c872 813c 7548 853d 6c83 c3bd ff59 2fbd
00000250: 2774 cdbb 48f4 123c 71f6 15bd d54f 18ba
00000260: a864 98bd c006 48bb df5d 4e3c cafc eb3c
00000270: e8ed ddbb 9e91 2bbd 43e1 c1bd f9ef 97bd
00000280: f2a6 a2bd 7155 b3bd 11c7 63bd d1eb 40bd
00000290: c18d 4a3d 379f 033c 6a05 87bd e23d 173d
000002a0: 38dd 403d 6099 32bd 8708 0cbd 74d3 b13c
000002b0: eb9b 4c3d a8bd 0f3c b54a cb3c a9f7 94bd
000002c0: d92e 963d 7f5e 103d 40fc a4bd 7adf 8b3d
000002d0: 9033 b43c 4d4a ce3c 1fb3 693d 0511 a6bd
000002e0: a651 3abd 5b9b 363c 61ca a1bc eccc 8b3c
000002f0: 493a 59bd 5439 93bc 5705 19bd c409 a5bd
00000300: d1f6 873d 2579 503c 9244 5cbd 4bff 933d
00000310: 0786 9dbd 13c4 adbd 35b5 793d 58ff 5a3c
00000320: b3cc 5a3d 2a3b 883d 7030 983b 7d55 7bbc
00000330: 7694 89bd 4b3d e8bc d475 1f3d 5ced 8b3d
00000340: 8efc 473d f8b1 2abc 0992 f5bb 278e b8bd
00000350: 0a31 7cbd cef1 31bd 35a6 9a3d f858 393d
00000360: ca42 183d 73a0 e3bc 2671 18bd 6649 73bd
00000370: 3013 acbb 0fb9 32bc ec01 873d e09c 37bc
00000380: 64e2 bd3c bf44 6d3c 3d3c 35bd a71d c0bd
00000390: 713b b13d 29dc 1d3d 3b52 723c 778a ee3c
000003a0: 8e96 273d 2834 8cbd 9c4d a6bc 1c3e ff3c
000003b0: b8f3 92bd f344 ad3d 9a41 cabc eb38 3fbd
000003c0: 73ec 06bd 8faf 80bc 1717 dbbc 0e0b 243d
000003d0: 80b4 423b 6434 393d e5a7 25bc 3324 84bd
000003e0: 1526 05bd 28c0 67bd 4874 36bc 48b6 f3bc
000003f0: de89 0abd a583 39bc ff94 f4ba d1e3 803b

fc2.weight f4 [256, 512]
0.003518056 0.023829704 -0.017671581 0.021251138 0.019807657 0.00219341 -0.004252082 -0.046268
0.0155624235 0.024974624 -0.035324242 -0.55125874 0.026371341 -0.032106467 0.011041973 -0.0102599
0.0007161165 -0.04202922 -0.017295048 -0.01199341 0.022822462 0.03658078 -0.021480795 0.052000303
0.028275665 -0.036451906 -0.036575403 0.05188967 -0.03176275 -0.017188512 0.00514438 0.020142537
-0.02457101 0.031342916 -0.0064652497 -0.0271619 0.013478287 0.098465905 0.009736359 0.02933552
-0.0052254996 0.14076078 0.0024299622 0.047966007 0.0032028074 0.030196095 -0.74923885 -0.0009389258
-0.042208992 0.027907643 -0.0068475557 -0.018332059 0.03037778 -0.007673152 -0.0141772395 -0.041815683
0.046127405 0.04159799 0.022846095 -0.025000148 -0.017931223 0.013293108 0.025678214 0.01535584
0.005572952 -0.12967569 -0.0028424517 -0.042313997 0.10772404 0.042008873 0.013869332 0.035206232
-0.12713231 -0.025067816 -0.714724 0.0240095 0.03263915 0.038034704 -0.021814127 -0.037798516
0.031209318 -0.22556248 -0.000276566 -0.043872926 0.03710055 -0.03851697 -0.06055593 -0.010332127
0.025426883 0.019913036 -0.00016197459 -0.056678023 -0.0038076432 -0.013476587 0.008663357 -0.017658418
-0.0015936093 0.03025435 -0.062206067 -0.028210634 -0.027107084 -0.040349603 0.037033483 -0.012217414
-0.022349112 0.00782872 -0.030691883 -0.30509317 0.03449523 0.030892642 0.031805363 0.0492189
-0.028671036 0.012175851 -0.013651112 0.037735928 0.03732645 -0.034531977 0.18383151 -0.014296155
0.017238494 -0.0427315 -0.0016385781 -0.038100354 -0.007211336 0.024017084 -0.03985953 0.011368892
-0.043131344 -0.019803151 -0.017995413 0.017126404 -0.021068852 0.009397078 0.022839846 0.0058738217
-0.009419214 -0.00019507305 -0.051318686 0.068885624 0.0073375846 -0.02579163 -0.056044567 -0.30232856
-0.03808396 0.03614815 0.03135758 0.15926781 -0.05826347 0.0025780424 -0.03374278 -0.024757449
-0.014960494 0.040495243 0.0064358725 0.06945357 0.03642207 0.006193735 0.0016082416 0.028288083
-0.043477386 0.026356589 0.018594103 -0.071269706 -0.036385953 -0.013769227 0.008200385 -0.009955081
0.035560198 -0.03781164 -0.02393372 -0.0058289766 0.035852138 -0.015233977 -0.015303561 -0.013318367
-0.028993629 -0.058372766 0.0047079744 0.0009111847 0.022183558 -0.023698073 0.031346887 -0.22236742
-0.057158943 0.013685882 0.008392777 -0.02587613 -0.9411554 -0.008112128 0.0057171024 -0.018857015
0.0016553488 0.04397081 0.025600387 0.031879727 0.003620209 0.028403185 -0.028761635 -0.02753327
0.005880368 0.042337257 0.0333069 -0.06607963 -0.014832848 -0.21886875 0.022957264 0.009200185
-0.014488079 0.037567597 -0.03263846 0.15910035 0.013044957 -0.0772968 -0.03751979 0.011405836
0.014357861 -0.027591376 -0.05815013 0.029488098 0.025173154 0.020786561 0.0302119 -0.022233421
0.01753232 -0.010282454 -0.02662088 0.00812011 0.030490655 -0.060026035 -0.045566287 -0.028721066
0.02316166 0.021523392 -0.037472486 0.21797152 -0.13224816 0.012612026 -0.22712894 -0.023138274
-0.03828368 -0.008550175 -0.050234705 -0.01343268 -0.03315738 -0.43338346 -0.02306006 -0.027891172
0.03747664 -0.031435005 -0.016648015 -0.040380243 -0.35691002 0.004227052 -0.035383098 0.030582007
00000000: 2f8f 663b 8336 c33c fec3 90bc de16 ae3c
00000010: ab43 a23c 50bf 0f3b 0d55 8bbb 8483 3dbd
00000020: 89f9 7e3c 9597 cc3c 27b0 10bd 4b1f 0dbf
00000030: b608 d83c 1282 03bd 64e9 343c 2419 28bc
00000040: c4b9 3b3a d526 2cbd 58ae 8dbc 0280 44bc
00000050: 2cf6 ba3c bad5 153d 7ef8 afbc 45fe 543d
00000060: 5ea2 e73c 984e 15bd 17d0 15bd 438a 543d
00000070: a819 02bd ecce 8cbc 3092 a83b f601 a53c
00000080: 2549 c9bc 6e61 003d 72da d3bb a282 debc
00000090: 08d4 5c3c 7ea8 c93d 4085 1f3c 0b51 f03c
000000a0: ab3a abbb 9823 103e 0040 1f3b 0178 443d
000000b0: 31e6 513b cd5d f73c 1ece 3fbf 3e22 76ba
000000c0: 56e3 2cbd 929e e43c 7661 e0bb 1d2d 96bc
000000d0: d2da f83c 106f fbbb a747 68bc ec46 2bbd
000000e0: 17f0 3c3d a762 2a3d bc27 bb3c 1ccd ccbc
000000f0: 80e4 92bc 56cb 593c 1e5b d23c 1097 7b3c
00000100: 4f9d b63b b4c9 04be 6d48 3abb 7151 2dbd
00000110: 6c9e dc3d 7f11 2c3d 323c 633c 6934 103d
00000120: f92e 02be 055b cdbc 27f8 36bf 92af c43c
00000130: a1b0 053d 47ca 1b3d 8ab3 b2bc 9ed2 1abd
00000140: afaa ff3c daf9 66be 0f00 91b9 19b4 33bd
00000150: bff6 173d f8c3 1dbd 7f09 78bd 1548 29bc
00000160: 0a4c d03c aa20 a33c b9d7 29b9 3727 68bd
00000170: a789 79bb e7cc 5cbc c1f0 0d3c 63a8 90bc
00000180: a8e0 d0ba f8d7 f73c cacb 7ebd fd19 e7bc
00000190: ad0f debc a045 25bd 6cb0 173d 8c2b 48bc
000001a0: 7c15 b7bc 0844 003c 8b6d fbbc 2c35 9cbe
000001b0: df4a 0d3d 9112 fd3c 5746 023d c299 493d
000001c0: 85df eabc 387d 473c eaa8 5fbc fd90 1a3d
000001d0: 9fe3 183d 6771 0dbd 543e 3c3e 6c3a 6abc
000001e0: be37 8d3c 3a07 2fbd 8fc5 d6ba 1e0f 1cbd
000001f0: 124d ecbb 7abf c43c bf43 23bd 9744 3a3c
00000200: 7eaa 30bd 383a a2bc 1e6b 93bc ac4c 8c3c
00000210: 9698 acbc 34f6 193c a11a bb3c 3079 c03b
00000220: 0c53 1abc 868c 4cb9 8b33 52bd e813 8d3d
00000230: 1f70 f03b f848 d3bc fd8e 65bd cfca 9abe
00000240: edfd 1bbd 1510 143d ce70 003d 1a17 233e
00000250: ada5 6ebd 60f4 283b df35 0abd 22d0 cabc
00000260: dc1c 75bc 57de 253d 03e4 d23b ac3d 8e3d
00000270: 4f2f 153d d1f4 ca3b a2cb d23a 69bc e73c
00000280: 5815 32bd c6e9 d73c a952 983c daf5 91bd
00000290: 7009 15bd 5398 61bc e85a 063c a31a 23bc
000002a0: 92a7 113d 61e0 1abd a610 c4bc 0001 bfbb
000002b0: b1d9 123d ee97 79bc cabb 7abc 4835 5abc
000002c0: 0c84 edbc 4818 6fbd 5a45 9a3b 92dc 6e3a
000002d0: 4bba b53c 7622 c2bc 9865 003d 49b4 63be
000002e0: 7f1f 6abd c03a 603c dc81 093c 2efa d3bc
000002f0: 8fef 70bf bbe8 04bc 8856 bb3b 077a 9abc
00000300: 4af8 d83a bc1a 343d e7b7 d13c 5194 023d
00000310: 0741 6d3b ccad e83c 859d ebbc 748d e1bc
00000320: 1ab0 c03b d569 2d3d d16c 083d c254 87bd
00000330: 7905 73bc 211f 60be df10 bc3c 5fbc 163c
00000340: 685f 6dbc 7be0 193d e8af 05bd 34eb 223e
00000350: 84ba 553c c94d 9ebd 5aae 19bd 8bdf 3a3c
00000360: 3c3d 6b3c 4f07 e2bc d52e 6ebd 0691 f13c
00000370: ee37 ce3c 9448 aa3c f27e f73c dd22 b6bc
00000380: f19f 8f3c bd77 28bc 0814 dabc 360a 053c
00000390: 8ac7 f93c dcdd 75bd b7a3 3abd 7148 ebbc
000003a0: 86bd bd3c d351 b03c c07c 19bd ed33 5f3e
000003b0: 106c 07be aca2 4e3c 7d94 68be 7a8c bdbc
000003c0: 59cf 1cbd 0916 0cbc e8c2 4dbd be14 5cbc
000003d0: 08d0 07bd 70e4 ddbe 73e8 bcbc 077c e4bc
000003e0: 1b81 193d fec1 00bd 6b61 88bc c165 25bd
000003f0: e9bc b6be 1583 8a3b deed 10bd 1e87 fa3c

fc2.bias f4 [256]
0.03258917 0.053160064 -0.008058026 -0.06875553 0.20024124 -0.20025836 -0.07799825 -0.05567288
0.21359788 -0.039002016 -0.061146412 -0.16535877 -0.27783558 -0.16533487 -0.05100213 0.043550476
0.55474377 -0.06135988 -0.06710497 0.14809348 0.22869262 -0.004315593 -0.04404611 -0.12727828
-0.12582517 -0.07228073 -0.022207327 0.024494978 -0.04004354 0.063895404 0.3511223 -0.012095119
0.009895141 -0.11044172 -0.049623977 0.20791394 0.0980084 -0.275174 0.014359016 0.030284757
-0.09238 0.0078033204 -0.058242235 0.015535615 -0.0025801694 -0.021227293 -0.03928013 -0.06387659
-0.109704114 -0.0826301 -0.06302168 -0.026898365 -0.015261648 -0.054996677 -0.026846409 -0.01224848
0.0365431 -0.0993812 0.0028235738 -0.007866156 -0.01057809 -0.013391181 -0.0824886 0.14341873
0.008707882 0.008985453 0.05147955 0.021898754 0.60358596 0.0012415906 0.09430601 0.033437286
-0.3292873 -0.169909 -0.31122687 0.010712298 0.065382026 -0.03663499 -0.030665416 -0.009031355
-0.0235269 0.013280653 -0.049777117 -0.05036058 -0.113512345 -0.03248822 -0.014804132 -0.03338098
-0.04118214 -0.011560135 -0.109178595 -0.014108123 -0.008381727 -0.07032557 -0.06149686 0.018162986
-0.06972605 -0.014527554 0.0066033034 -0.033595636 -0.02334391 0.017839903 0.016131308 0.027146105
-0.057030197 0.0400784 -0.2081076 0.057428863 -0.025830107 0.0014779281 -0.0908377 -0.29488206
0.0645923 0.21004419 -0.0042047617 0.012198894 -0.043790914 0.030866053 0.015967708 -0.045933206
0.25077567 0.020104753 -0.075846046 -0.053571768 -0.03599742 -0.026836459 -0.0609974 -0.035765123
-0.032993253 -0.030319162 -0.123332776 -0.025767962 -0.043375142 0.41002932 -0.19893175 0.0032976724
-0.056486525 -0.19833945 0.034276985 -0.056471307 0.14208739 -0.039743233 -0.060281213 -0.00886505
0.07526814 0.21040782 0.03754926 -0.024471577 0.27375874 -0.034691274 -0.025162624 -0.13413987
-0.1388913 -0.06838351 0.16564727 -0.07316571 0.09443035 -0.03634078 0.14634311 -0.03286749
-0.04445631 -0.01704371 0.19991775 -0.07649817 -0.061476603 0.032168724 -0.03984537 0.030335788
-0.25438955 -0.0015066927 -0.003497542 -0.04882415 0.069741 -0.15542981 0.22468965 -0.12792073
0.07427436 0.07255537 -0.14812103 -0.16057913 -0.036983714 -0.05971284 -0.0019689957 0.08999304
-0.031868078 -0.016454076 -0.24795984 -0.05988471 -0.13572985 -0.028667547 0.07470839 -0.04367388
-0.078734204 -0.015400958 -0.051387694 -0.074407525 0.016508648 -0.094532065 -0.037354298 0.01206665
-0.01181169 -0.026078643 -0.02928969 -0.010160184 -0.078284904 -0.059471752 0.012736616 -0.079464205
0.032912772 -0.049014088 -0.032432165 -0.14378569 -0.007775681 -0.14942887 -0.027766993 -0.0049791313
-0.011049223 -0.050407276 -0.072814405 -0.0006891709 -0.018535186 0.34009793 -0.056466866 0.0044453875
-0.040176034 -0.024334123 0.06285371 0.01916043 -0.05776098 -0.008659819 -0.0005499164 0.0048400597
-0.11631013 -0.04444184 -0.07974818 -0.048426896 -0.047727473 -0.05234625 -0.01760417 -0.0656237
-0.04783491 -0.031788487 -0.05106211 0.0066175703 -0.034272525 -0.013865603 -0.030500367 0.003967045
-0.008031842 0.009014709 -0.07976623 0.06787588 -0.02364892 0.43319997 -0.039513346 -0.018044561
00000000: 397c 053d 5ebe 593d d005 04bc b3cf 8cbd
00000010: 0a0c 4d3e 8710 4dbe 8cbd 9fbd 3f09 64bd
00000020: 67b9 5a3e 94c0 1fbd a974 7abd cf53 29be
00000030: 7740 8ebe 8b4d 29be 9ce7 50bd fc61 323d
00000040: b003 0e3f 7f54 7bbd 556e 89bd d1a5 173e
00000050: 662e 6a3e d169 8dbb b269 34bd 3d55 02be
00000060: 50d8 00be eb07 94bd 24ec b5bc b1a9 c83c
00000070: b204 24bd 98db 823d 4dc6 b33e 9b2a 46bc
00000080: 3b1f 223c 452f e2bd 8342 4bbd 64e7 543e
00000090: a1b8 c83d 9be3 8cbe 1442 6b3c bd17 f83c
000000a0: ba31 bdbd ffb2 ff3b 698f 6ebd 1889 7e3c
000000b0: 0f18 29bb dce4 adbc 34e4 20bd bbd1 82bd
000000c0: 8dac e0bd f839 a9bd 8311 81bd f659 dcbc
000000d0: fe0b 7abc 3244 61bd 00ed dbbc d9ad 48bc
000000e0: 38ae 153d 5f88 cbbd b50b 393b 0de1 00bc
000000f0: ba4f 2dbc af66 5bbc c8ef a8bd 5cdc 123e
00000100: 81ab 0e3c b937 133c 38dc 523d 0465 b33c
00000110: 9c84 1a3f debc a23a 8223 c13d 89f5 083d
00000120: 5898 a8be a0fc 2dbe 2159 9fbe a282 2f3c
00000130: 03e7 853d 920e 16bd 0a36 fbbc 40f8 13bc
00000140: 7cbb c0bc 1997 593c 17e3 4bbd e546 4ebd
00000150: 2979 e8bd 5e12 05bd 088d 72bc 7fba 08bd
00000160: 9bae 28bd b866 3dbc 0799 dfbd c225 67bc
00000170: 8353 09bc da06 90bd 22e4 7bbd 8bca 943c
00000180: 88cc 8ebd fa04 6ebc 8660 d83b 949b 09bd
00000190: ba3b bfbc fd24 923c ce25 843c 8261 de3c
000001a0: 7f98 69bd 4029 243d 291a 55be 873a 6b3d
000001b0: a999 d3bc 0ab7 c13a 1e09 babd c8fa 96be
000001c0: f848 843d d315 573e 19c8 89bb dfdd 473c
000001d0: 1a5e 33bd ceda fc3c b6ce 823c 7524 3cbd
000001e0: ab65 803e b9b2 a43c 2c55 9bbd 126e 5bbd
000001f0: 0872 13bd 22d8 dbbc 69d8 79bd 737e 12bd
00000200: ef23 07bd e45f f8bc e595 fcbd 5517 d3bc
00000210: 22aa 31bd 5def d13e c4b4 4bbe c31d 583b
00000220: 6a5e 67bd 7f19 4bbe 0666 0c3d 754e 67bd
00000230: 5b7f 113e cdc9 22bd 6fe9 76bd b73e 11bc
00000240: 2f26 9a3d 2675 573e 41cd 193d 9e78 c8bc
00000250: 1b2a 8c3e 7018 0ebd d921 cebc f65b 09be
00000260: 8539 0ebe a70c 8cbd 709f 293e e7d7 95bd
00000270: b364 c13d 12da 14bd f8da 153e 10a0 06bd
00000280: d217 36bd 409f 8bbc 3db7 4c3e 13ab 9cbd
00000290: e4ce 7bbd 5ac3 033d e634 23bd c282 f83c
000002a0: 593f 82be 387c c5ba 0537 65bb d5fb 47bd
000002b0: 5fd4 8e3d fe28 1fbe 0b15 663e a7fd 02be
000002c0: 281d 983d e997 943d 0aad 17be db6e 24be
000002d0: 3c7c 17bd 7395 74bd 440a 01bb 454e b83d
000002e0: 1a88 02bd b3ca 86bc 2fe9 7dbe ab49 75bd
000002f0: c4fc 0abe 34d8 eabc b600 993d 62e3 32bd
00000300: 663f a1bd 4d54 7cbc e77b 52bd f962 98bd
00000310: 253d 873c 079a c1bd d200 19bd 33b3 453c
00000320: d285 41bc e1a2 d5bc eff0 efbc e776 26bc
00000330: d653 a0bd a798 73bd 3dad 503c 21be a2bd
00000340: 8bcf 063d ffc2 48bd 97d7 04bd 8e3c 13be
00000350: 24cb febb e203 19be 9b77 e3bc fb27 a3bb
00000360: cd07 35bc dc77 4ebd b81f 95bd 7aa9 34ba
00000370: 1ad7 97bc 5121 ae3e cd49 67bd 9daa 913b
00000380: a08f 24bd 5b58 c7bc 72b9 803d 56f6 9c3c
00000390: c796 6cbd eae1 0dbc 4428 10ba 5d99 9e3b
000003a0: 0134 eebd a608 36bd 0453 a3bd 485b 46bd
000003b0: e27d 43bd 0569 56bd 9f36 90bc b865 86bd
000003c0: 8aee 43bd a534 02bd 8126 51bd 34d8 d83b
000003d0: 5961 0cbd 8e2c 63bc e8db f9bc fcfd 813b
000003e0: fd97 03bc 6eb2 133c 7a5c a3bd 8202 8b3d
000003f0: 61bb c1bc 63cc dd3e bfd8 21bd 30d2 93bc

fc3.weight f4 [128, 256]
0.053505026 -0.540527 0.023058664 -0.020001598 -0.040682632 0.060928952 0.20013924 -0.06925526
0.08542 0.016810738 -0.04828821 -0.15520942 0.0010770621 -0.039371092 -0.021524498 0.07352468
0.004795228 -0.051138274 -0.027408121 0.12534608 -0.295017 -0.031487208 -0.021124415 -0.08843464
-0.6497817 -0.013996715 0.035455115 -0.19416252 -0.08736992 0.19455065 -0.23808567 0.04187526
0.04774763 -0.06968709 0.012719406 0.055563793 0.017678939 -0.17987432 -0.03650862 -0.274641
0.19026051 -0.04642944 0.0012948684 -0.04086715 -0.04390452 0.0027373044 0.025104951 -0.033806846
-0.2388186 -0.04690112 -0.0072520804 0.43440062 -0.08106341 0.037099775 0.02173119 0.046503477
0.325872 0.1582461 0.14002654 0.026345855 -0.002495821 -0.012518557 0.09137487 -0.30189142
-0.036722884 0.034842353 0.23510218 0.19929929 -0.021128818 -0.30934158 -0.11051066 0.25068608
-0.061864197 -0.0008828936 -0.03541432 0.040763542 -0.045040052 0.01482512 -0.042633727 0.062286146
-0.0057691 -0.0006104484 0.008538671 0.03835778 0.36866757 0.08843429 -0.116803415 -0.36972818
0.050677538 -0.0402728 -0.016449036 0.019156061 -0.023225099 0.041437514 0.04445302 -0.11151488
0.20980382 0.03145198 0.033720225 -0.01173239 0.0041443035 -0.037657388 0.057086583 0.055696994
0.05312645 0.032694288 0.362917 -0.5359479 0.02646795 -0.019055478 0.05202459 -0.19383638
-0.21589738 -0.046884336 -0.028005056 -0.0056291716 0.03572263 0.10251139 0.18218553 -0.04775083
0.238144 -0.28847486 -0.052656546 0.054066278 -0.015309557 0.06050475 -0.01283928 -0.24826895
-0.052111723 0.056614958 0.026134884 0.009988154 0.014730537 0.09255531 -0.10824926 -0.04844043
0.046060953 0.21134616 -0.038913198 0.049330726 -0.28028852 -0.057736494 -0.062496588 -0.02226033
0.2526185 -0.21852203 -0.10914947 -0.0071477965 -0.017297147 0.005658901 0.023927836 -0.16421698
0.05729444 0.03617389 0.14689383 0.018700508 -0.38017032 0.09315326 0.053911675 0.084404774
0.03858154 0.06652408 -0.17211251 -0.5956188 -0.05952753 -0.041836493 -0.0630263 0.010558484
-0.17000939 0.023306198 0.019860916 -0.014080297 0.053533107 0.019884983 -0.32641396 0.12733714
0.02778942 0.5358283 0.31374845 0.31011164 0.029333979 -0.060050815 -0.03952962 -0.43376303
0.07581447 -0.023796964 -0.5490391 0.076158665 -0.036233168 0.046651 -0.42062116 0.22517659
0.28994328 0.0453076 0.115638055 0.026969073 0.33173934 -0.45272934 0.021808602 -0.052854806
-0.00749938 0.018481527 -0.013708472 0.0008563822 0.14387478 -0.032512903 0.011286334 -0.17168108
-0.07078101 -0.072771326 -0.15642263 0.09813987 -0.0154514015 0.26807842 -0.11399286 0.031992607
0.09267176 0.03583827 0.21371867 -0.037506226 -0.030651527 0.14490576 0.02718883 0.0537147
0.02539723 0.053859007 0.31379986 -0.051283177 -0.20470779 -0.0152852535 0.023322605 -0.014950262
-0.02499358 -0.043195583 -0.02411541 -0.05829232 0.0038085706 0.039958127 -0.03540809 -0.066471554
-0.019472815 0.040790733 -0.0037778649 0.050144058 0.030876352 0.028703768 0.011442751 0.030394727
0.040426433 -0.056521337 0.065228865 -0.14343056 0.030295163 -0.22815903 0.108339414 -0.00011707097
00000000: 1628 5b3d fa5f 0abf 86e5 bc3c 64da a3bc
00000010: d5a2 26bd a390 793d 4df1 4c3e b4d5 8dbd
00000020: aef0 ae3d acb6 893c dcc9 45bd 38ef 1ebe
00000030: 352c 8d3a 9543 21bd 2554 b0bc 1c94 963d
00000040: 4a21 9d3b 5e76 51bd ff86 e0bc b95a 003e
00000050: 780c 97be bbf8 00bd 1c0d adbc 381d b5bd
00000060: 1858 26bf 7a52 65bc 6239 113d 8ad2 46be
00000070: 00ef b2bd 4938 473e bbcc 73be 6585 2b3d
00000080: 0593 433d 1bb8 8ebd 0e65 503c dc96 633d
00000090: 6cd3 903c f930 38be 108a 15bd bf9d 8cbe
000000a0: a7d3 423e cc2c 3ebd 93b8 a93a 5064 27bd
000000b0: 3ad5 33bd 5964 333b e6a8 cd3c 0c79 0abd
000000c0: dd8c 74be 641b 40bd dca2 edbb c269 de3e
000000d0: 9304 a6bd eff5 173d 9c05 b23c 6e7a 3e3d
000000e0: b2d8 a63e 440b 223e 1e63 0f3e 43d3 d73c
000000f0: ee90 23bb a21a 4dbc bf22 bb3d 8391 9abe
00000100: bc6a 16bd dbb6 0e3d a0be 703e 1d15 4c3e
00000110: 5816 adbc 0562 9ebe 6a53 e2bd ed59 803e
00000120: 5065 7dbd fd71 67ba 9b0e 11bd acf7 263d
00000130: eb7b 38bd 0fe5 723c b4a0 2ebd c21f 7f3d
00000140: b80a bdbb 8006 20ba c8e5 0b3c 0c1d 1d3d
00000150: ffc1 bc3e 091d b53d a136 efbd 034d bdbe
00000160: 4093 4f3d 17f5 24bd 21c0 86bc 2ced 9c3c
00000170: 9042 bebc 62ba 293d 5f14 363d ea61 e4bd
00000180: d0d6 563e cbd3 003d 381e 0a3d 3639 40bc
00000190: f0cc 873b a23e 1abd 9fd3 693d 8822 643d
000001a0: 1f9b 593d 72ea 053d 42d0 b93e e233 09bf
000001b0: 50d3 d83c 3c1a 9cbc bd17 553d 0b7d 46be
000001c0: 3414 5dbe ca09 40bd dc6a e5bc ea74 b8bb
000001d0: e451 123d 7ef1 d13d d88e 3a3e 6096 43bd
000001e0: 05dc 733e fab2 93be 64ae 57bd 9a74 5d3d
000001f0: f0d4 7abc d4d3 773d d85b 52bc 373a 7ebe
00000200: 1a73 55bd 16e5 673d d318 d63c 5ba5 233c
00000210: 5a58 713c a38d bd3d cab1 ddbd 7969 46bd
00000220: 69aa 3c3d 216b 583e 7263 1fbd 040f 4a3d
00000230: fa81 8fbe 1a7d 6cbd 6cfc 7fbd 4c5b b6bc
00000240: 3657 813e 3dc4 5fbe c289 dfbd 1038 eabb
00000250: bfb2 8dbc 4d6e b93b 4f04 c43c 7f28 28be
00000260: 93ad 6a3d 132b 143d 566b 163e cf31 993c
00000270: afa5 c2be 23c7 be3d 7dd2 5c3d 69dc ac3d
00000280: ad07 1e3d c73d 883d 433e 30be 797a 18bf
00000290: 24d3 73bd be5c 2bbd ef13 81bd 7efd 2c3c
000002a0: f116 2ebe a4ec be3c 5cb3 a23c 0cb1 66bc
000002b0: 8845 5b3d d5e5 a23c bb1f a7be ab64 023e
000002c0: a3a6 e33c 0b2c 093f a3a3 a03e f4c6 9e3e
000002d0: d04d f03c d8f7 75bd d0e9 21bd 3016 debe
000002e0: 9e44 9b3d daf1 c2bc d48d 0cbf 13f9 9b3d
000002f0: 3b69 14bd 1e15 3f3d a85b d7be b194 663e
00000300: 7273 943e 7694 393d a5d3 ec3d 3fee dc3c
00000310: bdd9 a93e 24cc e7be f4a7 b23c 487e 58bd
00000320: 5cbd f5bb 9266 973c 8099 60bc d67e 603a
00000330: e953 133e 402c 05bd 51ea 383c 2acd 2fbe
00000340: a2f5 90bd 2209 95bd 412d 20be 8efd c83d
00000350: e027 7dbc 9341 893e 1775 e9bd ae0a 033d
00000360: b1ca bd3d 26cb 123d 11d9 5a3e 21a0 19bd
00000370: e918 fbbc 2d62 143e 1cbb de3c f203 5c3d
00000380: da0d d03c 439b 5c3d 60aa a03e 4f0e 52bd
00000390: eb9e 51be 006f 7abc 0c0f bf3c f2f1 74bc
000003a0: 56bf ccbc daed 30bd ae8d c5bc eec3 6ebd
000003b0: 3699 793b 22ab 233d 1308 11bd 3d22 88bd
000003c0: 7485 9fbc 2f14 273d 0e96 77bb db63 4d3d
000003d0: 67f0 fc3c 2a24 eb3c 607a 3b3c 5dfe f83c
000003e0: 3096 253d eb82 67bd b696 853d 76df 12be
000003f0: 902d f83c 85a2 69be 0ee1 dd3d 0084 f5b8

fc3.bias f4 [128]
-0.046060294 -0.11701728 -0.3192335 -0.07303087 -0.0906909 -0.35102305 -0.06086847 0.16648035
0.035920016 -0.3098704 0.044930954 0.13349643 0.018268244 -0.090101935 -0.13903747 0.025463035
-0.41255003 -0.04525491 0.22488724 0.07339318 0.18756019 -0.5692592 -0.124197066 -0.0930577
0.3521956 -0.5058556 -0.05314556 -0.050880056 -0.087207325 -0.005317378 -0.19533671 0.40336585
0.08867773 0.058356013 -0.0423539 -0.01923562 -0.30160877 0.12934883 -0.01857215 0.28167692
-0.329344 -0.14069508 0.15874627 -0.029570874 -0.07909566 0.43660322 0.07823834 0.45763335
-0.116060644 -0.25639996 0.10575954 -0.053700913 0.14172532 -0.17953467 0.020579718 -0.23958862
0.10695941 -0.01738397 0.34660062 -0.10928861 0.116179265 0.09019662 -0.1314763 -0.2674531
0.02173323 0.14484979 -0.19861498 -0.21643876 -0.07706531 0.07056597 -0.27525514 0.21001475
0.032984857 0.025700456 0.051817983 0.3125838 -0.23177621 0.20050159 -0.12874787 -0.23499444
-0.08654524 -0.12503576 -0.2802223 -0.086054586 0.011192459 -0.0050007952 0.1145948 -0.3608692
-0.091063686 -0.10787031 -0.08208473 -0.09592841 -0.23612148 -0.15845445 -0.17094485 0.020836387
0.033785038 -0.0041416385 -0.09239022 0.11145986 0.014330509 -0.32190084 -0.08583377 0.2407977
-0.45308375 -0.08425648 0.20512532 0.077891976 -0.19051 0.047004763 0.002877869 -0.8645051
-0.12489804 0.09837813 -0.2923617 0.1586066 -0.20450556 0.029700238 0.347336 0.03112602
0.019849962 -0.04423229 0.069967605 -0.20132816 0.36233556 -0.069510564 0.03948396 0.23007646
00000000: b8a9 3cbd c1a6 efbd 9372 a3be 3591 95bd
00000010: 27bc b9bd 4bb9 b3be 3851 79bd d379 2a3e
00000020: de20 133d 55a7 9ebe 8509 383d 4ab3 083e
00000030: 49a7 953c 5d87 b8bd d75f 0ebe db97 d03c
00000040: c239 d3be 365d 39bd d748 663e 2a4f 963d
00000050: c70f 403e f9ba 11bf 085b febd 0995 bebd
00000060: fb52 b43e c17f 01bf 29af 59bd 9b67 50bd
00000070: c199 b2bd 663d aebb 5906 48be f885 ce3e
00000080: ab9c b53d b706 6f3d 487b 2dbd 0594 9dbc
00000090: 776c 9abe 0574 043e 9f24 98bc f537 903e
000000a0: c79f a8be 5f12 10be 628e 223e 9e3e f2bc
000000b0: e8fc a1bd 758a df3e 6c3b a03d eb4e ea3e
000000c0: 34b1 edbd db46 83be 7598 d83d 7df5 5bbd
000000d0: 7120 113e f0d7 37be cc96 a83c b856 75be
000000e0: 890d db3d d468 8ebc a375 b13e b5d2 dfbd
000000f0: 65ef ed3d 01b9 b83d b9a1 06be 9def 88be
00000100: e309 b23c 8153 143e ba61 4bbe 1fa2 5dbe
00000110: 6bd4 9dbd e484 903d 3eee 8cbe 1b0e 573e
00000120: 211b 073d c389 d23c 183f 543d fc0a a03e
00000130: be56 6dbe 4a50 4d3e 7bd6 03be 62a2 70be
00000140: a13e b1bd 6009 00be 4c79 8fbe 633d b0bd
00000150: 9360 373c b6dd a3bb aeb0 ea3d d9c3 b8be
00000160: 997f babd 1ceb dcbd 0a1c a8bd 1d76 c4bd
00000170: d4c9 71be e241 22be 2b0c 2fbe 12b1 aa3c
00000180: 2e62 0a3d 95b6 87bb 1537 bdbd 1145 e43d
00000190: 83ca 6a3c 30d0 a4be 9ec9 afbd ac93 763e
000001a0: 98fa e7be a98e acbd 5f0c 523e d485 9f3d
000001b0: 0e15 43be 1188 403d a19a 3c3b 3550 5dbf
000001c0: 8bca ffbd 797a c93d 6fb0 95be c569 223e
000001d0: e869 51be ea4d f33c 06d6 b13e fffb fe3c
000001e0: 639c a23c eb2c 35bd 2d4b 8f3d f828 4ebe
000001f0: 0c84 b93e 8e5b 8ebd efb9 213d 2a99 6b3e

fc4.weight f4 [64, 128]
-0.1015111 0.088724755 0.014395699 -0.0032844506 -0.0046820026 -0.10714626 -0.085510865 -0.06674156
0.029702729 -0.0072244233 -0.20653865 -0.21169606 -0.0942831 -0.11817326 0.013718661 -0.06397354
-0.018378379 -0.059717312 -0.06862534 0.014612337 -0.07772474 0.004772724 -0.04735407 -0.07091113
-0.054345023 -0.0016606111 -0.011749349 -0.046098303 -0.090543665 0.011907775 0.01235081 -0.050288245
-0.04462913 -0.198616 0.06971535 0.02620246 -0.09419851 -0.22242902 0.007553648 0.18047138
-0.021306643 -0.12611847 -0.08973155 -0.06403225 0.057762224 -0.05062261 0.0208309 -0.3225576
-0.026159955 -0.1766418 -0.0661201 0.040678624 -0.083821885 -0.068797104 0.03562506 -0.22013116
0.018951554 0.017818771 -0.03531157 -0.04162178 -0.026664564 -0.047920145 0.011144629 -0.085785694
0.0119483005 -0.022959137 -0.06273393 -0.11046398 0.019675339 -0.07906762 -0.058722936 -0.07760656
-0.071633086 -0.02847195 -0.033601355 0.038389705 0.035444397 -0.10697589 -0.052857623 -0.08144512
-0.029861713 -0.026347656 -0.21921091 -0.06292869 -0.021343702 0.022505524 -0.010407004 0.075076416
-0.014497204 -0.019162627 0.04241453 -0.03659065 0.044735137 0.036939237 0.021196747 -0.07573622
-0.044373758 -0.09452337 0.01986889 -0.109174445 -0.11376285 -0.017588392 -0.07399645 -0.0014080688
0.0016468284 -0.06650335 0.018090485 0.03495648 -0.10001458 -0.0082517 -0.37704667 0.0008660996
-0.14582598 -0.017910995 -0.45244426 -0.21560039 -0.011697445 -0.0015167438 -0.019315222 0.034179702
-0.03622716 -0.105222106 -0.053403188 -0.005804731 -0.031007525 -0.012762073 -0.07899641 -0.023695394
0.0012310351 0.013167878 0.050873607 -0.04928463 -0.116150655 -0.19477613 0.017388701 0.02101737
0.0457365 0.010391953 -0.0026583674 0.03941588 0.024338303 0.025051009 -0.037120372 -0.13167064
-0.027248044 -0.05204054 0.053266414 0.071602054 0.11134119 -0.014219977 0.064310014 -0.012104596
0.060718026 -0.02112451 -0.12864873 -0.028419364 -0.016101824 -0.07878407 0.033103153 -0.07759132
0.035479065 0.12702085 0.06447645 0.0053004376 -0.14592953 -0.12322138 -0.02597126 -0.07023465
-0.1721385 -0.09133434 -0.057095136 0.032875013 0.024719778 0.032617986 0.058130544 0.16237685
-0.13498496 -0.1364737 -0.02261015 0.047810227 0.00840881 -0.013075563 -0.08063153 -1.1283222
-0.04701097 0.0014862028 -0.012185759 -0.07901227 0.0050448827 0.0025842758 -0.05057602 -0.071461864
0.040552124 0.09651765 0.11241456 0.017560164 -0.0075717736 -0.021820119 -0.09968443 -0.1308882
-0.061342858 0.036307164 0.08359738 0.0074672853 -0.16351095 -0.0057901586 -0.18964668 -0.069789
-0.026716014 -0.2337945 -0.025733013 -0.12869607 -0.011393362 -0.05837872 -0.069613285 0.0844304
-0.0637062 -0.05679986 0.05442005 0.016118828 -0.027471675 0.06738796 -0.017063968 0.032656882
0.021153957 0.015553458 -0.010472241 -0.026596079 -0.12348591 0.07749584 -0.07983688 -0.071019
0.05247707 -0.08625546 0.11613032 0.027569788 0.104877315 -0.24011916 0.04263228 -0.097825356
-0.012953712 -0.020440575 -0.18149632 0.026509864 -0.031615827 0.056948416 -0.06974982 -0.07894788
0.06330994 -0.14453793 0.017064653 -0.06782019 -0.13688637 -0.2748221 -0.20446035 0.09166577
00000000: 0de5 cfbd 53b5 b53d f0db 6b3c f03f 57bb
00000010: 7c6b 99bb 806f dbbd 5220 afbd cdaf 88bd
00000020: 2353 f33c dbba ecbb de7e 53be dac6 58be
00000030: 7f17 c1bd d204 f2bd 3cc4 603c 8f04 83bd
00000040: 418e 96bc 249a 74bd 718b 8cbd 9568 6f3c
00000050: 262e 9fbd 8364 9c3b 57f6 41bd db39 91bd
00000060: e398 5ebd dda8 d9ba 5780 40bc 93d1 3cbd
00000070: f56e b9bd d418 433c 0d5b 4a3c 0cfb 4dbd
00000080: 09cd 36bd fe61 4bbe ecc6 8e3d 8ba6 d63c
00000090: 26eb c0bd 6fc4 63be 9884 f73b 7dcd 383e
000000a0: 458b aebc 3325 01be 2dc5 b7bd 5723 83bd
000000b0: 1598 6c3d a759 4fbd 90a5 aa3c 4526 a5be
000000c0: 674d d6bc 97e1 34be fa69 87bd a19e 263d
000000d0: cfaa abbd 7fe5 8cbd 95eb 113d 106a 61be
000000e0: 4a40 9b3c acf8 913c dda2 10bd 997b 2abd
000000f0: a56f dabc ea47 44bd f697 363c 69b0 afbd
00000100: cec2 433c cd14 bcbc a67a 80bd f03a e2bd
00000110: 2d2e a13c 34ee a1bd 7687 70bd 30f0 9ebd
00000120: 5eb4 92bd 023e e9bc 93a1 09bd 863e 1d3d
00000130: 252e 113d 2d16 dbbd 3c81 58bd b3cc a6bd
00000140: 8da0 f4bc 0ad7 d7bc d378 60be c2e0 80bd
00000150: fdd8 aebc 815d b83c 2382 2abc aac1 993d
00000160: ae85 6dbc f1fa 9cbc dcba 2d3d 14e0 15bd
00000170: 313c 373d 994d 173d cda4 ad3c 971b 9bbd
00000180: 42c1 35bd 7895 c1bd 15c4 a23c da96 dfbd
00000190: 7ffc e8bd 8815 90bc 738b 97bd f38e b8ba
000001a0: 64da d73a e932 88bd 7f32 943c 872e 0f3d
000001b0: 72d4 ccbd 2332 07bc 430c c1be f60a 633a
000001c0: 6853 15be 14ba 92bc c6a6 e7be 59c6 5cbe
000001d0: a4a6 3fbc 7acd c6ba f53a 9ebc 0400 0c3d
000001e0: ee62 14bd b07e d7bd 4dbd 5abd 9d35 bebb
000001f0: 7e03 febc 0418 51bc dfc8 a1bd d81c c2bc
00000200: af5a a13a 15be 573c d860 503d aede 49bd
00000210: 65e0 edbd 6573 47be c072 8e3c 9f2c ac3c
00000220: 3256 3b3d 0343 2a3c 0138 2ebb 8c72 213d
00000230: 1f61 c73c c637 cd3c 880b 18bd abd4 06be
00000240: 4a37 dfbc 7628 55bd e22d 5a3d 19a4 923d
00000250: da06 e43d e8fa 68bc f8b4 833d 5b52 46bc
00000260: 77b3 783d 4f0d adbc 7ebc 03be bacf e8bc
00000270: f9e7 83bc 8b59 a1bd 2c97 073d 33e8 9ebd
00000280: 7f52 113d c111 023e 3b0c 843d 4baf ad3b
00000290: 8d6e 15be 7e5b fcbd aec1 d4bc 2fd7 8fbd
000002a0: 1345 30be 800d bbbd 97dc 69bd f3a7 063d
000002b0: 2281 ca3c 709a 053d 4b1a 6e3d 1e46 263e
000002c0: 7f39 0abe c3bf 0bbe ec38 b9bc a8d4 433d
000002d0: 1bc5 093c e33a 56bc 2522 a5bd dd6c 90bf
000002e0: 938e 40bd b1cc c23a c7a6 47bc 2fd1 a1bd
000002f0: 8b4f a53b f45c 293b cd28 4fbd 995a 92bd
00000300: fc19 263d 0cab c53d 9b39 e63d 55da 8f3c
00000310: a41c f8bb 1bc0 b2bc 5a27 ccbd 8e07 06be
00000320: a642 7bbd d2b6 143d 1a35 ab3d 21b0 f43b
00000330: 6a6f 27be 5fbb bdbb bd32 42be 89ed 8ebd
00000340: 8bdb dabc d367 6fbe 0ace d2bc e7c8 03be
00000350: 39ab 3abc 861e 6fbd 6991 8ebd d8e9 ac3d
00000360: 6578 82bd f8a6 68bd 8fe7 5e3d a20b 843c
00000370: 470c e1bc b302 8a3d bcc9 8bbc 39c3 053d
00000380: 104b ad3c eed3 7e3c c393 2bbc 05e0 d9bc
00000390: 2ee6 fcbd 24b6 9e3d 8581 a3bd 6972 91bd
000003a0: 32f2 563d b4a6 b0bd bcd5 ed3d 09da e13c
000003b0: ebc9 d63d cce1 75be 309f 2e3d a958 c8bd
000003c0: ce3b 54bc fe72 a7bc 2cda 39be 372b d93c
000003d0: 997f 01bd be42 693d fed8 8ebd 6daf a1bd
000003e0: a4a8 813d c001 14be 2ccb 8b3c 50e5 8abd
000003f0: f12b 0cbe 7bb5 8cbe 0e5e 51be 43bb bb3d

fc4.bias f4 [64]
-0.21928094 -0.08723004 0.24390893 0.008704676 0.28609955 -0.43221855 0.31624654 0.039174445
0.3140584 -0.30529848 -0.6906681 -0.2557765 0.17459852 -0.522049 -0.17773919 -0.24548814
-0.0040256134 -0.3060504 0.2836383 -0.020229444 -0.21100107 -0.26442233 0.11668663 -0.04838857
-0.45700765 0.10705033 -0.060499534 0.023485491 -0.3598927 0.059247296 0.05992546 -0.099037394
0.13963492 -0.34812626 -0.18347806 -0.12256545 -0.32426316 -0.03525005 -0.29930338 0.5731643
0.19852386 -0.746678 -0.06734641 0.16286917 -0.100035645 0.16864556 0.028446445 -0.34790662
-0.20043664 0.1588963 -0.2733914 -0.26704332 0.060272645 0.47118762 -0.31896108 0.11755924
0.16102068 0.07533519 -0.053304523 -0.341105 -0.7282209 -0.11411216 -0.09751613 -0.26721248
00000000: 2f8b 60be aaa5 b2bd 43c3 793e 0f9e 0e3c
00000010: a47b 923e c04b ddbe 11eb a13e 6275 203d
00000020: 43cc a03e 1550 9cbe a0cf 30bf 23f5 82be
00000030: f4c9 323e 01a5 05bf 4301 36be 3e61 7bbe
00000040: 4be9 83bb a3b2 9cbe 0a39 913e 38b8 a5bc
00000050: aa10 58be 5d62 87be 66f9 ee3d 1833 46bd
00000060: e8fc e9be 343d db3d 5cce 77bd a564 c03c
00000070: db43 b8be 4bad 723d 6674 753d 1ed4 cabd
00000080: 75fc 0e3e 9b3d b2be ace1 3bbe 9803 fbbd
00000090: d205 a6be 5b62 10bd 4b3e 99be e5ba 123f
000000a0: d749 4b3e 4a26 3fbf eaec 89bd 2dc7 263e
000000b0: 7ddf ccbd 6cb1 2c3e 8508 e93c d120 b2be
000000c0: 433f 4dbe b6b5 223e f5f9 8bbe e7b9 88be
000000d0: 73e0 763d 813f f13e de4e a3be e6c2 f03d
000000e0: 9be2 243e 5649 9a3d d855 5abd 51a5 aebe
000000f0: af6c 3abf a3b3 e9bd 89b6 c7bd 13d0 88be

fc5.weight f4 [6, 64]
-0.045196865 -0.04959457 0.019765187 0.020048136 0.038324654 0.01701177 -0.011631316 0.02607695
0.025816178 -0.010838845 0.025083153 0.049882147 0.018882126 -0.0017518752 0.054249592 0.03990311
0.02219596 -0.0128934095 0.079481624 0.056069892 -0.02120815 0.06327711 0.027021319 0.034238227
0.0008103018 0.032061167 0.029034108 -0.0076815113 -0.07333945 -0.016766058 0.0062048575 0.0007560791
0.0168648 0.03755575 0.0274069 0.019242197 -0.011007658 0.026849803 -0.014940064 -0.011916843
0.06671756 -0.01546198 0.0020102023 0.027990924 -0.0029666007 -0.022990065 0.047383513 0.015277523
0.009180301 0.061054602 0.028432617 0.007917858 0.077029884 0.024106786 0.028284317 0.03880484
-0.01160228 0.04493539 0.021353187 0.022176104 0.027409405 -0.0072571267 0.024998741 0.010324298
-0.012646498 -0.0493382 0.017522812 0.013389609 0.03693181 0.0028503777 -0.014431977 0.03620464
0.0036746792 0.01947669 0.027686702 0.036377158 0.033428434 -0.00023321033 0.030542603 0.035593994
0.025960708 -0.0044805016 0.0688525 0.064608775 -0.028134063 0.0712608 0.019956753 0.055416957
0.03921973 0.018638166 -0.012568523 -0.0030921965 -0.03507944 -0.016870018 0.00072809827 -0.0007346941
0.0116337 0.02679777 0.029681984 0.0200343 -0.010886003 0.026622785 -0.014031928 -0.009555562
0.095205665 -0.014626041 -0.0045492696 -0.012984951 -0.021960841 -0.025734315 0.02585131 0.0042163217
-0.007682758 0.056547187 0.046326213 0.0065678055 0.09065411 0.026308462 0.021230847 0.03872405
0.0068595186 0.0074633434 0.026374418 0.030714234 0.01713835 -0.008543275 0.019754672 -0.011889508
-0.008626224 -0.04861862 0.02580528 0.0060265576 0.037912585 0.011426877 -0.011439199 0.045113754
0.023477893 -0.010892666 0.026786355 0.007907498 0.021084737 9.747363e-05 0.047905184 0.03438176
0.021380836 -0.030370567 0.035451114 0.03414268 -0.024637371 0.06978849 0.0067439433 0.043528926
0.003701792 0.020461189 0.006777991 -0.00085062813 -0.05567053 -0.016476128 -0.0019345981 0.0015065826
0.012511513 0.026955416 0.048084818 0.020843266 0.012951107 0.013803875 -0.015141524 -0.014462535
0.05453778 -0.015489879 0.0016907885 0.023694625 -0.002292204 -0.0240154 0.03730585 0.015842572
0.04824199 0.061068416 0.053308815 0.008357086 0.08166861 0.026173081 0.02370228 0.030707894
0.03879634 0.02777024 0.026401768 0.02688262 0.014744003 -0.011067017 0.01620266 0.014734798
-0.033396125 -0.050241515 0.019210652 0.016617207 0.03743026 0.02021205 -0.011850476 0.03774854
0.01204963 0.0034682464 0.019027427 0.006092673 0.016152134 0.0075135776 0.05514654 0.032722197
0.019529149 0.018754145 0.066148646 0.03967548 -0.028114675 0.06689204 0.020971566 0.04447362
0.019640813 0.018106023 0.022444874 -0.0011039376 -0.06154455 -0.016697647 0.005840702 0.015798157
0.006130692 0.028702067 0.043706246 0.012948448 -0.034629457 0.029993383 -0.0148731135 -0.008744296
0.059234537 -0.01482361 -0.0147012565 -0.0012318969 -0.008453859 -0.022414628 0.024223553 -0.001983276
0.007030306 0.055570956 0.049292307 0.011632417 0.06659363 0.024181489 0.03712012 0.03402421
-0.013000033 0.0710515 0.01052981 0.023933223 0.031815268 -0.0075009046 -0.011092253 -0.012982576
00000000: 5920 39bd ad23 4bbd 9aea a13c fd3b a43c
00000010: 50fa 1c3d 445c 8b3c 4691 3ebc 549f d53c
00000020: 737c d33c 6995 31bc 2f7b cd3c 3951 4c3d
00000030: b0ae 9a3c 2d9f e5ba d234 5e3d 7271 233d
00000040: 4dd4 b53c e13e 53bc 43c7 a23d 8ba9 653d
00000050: b7bc adbc 6e97 813d d05b dd3c 623d 0c3d
00000060: 6f6a 543a 9252 033d f0d8 ed3c 30b5 fbbb
00000070: fe32 96bd f958 89bc 1e52 cb3b 9c33 463a
00000080: 0d28 8a3c 0fd4 193d 6f84 e03c d0a1 9d3c
00000090: 7759 34bc 1ef4 db3c 2cc7 74bc dd3e 43bc
000000a0: 37a3 883d 3f54 7dbc 99bd 033b 394d e53c
000000b0: 4d6b 42bb a955 bcbc 3715 423d 934e 7a3c
000000c0: f968 163c 6414 7a3d 85eb e83c e7b9 013c
000000d0: d8c1 9d3d 987b c53c 83b4 e73c d3f1 1e3d
000000e0: 7d17 3ebc 2c0e 383d e1ec ae3c a9aa b53c
000000f0: b089 e03c 31cd edbb 29ca cc3c 3f27 293c
00000100: 4233 4fbc da16 4abd 008c 8f3c 1760 5b3c
00000110: cf45 173d 67cd 3a3b 1974 6cbc 514b 143d
00000120: e3d2 703b 948d 9f3c 39cf e23c 3700 153d
00000130: 41ec 083d ec89 74b9 7b34 fa3c 02cb 113d
00000140: 8dab d43c 2cd1 92bb 8a02 8d3d 9b51 843d
00000150: 6879 e6bc 2ff1 913d 587c a33c e4fc 623d
00000160: dea4 203d 11af 983c 35ec 4dbc 73a6 4abb
00000170: 75af 0fbd fe32 8abc d9dd 3e3a 7d98 40ba
00000180: 469b 3e3c ff86 db3c a227 f33c f91e a43c
00000190: 355b 32bc 0718 da3c 2ce6 65bc ef8e 1cbc
000001a0: 30fb c23d 10a2 6fbc 0a12 95bb d5be 54bc
000001b0: 39e7 b3bc c5d0 d2bc 20c6 d33c 1229 8a3b
000001c0: a5bf fbbb 069e 673d 8ec0 3d3d bf36 d73b
000001d0: dda8 b93d d884 d73c 50ec ad3c 1c9d 1e3d
000001e0: d0c5 e03b 108f f43b 2a0f d83c 6b9c fb3c
000001f0: ba65 8c3c 18f9 0bbc 8dd4 a13c 36cc 42bc
00000200: 0155 0dbc 5124 47bd 9865 d33c 6e7a c53b
00000210: 3a4a 1b3d cc37 3b3c 7a6b 3bbc 33c9 383d
00000220: b654 c03c 2777 32bc 0f6f db3c 738e 013c
00000230: e6b9 ac3c c26a cc38 3a38 443d e3d3 0c3d
00000240: dd26 af3c b2cb f8bc 3035 113d 32d9 0b3d
00000250: 50d4 c9bc 45ed 8e3d 4cfc dc3b 634b 323d
00000260: c499 723b 399e a73c e919 de3b b0fc 5eba
00000270: c806 64bd f2f8 86bc 5792 fdba 8678 c53a
00000280: 17fd 4c3c 9bd1 dc3c 96f4 443d 7fbf aa3c
00000290: e130 543c a629 623c 2814 78bc 45f4 6cbc
000002a0: 0263 5f3d 43c9 7dbc 739d dd3a 3b1b c23c
000002b0: cd38 16bb f2bb c4bc 05ce 183d 48c8 813c
000002c0: 6599 453d e022 7a3d 585a 5a3d 29ec 083c
000002d0: df41 a73d ee68 d63c 492b c23c 1f8f fb3c
000002e0: e9e8 1e3d 6a7e e33c 8548 d83c f138 dc3c
000002f0: d590 713c 6f52 35bc 71bb 843c 396a 713c
00000300: 60ca 08bd 0cca 4dbd a85f 9d3c cf20 883c
00000310: 7950 193d be93 a53c 8028 42bc 379e 1a3d
00000320: d06b 453c 854b 633b 68df 9b3c 0ca5 c73b
00000330: 7b51 843c 7534 f63b 57e1 613d b607 063d
00000340: 98fb 9f3c 4ba2 993c f178 873d c282 223d
00000350: bf50 e6bc b2fe 883d 90cc ab3c f829 363d
00000360: c5e5 a03c 1553 943c 50de b73c 00b2 90ba
00000370: 2316 7cbd 81c9 88bc 5c63 bf3b 236b 813c
00000380: f9e3 c83b 9920 eb3c 5205 333d ba25 543c
00000390: 9ed7 0dbd afb4 f53c 5cae 73bc 3c44 0fbc
000003a0: ea9f 723d bade 72bc 8add 70bc 9a77 a1ba
000003b0: 0e82 0abc e29e b7bc 7970 c63c daf9 01bb
000003c0: 7b5e e63b 5f9e 633d bbe6 493d e595 3e3c
000003d0: 3e62 883d 4218 c63c 440b 183d f85c 0b3d
000003e0: 17fe 54bc 7383 913d 3985 2c3c 9b0f c43c
000003f0: ba50 023d 26ca f5bb 48bc 35bc dfb4 54bc

fc5.bias f4 [6]
0.7561035 0.75605834 0.7567706 0.75469285 0.75708705 0.7555689
00000000: 0090 413f 0a8d 413f b8bb 413f 8d33 413f
00000010: 75d0 413f f76c 413f
