checkpoints/2021_02_06-12_48_50/last/last_dqn-Pong-ram-v0.pt (torch, 301183 bytes, 8 tensors)

fc1.weight f4 [256, 128]
0	0xbd2ff56e	-0.04295867
1	0x3b3fe0c0	0.0029278249
2	0xbd1f3dc2	-0.038877256
3	0x3d08879a	0.033332445
4	0xbda00866	-0.07814102
5	0x3d6b4a90	0.057444155
6	0xbd839278	-0.06424421
7	0xbd9d997c	-0.076952904
8	0xbd8c8767	-0.068617634
9	0x3d0031ff	0.03129768
10	0xbccb4bfc	-0.024816506
11	0x3d56ea1c	0.052469358
12	0xbdb60cff	-0.088891976
13	0xbd808eff	-0.06277274
14	0xbd17a856	-0.037025772
15	0xbcc91865	-0.024547765
16	0xbd982c08	-0.07430273
17	0x3d6fb2bd	0.058520067
18	0xbce6de2b	-0.02818211
19	0x3ca31529	0.01990755
20	0x3d7073bb	0.05870412
21	0x3b703242	0.003665105
22	0x3cc5ffdc	0.024169855
23	0x3d9f52c5	0.07779459
24	0xbd3febd4	-0.046855763
25	0x3ca8a25d	0.020585233
26	0xbd445a01	-0.047937397
27	0x3d65b351	0.056079213
28	0x3d827c0f	0.063713185
29	0xbdb568ce	-0.088578805
30	0x3d8c7051	0.0685736
31	0x3d0fd92d	0.035119224
32	0x3d0196a2	0.031637795
33	0x3cf0e2fb	0.029405108
34	0x3d88639f	0.06659626
35	0xbc97f781	-0.018550636
36	0xbda72e09	-0.081630774
37	0xbd0413ed	-0.032245565
38	0xbd8d953b	-0.06913229
39	0xba882027	-0.0010385559
40	0xbcbf9075	-0.023384312
41	0xbd608d46	-0.05482223
42	0xbc7d1b16	-0.015448352
43	0x3d9ccf43	0.076567195
44	0xbc67bc53	-0.014144021
45	0xbb8f1125	-0.0043660575
46	0xbca99c41	-0.02070439
47	0x3bdc7398	0.006727647
48	0x3d931f2e	0.071836814
49	0x3d42823d	0.047487486
50	0x3c982533	0.018572425
51	0x3c51d953	0.012808162
52	0x3c5ce9b9	0.013483458
53	0x3cdb7564	0.026789375
54	0xbcd35e1e	-0.025801715
55	0xbda83db0	-0.08214891
56	0xbd60189a	-0.054710962
57	0x3d9a83f9	0.07544703
58	0x38bb4031	8.9288114e-05
59	0xbda1080e	-0.078628644
60	0x3c05a5e1	0.008157224
61	0x3d86809f	0.06567501
62	0xbdba21c7	-0.09088474
63	0xbd880877	-0.066422395
64	0xbd2526a6	-0.04032006
65	0xbb5cbdd8	-0.0033682492
66	0xbce187e8	-0.027530625
67	0xbc7340df	-0.014847009
68	0xbdbea32b	-0.093084656
69	0x3d0d13ac	0.03444259
70	0x3d90cd05	0.07070354
71	0x3d40eb71	0.047099534
72	0xbd8e45f7	-0.069469385
73	0xbda01137	-0.078157835
74	0x3cf4527f	0.029824493
75	0xbba14f7b	-0.004922805
76	0x3cf0784c	0.029354237
77	0xbdb0e220	-0.0863688
78	0xbbacafd0	-0.005269982
79	0x3d7f5352	0.06233532
80	0x3d27f432	0.041004367
81	0x3b538800	0.0032277107
82	0x3c8e5e0c	0.01737883
83	0xbc091c80	-0.008368611
84	0xbd470f9e	-0.048598878
85	0xbd08d06c	-0.03340189
86	0xbd5c7965	-0.05382671
87	0x3d965b39	0.07341618
88	0x3d47399e	0.048638932
89	0x3cfd39e8	0.0309114
90	0xbd8ad0ac	-0.06778082
91	0x3d8badb1	0.068202384
92	0x3ce30778	0.027713522
93	0x3d7a74d6	0.06114658
94	0xbd0e6c23	-0.034771096
95	0x3c99808c	0.018738054
96	0x3db0be7d	0.08630083
97	0x3d738752	0.059455223
98	0x3d912d49	0.070887156
99	0xbc980b94	-0.018560208
100	0x3d89ea1d	0.06734107
101	0xbd8dc7ba	-0.069228604
102	0x3bfa7fb0	0.007644616
103	0xbd4bd900	-0.049767494
104	0xbca8dda8	-0.020613506
105	0xbcb96f30	-0.022636026
106	0x3bd8b300	0.0066131353
107	0x3da4c0bd	0.080445744
108	0x3d333d52	0.04375965
109	0xb9c44f00	-0.00037442893
110	0x3d807eeb	0.06274208
111	0xbd39875b	-0.0452951
112	0x3d3a959a	0.045552827
113	0xbc064a90	-0.008196488
114	0xbc7bfea0	-0.015380532
115	0x3c298a58	0.010347925
116	0xbd8aada6	-0.06771402
117	0x3c275848	0.010213919
118	0x3cf3765c	0.029719524
119	0x3d9ac259	0.075566
120	0xbce16fbc	-0.0275191
121	0x3ced2b75	0.028951386
122	0x3da5e06c	0.08099446
123	0xbd38e729	-0.045142327
124	0x3d9df9b0	0.0771364
125	0xbd4fefc9	-0.050765786
126	0x3d02e58a	0.031957187
127	0x3ce3462b	0.02774342
128	0x3c94155b	0.01807659
129	0x3d8f2691	0.06989778
130	0xbc55fec6	-0.013061231
131	0x3cbe4d24	0.023230143
132	0xbc8ee9e6	-0.017445516
133	0xbd95b243	-0.07309391
134	0xbcafd0ec	-0.021461926
135	0xbd8ffc65	-0.07030562
136	0x3cdabe27	0.026702
137	0x3c53752a	0.012906352
138	0x3c757e09	0.014983662
139	0xba5c23c1	-0.0008397662
140	0x397fa14d	0.00024378784
141	0xbc9810cb	-0.018562695
142	0x3d81a049	0.063294
143	0x3da23f94	0.07922283
144	0x3bde03d0	0.006775357
145	0xbbc60cd6	-0.0060440106
146	0xbd5dd1b1	-0.054155055
147	0x3bd1c040	0.006401092
148	0xbd758ad1	-0.05994684
149	0xbda55f2b	-0.080747925
150	0xbd6ba484	-0.05752994
151	0xbd160cd9	-0.036633346
152	0xb8940c7a	-7.059514e-05
153	0x3d5e37f3	0.054252576
154	0x3ce252c3	0.027627354
155	0x3d7a46b7	0.061102595
156	0xbd7e688f	-0.062111434
157	0x3a5dc920	0.0008460451
158	0xbdae72e0	-0.085180044
159	0x3d3499cb	0.04409198
160	0x3c417716	0.011808177
161	0x3da18a5c	0.07887718
162	0xbd8e4957	-0.06947582
163	0x3d839ee4	0.0642679
164	0x3d8b46f5	0.06800643
165	0x3d84d025	0.06485013
166	0x3bc498fd	0.005999683
167	0x3d970d93	0.07375636
168	0x3d56b25f	0.0524162
169	0x3d7305a4	0.05933155
170	0xbc4a6ade	-0.012354581
171	0xbd98753a	-0.07444234
172	0xbbfcbb29	-0.007712741
173	0x3c233d7a	0.009963388
174	0xbd88d90b	-0.06682023
175	0xbd6ac3cb	-0.05731563
176	0xbdbb1889	-0.09135539
177	0xbd6e87e6	-0.05823507
178	0x3d805f27	0.06268149
179	0x3b27eb2a	0.0025622346
180	0xbc44cc40	-0.012011588
181	0xbb48c1d3	-0.0030633106
182	0x3d13fe36	0.036131106
183	0xbd9fda01	-0.07805253
184	0xbd8192b4	-0.063268095
185	0xbcf0bbfa	-0.02938651
186	0xbd6084c7	-0.054814126
187	0x3d1fa625	0.038976807
188	0x3d4c0a3b	0.049814444
189	0xbdbd2c78	-0.09236997
190	0xbda72be8	-0.08162671
191	0xbdbdd2f0	-0.09268749
192	0x3d04a5cb	0.032384675
193	0x3d84266c	0.06452641
194	0xbd99e54c	-0.07514438
195	0xbd2c09d4	-0.04200156
196	0x3cb03e9f	0.021514235
197	0xbd830d7b	-0.063990556
198	0x3d8c3a64	0.06847075
199	0x3c6861ca	0.014183471
200	0xbcffbe4a	-0.031218667
201	0xba64981e	-0.0008720177
202	0x3cab928e	0.020943906
203	0xbd1b1b82	-0.03786803
204	0xbd99ceda	-0.07510157
205	0x3a1bbe00	0.0005941093
206	0x3ad30640	0.0016099885
207	0x3ae99e80	0.0017823726
208	0xbc535460	-0.012898535
209	0x3d687496	0.05675181
210	0xbcca0f78	-0.02466558
211	0xbc0c2bb8	-0.008555345
212	0x3d14dda6	0.036344193
213	0xbd63e172	-0.055634923
214	0x3cc1e0c0	0.02366674
215	0xbca01ad8	-0.01954405
216	0x3d2da90e	0.04239755
217	0xbd4464a1	-0.04794753
218	0x3b5615e0	0.0032666847
219	0x3c0dac08	0.0086469725
220	0xbd91a5c4	-0.071116954
221	0xbd83a076	-0.0642709
222	0x3d0ad8be	0.033898108
223	0xbcd2bf58	-0.025726005
224	0x3d570376	0.052493535
225	0xbdb2d27d	-0.08731554
226	0xbd32f751	-0.04369289
227	0xbd951946	-0.07280211
228	0x3d109fc4	0.035308614
229	0xbb27ef80	-0.002562493
230	0xbc870e50	-0.016486317
231	0xbc70ee70	-0.014705285
232	0xbd8d7e5a	-0.06908865
233	0x3ccd583c	0.025066487
234	0x3b1062c0	0.0022031516
235	0xbd79d8fa	-0.06099794
236	0x3d083b0e	0.033259444
237	0xbae8da40	-0.0017765239
238	0xbdaf128a	-0.08548458
239	0x3d42bf76	0.047545873
240	0x3d41a65a	0.047277786
241	0xbc886c6c	-0.016653262
242	0xbd79f71e	-0.061026685
243	0x3b6892e0	0.0035487935
244	0x3d8897f1	0.066696055
245	0x3da5b1b7	0.08090537
246	0xbd88a232	-0.06671561
247	0xbd23858a	-0.039922275
248	0x3d8cf231	0.06882132
249	0x3d161915	0.036645014
250	0x3d497960	0.049188018
251	0xbd4f48d4	-0.050606564
252	0x3d8e6905	0.06953625
253	0xbda25a9f	-0.07927441
254	0xbc321a15	-0.010870476
255	0xbb9c8e24	-0.0047776867

fc1.bias f4 [256]
0	0x3d2ac955	0.04169591
1	0xbd524e3f	-0.051344153
2	0xbdbb8d19	-0.091577716
3	0xbcf48491	-0.029848369
4	0x3d294b9d	0.041331876
5	0xbd2694cd	-0.04066925
6	0x3cdc5220	0.026894629
7	0xbc7cd3f7	-0.015431396
8	0xbd0d42dd	-0.034487594
9	0xbd8dfbd9	-0.06932802
10	0xbd13c06a	-0.036072172
11	0xbde13496	-0.10996358
12	0xbd6bf351	-0.05760509
13	0x3aceb1ef	0.0015769581
14	0x3cbb411a	0.022858191
15	0xbd7654ee	-0.06013959
16	0x3cc2c651	0.023776205
17	0xbd86c203	-0.065799735
18	0x3cfef3e4	0.031122155
19	0x3d874198	0.06604308
20	0xbcc325a9	-0.023821669
21	0x3a920520	0.0011140443
22	0xbe119886	-0.1421834
23	0xbd7a07ad	-0.061042476
24	0x3d2a6106	0.041596435
25	0xbc2791a8	-0.010227598
26	0x3d8eee6f	0.06979071
27	0xbd74bb36	-0.05974885
28	0x3d81d3e0	0.0633924
29	0x3d841985	0.0645018
30	0x3d91188f	0.07084762
31	0x3c02eec3	0.007991496
32	0xbd769008	-0.060195953
33	0x3c596ff8	0.013271324
34	0x3c9ed681	0.019389393
35	0xbc91c814	-0.0177956
36	0xbde2f1b7	-0.1108126
37	0xbc45748f	-0.0120517155
38	0xbd0507f7	-0.0324783
39	0x3d04dcd2	0.032437153
40	0xbcb3ac45	-0.02193273
41	0xbe3156f2	-0.17318323
42	0x3d3f226e	0.046663694
43	0x3d2ce8b0	0.042214096
44	0x3d1fe8db	0.039040428
45	0x3c882aa1	0.01662189
46	0xbdfc105a	-0.12307806
47	0xbc2b3c60	-0.010451406
48	0xbd178e98	-0.037001222
49	0x3d65680e	0.056007437
50	0x3d2b5e72	0.041838117
51	0x3d2da4b3	0.042393398
52	0xbe02be92	-0.1276801
53	0xbd6177cc	-0.055045888
54	0x3d0462c1	0.03232074
55	0x3d981f27	0.07427817
56	0xbc5dfcd8	-0.013549052
57	0xbda1571a	-0.078779414
58	0xbdaf2321	-0.08551622
59	0x3d297973	0.04137559
60	0x3c2e9d07	0.010657555
61	0xbd342446	-0.043979906
62	0x3d5a19fa	0.05324743
63	0xbdd14f0f	-0.10220157
64	0x3d6a851a	0.05725584
65	0xbb6b6393	-0.0035917505
66	0xbd8cc4bf	-0.06873464
67	0xbd886200	-0.06659317
68	0x3b80dc20	0.003932491
69	0x3d310fea	0.043228067
70	0xbce96e2b	-0.028494915
71	0x3d8b3b65	0.06798438
72	0xbd3ed3d8	-0.04658875
73	0xbd0500c5	-0.032471437
74	0xbd7e1f7a	-0.062041737
75	0x3d6ff49e	0.058582895
76	0x3bae4f4a	0.0053195106
77	0x3c95510c	0.018227123
78	0xbd733b39	-0.05938265
79	0x3d2d3b52	0.0422929
80	0x3d99f57f	0.07517528
81	0xbd0a2d7f	-0.033734795
82	0xbc409b83	-0.011755827
83	0x3c0cf1bc	0.008602556
84	0xbcab835c	-0.02093666
85	0x3cbd8bef	0.023138015
86	0xbd33abe1	-0.04386509
87	0xbc940eff	-0.018073557
88	0x39bf38dc	0.00036472722
89	0xbda0bd98	-0.07848662
90	0x3d14ee80	0.036360264
91	0xbd853129	-0.06503517
92	0x3d5aae6d	0.053389
93	0x3c3b3093	0.011425155
94	0x3d92f002	0.07174684
95	0xbd0ba8be	-0.034096472
96	0xbd98a3e8	-0.07453138
97	0x3d91c03c	0.07116744
98	0xbd8f9cce	-0.0701233
99	0x3c83360a	0.016016979
100	0xbd8a7563	-0.06760671
101	0x3d4096f6	0.047018968
102	0xbc74b778	-0.0149363205
103	0xbd0aec7d	-0.03391694
104	0xbbfa10d4	-0.0076314006
105	0x3d68bed2	0.056822605
106	0x3c1ff748	0.009763546
107	0xbe1432b3	-0.14472465
108	0x3aac4700	0.0013143718
109	0xbd9f1687	-0.077679686
110	0x3daa9a3f	0.08330201
111	0xbda06304	-0.07831386
112	0x3deb1859	0.11479253
113	0xbd59d7b6	-0.053184234
114	0xbc89966f	-0.016795365
115	0x3cd5af1d	0.026084477
116	0xbcfe1bd6	-0.031019133
117	0x3d193fde	0.037414424
118	0x3d6b5f4c	0.05746393
119	0x3d162e6d	0.03666537
120	0x3d95eac5	0.07320169
121	0xbd92b9ae	-0.07164322
122	0xbd4fb932	-0.050713725
123	0x3d1943ae	0.03741806
124	0xb9777bd7	-0.0002360189
125	0xbdb08f53	-0.08621087
126	0x3d3393a6	0.04384198
127	0xba529243	-0.0008032659
128	0xbd8e7f9c	-0.06957933
129	0xbd930f0b	-0.071806036
130	0xbdc54b39	-0.09633488
131	0x3ceadbfd	0.028669352
132	0x3cbf120f	0.02332404
133	0xbdb3b6cc	-0.087751
134	0xbd8d10ea	-0.06887992
135	0xbdaf31ad	-0.08554397
136	0xbd529685	-0.051413078
137	0x3c0135d7	0.007886372
138	0xbaa5719b	-0.0012622358
139	0xbc585c97	-0.013205669
140	0xbcc3c335	-0.023896793
141	0xbd946a0e	-0.07246791
142	0x3cc49444	0.02399648
143	0xbbcbfd22	-0.006225244
144	0x3c4278c8	0.011869617
145	0x3d051136	0.032487117
146	0x3bc4218e	0.0059854453
147	0xbdcc6763	-0.09980657
148	0xbc148fa3	-0.009067449
149	0x3dacaaf1	0.08431042
150	0x3c9e623c	0.019333951
151	0xbe0d3d45	-0.13792904
152	0x3b3cabe3	0.0028788976
153	0x3d88430f	0.066534154
154	0x3c13f23e	0.009029923
155	0xbca34537	-0.019930465
156	0x3d684c4d	0.05671339
157	0xbd5bf032	-0.053695865
158	0x3d8504c5	0.0649505
159	0x3d948595	0.07252041
160	0xbd62dc01	-0.055385593
161	0x3d1fb8de	0.038994662
162	0x3c5d2740	0.013498127
163	0xbd6ce07d	-0.057831276
164	0x3d950e55	0.07278124
165	0xbd04b941	-0.032403234
166	0x3bab6b50	0.0052312985
167	0x3d38057a	0.044927098
168	0xbce4ed99	-0.027945327
169	0x3cf223d0	0.029558092
170	0xbd87fa53	-0.066395424
171	0x3d9613b7	0.07327979
172	0x3d9b8bb2	0.07595004
173	0xbe173cbe	-0.14769265
174	0x3cbbd79f	0.022929965
175	0xbd361a77	-0.044458833
176	0xbcfab14c	-0.03060212
177	0x3da44187	0.08020311
178	0xbb899489	-0.004198615
179	0xbcf95bd4	-0.030439295
180	0x3e0ef54f	0.13960765
181	0x3d70c0f4	0.058777764
182	0xbc2c1a80	-0.010504365
183	0x3c8b6f85	0.01702095
184	0xbd9ed3dc	-0.07755253
185	0xbd67ed18	-0.056622595
186	0xbd71dddb	-0.05904947
187	0xbda1742e	-0.07883488
188	0xbd000315	-0.03125294
189	0xbdd2e055	-0.10296694
190	0x3d5cf09c	0.0539404
191	0x3d95761b	0.072979175
192	0x3d6520dc	0.05593954
193	0xbced1931	-0.028942676
194	0xbc99cb34	-0.018773653
195	0xbd3c0647	-0.045904424
196	0xbc0d73f6	-0.008633604
197	0xbd99bc83	-0.07506659
198	0x3c929191	0.017891677
199	0x3d233aca	0.039850987
200	0xbda9c70a	-0.08289917
201	0x3d9ce8b7	0.07661574
202	0x3d7a8240	0.061159372
203	0xbd0290ca	-0.031876363
204	0xbdb0a9f7	-0.08626168
205	0xbd79c8b3	-0.060982417
206	0x3d9ddc71	0.077080615
207	0x3dac072c	0.083998054
208	0xbd1d0837	-0.038337912
209	0xbd7495da	-0.059713222
210	0xbc267186	-0.010158902
211	0x3b28f705	0.0025782
212	0x3c987b3d	0.018613452
213	0x3e088c68	0.1333481
214	0xbcff04b6	-0.031130176
215	0xbd1ec08b	-0.038757842
216	0xbdb1c2bb	-0.0867972
217	0xbd4c4d1b	-0.04987822
218	0x3ce1141c	0.02747541
219	0xbd25cec2	-0.040480383
220	0x3b938720	0.004502192
221	0xbd0ee9d3	-0.03489096
222	0xbd04af19	-0.03239355
223	0x3d92d54f	0.07169592
224	0xbdc1156a	-0.094279125
225	0x3c24854f	0.010041549
226	0x3d934059	0.07190008
227	0xbdabfae3	-0.08397462
228	0xbd36c34d	-0.044619847
229	0x3c49711f	0.012295037
230	0xbd7610d1	-0.06007463
231	0x3d811671	0.063031085
232	0xbdb5d2a1	-0.08878065
233	0xbd08de3d	-0.033415068
234	0x3cd8c98c	0.026463293
235	0xbdc5996a	-0.09648402
236	0x3d0de2c7	0.0346401
237	0xbda46063	-0.08026197
238	0xbcd3f2d7	-0.025872631
239	0x3d03aa19	0.03214464
240	0xbc99178b	-0.018687984
241	0x3c748f4c	0.014926743
242	0xbdc6bb71	-0.0970372
243	0xbcbfb814	-0.023403205
244	0x3d6a9e16	0.05727967
245	0xbda515cc	-0.08060798
246	0xbd7339d3	-0.059381317
247	0xbca56bfc	-0.020193093
248	0xbcf1cbb4	-0.029516079
249	0xbd8788da	-0.06617899
250	0xbd29ae00	-0.041425705
251	0x3d347ea6	0.044066094
252	0xbdaa2a5d	-0.083088614
253	0x3d9d890c	0.07692155
254	0x3cdfd835	0.027324775
255	0xbd13cf32	-0.03608627

fc2.weight f4 [128, 256]
0	0x3ce30a66	0.02771492
1	0xbb23cfeb	-0.0024995755
2	0xbcff41b2	-0.031159256
3	0x3bab867c	0.0052345376
4	0x3d6372c5	0.055529375
5	0xbc0573d1	-0.008145289
6	0x3b03b78c	0.0020098416
7	0xbcd32297	-0.02577333
8	0xbd11c625	-0.035589356
9	0x3d5bb72b	0.05364148
10	0xbc450f88	-0.012027629
11	0x3c85a72d	0.016315067
12	0x3b883f3d	0.004157929
13	0x3c596918	0.013269685
14	0x3d0e9d5b	0.034818035
15	0x3d792062	0.0608219
16	0x3ce26128	0.027634218
17	0x3cbc54eb	0.02298971
18	0xbd4d2f51	-0.050093953
19	0x3c2c14b8	0.010502987
20	0x3d0516da	0.032492496
21	0xbd079ec0	-0.03311038
22	0x3d27c55e	0.04095971
23	0x3cdf43b5	0.027253965
24	0x3cf05c34	0.02934084
25	0xbd6f2e66	-0.05839386
26	0xbb482540	-0.003053978
27	0xbca993d0	-0.020700365
28	0xbd2b4c8d	-0.04182105
29	0x3c014d48	0.00789196
30	0x3bc976b0	0.006148182
31	0x3d265aa8	0.0406138
32	0xbc1e51a8	-0.009663023
33	0x3c15478e	0.009111298
34	0xbd29e467	-0.041477587
35	0x3d52fa5e	0.0515083
36	0xbce470ff	-0.027885912
37	0x3bb955eb	0.005655994
38	0xbcad5f60	-0.021163642
39	0xbc6c4fbc	-0.014423307
40	0x3cac78de	0.021053728
41	0x3b7c7498	0.0038521644
42	0x3d67b0ee	0.056565218
43	0x3d05a086	0.03262379
44	0xba398380	-0.0007076785
45	0xbd713ab6	-0.05889388
46	0xbb030141	-0.001998976
47	0xbd52ab7a	-0.051433064
48	0xbce290de	-0.027656969
49	0x3ca297ce	0.019847777
50	0xbcb6e3ca	-0.022325415
51	0x3d412194	0.047151163
52	0xbd1fc077	-0.03900191
53	0xbcc36154	-0.02385012
54	0x3ccc86de	0.024966653
55	0xbd7e7b8a	-0.062129535
56	0xbc5f5ed6	-0.0136334505
57	0xbd2e8c35	-0.04261418
58	0x3cb6ad1a	0.022299338
59	0x3d10c753	0.03534634
60	0xbcf9ad08	-0.030478016
61	0xbd2bd2e6	-0.041949175
62	0x3d153998	0.03643188
63	0xbd148729	-0.03626171
64	0x3d6945f8	0.056951493
65	0x3d5df9d9	0.05419335
66	0xbc8e65c5	-0.017382512
67	0xbd403ef4	-0.046935037
68	0xbda28516	-0.079355404
69	0xbcfc6be0	-0.030813158
70	0x3c42f9a2	0.011900337
71	0x3c29b4d0	0.01035805
72	0x3d1b6ffb	0.03794859
73	0xbc8c2f32	-0.017112348
74	0xbd4d64b1	-0.050144855
75	0xbcc2dc60	-0.023786724
76	0x3d25f9ed	0.04052155
77	0x3ce6a1d8	0.028153345
78	0x3d431a49	0.04763249
79	0xbc8ff534	-0.017572977
80	0xbd572b70	-0.05253166
81	0xbd61cfe1	-0.05512989
82	0xbd0d7fb7	-0.034545626
83	0x3d13a9b7	0.036050525
84	0x3c8b6300	0.01701498
85	0xbd778328	-0.060427815
86	0xbd85f040	-0.06539965
87	0xbb9ff0c0	-0.0048809946
88	0xbd68b4a8	-0.056812912
89	0xbca8a284	-0.020585306
90	0x3c11ed7f	0.008906721
91	0xbc5eea7a	-0.013605708
92	0xbd97e072	-0.074158564
93	0x3c8ec3c1	0.017427327
94	0x3c651765	0.0139826285
95	0xbd56fb98	-0.052486032
96	0x3c357c33	0.011076975
97	0x3d63c97f	0.055612084
98	0xbd43b32d	-0.047778297
99	0xbd5ab8a2	-0.053398736
100	0x3d1b9969	0.0379881
101	0x3d50a54e	0.050938897
102	0xbc3dac9f	-0.011576801
103	0xbd4ca250	-0.04995948
104	0x389ccb02	7.476473e-05
105	0x3d75389c	0.05986844
106	0xbd4eb3a8	-0.050464302
107	0xbd6c8b1a	-0.057749845
108	0xbcc6ca90	-0.024266511
109	0x3c9ab370	0.01888439
110	0xbbe15a70	-0.006877236
111	0xbd46de89	-0.04855207
112	0x3a9d5dd4	0.0012006112
113	0xbb959450	-0.0045647994
114	0x391d3800	0.00014993548
115	0x3c991269	0.018685536
116	0xbd22ba12	-0.03972823
117	0xbd01444c	-0.031559274
118	0xbbd317c8	-0.006442044
119	0x3c41829e	0.011810927
120	0xbcdc2d20	-0.026876986
121	0xbd48295f	-0.04886758
122	0xbd138a95	-0.036020834
123	0xbca88780	-0.020572424
124	0xbc02a331	-0.007973478
125	0xbcf80728	-0.03027685
126	0x3cd9ade1	0.02657217
127	0x3cc7cdc2	0.024390105
128	0x3d1f4718	0.03888616
129	0xbd72ed1a	-0.05930815
130	0x3cd4d121	0.025978627
131	0xbd07b5a6	-0.033132218
132	0x3d588530	0.052861392
133	0xbac72900	-0.0015194714
134	0x3c378bdc	0.011202779
135	0xbd7ea5fa	-0.062170006
136	0xbd087692	-0.033316202
137	0xbccd36b9	-0.025050508
138	0x3baa3da6	0.0051953373
139	0xbd253c71	-0.040340845
140	0x3ce56b07	0.028005136
141	0x3c66bd37	0.014083198
142	0x3cb3a15d	0.02192753
143	0xbd482d27	-0.048871186
144	0x3d52ac2e	0.051433735
145	0xbca6d8dc	-0.020367078
146	0xbd3fc3a4	-0.046817437
147	0xbbbec814	-0.005822191
148	0x3ba15bbf	0.004924267
149	0x3d43d26c	0.047808096
150	0xbd311e1a	-0.043241598
151	0xbc5b95d3	-0.01340242
152	0xbcca383e	-0.024685021
153	0xbd4f0730	-0.050543964
154	0xbd28e414	-0.041233137
155	0x3c9ca0de	0.019119676
156	0x3d08e99e	0.03342592
157	0xbd803bc0	-0.062613964
158	0xbd191ad9	-0.03737912
159	0xbd86ed57	-0.06588238
160	0x3cf29500	0.029612064
161	0xbcbbf90c	-0.022945903
162	0xbcab7e50	-0.020934254
163	0x3d0bd13a	0.03413508
164	0xbd37eff1	-0.04490656
165	0xbd1daca9	-0.03849474
166	0x3d676ce6	0.056500338
167	0xbb1f5f82	-0.0024318402
168	0x3aebc233	0.0017986953
169	0x3c89b35c	0.016809158
170	0xbbd9d2fb	-0.0066474653
171	0x3d4fb2b4	0.050707534
172	0xbd66cc49	-0.056347165
173	0xbcb91821	-0.022594513
174	0x3ce187db	0.027530601
175	0xbd644b48	-0.055735856
176	0xbd30c220	-0.043153882
177	0x3d0b131c	0.03395377
178	0xbcb503ba	-0.022096504
179	0x3d719482	0.05897952
180	0x3d09b502	0.033619888
181	0xbcf35deb	-0.02970787
182	0x3d45c074	0.04827924
183	0xbc3059e1	-0.010763616
184	0x3b75a348	0.0037481356
185	0xbd21ac4a	-0.03947095
186	0xbc750d45	-0.014956777
187	0x3d18edfa	0.037336327
188	0x3d3e0535	0.046391685
189	0xbd6877eb	-0.056754988
190	0x3d3b2132	0.045685954
191	0x3cf67c94	0.0300887
192	0xbc3caea9	-0.011516252
193	0x3b6b06ff	0.0035862324
194	0x3ccca080	0.024978876
195	0x3d48bdf0	0.049009264
196	0xbb1b53a0	-0.0023700967
197	0x3d3f8479	0.046757195
198	0xbbeb552e	-0.007181785
199	0xbc56bed0	-0.013107017
200	0x3ceaa553	0.028643286
201	0xbd811a42	-0.063038364
202	0x3c9a95cc	0.018870257
203	0xbd95740f	-0.07297527
204	0xbd729f4d	-0.059233952
205	0x3d49470b	0.049140017
206	0xbd58d6ee	-0.052939348
207	0xbd2936dc	-0.041312084
208	0x3d0dee0e	0.034650855
209	0xbd033368	-0.032031447
210	0xbc1bc1f2	-0.009506689
211	0xbcf38872	-0.029728148
212	0x3d4746f0	0.048651636
213	0x3d4c5bc3	0.0498922
214	0x3d5ebb04	0.05437757
215	0x3c8ee74a	0.017444272
216	0xbd72271e	-0.059119336
217	0xbc9a6f89	-0.018852012
218	0x3c584d1e	0.01320198
219	0x3d0fd00c	0.03511052
220	0xbcd2b92c	-0.025723062
221	0xbbe58310	-0.0070041493
222	0x3cf9b8ad	0.030483568
223	0x3ca26780	0.019824743
224	0xbc2ae5eb	-0.010430793
225	0x3c21f12c	0.00988416
226	0xbd474aa6	-0.048655175
227	0xbd18d172	-0.037309118
228	0xbcac68a8	-0.021045998
229	0xbce37dd0	-0.027769953
230	0x3d05c233	0.032655906
231	0xbd403618	-0.046926588
232	0xbd5865aa	-0.05283133
233	0xbc8e40fd	-0.017364973
234	0xbd7fdd82	-0.062467106
235	0xbd8111a4	-0.06302193
236	0x3c5874d6	0.01321145
237	0xbc11cf38	-0.008899502
238	0x3bebcb63	0.0071958764
239	0x3d67bbe6	0.05657568
240	0xbd8228b9	-0.063554235
241	0x3d2492e2	0.04017914
242	0xbd570fed	-0.052505422
243	0xbd35309c	-0.04423581
244	0xbc485f70	-0.012229785
245	0x3d0297c2	0.03188301
246	0x3c294b21	0.0103328535
247	0x3d615226	0.055009983
248	0x3d4de13e	0.050263636
249	0xbd2551f4	-0.04036136
250	0x3d65ea48	0.05613163
251	0x3c8e89a8	0.017399624
252	0x3d0e390c	0.034722373
253	0x3d796222	0.060884602
254	0xbbdffae3	-0.006835328
255	0xbd05ea3d	-0.03269409

fc2.bias f4 [128]
0	0xbc8af468	-0.016962245
1	0xbc562724	-0.013070855
2	0xbee230a4	-0.44177735
3	0x3d1f1509	0.03883842
4	0xbece3778	-0.40276694
5	0xbcce49d0	-0.02518168
6	0xbf17e7b8	-0.5933795
7	0x3b74389c	0.0037265187
8	0x3cd93b15	0.02651743
9	0xbd82d357	-0.06387966
10	0xbd63d49d	-0.055622686
11	0x3de60479	0.11231322
12	0xbc736092	-0.014854567
13	0xbe2aa197	-0.16663204
14	0xbed452a0	-0.41469288
15	0xbf15c5d1	-0.5850497
16	0xbe810f0a	-0.25206786
17	0x3f2d06de	0.67588603
18	0xbebe23a8	-0.3713658
19	0xbc9b1250	-0.01892963
20	0xbe82a9da	-0.2552021
21	0x3e825364	0.25454247
22	0xbf004409	-0.50103813
23	0xbee94f5c	-0.4556836
24	0xbcbea21e	-0.023270663
25	0x3e923a20	0.2855997
26	0xbf50ef9f	-0.8161563
27	0xbd9588e2	-0.07301499
28	0x3f4b6e4c	0.79465175
29	0xbf470c0e	-0.7775277
30	0xbde08865	-0.10963515
31	0x3cb89101	0.02253008
32	0xbf4341d5	-0.76272327
33	0x3d14fcdc	0.036373958
34	0xbf17f8aa	-0.59363806
35	0xbe9bf6d1	-0.30461743
36	0x3e09ea3d	0.13468261
37	0x3d292243	0.04129244
38	0xbdc6180b	-0.096725546
39	0x3bc45a38	0.0059922
40	0xbbdf69f1	-0.006818049
41	0xbc43a259	-0.011940562
42	0xbea240d9	-0.316901
43	0xbf2b0844	-0.6680949
44	0xbf3d6961	-0.7398892
45	0x3c9c6bc8	0.019094363
46	0x3c457615	0.012052079
47	0xbdaf2527	-0.08552008
48	0xbc407b6b	-0.011748175
49	0xbe0a68ac	-0.13516492
50	0x3e3b4601	0.18288423
51	0xbc721e13	-0.014777678
52	0xbd0fe82e	-0.035133533
53	0xbf6ba335	-0.9204591
54	0x3f0c4629	0.54794556
55	0xbd89606c	-0.06707844
56	0xbf8ee108	-1.1162424
57	0xbd4553c5	-0.048175592
58	0xbe516356	-0.2044805
59	0x3a336326	0.00068430824
60	0xbc9080ca	-0.017639536
61	0x3c18c65c	0.009324636
62	0x3c81ba2e	0.015835848
63	0x3f0af682	0.5428239
64	0xbe050a3c	-0.12992185
65	0xbdb251b2	-0.087069884
66	0xbf2134f5	-0.6297143
67	0xbcd7c061	-0.02633685
68	0xbdb68fa2	-0.089141145
69	0xbe0f0a08	-0.1396867
70	0x3c8da292	0.017289434
71	0xbf44e830	-0.7691679
72	0xbf3a4a75	-0.7276986
73	0x3e285def	0.16442083
74	0x3f4d3158	0.8015342
75	0xbf196e52	-0.5993396
76	0xbcc9ac51	-0.0246183
77	0xbe916378	-0.283962
78	0xbec4f14a	-0.3846534
79	0xbeb237a0	-0.34808064
80	0xbe0ddbb6	-0.13853344
81	0xbcc7250a	-0.024309654
82	0x3d5adfea	0.053436197
83	0xbd26dec2	-0.040739782
84	0xbdb5326e	-0.08847509
85	0xbf192c1e	-0.5983294
86	0x3c253d02	0.010085346
87	0xbe38d1be	-0.1804876
88	0x3f3496eb	0.7054278
89	0xbd15e1eb	-0.036592405
90	0xbdba4ffa	-0.090972856
91	0xbd2a1566	-0.041524313
92	0xbda27cbb	-0.07933947
93	0xbeb3e86d	-0.35138264
94	0x3e858497	0.2607772
95	0xbd5bb7e3	-0.053642165
96	0xbd859c28	-0.06523925
97	0xba33fe75	-0.0006866225
98	0xbd1f9b4b	-0.03896646
99	0x3b197497	0.002341544
100	0x3e94be27	0.29051325
101	0xbe2d1992	-0.16904286
102	0xbd7f039d	-0.062259305
103	0xbe117645	-0.14205272
104	0xbe791d0e	-0.2432749
105	0xbda6c76b	-0.08143505
106	0xbd442b15	-0.04789265
107	0xbf8aa731	-1.0832273
108	0x3d88ac28	0.06673461
109	0x3c68b7cf	0.01420398
110	0xbeaa8d59	-0.33310965
111	0xbf00d0e2	-0.5031873
112	0xbd3ed9d2	-0.04659445
113	0xbf872470	-1.0557995
114	0xbd0707b5	-0.032966334
115	0x3e22fbfd	0.15916438
116	0x3f38a8c4	0.72132516
117	0xbd9037af	-0.07041871
118	0xbd21bd25	-0.039487023
119	0xbdccf30e	-0.100072965
120	0x3ef234ac	0.4730581
121	0xbdc44902	-0.09584238
122	0xbe8f0bd3	-0.2793871
123	0x3c5ddb91	0.013541118
124	0x3e782960	0.24234533
125	0xbed27de7	-0.4111168
126	0xbed1deb4	-0.40990222
127	0xbee7757a	-0.45206815

fc3.weight f4 [64, 128]
0	0x3cf11a4f	0.02943149
1	0xbd68ac4e	-0.056804948
2	0xbde8d5c9	-0.11368901
3	0x3d783ccc	0.060604855
4	0xbd9b2ce1	-0.07576919
5	0x3d8699f7	0.06572335
6	0x3d0a7cef	0.033810552
7	0xbd71ef1e	-0.05906593
8	0x3e8dd193	0.27698955
9	0xbda99f80	-0.08282375
10	0xbd72da7c	-0.059290394
11	0x3d903547	0.07041412
12	0x3b20bf3f	0.0024528054
13	0x3d3695aa	0.044576325
14	0xbc93ab13	-0.01802591
15	0xbd5af235	-0.053453643
16	0x3b943aa5	0.0045235925
17	0xbec66db3	-0.3875557
18	0x3e420e93	0.18950872
19	0x3d29a415	0.041416246
20	0xbd1bf48d	-0.03807502
21	0xbf0eb190	-0.5573969
22	0xbe1575f9	-0.14595784
23	0xbe1d822a	-0.15381685
24	0xbd71d6f0	-0.05904287
25	0xbe8c9de9	-0.27464226
26	0xbe220bae	-0.15824768
27	0xbc71f97c	-0.014768954
28	0xbdb5b582	-0.088725105
29	0xbd94485e	-0.072403654
30	0x3d831bb0	0.06401765
31	0xbdecc29c	-0.11560556
32	0xbc4024ef	-0.011727556
33	0xbdc06510	-0.09394276
34	0x3cad1483	0.021127945
35	0xbe9c462c	-0.30522287
36	0x3d119769	0.035544787
37	0x3daf0e6f	0.08547675
38	0x3d8b7229	0.06808884
39	0xbd832fca	-0.064055994
40	0x3bef9291	0.0073111732
41	0xbdadebd0	-0.08492243
42	0xbdafbe7c	-0.08581254
43	0xbe62bd9d	-0.22142644
44	0xbec342ae	-0.3813681
45	0x3d9af293	0.075657986
46	0x3de53d15	0.11193291
47	0x3d5e6cba	0.05430291
48	0xbcb1882c	-0.021671377
49	0x3da74118	0.081667125
50	0x3d0a2764	0.033728972
51	0xbd2984ec	-0.04138653
52	0xbd249621	-0.040182237
53	0xbe331b60	-0.17490911
54	0x3d7dbe30	0.061948955
55	0xba4c7301	-0.00077991193
56	0xbd862104	-0.06549266
57	0xbd4cad3c	-0.049969897
58	0xbe8491c3	-0.25892457
59	0xbcd5a52a	-0.026079733
60	0xbda2f4fb	-0.079568826
61	0xbd894ab0	-0.06703699
62	0x3b726540	0.003698662
63	0xbd41b5fc	-0.047292694
64	0x3db01a7c	0.085988015
65	0x381e7000	3.7774444e-05
66	0xbe3a1d88	-0.18175328
67	0x3cadbe8c	0.021209024
68	0x3d8c7a4d	0.068592645
69	0xbc1b731e	-0.009487895
70	0xbc741889	-0.014898428
71	0xbc36d79c	-0.011159804
72	0xbd088f1d	-0.03333961
73	0xbd5b270b	-0.05350403
74	0xbecd0a7c	-0.4004706
75	0xbdf968fe	-0.12178229
76	0x3d3b8d8e	0.045789294
77	0x3be8da3f	0.007106095
78	0xbc429eda	-0.0118786935
79	0xbdb64dc8	-0.08901554
80	0xbf10a64a	-0.56503737
81	0xbd1dc44a	-0.038517274
82	0x3da985b7	0.08277457
83	0xbd07207c	-0.032989964
84	0x3d48287e	0.04886674
85	0xbd976040	-0.07391405
86	0xbd9e0e96	-0.07717626
87	0x3cc6dfa9	0.024276571
88	0xbeee47c6	-0.46539134
89	0x3d83bb77	0.064322405
90	0x3cd18b0f	0.025579004
91	0x3c367c4f	0.011138036
92	0x3d86ff03	0.065916084
93	0xbe680ea0	-0.22661829
94	0x3d022f11	0.031783167
95	0x3d96dd31	0.07366408
96	0xbda6bc74	-0.08141413
97	0xbc2b6032	-0.0104599465
98	0xbc9eb35a	-0.01937263
99	0x3dc4f982	0.09617902
100	0xbe0ad636	-0.13558277
101	0xbde472df	-0.111547224
102	0xbd460c03	-0.0483513
103	0xbb85c94a	-0.0040828334
104	0xbe25b34e	-0.1618168
105	0x3dac3094	0.08407703
106	0x3ce1e063	0.027572816
107	0x3b417d04	0.0029523978
108	0x3d02dcfc	0.03194903
109	0x3d42f6fd	0.047598828
110	0xbdfd2702	-0.12360956
111	0xbeabb2ec	-0.33534944
112	0x3d067abc	0.032831892
113	0xbd6682a7	-0.056276944
114	0x3cb63bb8	0.022245273
115	0xbe64dc08	-0.2234956
116	0xbe715699	-0.2356819
117	0xbda86632	-0.08222617
118	0xbcc881ac	-0.024475895
119	0x3cd09b10	0.025464565
120	0xbd49092e	-0.04908102
121	0xbdcb31f8	-0.0992164
122	0xbd8337e4	-0.06407145
123	0x3b006f72	0.0019597677
124	0x3e0214f5	0.12703307
125	0xbdbb4874	-0.09144679
126	0xbd6c05df	-0.057622787
127	0xbe9cae48	-0.30601716
128	0x3ceaf42b	0.028680881
129	0x3d6c9935	0.057763297
130	0xbc8ee7c7	-0.017444504
131	0xbc3c09de	-0.011476962
132	0xbfa2dac6	-1.2723014
133	0xbc749e00	-0.014930248
134	0xbea8a0b2	-0.329351
135	0xbd508caf	-0.050915416
136	0xbe944704	-0.2896043
137	0x3d716690	0.0589357
138	0x3d8e0022	0.06933619
139	0xbe1248e7	-0.14285623
140	0x3d252054	0.040314034
141	0xbf274b94	-0.653497
142	0xbe81b0c6	-0.2533018
143	0xbdf95184	-0.12173751
144	0xbfcf3d80	-1.6190643
145	0xbd8f240d	-0.06989298
146	0x3dafb6fa	0.08579822
147	0xbc9c11c8	-0.019051448
148	0x3cd682a8	0.026185349
149	0xbed89de7	-0.4230797
150	0x3d072623	0.032995354
151	0xbfe1f93a	-1.7654183
152	0x3d6441f7	0.05572697
153	0xbf0db99a	-0.5536133
154	0x3e0d43df	0.13795422
155	0x3d00b807	0.031425502
156	0x3e545ad1	0.20737769
157	0xbf0fda41	-0.56192404
158	0xbd410e0a	-0.04713253
159	0x3d065339	0.03279421
160	0x3dae0bcd	0.084983446
161	0x3c030002	0.007995607
162	0xbfa782e4	-1.308682
163	0xc03167a9	-2.771952
164	0xbe184317	-0.14869343
165	0x3cdfb9a7	0.027310206
166	0x3c9f8540	0.019472718
167	0x3da2a4d5	0.079415955
168	0xbfc98d9b	-1.574634
169	0x3b2f068e	0.0026706788
170	0x3e9be656	0.3044917
171	0xbefe5e5a	-0.4968136
172	0xbf4c85d1	-0.7989169
173	0x3d957ec1	0.07299567
174	0xbf5751dd	-0.8410929
175	0x3d8bdbc7	0.068290286
176	0xbd9e8cf9	-0.07741732
177	0x3dd1f012	0.10250868
178	0xbde239fe	-0.110462174
179	0xbb0152dd	-0.0019733228
180	0x3d8b05e0	0.0678823
181	0xbf647078	-0.89234114
182	0xbe4074ba	-0.18794528
183	0xbda97819	-0.0827486
184	0xbf200d61	-0.62520415
185	0x3d8fde3d	0.070248105
186	0x3df00490	0.1171962
187	0x3ca54929	0.020176487
188	0xbd643cee	-0.05572217
189	0x3d8e4eef	0.06948649
190	0x3d883079	0.066498704
191	0xbe27eac9	-0.16398157
192	0x3de19bbe	0.110160336
193	0x3ce16cf4	0.027517773
194	0xbd4cd262	-0.050005324
195	0xbdc2b7ff	-0.09507751
196	0xbd404a57	-0.046945896
197	0x3df5e42b	0.1200641
198	0x3d6337ba	0.055473067
199	0xbd8ec756	-0.06971614
200	0xbfa33b6a	-1.2752507
201	0x3ed98b5a	0.4248913
202	0x3e3485a0	0.17629099
203	0xbb1c80cd	-0.0023880482
204	0x3d00f2ae	0.031481437
205	0xbeecdb90	-0.46261263
206	0xbfc41c2c	-1.5321097
207	0xbebd4ea7	-0.3697407
208	0xbf001c9f	-0.5004367
209	0xbd4f1340	-0.050555468
210	0x3cd7d40d	0.02634623
211	0xbd9f41ce	-0.07776223
212	0x3d9518b7	0.072801046
213	0xbe3d8519	-0.18507804
214	0xbed63208	-0.41835046
215	0xbe0044e1	-0.12526275
216	0xbee3bf76	-0.4448201
217	0x3d4bf758	0.049796432
218	0x3b141d73	0.002260056
219	0xbcd6697c	-0.026173346
220	0xbcdac62c	-0.026705824
221	0x3e2cbd1e	0.16869017
222	0xbbd09438	-0.0063653253
223	0xbd0769ca	-0.033059873
224	0x3d58793b	0.05284999
225	0x3d468bd2	0.048473187
226	0xbd84b056	-0.06478946
227	0xbf769441	-0.9631997
228	0xbe232486	-0.15931901
229	0xbdcf5b69	-0.10124857
230	0xbf0e6e6f	-0.5563726
231	0xc015f835	-2.3432744
232	0xbebf9df3	-0.37425193
233	0x3cecb37e	0.028894182
234	0xbd847fcf	-0.0646969
235	0xbeab10fd	-0.334114
236	0xbb0fd976	-0.0021949685
237	0x3d3b174d	0.04567652
238	0xbf97c881	-1.1858064
239	0xbf4efda4	-0.80855775
240	0xbd312ebc	-0.04325746
241	0xbda25275	-0.07925884
242	0xbcfa7ad2	-0.030576143
243	0xbf10604d	-0.56396943
244	0xbf099c4a	-0.53754103
245	0xbd8ebf98	-0.06970137
246	0xbc33da74	-0.010977376
247	0xbd64c0d6	-0.055847965
248	0x3d899d1f	0.067194216
249	0xbda1e98f	-0.07905876
250	0xbf94b80f	-1.161867
251	0xbd9b2d0a	-0.0757695
252	0xbf9fb406	-1.2476814
253	0xbe826beb	-0.2547296
254	0xbead53ee	-0.33853096
255	0xbe03be0a	-0.12865463

fc3.bias f4 [64]
0	0xbe34638f	-0.17616104
1	0x3f2e0e07	0.67990154
2	0xbe553074	-0.20819265
3	0xc0372f1b	-2.86225
4	0xbf2eda62	-0.68301976
5	0xc0093149	-2.1436331
6	0xc0c39578	-6.1119957
7	0xbf3c018a	-0.7343985
8	0x3f53e492	0.82770646
9	0xbd98278c	-0.07429418
10	0xbf3da807	-0.74084514
11	0xbefa766e	-0.4891848
12	0xbf1ed35f	-0.62041277
13	0x3e6b4ec6	0.22979268
14	0xbd3bb11a	-0.045823194
15	0xc085dfa0	-4.183548
16	0x3e5d0b2f	0.21586297
17	0x3f64fad8	0.8944526
18	0x40271710	2.6107826
19	0x40c0c88a	6.02448
20	0xbe40b77f	-0.18819998
21	0x4050cfe9	3.2626898
22	0x3fa6bd7b	1.3026575
23	0x3eed73d0	0.4637742
24	0xbf3716ac	-0.7151897
25	0xbf6c6b88	-0.9235158
26	0xbe8fb521	-0.28067878
27	0xbecb90a0	-0.39758778
28	0x3e32b46f	0.17451642
29	0x40456946	3.0845504
30	0xbf4ba614	-0.7955029
31	0xbfb04478	-1.3770895
32	0xbd04b639	-0.032400344
33	0xc0189bbb	-2.384505
34	0x3eba99ff	0.36445615
35	0xbfe8a0fa	-1.8174126
36	0xc068e495	-3.6389515
37	0xc01e60c6	-2.4746566
38	0x3edd6c0c	0.43246496
39	0x3e5e2081	0.21692087
40	0xc00ea242	-2.2286534
41	0x3ce19006	0.027534496
42	0xbf1f3dd2	-0.62203705
43	0xbe1030d2	-0.14081123
44	0xbe73051f	-0.23732422
45	0xc07d85f8	-3.9613018
46	0x40b6d5f3	5.713617
47	0xbd9fd586	-0.07804398
48	0xbf965209	-1.1743785
49	0x3d15d3ac	0.03657882
50	0xbebb31d6	-0.3656146
51	0xbfa6aaa4	-1.3020825
52	0xc0eb65b6	-7.356166
53	0x407b2f3d	3.9247582
54	0xbfa2d933	-1.2722534
55	0xc0ac4864	-5.3838367
56	0xbe8587c5	-0.26080146
57	0xbf1e3792	-0.61803544
58	0xc01f57f4	-2.4897432
59	0x3edcafb0	0.4310279
60	0xbfc1e394	-1.5147576
61	0x3deee1ba	0.11664148
62	0x3e2dc89b	0.16971056
63	0x405870b2	3.3818784

fc4.weight f4 [6, 64]
0	0x3d2b9df4	0.041898683
1	0x3cb263ee	0.021776166
2	0xbb05e75a	-0.0020432086
3	0xbcab2de6	-0.02089591
4	0xbd772919	-0.06034193
5	0xbce2de65	-0.027693937
6	0xbca8ffa3	-0.02062971
7	0xbd142a65	-0.036173243
8	0x3caaf508	0.020868793
9	0xbca4533f	-0.020059226
10	0xbcfbd95f	-0.030743299
11	0x3ce40756	0.02783553
12	0x3c34c5d0	0.01103349
13	0x3cb57407	0.022150053
14	0xbd925308	-0.07144743
15	0xbc891e3c	-0.01673805
16	0x3d01c6a2	0.03168357
17	0x3ceb9e37	0.028761966
18	0x3c91c1de	0.017792638
19	0x3cf4d0d4	0.029884733
20	0x3cbdadc5	0.023154149
21	0x3cc3f70a	0.023921508
22	0x3cb804ee	0.022463288
23	0xbb5a7c0d	-0.00333381
24	0xbc8b69a0	-0.01701814
25	0xbd949916	-0.07255761
26	0xbcbba706	-0.022906791
27	0x3bd6a626	0.006550568
28	0x3cf54550	0.029940277
29	0x3cff2bed	0.031148875
30	0xbe13ab62	-0.14420846
31	0x3cc94cc2	0.024572734
32	0x3d8464e2	0.06464554
33	0xbc0dd432	-0.008656548
34	0x3cbb3fb3	0.022857523
35	0xbc6260a3	-0.013816985
36	0xbc9695e3	-0.018382018
37	0xbc8df070	-0.017326564
38	0x3ce326cc	0.02772846
39	0xbc4f0471	-0.012635336
40	0xbcb926d2	-0.022601519
41	0x3bd5104d	0.0065021873
42	0xbcaa6a8c	-0.020802759
43	0xbd3a4f92	-0.04548604
44	0x3b69d0fb	0.003567754
45	0xbc1d49d4	-0.0096001215
46	0x3d1b87dc	0.037971362
47	0xbafee1cf	-0.0019445958
48	0xbcaddfb1	-0.021224828
49	0xbd338db4	-0.04383631
50	0xbca65d8e	-0.020308282
51	0x3c2d2af4	0.010569323
52	0xbd3bd34a	-0.045855798
53	0x3c895cb1	0.016767832
54	0xbd5ec751	-0.0543893
55	0x3c909105	0.017647276
56	0xba194728	-0.000584709
57	0x3ca08f40	0.019599557
58	0xbc5a4cc8	-0.01332397
59	0x3ce45437	0.027872188
60	0xbc52b9a4	-0.012861643
61	0x3d27a078	0.04092452
62	0x3cae47fc	0.02127456
63	0x3cd1abce	0.025594618
64	0x3d1ce3ca	0.038303174
65	0x3cc93e7e	0.024565931
66	0x3b66f296	0.0035239807
67	0xbca574a7	-0.020197226
68	0xbd482f0e	-0.048873
69	0xbd20189b	-0.039085966
70	0xbcace466	-0.021105003
71	0xbd6ecfc9	-0.058303628
72	0x3cbee18a	0.023300905
73	0xbc664978	-0.014055602
74	0xbbb5f04f	-0.0055523287
75	0x3cde4907	0.027134432
76	0x3cedc0e4	0.029022641
77	0xbc3c3015	-0.011486073
78	0xbdc32378	-0.095282495
79	0xbc8e6406	-0.01738168
80	0xbc476764	-0.012170646
81	0x3ce2b337	0.027673347
82	0x3c8c82da	0.017152239
83	0x3cfdf56c	0.031000815
84	0x3cafb112	0.021446738
85	0x3cb28320	0.02179104
86	0x3ca04d2a	0.019568045
87	0x3cbf65f4	0.023364045
88	0xbcb95ccd	-0.022627259
89	0xbd15c433	-0.036564063
90	0xbd57b772	-0.05266518
91	0x3cdc2e3b	0.026877513
92	0x3cd27a99	0.025693225
93	0x3cf8c9c0	0.03036964
94	0xbde5b78f	-0.11216652
95	0x3cce1fdf	0.025161682
96	0x3cc89662	0.02448577
97	0xbc3d0152	-0.011535959
98	0x3ca1659f	0.019701777
99	0xbc8170cb	-0.015800854
100	0xbca83d0f	-0.020536928
101	0xbc9840af	-0.018585531
102	0x3ce8cc0f	0.028417615
103	0xbc4c2c54	-0.0124617405
104	0xbc851569	-0.01624556
105	0x3b646b49	0.0034853986
106	0xbc94118b	-0.018074771
107	0x3c89bdae	0.01681408
108	0xbc7e7ef3	-0.015533197
109	0xbc81b71c	-0.015834384
110	0x3d22e714	0.039771155
111	0x3cf063f8	0.029344544
112	0xbc83716e	-0.016045298
113	0xbd39e455	-0.04538377
114	0xbc9f5a6e	-0.0194523
115	0x3c2c09b2	0.010500358
116	0xbd40de25	-0.047086854
117	0x3c87da8f	0.016583709
118	0xbd18d8e0	-0.037316203
119	0x3c82ec74	0.01598189
120	0xbbeed1bf	-0.0072881873
121	0x3c90a737	0.01765786
122	0xbd53e470	-0.051731527
123	0x3cdad449	0.026712554
124	0xbc5bc7a3	-0.013414296
125	0xbc32315b	-0.010876025
126	0x3cb8b1d2	0.022545729
127	0x3cd3bd53	0.025847113
128	0x3d274764	0.040839568
129	0x3cc9dce1	0.024641456
130	0xbd8ac9ad	-0.06776748
131	0xbc7d10a7	-0.015445865
132	0xbc2e5e41	-0.010642589
133	0xbcc780a9	-0.024353342
134	0xbcb00237	-0.021485431
135	0xbc8c3979	-0.017117249
136	0x3cccf3bd	0.025018567
137	0xbc8f322f	-0.017479984
138	0xbc92ca07	-0.0179186
139	0x3cdb36e0	0.026759565
140	0xbbf18270	-0.0073702857
141	0x3acfcc76	0.0015853781
142	0xbd95b360	-0.07309604
143	0xbc687c96	-0.01418986
144	0xbc9c7de1	-0.019102992
145	0x3c842b0c	0.016133808
146	0x3c974879	0.018467175
147	0x3cffdfe6	0.031234693
148	0xbc7bd81d	-0.01537135
149	0x3ccaee6d	0.024771893
150	0x3cad4c1b	0.021154454
151	0xbb5793e1	-0.003289454
152	0xbc10a44c	-0.008828234
153	0xbd0b442e	-0.034000568
154	0xbc45e257	-0.012077889
155	0x3a422bd6	0.0007407045
156	0xbcf95446	-0.030435693
157	0x3d0b9a40	0.03408265
158	0xbe2b89de	-0.16751811
159	0xbc2929ae	-0.010324879
160	0x3cc052ce	0.023476984
161	0xbbe36a7e	-0.006940185
162	0x3c860629	0.01636036
163	0xbc9292e8	-0.017892316
164	0xbca87a8c	-0.020566247
165	0xbc8c1938	-0.017101869
166	0x3c74ff12	0.014953392
167	0xbc22ccc7	-0.009936518
168	0xbc38562f	-0.0112510165
169	0x3c187f26	0.009307658
170	0xbc8f5882	-0.017498259
171	0xbcd0fe2e	-0.025511827
172	0x3ce0af66	0.027427386
173	0xbc47305e	-0.012157528
174	0x3d1ce360	0.03830278
175	0xbc83ce18	-0.016089484
176	0xbc8b2743	-0.016986495
177	0x3ca6e235	0.020371536
178	0xbc9d44ca	-0.01919784
179	0x3c6a1369	0.014286854
180	0xbd3988b8	-0.0452964
181	0x3c722260	0.014778703
182	0x3b3827cc	0.0028099893
183	0x3c852155	0.016251246
184	0xbd15450d	-0.036442805
185	0x3c996681	0.018725635
186	0x3ca0e1cf	0.019638924
187	0x3d0cb924	0.03435625
188	0xbc52e5b6	-0.01287215
189	0xbc3db5d0	-0.011578992
190	0x3cb56950	0.022144943
191	0x3ce416f9	0.027842985
192	0x3d58e07a	0.052948453
193	0x3cc96c90	0.0245879
194	0x3ba80e78	0.005128678
195	0xbca11800	-0.019664764
196	0xbd1c7d4c	-0.03820543
197	0xbb377fee	-0.0027999836
198	0xbcaa1d9f	-0.020766078
199	0x3c053afa	0.008131737
200	0x3cbe5891	0.023235591
201	0xbc8ad5f9	-0.016947733
202	0xb9d9bfbf	-0.00041532327
203	0x3cd0d57c	0.025492422
204	0x3a6c1a38	0.00090065924
205	0x3d2a9961	0.04165018
206	0xbdbc6675	-0.0919923
207	0xbc881775	-0.016612748
208	0xbc0e204e	-0.008674694
209	0x3ceef754	0.02917067
210	0x3c8a9a09	0.016919153
211	0x3cf8daef	0.030377833
212	0xbd3471cf	-0.04405385
213	0x3c9686fa	0.018374909
214	0x3cbe6888	0.023243204
215	0x3bc5d758	0.006037634
216	0xbc50711d	-0.012722281
217	0xbcd0b372	-0.025476191
218	0xbb1b9da0	-0.0023745075
219	0xbb6436ea	-0.003482277
220	0xbc743bab	-0.014906804
221	0x3cc9a45a	0.024614502
222	0xbe04e263	-0.12976985
223	0x3c9fe10e	0.019516494
224	0x3cfd4163	0.030914968
225	0xbc6e7d19	-0.014556193
226	0x3cabddfb	0.020979872
227	0xbbb905d0	-0.005646445
228	0xbc9b71f6	-0.01897524
229	0xbc8233cf	-0.015893845
230	0x3ccc2265	0.024918744
231	0xbc4bb832	-0.012434052
232	0xbc45830d	-0.012055171
233	0xbd4af287	-0.0495477
234	0xbcaf95f2	-0.021433804
235	0x3c66013e	0.014038382
236	0x3b057d3e	0.002036884
237	0xbc554ae0	-0.01301834
238	0x3d24e367	0.04025593
239	0xbd04dcdc	-0.03243719
240	0xbccca37c	-0.0249803
241	0xbcfcd28d	-0.030862117
242	0xbcab80f5	-0.020935515
243	0x3c4f40e5	0.012649749
244	0xbd3c8b40	-0.046031237
245	0x3c8b4bb0	0.017003864
246	0xbc1d6faa	-0.009609142
247	0x3c892962	0.016743366
248	0x3c4324dd	0.011910644
249	0x3c8c6a83	0.017140632
250	0x3c9b7d20	0.018980563
251	0x3cb277e9	0.021785693
252	0xbc4b93f1	-0.012425409
253	0xbdadbb62	-0.08483006
254	0x3caf42d4	0.02139417
255	0x3ce1d123	0.027565544

fc4.bias f4 [6]
0	0x3faccf35	1.3500735
1	0x3faccc58	1.3499861
2	0x3faaf89c	1.335712
3	0x3fad380b	1.3532728
4	0x3fac087b	1.3440088
5	0x3facdf05	1.350556
