checkpoints/2021_02_06-12_48_50/last/last_dqn-Pong-ram-v0.pt (torch, 301183 bytes, 8 tensors)

fc1.weight f4 [256, 128]
00000000: 6ef5 2fbd c0e0 3f3b c23d 1fbd 9a87 083d
00000010: 6608 a0bd 904a 6b3d 7892 83bd 7c99 9dbd
00000020: 6787 8cbd ff31 003d fc4b cbbc 1cea 563d
00000030: ff0c b6bd ff8e 80bd 56a8 17bd 6518 c9bc
00000040: 082c 98bd bdb2 6f3d 2bde e6bc 2915 a33c
00000050: bb73 703d 4232 703b dcff c53c c552 9f3d
00000060: d4eb 3fbd 5da2 a83c 015a 44bd 51b3 653d
00000070: 0f7c 823d ce68 b5bd 5170 8c3d 2dd9 0f3d
00000080: a296 013d fbe2 f03c 9f63 883d 81f7 97bc
00000090: 092e a7bd ed13 04bd 3b95 8dbd 2720 88ba
000000a0: 7590 bfbc 468d 60bd 161b 7dbc 43cf 9c3d
000000b0: 53bc 67bc 2511 8fbb 419c a9bc 9873 dc3b
000000c0: 2e1f 933d 3d82 423d 3325 983c 53d9 513c
000000d0: b9e9 5c3c 6475 db3c 1e5e d3bc b03d a8bd
000000e0: 9a18 60bd f983 9a3d 3140 bb38 0e08 a1bd
000000f0: e1a5 053c 9f80 863d c721 babd 7708 88bd
00000100: a626 25bd d8bd 5cbb e887 e1bc df40 73bc
00000110: 2ba3 bebd ac13 0d3d 05cd 903d 71eb 403d
00000120: f745 8ebd 3711 a0bd 7f52 f43c 7b4f a1bb
00000130: 4c78 f03c 20e2 b0bd d0af acbb 5253 7f3d
00000140: 32f4 273d 0088 533b 0c5e 8e3c 801c 09bc
00000150: 9e0f 47bd 6cd0 08bd 6579 5cbd 395b 963d
00000160: 9e39 473d e839 fd3c acd0 8abd b1ad 8b3d
00000170: 7807 e33c d674 7a3d 236c 0ebd 8c80 993c
00000180: 7dbe b03d 5287 733d 492d 913d 940b 98bc
00000190: 1dea 893d bac7 8dbd b07f fa3b 00d9 4bbd
000001a0: a8dd a8bc 306f b9bc 00b3 d83b bdc0 a43d
000001b0: 523d 333d 004f c4b9 eb7e 803d 5b87 39bd
000001c0: 9a95 3a3d 904a 06bc a0fe 7bbc 588a 293c
000001d0: a6ad 8abd 4858 273c 5c76 f33c 59c2 9a3d
000001e0: bc6f e1bc 752b ed3c 6ce0 a53d 29e7 38bd
000001f0: b0f9 9d3d c9ef 4fbd 8ae5 023d 2b46 e33c
00000200: 5b15 943c 9126 8f3d c6fe 55bc 244d be3c
00000210: e6e9 8ebc 43b2 95bd ecd0 afbc 65fc 8fbd
00000220: 27be da3c 2a75 533c 097e 753c c123 5cba
00000230: 4da1 7f39 cb10 98bc 49a0 813d 943f a23d
00000240: d003 de3b d60c c6bb b1d1 5dbd 40c0 d13b
00000250: d18a 75bd 2b5f a5bd 84a4 6bbd d90c 16bd
00000260: 7a0c 94b8 f337 5e3d c352 e23c b746 7a3d
00000270: 8f68 7ebd 20c9 5d3a e072 aebd cb99 343d
00000280: 1677 413c 5c8a a13d 5749 8ebd e49e 833d
00000290: f546 8b3d 25d0 843d fd98 c43b 930d 973d
000002a0: 5fb2 563d a405 733d de6a 4abc 3a75 98bd
000002b0: 29bb fcbb 7a3d 233c 0bd9 88bd cbc3 6abd
000002c0: 8918 bbbd e687 6ebd 275f 803d 2aeb 273b
000002d0: 40cc 44bc d3c1 48bb 36fe 133d 01da 9fbd
000002e0: b492 81bd fabb f0bc c784 60bd 25a6 1f3d
000002f0: 3b0a 4c3d 782c bdbd e82b a7bd f0d2 bdbd
00000300: cba5 043d 6c26 843d 4ce5 99bd d409 2cbd
00000310: 9f3e b03c 7b0d 83bd 643a 8c3d ca61 683c
00000320: 4abe ffbc 1e98 64ba 8e92 ab3c 821b 1bbd
00000330: dace 99bd 00be 1b3a 4006 d33a 809e e93a
00000340: 6054 53bc 9674 683d 780f cabc b82b 0cbc
00000350: a6dd 143d 72e1 63bd c0e0 c13c d81a a0bc
00000360: 0ea9 2d3d a164 44bd e015 563b 08ac 0d3c
00000370: c4a5 91bd 76a0 83bd bed8 0a3d 58bf d2bc
00000380: 7603 573d 7dd2 b2bd 51f7 32bd 4619 95bd
00000390: c49f 103d 80ef 27bb 500e 87bc 70ee 70bc
000003a0: 5a7e 8dbd 3c58 cd3c c062 103b fad8 79bd
000003b0: 0e3b 083d 40da e8ba 8a12 afbd 76bf 423d
000003c0: 5aa6 413d 6c6c 88bc 1ef7 79bd e092 683b
000003d0: f197 883d b7b1 a53d 32a2 88bd 8a85 23bd
000003e0: 31f2 8c3d 1519 163d 6079 493d d448 4fbd
000003f0: 0569 8e3d 9f5a a2bd 151a 32bc 248e 9cbb
-0.04295867 0.0029278249 -0.038877256 0.033332445 -0.07814102 0.057444155 -0.06424421 -0.076952904
-0.068617634 0.03129768 -0.024816506 0.052469358 -0.088891976 -0.06277274 -0.037025772 -0.024547765
-0.07430273 0.058520067 -0.02818211 0.01990755 0.05870412 0.003665105 0.024169855 0.07779459
-0.046855763 0.020585233 -0.047937397 0.056079213 0.063713185 -0.088578805 0.0685736 0.035119224
0.031637795 0.029405108 0.06659626 -0.018550636 -0.081630774 -0.032245565 -0.06913229 -0.0010385559
-0.023384312 -0.05482223 -0.015448352 0.076567195 -0.014144021 -0.0043660575 -0.02070439 0.006727647
0.071836814 0.047487486 0.018572425 0.012808162 0.013483458 0.026789375 -0.025801715 -0.08214891
-0.054710962 0.07544703 8.9288114e-05 -0.078628644 0.008157224 0.06567501 -0.09088474 -0.066422395
-0.04032006 -0.0033682492 -0.027530625 -0.014847009 -0.093084656 0.03444259 0.07070354 0.047099534
-0.069469385 -0.078157835 0.029824493 -0.004922805 0.029354237 -0.0863688 -0.005269982 0.06233532
0.041004367 0.0032277107 0.01737883 -0.008368611 -0.048598878 -0.03340189 -0.05382671 0.07341618
0.048638932 0.0309114 -0.06778082 0.068202384 0.027713522 0.06114658 -0.034771096 0.018738054
0.08630083 0.059455223 0.070887156 -0.018560208 0.06734107 -0.069228604 0.007644616 -0.049767494
-0.020613506 -0.022636026 0.0066131353 0.080445744 0.04375965 -0.00037442893 0.06274208 -0.0452951
0.045552827 -0.008196488 -0.015380532 0.010347925 -0.06771402 0.010213919 0.029719524 0.075566
-0.0275191 0.028951386 0.08099446 -0.045142327 0.0771364 -0.050765786 0.031957187 0.02774342
0.01807659 0.06989778 -0.013061231 0.023230143 -0.017445516 -0.07309391 -0.021461926 -0.07030562
0.026702 0.012906352 0.014983662 -0.0008397662 0.00024378784 -0.018562695 0.063294 0.07922283
0.006775357 -0.0060440106 -0.054155055 0.006401092 -0.05994684 -0.080747925 -0.05752994 -0.036633346
-7.059514e-05 0.054252576 0.027627354 0.061102595 -0.062111434 0.0008460451 -0.085180044 0.04409198
0.011808177 0.07887718 -0.06947582 0.0642679 0.06800643 0.06485013 0.005999683 0.07375636
0.0524162 0.05933155 -0.012354581 -0.07444234 -0.007712741 0.009963388 -0.06682023 -0.05731563
-0.09135539 -0.05823507 0.06268149 0.0025622346 -0.012011588 -0.0030633106 0.036131106 -0.07805253
-0.063268095 -0.02938651 -0.054814126 0.038976807 0.049814444 -0.09236997 -0.08162671 -0.09268749
0.032384675 0.06452641 -0.07514438 -0.04200156 0.021514235 -0.063990556 0.06847075 0.014183471
-0.031218667 -0.0008720177 0.020943906 -0.03786803 -0.07510157 0.0005941093 0.0016099885 0.0017823726
-0.012898535 0.05675181 -0.02466558 -0.008555345 0.036344193 -0.055634923 0.02366674 -0.01954405
0.04239755 -0.04794753 0.0032666847 0.0086469725 -0.071116954 -0.0642709 0.033898108 -0.025726005
0.052493535 -0.08731554 -0.04369289 -0.07280211 0.035308614 -0.002562493 -0.016486317 -0.014705285
-0.06908865 0.025066487 0.0022031516 -0.06099794 0.033259444 -0.0017765239 -0.08548458 0.047545873
0.047277786 -0.016653262 -0.061026685 0.0035487935 0.066696055 0.08090537 -0.06671561 -0.039922275
0.06882132 0.036645014 0.049188018 -0.050606564 0.06953625 -0.07927441 -0.010870476 -0.0047776867

fc1.bias f4 [256]
00000000: 55c9 2a3d 3f4e 52bd 198d bbbd 9184 f4bc
00000010: 9d4b 293d cd94 26bd cc72 9e3c f7d3 7cbc
00000020: dd42 0dbd d9fb 8dbd 6ac0 13bd a38d 9cbd
00000030: 4b9e 46bd efb1 ce3a dc4a 3e3d ee54 76bd
00000040: 773e 053c 03c2 86bd e4f3 fe3c 9841 873d
00000050: a925 c3bc 3bc7 313b 3d86 c6bd ad07 7abd
00000060: 0661 2a3d a891 27bc 6fee 8e3d 36bb 74bd
00000070: e0d3 813d 8519 843d 8f18 913d c3ee 023c
00000080: 0890 76bd f516 853c 81d6 9e3c 14c8 91bc
00000090: c46b acbd 20c1 9fbc f707 05bd d2dc 043d
000000a0: ac65 bebc 7c60 edbd 6e22 3f3d 414d 373d
000000b0: dbe8 1f3d a12a 883c cd8f b5bd 84a9 16bd
000000c0: 4557 0cbd 0e68 653d 725e 2b3d b3a4 2d3d
000000d0: a4e6 f3bd ddc5 01bd c162 043d 271f 983d
000000e0: d8fc 5dbc 3888 97bd 2123 afbd 7379 293d
000000f0: 079d 2e3c 4624 34bd fa19 5a3d 0f4f d1bd
00000100: 1a85 6a3d 9363 6bbb 4c43 10bd 0062 88bd
00000110: 3d48 41bc ea0f 313d 2b6e e9bc 653b 8b3d
00000120: a929 29bd c500 05bd 7a1f 7ebd 9ef4 6f3d
00000130: 4a4f ae3b 0c51 953c 393b 73bd 523b 2d3d
00000140: 7ff5 993d 7f2d 0abd 0fbb 3abc bcf1 0c3c
00000150: 5c83 abbc ef8b bd3c 7778 2fbd 97bf c3bc
00000160: 1426 bfbc 98bd a0bd 80ee 143d 2931 85bd
00000170: 3983 3e3d 9330 3b3c 7859 2bbb bea8 0bbd
00000180: e8a3 98bd 3cc0 913d ce9c 8fbd 9a92 bb3c
00000190: 6375 8abd f696 403d 78b7 74bc 7dec 0abd
000001a0: d410 fabb d2be 683d 48f7 1f3c 63cd a1bd
000001b0: 0047 ac3a 8716 9fbd 3f9a aa3d bbce 72bd
000001c0: 263d c23d b6d7 59bd 6f96 89bc 1daf d53c
000001d0: d61b febc de3f 193d 4c5f 6b3d a14c 793c
000001e0: c5ea 953d aeb9 92bd 32b9 4fbd ae43 193d
000001f0: d77b 77b9 538f b0bd a693 333d 4392 52ba
00000200: 9c7f 8ebd 2377 8dbd 394b c5bd fddb ea3c
00000210: 0f12 bf3c ccb6 b3bd ea10 8dbd ad31 afbd
00000220: 8596 52bd d735 013c 64fe d83c 8e12 1abd
00000230: 35c3 c3bc 0e6a 94bd 4494 c43c 22fd cbbb
00000240: c878 423c 3611 053d 8e21 c43b 6367 ccbd
00000250: a38f 14bc f1aa ac3d 3c62 9e3c 3448 e4bd
00000260: 9033 e73b 0f43 883d 3ef2 133c 3745 a3bc
00000270: 4d4c 683d c30f 4bbd c504 853d 9585 943d
00000280: 01dc 62bd deb8 1f3d 4027 5d3c a60e 69bd
00000290: 53f3 123c 41b9 04bd 506b ab3b 7a05 383d
000002a0: 99ed e4bc d023 f23c 53fa 87bd b713 963d
000002b0: b28b 9b3d 1e59 bbbd 9fd7 bb3c 771a 36bd
000002c0: 4cb1 fabc 8741 a43d 8994 89bb d45b f9bc
000002d0: 6062 d83d e583 8e3d 801a 2cbc 9df0 be3c
000002e0: a554 9cbd 18ed 67bd dbdd 71bd 2e74 a1bd
000002f0: 1503 00bd 958e 9ebc bec5 683d 1b76 953d
00000300: dc20 653d 284b 15bd 34cb 99bc 4706 3cbd
00000310: f673 0dbc 83bc 99bd 9191 923c ca3a 233d
00000320: ffed 80bd ad61 643d 4082 7a3d c9ee 09bc
00000330: f7a9 b0bd b3c8 79bd 71dc 9d3d d7f1 943c
00000340: 3708 1dbd da95 74bd 8671 26bc 05f7 283b
00000350: 3d7b 983c 66ec da3d b604 ffbc 8bc0 1ebd
00000360: bbc2 b1bd 1b4d 4cbd 1c14 e13c c2ce 25bd
00000370: 2087 933b d3e9 0ebd 19af 04bd 4fd5 923d
00000380: 6a15 c1bd 4f85 243c 8fba 013d e3fa abbd
00000390: 4dc3 36bd 1f71 493c d110 76bd 7116 813d
000003a0: a1d2 b5bd 3dde 08bd 8cc9 d83c bef7 99bd
000003b0: 8744 0a3d 6360 a4bd d7f2 d3bc 19aa 033d
000003c0: e201 ec3b 4c8f 743c 71bb c6bd 14b8 bfbc
000003d0: 169e 6a3d cc15 a5bd 5a35 91bd fc6b a5bc
000003e0: b4cb f1bc da88 87bd 00ae 29bd a67e 343d
000003f0: 5d2a aabd 0c89 9d3d f918 303d 7535 eb3c
0.04169591 -0.051344153 -0.091577716 -0.029848369 0.041331876 -0.04066925 0.019341849 -0.015431396
-0.034487594 -0.06932802 -0.036072172 -0.076442026 -0.048490804 0.0015769581 0.04645811 -0.06013959
0.008132569 -0.065799735 0.031122155 0.06604308 -0.023821669 0.0027126807 -0.09693573 -0.061042476
0.041596435 -0.010227598 0.06979071 -0.05974885 0.0633924 0.0645018 0.07084762 0.007991496
-0.060195953 0.016246298 0.019389393 -0.0177956 -0.08418992 -0.019501269 -0.0324783 0.032437153
-0.02324184 -0.115906686 0.046663694 0.04475141 0.039040428 0.01662189 -0.088653184 -0.036782756
-0.034262914 0.056007437 0.041838117 0.042393398 -0.119092256 -0.031682838 0.03232074 0.07427817
-0.013549052 -0.073990285 -0.08551622 0.04137559 0.010657555 -0.043979906 0.05324743 -0.10220157
0.05725584 -0.0035917505 -0.03522043 -0.06659317 -0.011797008 0.043228067 -0.028494915 0.06798438
-0.041299496 -0.032471437 -0.062041737 0.058582895 0.0053195106 0.018227123 -0.05938265 0.0422929
0.07517528 -0.033734795 -0.011397137 0.008602556 -0.02093666 0.023138015 -0.042839494 -0.023895068
-0.023333587 -0.07848662 0.036360264 -0.06503517 0.046511862 0.011425155 -0.0026145857 -0.034096472
-0.07453138 0.07116744 -0.0701233 0.022897054 -0.06760671 0.047018968 -0.0149363205 -0.03391694
-0.0076314006 0.056822605 0.009763546 -0.079005025 0.0013143718 -0.077679686 0.08330201 -0.059279185
0.094843194 -0.053184234 -0.016795365 0.026084477 -0.031019133 0.037414424 0.05746393 0.015216024
0.07320169 -0.07164322 -0.050713725 0.03741806 -0.0002360189 -0.08621087 0.04384198 -0.0008032659
-0.06957933 -0.06907489 -0.09633488 0.028669352 0.02332404 -0.087751 -0.06887992 -0.08554397
-0.051413078 0.007886372 0.02648849 -0.03761535 -0.023896793 -0.07246791 0.02399648 -0.006225244
0.011869617 0.032487117 0.0059854453 -0.09980657 -0.009067449 0.08431042 0.019333951 -0.11146584
0.0070557073 0.066534154 0.009029923 -0.019930465 0.05671339 -0.04957558 0.0649505 0.07252041
-0.055385593 0.038994662 0.013498127 -0.056898735 0.008969146 -0.032403234 0.0052312985 0.044927098
-0.027945327 0.029558092 -0.066395424 0.07327979 0.07595004 -0.09147857 0.022929965 -0.044458833
-0.03060212 0.08020311 -0.004198615 -0.030439295 0.105656385 0.06958751 -0.010504365 0.023308093
-0.07633332 -0.056622595 -0.05904947 -0.07883488 -0.03125294 -0.019355098 0.056829207 0.072979175
0.05593954 -0.036448628 -0.018773653 -0.045904424 -0.008633604 -0.07506659 0.017891677 0.039850987
-0.06295394 0.055757213 0.061159372 -0.008418747 -0.08626168 -0.060982417 0.077080615 0.018181724
-0.038337912 -0.059713222 -0.010158902 0.0025782 0.018613452 0.10689621 -0.031130176 -0.038757842
-0.0867972 -0.04987822 0.02747541 -0.040480383 0.004502192 -0.03489096 -0.03239355 0.07169592
-0.094279125 0.010041549 0.031672057 -0.08397462 -0.044619847 0.012295037 -0.06007463 0.063031085
-0.08878065 -0.033415068 0.026463293 -0.07517956 0.03375676 -0.08026197 -0.025872631 0.03214464
0.007202373 0.014926743 -0.0970372 -0.023403205 0.05727967 -0.08060798 -0.07090254 -0.020193093
-0.029516079 -0.06617899 -0.041425705 0.044066094 -0.083088614 0.07692155 0.042992566 0.028712014

fc2.weight f4 [128, 256]
00000000: 660a e33c ebcf 23bb b241 ffbc 7c86 ab3b
00000010: c572 633d d173 05bc 8cb7 033b 9722 d3bc
00000020: 25c6 11bd 2bb7 5b3d 880f 45bc 546f 9f3c
00000030: 5117 e53b 1869 593c 7173 1b3d 6220 793d
00000040: 2861 e23c eb54 bc3c 512f 4dbd b814 2c3c
00000050: da16 053d c09e 07bd 925b 343d b543 df3c
00000060: 345c f03c 662e 6fbd 4025 48bb d093 a9bc
00000070: 8d4c 2bbd 484d 013c b076 c93b a85a 263d
00000080: a851 1ebc 8e47 153c 67e4 29bd 5efa 523d
00000090: ff70 e4bc eb55 b93b 605f adbc bc4f 6cbc
000000a0: de78 ac3c f86c e53b eeb0 673d 86a0 053d
000000b0: 8083 39ba b63a 71bd 4101 03bb 7aab 52bd
000000c0: de90 e2bc ce97 a23c cae3 b6bc 9421 413d
000000d0: 77c0 1fbd 1c9f a9bc de86 cc3c 8a7b 7ebd
000000e0: d65e 5fbc 358c 2ebd 1aad b63c 53c7 103d
000000f0: 08ad f9bc e6d2 2bbd 9839 153d 2987 14bd
00000100: f845 693d d9f9 5d3d c565 8ebc f43e 40bd
00000110: efb8 9cbd e06b fcbc a2f9 423c d0b4 293c
00000120: fb6f 1b3d 322f 8cbc b164 4dbd 60dc c2bc
00000130: edf9 253d d8a1 e63c 491a 433d 34f5 8fbc
00000140: 702b 57bd e1cf 61bd b77f 0dbd b7a9 133d
00000150: 0063 8b3c 2883 77bd 40f0 85bd 2f2c fcba
00000160: a8b4 68bd 84a2 a8bc 7fed 113c 7aea 5ebc
00000170: 72e0 97bd c1c3 8e3c 3075 8c3c 98fb 56bd
00000180: 337c 353c 7fc9 633d 2db3 43bd a2b8 5abd
00000190: 6999 1b3d 4ea5 503d 9fac 3dbc 50a2 4cbd
000001a0: 02cb 9c38 9c38 753d a8b3 4ebd 1a8b 6cbd
000001b0: 90ca c6bc 70b3 9a3c 705a e1bb eff1 39bd
000001c0: d45d 9d3a 5094 95bb 0038 1d39 6912 993c
000001d0: 12ba 22bd 4c44 01bd c817 d3bb 9e82 413c
000001e0: 202d dcbc 5f29 48bd 958a 13bd 8087 a8bc
000001f0: 31a3 02bc 2807 f8bc e1ad d93c c2cd c73c
00000200: 1847 1f3d 1aed 72bd 21d1 d43c a6b5 07bd
00000210: 3085 583d 0029 c7ba dc8b 373c faa5 7ebd
00000220: 9276 08bd b936 cdbc 3415 083c 713c 25bd
00000230: 076b e53c 37bd 663c 5da1 b33c 272d 48bd
00000240: 2eac 523d dcd8 a6bc a4c3 3fbd 14c8 bebb
00000250: bf5b a13b 6cd2 433d 1a1e 31bd d395 5bbc
00000260: 3e38 cabc 3007 4fbd 14e4 28bd dea0 9c3c
00000270: 9ee9 083d bf54 74bd d91a 19bd 57ed 86bd
00000280: 0095 f23c 0cf9 bbbc 507e abbc 3ad1 0b3d
00000290: f1ef 37bd a9ac 1dbd e66c 673d 825f 1fbb
000002a0: 33c2 eb3a 5cb3 893c fbd2 d9bb b4b2 4f3d
000002b0: 49cc 66bd 2118 b9bc db87 e13c 484b 64bd
000002c0: 20c2 30bd 1c13 0b3d ba03 b5bc 8294 713d
000002d0: 02b5 093d eb5d f3bc 74c0 453d 034c febb
000002e0: 48a3 753b 4aac 21bd 450d 75bc faed 183d
000002f0: 3505 3e3d eb77 68bd 3221 3b3d 947c f63c
00000300: a9ae 3cbc ff06 6b3b 80a0 cc3c f0bd 483d
00000310: a053 1bbb 7984 3f3d 2e55 ebbb d0be 56bc
00000320: 53a5 ea3c 421a 81bd cc95 9a3c 0f74 95bd
00000330: 4d9f 72bd 0b47 493d eed6 58bd dc36 29bd
00000340: 0eee 0d3d 6833 03bd f2c1 1bbc 7288 f3bc
00000350: f046 473d c35b 4c3d 04bb 5e3d 4ae7 8e3c
00000360: 1e27 72bd 896f 9abc 1e4d 583c 0cd0 0f3d
00000370: 2cb9 d2bc 1083 e5bb adb8 f93c 8067 a23c
00000380: ebe5 2abc 2cf1 213c a64a 47bd 72d1 18bd
00000390: a868 acbc d07d e3bc 33c2 053d 1836 40bd
000003a0: aa65 58bd fd40 8ebc 82dd 7fbd 1c69 76bd
000003b0: d674 583c 38cf 11bc 63cb eb3b e6bb 673d
000003c0: b928 82bd e292 243d ed0f 57bd 9c30 35bd
000003d0: 705f 48bc c297 023d 214b 293c 2652 613d
000003e0: 3ee1 4d3d f451 25bd 48ea 653d a889 8e3c
000003f0: 0c39 0e3d 2262 793d e3fa dfbb 3dea 05bd
0.02771492 -0.0024995755 -0.031159256 0.0052345376 0.055529375 -0.008145289 0.0020098416 -0.02577333
-0.035589356 0.05364148 -0.012027629 0.019462265 0.006991305 0.013269685 0.03795189 0.0608219
0.027634218 0.02298971 -0.050093953 0.010502987 0.032492496 -0.03311038 0.04403264 0.027253965
0.02934084 -0.05839386 -0.003053978 -0.020700365 -0.04182105 0.00789196 0.006148182 0.0406138
-0.009663023 0.009111298 -0.041477587 0.0515083 -0.027885912 0.005655994 -0.021163642 -0.014423307
0.021053728 0.0070015155 0.056565218 0.03262379 -0.0007076785 -0.05889388 -0.001998976 -0.051433064
-0.027656969 0.019847777 -0.022325415 0.047151163 -0.03900191 -0.020705752 0.024966653 -0.062129535
-0.0136334505 -0.04261418 0.022299338 0.03534634 -0.030478016 -0.041949175 0.03643188 -0.03626171
0.056951493 0.05419335 -0.017382512 -0.046935037 -0.07652461 -0.030813158 0.011900337 0.01035805
0.03794859 -0.017112348 -0.050144855 -0.023786724 0.04052155 0.028153345 0.04763249 -0.017572977
-0.05253166 -0.05512989 -0.034545626 0.036050525 0.01701498 -0.060427815 -0.06539965 -0.0019239242
-0.056812912 -0.020585306 0.008906721 -0.013605708 -0.074158564 0.017427327 0.017145723 -0.052486032
0.011076975 0.055612084 -0.047778297 -0.053398736 0.0379881 0.050938897 -0.011576801 -0.04995948
7.476473e-05 0.05986844 -0.050464302 -0.057749845 -0.024266511 0.01888439 -0.006877236 -0.04539674
0.0012006112 -0.0045647994 0.00014993548 0.018685536 -0.03972823 -0.031559274 -0.006442044 0.011810927
-0.026876986 -0.04886758 -0.036020834 -0.020572424 -0.007973478 -0.03027685 0.02657217 0.024390105
0.03888616 -0.05930815 0.025978627 -0.033132218 0.052861392 -0.0015194714 0.011202779 -0.062170006
-0.033316202 -0.025050508 0.0083058365 -0.040340845 0.028005136 0.014083198 0.02192753 -0.048871186
0.051433735 -0.020367078 -0.046817437 -0.005822191 0.004924267 0.047808096 -0.043241598 -0.01340242
-0.024685021 -0.050543964 -0.041233137 0.019119676 0.03342592 -0.059651133 -0.03737912 -0.06588238
0.029612064 -0.022945903 -0.020934254 0.03413508 -0.04490656 -0.03849474 0.056500338 -0.0024318402
0.0017986953 0.016809158 -0.0066474653 0.050707534 -0.056347165 -0.022594513 0.027530601 -0.055735856
-0.043153882 0.03395377 -0.022096504 0.05897952 0.033619888 -0.02970787 0.04827924 -0.007760526
0.0037481356 -0.03947095 -0.014956777 0.037336327 0.046391685 -0.056754988 0.045685954 0.0300887
-0.011516252 0.0035862324 0.024978876 0.049009264 -0.0023700967 0.046757195 -0.007181785 -0.013107017
0.028643286 -0.063038364 0.018870257 -0.07297527 -0.059233952 0.049140017 -0.052939348 -0.041312084
0.034650855 -0.032031447 -0.009506689 -0.029728148 0.048651636 0.0498922 0.05437757 0.017444272
-0.059119336 -0.018852012 0.01320198 0.03511052 -0.025723062 -0.0070041493 0.030483568 0.019824743
-0.010430793 0.00988416 -0.048655175 -0.037309118 -0.021045998 -0.027769953 0.032655906 -0.046926588
-0.05283133 -0.017364973 -0.062467106 -0.060158834 0.01321145 -0.008899502 0.0071958764 0.05657568
-0.063554235 0.04017914 -0.052505422 -0.04423581 -0.012229785 0.03188301 0.0103328535 0.055009983
0.050263636 -0.04036136 0.05613163 0.017399624 0.034722373 0.060884602 -0.006835328 -0.03269409

fc2.bias f4 [128]
00000000: cebd 81bc 2427 56bc 12ed 58be 5679 0a3d
00000010: a2d5 dcbd d049 cebc 82fa b7be 9c38 743b
00000020: 5163 c23b 99bc 8abd 4785 4ebd 5959 663d
00000030: 9260 73bc 7bef a4bd ccd9 7abe ee30 0bbe
00000040: aa18 6fbe 6bbb 0a3f 6811 acbd c466 81bc
00000050: 319a a5bc a17c b5bd 27a7 59be 36d3 0cbe
00000060: 1ea2 bebc c614 043e 0957 67be 58ca 8ebd
00000070: d275 c43e 5c04 aebe 3053 dcbd 92f1 ad3d
00000080: 367f c5be dcfc 143d a163 d7be 4c4d babe
00000090: 82ce a839 4322 293d 0b18 c6bd b16a e23b
000000a0: 2202 e33d 6d67 e5ba df1b 56be 4fe3 86be
000000b0: 16e4 dcbe 2be6 553c 6c5a d33d 2725 afbd
000000c0: 6b7b 40bc 25e0 96bd baa5 693e 2cb6 9fbb
000000d0: 2ee8 0fbd de9c 05bf 5d8a 923e 7886 6fbd
000000e0: 97d9 f4be c553 45bd abed 3ebd dab9 ae3b
000000f0: ca80 90bc 96c9 00bd 478c 583c 1a38 9f3e
00000100: 7390 2bbe efa9 9bbd bcf6 9cbe 95f6 bfbc
00000110: 57e9 a7bd 2fea 4fbd cc4e a63c af10 8fbe
00000120: 6252 80be 8eee 2f3e 56ff 933e fdcb 03bf
00000130: 51ac c9bc 1efd b6be cead 53bd a3e6 4cbe
00000140: 2e3b d73d 0a25 c7bc 88e4 123d c2de 26bd
00000150: 6e32 b5bd bcdb a3be 85db c73d 8741 63bd
00000160: c72b cd3e ebe1 15bd fa4f babd 6615 2abd
00000170: bb7c a2bd 0387 afbd 6f2c 433e 35fe e9bc
00000180: 49c4 02be 0a68 1d3b 4b9b 1fbd 45e6 053d
00000190: 464d 153e 3c10 37be 9ec8 34bd 7f5d 0e3e
000001a0: e04a 71be 7324 a1bd 152b 44bd 8153 04bf
000001b0: 84f5 b2bc dff2 a03c 7ced 26be 1440 46be
000001c0: 381b 16bd 57df b7be b507 07bd efb2 c63d
000001d0: 7489 e13e af37 90bd eeaf 25bd 0ef3 ccbd
000001e0: 4163 803e 0249 c4bd e556 2bbe 91db 5d3c
000001f0: 0ec8 653e 9441 74be dd9f 17be 1aca a1be
-0.015837576 -0.013070855 -0.21184185 0.03380712 -0.10782935 -0.02518168 -0.3593331 0.0037265187
0.0059322496 -0.067742534 -0.050420072 0.056237552 -0.014854567 -0.0805349 -0.24497145 -0.13592884
-0.23349252 0.5419223 -0.084017575 -0.015796073 -0.020215126 -0.08861662 -0.2125517 -0.13752446
-0.023270663 0.1289855 -0.22591795 -0.06972188 0.3837114 -0.339877 -0.10758054 0.084933415
-0.38573617 0.036373958 -0.42068198 -0.36387098 0.00032197317 0.04129244 -0.096725546 0.0069096913
0.11084391 -0.0017502137 -0.2090907 -0.26345298 -0.43142766 0.013055365 0.10319981 -0.08552008
-0.011748175 -0.07366971 0.22817126 -0.0048740115 -0.035133533 -0.52192485 0.28621188 -0.05847785
-0.47822258 -0.048175592 -0.046613377 0.005332214 -0.017639536 -0.031442247 0.0132170385 0.3109749
-0.16754322 -0.07600772 -0.30656993 -0.02343301 -0.08198803 -0.050760444 0.020301245 -0.27942416
-0.25062853 0.17180845 0.28905743 -0.51483136 -0.0246183 -0.35739988 -0.051679425 -0.20009856
0.105093345 -0.024309654 0.035862476 -0.040739782 -0.08847509 -0.32003582 0.09758667 -0.055482414
0.40072462 -0.036592405 -0.090972856 -0.041524313 -0.07933947 -0.08570673 0.19059919 -0.028563598
-0.1277019 0.002401831 -0.03896646 0.032690305 0.14580259 -0.17877287 -0.044136636 0.13902853
-0.23563719 -0.0786828 -0.04789265 -0.51689917 -0.021845587 0.01964706 -0.1630153 -0.19360381
-0.03664705 -0.35912582 -0.032966334 0.097020976 0.4405018 -0.07041871 -0.040450983 -0.100072965
0.25075725 -0.09584238 -0.16732366 0.013541118 0.22439596 -0.23853141 -0.14807077 -0.31599504

fc3.weight f4 [64, 128]
00000000: 4f1a f13c 4eac 68bd a75e fcbd cc3c 783d
00000010: 93d7 11bd f799 863d 0dbb 0f3c 1eef 71bd
00000020: c597 4e3d 809f a9bd 7cda 72bd 255a 99bd
00000030: 3fbf 203b cf6f 9f3c 560a 22bd e0f4 67bd
00000040: ae88 02bc 28e8 05be 09a1 85bd 15a4 293d
00000050: 8df4 1bbd 0a19 03bd e592 bebd 17af 773d
00000060: f0d6 71bd f25d 61bd bd12 82bd 7cf9 71bc
00000070: b924 4abd 5e48 94bd b01b 833d 583e f3bc
00000080: 61a2 c2bd 1065 c0bd 8b12 933c 8c57 dbbd
00000090: 0167 203d 6f0e af3d 2972 8b3d ca2f 83bd
000000a0: d3c1 1f3c d0eb adbd 0ded 253d 66a3 b53c
000000b0: 32eb c2bd 93f2 9a3d 2c17 b43c ba6c 5e3d
000000c0: 2c88 b1bc 1841 a73d bec7 cbbc ec84 29bd
000000d0: 2196 24bd 1c5e 39bd c78e e2ba 0173 4cba
000000e0: e069 b9bd 3cad 4cbd 56d2 833d 2aa5 d5bc
000000f0: fbf4 a2bd 50d8 28bb 4065 723b 734f d0bd
00000100: 3ad9 b8bd 0070 1e38 6436 44bd 8cbe ad3c
00000110: 4d7a 8c3d 248a 333d 8918 74bc 9d19 5abd
00000120: 9be4 d6bc 70a0 55bd c476 8f3b fe68 f9bd
00000130: 8e8d 3b3d db6e 963b 4ce8 293d 037f a8bd
00000140: cfaa abbd 4ac4 1dbd b785 a93d 7c20 07bd
00000150: 7e28 483d ebfe 6bbd 6287 d8bd 0f07 a2bd
00000160: f26f a7bc 77bb 833d 0f8b d13c 4f7c 363c
00000170: 03ff 863d 0597 cbbd b34f 95bd 31dd 963d
00000180: 2de9 bebd 3260 2bbc 5ab3 9ebc d47b 8c3c
00000190: 2c19 1e3c 6b18 033d b3c4 453d 16f8 43bd
000001a0: 9da3 11bd 9430 ac3d 63e0 e13c 047d 413b
000001b0: d6a3 8ebb 22c1 573d c671 0a3c 59d3 6dbd
000001c0: bc7a 063d 5c8d 19bd b83b b63c 1df8 94bc
000001d0: 9ca3 9fbd 3266 a8bd ac81 c8bc 109b d03c
000001e0: 2923 503c f831 cbbd 2692 ddbc 726f 003b
000001f0: 7758 a43c 7448 bbbd edda 59bd fa9c 7c3c
00000200: 2bf4 ea3c 3599 6c3d 52a1 84bd cb04 e23a
00000210: be73 8dbe 009e 74bc bea6 5bbd af8c 50bd
00000220: f80a d1ba 9066 713d 2200 8e3d 7596 c23b
00000230: 5420 253d f150 e2bd d5e1 fcbc d575 cbbd
00000240: ca6e 3dbf 017e b5bd 5c24 b23d c811 9cbc
00000250: 819a 8f3d 44f9 853e 98f1 973d 6fcc 7ebf
00000260: f741 643d 3db7 5bbd daae e0bc 07b8 003d
00000270: 63cc 4a3e c221 f0be e2fb 0e3c 8782 ee3b
00000280: 7cd5 0abe 0200 033c 6996 86bf 4a67 36be
00000290: cc62 833d a7b9 df3c 4085 9f3c d5a4 a23d
000002a0: 9c3a 9bbf 8e06 2f3b a0a8 afbe a2e5 08bd
000002b0: c243 46bf c17e 953d ce1f 90bd c7db 8b3d
000002c0: f98c 9ebd 61ed 3c3d 74ca 3ebc dd52 01bb
000002d0: e005 8b3d 7484 6fbe 48c1 c0bc 1978 a9bd
000002e0: 8769 af3d 3dde 8f3d fdb1 05bd 2949 a53c
000002f0: ee3c 64bd b61f d43c 7930 883d 138c 1dbd
00000300: 1845 083d f46c e13c 6201 9b3d ffb7 c2bd
00000310: 574a 40bd 74f6 31be ba37 633d d64d 14bd
00000320: 8292 24bf 0fc6 2b3e a638 483d 462a 523e
00000330: aef2 003d a00f c9bd c7c4 00bf 8dd1 ddbd
00000340: b003 513d 4013 4fbd 0dd4 d73c ce41 9fbd
00000350: b718 953d 270d 37bd e24c 8fbe 9406 683e
00000360: 9aa4 efbe 58f7 4b3d 731d 143b 7c69 d6bc
00000370: 2cc6 dabc 3001 0fbd ee26 ccbc ca69 07bd
00000380: 20cf 503e d28b 463d 56b0 84bd 95ab 0fbb
00000390: f9ee 503e d17b 80be 6a9d 4bbd 0eeb fcbe
000003a0: 7a32 dcbd 7eb3 ec3c cf7f 84bd 204f c8be
000003b0: f230 ae3c 83de 3f3d b7cc 2fbd 0248 013e
000003c0: bc2e 31bd 9aa9 27bd d27a fabc b1c4 f83d
000003d0: 6a74 f9bd 98bf 8ebd f63b febc d6c0 64bd
000003e0: 829d d53d 8fe9 a1bd d697 06bf 0a2d 9bbd
000003f0: 1f82 2bbe 18a4 e7bd bad7 8cbe e6e9 bfbe
0.02943149 -0.056804948 -0.12322741 0.060604855 -0.03560598 0.06572335 0.008772624 -0.05906593
0.050437707 -0.08282375 -0.059290394 -0.07487897 0.0024528054 0.019462494 -0.03956064 -0.056630015
-0.007967157 -0.13076842 -0.06524856 0.041416246 -0.03807502 -0.0320063 -0.09305362 0.060469713
-0.05904287 -0.055021234 -0.0635123 -0.014768954 -0.049351428 -0.072403654 0.06401765 -0.029692814
-0.095036276 -0.09394276 0.017953178 -0.107100576 0.039160732 0.08547675 0.06808884 -0.064055994
0.009750801 -0.08492243 0.040509272 0.022172641 -0.09517516 0.075657986 0.021983705 0.05430291
-0.021671377 0.081667125 -0.024875518 -0.04138653 -0.040182237 -0.045255765 -0.0017284983 -0.00077991193
-0.09053397 -0.049969897 0.06436603 -0.026079733 -0.079568826 -0.0025763698 0.003698662 -0.10171404
-0.09025808 3.7774444e-05 -0.047903433 0.021209024 0.068592645 0.043832913 -0.014898428 -0.053247083
-0.026232054 -0.05215496 0.0043781716 -0.12178229 0.045789294 0.0045908517 0.0414813 -0.082273506
-0.083821885 -0.038517274 0.08277457 -0.032989964 0.04886674 -0.057616156 -0.10572697 -0.079115026
-0.020439122 0.064322405 0.025579004 0.011138036 0.065916084 -0.09940914 -0.07290592 0.07366408
-0.093218185 -0.0104599465 -0.01937263 0.01714889 0.009649556 0.03200571 0.04828329 -0.047844015
-0.035556424 0.08407703 0.027572816 0.0029523978 -0.004353027 0.05267442 0.008449977 -0.058062885
0.032831892 -0.037488326 0.022245273 -0.018184716 -0.07794878 -0.08222617 -0.024475895 0.025464565
0.012703695 -0.0992164 -0.027047228 0.0019597677 0.020061715 -0.09144679 -0.0531873 0.0154182855
0.028680881 0.057763297 -0.06476082 0.001724386 -0.27627367 -0.014930248 -0.053625815 -0.050915416
-0.0015948704 0.0589357 0.06933619 0.005938346 0.040314034 -0.110505946 -0.030869404 -0.09934584
-0.73997176 -0.08861924 0.08698341 -0.019051448 0.07011891 0.26166737 0.07419127 -0.9953069
0.05572697 -0.053641547 -0.027427126 0.031425502 0.1980453 -0.46900755 0.008727046 0.0072787437
-0.13558 0.007995607 -1.0514652 -0.17812839 0.064153284 0.027310206 0.019472718 0.079415955
-1.2127261 0.0026706788 -0.34308338 -0.03342212 -0.7744714 0.07299567 -0.07037316 0.068290286
-0.07741732 0.04612482 -0.011644948 -0.0019733228 0.0678823 -0.2339037 -0.023529664 -0.0827486
0.085650496 0.070248105 -0.032640446 0.020176487 -0.05572217 0.025894027 0.066498704 -0.038463663
0.033269018 0.027517773 0.07568623 -0.09507751 -0.046945896 -0.1737917 0.055473067 -0.036207043
-0.64286053 0.16774772 0.04888215 0.20523939 0.031481437 -0.09817433 -0.5030026 -0.10830984
0.051028907 -0.050555468 0.02634623 -0.07776223 0.072801046 -0.044690277 -0.27988344 0.2265876
-0.4680527 0.049796432 0.002260056 -0.026173346 -0.026705824 -0.034913242 -0.024920907 -0.033059873
0.20391512 0.048473187 -0.06478946 -0.002192234 0.20403661 -0.25094464 -0.04971067 -0.49398082
-0.10751815 0.028894182 -0.0646969 -0.39122868 0.021263573 0.046843063 -0.04291984 0.12625125
-0.04325746 -0.04093323 -0.030576143 0.12146891 -0.12180407 -0.06970137 -0.031034451 -0.055847965
0.10430433 -0.07905876 -0.52575433 -0.0757695 -0.16748856 -0.11310595 -0.27508336 -0.37483138

fc3.bias f4 [64]
00000000: 9535 2fbe 1ebb 9c3e 480f 0bbd 7a5f f9be
00000010: b646 79be a6f1 45bf 409a 83bf 2878 81be
00000020: 8f43 a43e 0097 e4be f938 9fbe 88bf 003e
00000030: f412 5bbe bb31 d53e 36e2 1bbe b6a5 a7bf
00000040: f411 853e e157 833e 0a1d 0d3f 6893 df3f
00000050: 2515 2bbe b65c c83f b0e6 dd3d f66d 323e
00000060: 5ca6 8b3c 0fd3 8ebe dc85 08be 96ba a7be
00000070: f798 993d 9916 c43e 8a0f 17bf c259 32bf
00000080: e73f 243e 27af 4ebf ac7a 993e 35c3 66be
00000090: d949 a3bf fbce e1be 5332 34be 2f13 513e
000000a0: d651 08bf 09bb 1cbc 025a cfbe c409 c1bd
000000b0: bd53 b0bd ba7e 96bf 7b28 c63f 1f84 743e
000000c0: e105 863e 9929 243e 2c01 42bd 0c53 613e
000000d0: 4430 02c0 b8a7 853f 2c95 08bf 0ba6 e6bf
000000e0: 0103 f53c 108d 0dbf d798 02bf a253 5f3e
000000f0: 3f35 ee3d ef89 74bd 8fb6 a8be 001f 9b3f
-0.17110284 0.3061151 -0.03395012 -0.48705655 -0.2434338 -0.7732185 -1.0281448 -0.25286984
0.32082793 -0.44646454 -0.31098154 0.12573063 -0.21393949 0.41639504 -0.15223011 -1.3097446
0.2599026 0.25652984 0.55122435 1.746686 -0.16707285 1.5653293 0.10835016 0.1742476
0.0170471 -0.278954 -0.13332313 -0.3275954 0.07499879 0.3829849 -0.59008086 -0.6966821
0.16040002 -0.8073601 0.29976404 -0.22535403 -1.2756912 -0.44103226 -0.17597322 0.20417474
-0.5324987 -0.009566077 -0.40498358 -0.09425691 -0.08609722 -1.1757424 1.5481104 0.23878525
0.2617636 0.16031493 -0.0473644 0.22004336 -2.034196 1.0441809 -0.5335262 -1.8019422
0.029908659 -0.5529337 -0.51014465 0.21809247 0.1163125 -0.059701856 -0.3295178 1.2118835

fc4.weight f4 [6, 64]
00000000: e115 5ebc ca92 af3c 98d2 0d3c a30e 4bbd
00000010: 9ea2 60bd a9f2 90bc 9985 72bd 40ec b8bd
00000020: 05d7 343d 2ee7 f5bc bfc7 54bd 1ca6 a83c
00000030: 3088 c63c f715 823d e53a 12bd aae3 03bd
00000040: 461c 493c d6b5 4b3d be8d 983c 37d3 1a3d
00000050: 1e8d bd3c 6a32 b83c d3eb 833d 4b35 c53b
00000060: a061 dfbc 79e9 b0bd 4fe3 6fbd 28ca fdbc
00000070: 7189 663d 4bcb 143d b8c6 05be 70f3 593c
00000080: b6f1 273d fd58 cabc 12ab e63c 8015 d4bc
00000090: cbbb 73bd fb5f 01bd db53 ba3c daed adbc
000000a0: 6f74 32bd d2ae 12bc cecf e3bc e2c4 39bd
000000b0: d6b7 29bd ea54 c5bc c10b 9d3d a2c3 a63b
000000c0: 9ba3 82bc ae05 53bd 15ae 14bd 31ae 9f3c
000000d0: 59ee ccbd 8f98 e33c 645a 0dbe 8f2d 2e3d
000000e0: 10c1 55bb e480 603d dc03 51bd a094 323d
000000f0: 1260 efbc 90c8 473d 92f6 013d 14dd b03d
00000100: a1d4 9a3c a1d5 ee3c 7e78 773c 657c 60bd
00000110: 40c4 c1bd 3875 92bc cb63 68bd e51b 00be
00000120: a138 353d e425 00bd de47 14bd e551 a23c
00000130: 7f93 213d bdd5 2bbd 9633 b6bd 7d02 0bbd
00000140: 5101 1dbc 19c3 443d 9505 a33c 233a 193d
00000150: 1e55 e33c 7259 c33c 7984 803d 3ba1 d63c
00000160: 1c51 23bd 7c62 21bc 6bd7 b4bd 47cc 573d
00000170: 7f4f 693d ab16 273d 8249 0bbe fac1 db3c
00000180: 1d2d 103d 4dc9 d1bc 0d23 e13c 772d 9fbc
00000190: fab5 68bd 434e eebc 3bbe b63c d1b8 adbc
000001a0: 8eb6 2bbd baf0 74bc db66 f9bc bca6 bf3c
000001b0: c037 53bd 4d17 bfbc aa53 a23d 5cba 953d
000001c0: a55a b1bc 09f6 9dbd 8483 1cbd 7541 953c
000001d0: dc77 cabd 681d ee3c 9e66 c4bd 6091 443d
000001e0: fe7d 483c 77cd 443d 0bf1 85bd 68c8 573d
000001f0: b7d4 fbbc ba5b 9c3c d769 123d f630 ae3d
00000200: ce60 c03c 916d da3c 27e4 87bd 797c 07bd
00000210: 5c6b 24bd b7be 79bc 8b6c 4ebd 56bf b3bd
00000220: 27aa 193d 4ecc f6bc 42ce 2abd a07c b13c
00000230: 09ec 4dbb 470a 0d3d df87 e1bc 4ea4 10bd
00000240: 602d ee3b d71a ec3c 408e 8d3c 5803 1d3d
00000250: 1dd8 7bbc 6952 cc3c d867 883d 828d 1f3d
00000260: 57ce 89bd 6c8c b4bd 618b 97bc 37cf a9bc
00000270: 9e18 94bd ac5c 0d3d aec9 08be f576 13bd
00000280: c74a 123d 472d d0bc 10b4 e23c 74d1 fbbc
00000290: 0c1e 73bd 9f51 09bd bd10 b63c 382f aebc
000002a0: 900b 21bd a4a1 0fb9 357c e1bc e39f 3bbd
000002b0: 38a3 013d a977 aebc 953e 9b3d 9c75 783d
000002c0: 469c 2bbc 6ebd 453c bfcc 0cbd 598f ad3c
000002d0: f730 c6bd 0d7e dc3c 2b38 c83c 066e 443d
000002e0: 8cbc a3bd 548d 513d c3ef 55bd 19da 0a3d
000002f0: 671e 13bd 244f 3dbc 7695 013d ffd3 a83d
00000300: 2056 433d 2701 ef3c 3989 793c f4a6 40bd
00000310: 875b f8bd 6be9 e2bc 1218 70bd 4950 493d
00000320: 327d 403d 6bca 09bd 82d4 ed3c 0e08 973c
00000330: d3f1 0f3d 21c8 973d 36c1 5a3c 9b9e ffbc
00000340: 3821 72bd e287 5d3d 09b4 a73c cd6b 173d
00000350: be56 59bd ee99 b53c 6ff1 283d f286 e73c
00000360: 3cd8 efbc 0efa e73c 3999 4c3b e49a 9dbc
00000370: c8cd dabd 3124 073d 2696 03be bcd1 c83c
00000380: 1dc1 ae3c d73c c6bc 44f3 ce3c fd96 54bc
00000390: e782 64bd 0b81 d7bc 0e14 bc3c 5d93 aebc
000003a0: a4ff 45bd 7e36 f4bc c517 fbbc 056e 2dbc
000003b0: 4fea 80bd fd9c b3bc 9b2c a13d 7a93 89bc
000003c0: eb27 d5bc 7802 85bd 8729 25bd 7231 893c
000003d0: 548b c8bd 577b f63c 6d4f cabd 9d3f 243d
000003e0: ba68 b83b e029 543d 762b 48bd 72cc 1a3d
000003f0: 27c8 98bc 5c08 32be f6c7 0d3d ab93 a43d
-0.013555021 0.0214323 0.0086561665 -0.049574506 -0.054842584 -0.017693834 -0.05920944 -0.09029436
0.04415037 -0.030017462 -0.051948305 0.02058702 0.024234861 0.06351846 -0.035700697 -0.03219954
0.012274807 0.04973396 0.018622275 0.037799086 0.023138579 0.022484977 0.06441464 0.006018316
-0.02726823 -0.086382814 -0.058566388 -0.030980185 0.056283418 0.036326688 -0.13064086 0.013302669
0.041001998 -0.024700636 0.028157745 -0.025889158 -0.059505265 -0.031585675 0.022745064 -0.02123158
-0.04356807 -0.008952813 -0.02780905 -0.045353778 -0.041435085 -0.024088342 0.076682575 0.005089239
-0.015947154 -0.05151909 -0.03629883 0.01949224 -0.10006399 0.027782707 -0.13804013 0.042523917
-0.0032616295 0.05481042 -0.05102907 0.04359877 -0.029220615 0.048775256 0.03172929 0.08635917
0.018900217 0.0291546 0.015104411 -0.054806132 -0.0946126 -0.01787816 -0.056735795 -0.12510641
0.04424346 -0.031286135 -0.03620135 0.019814441 0.039447304 -0.041951884 -0.08896558 -0.03393792
-0.009582833 0.048037622 0.019900123 0.03740896 0.027750548 0.023846362 0.06275267 0.026199928
-0.039872274 -0.009850141 -0.0883015 0.05268505 0.05696058 0.040793102 -0.1360226 0.026825894
0.035199273 -0.025608683 0.027482534 -0.019430859 -0.05681417 -0.029090052 0.022307506 -0.021206291
-0.041922145 -0.014949972 -0.030444553 0.023394935 -0.05156684 -0.02332654 0.07926114 0.07310936
-0.021649668 -0.07712943 -0.03821136 0.018219689 -0.098861426 0.029066756 -0.09589885 0.047990203
0.01223707 0.04804751 -0.06540116 0.052681357 -0.030741079 0.019086707 0.035745468 0.08505432
0.02348366 0.026663573 -0.066353135 -0.03307769 -0.04014145 -0.015243224 -0.050396483 -0.08776729
0.037515786 -0.030126717 -0.04170061 0.021665871 -0.0031421205 0.03443363 -0.027530609 -0.035312943
0.0072685927 0.028821392 0.017279744 0.038333267 -0.01537135 0.02494164 0.066604316 0.03895331
-0.06728809 -0.08815846 -0.018499078 -0.02072869 -0.07231258 0.034512207 -0.13358185 -0.03600212
0.035715844 -0.025412215 0.027673751 -0.030739523 -0.059354827 -0.033525106 0.022224778 -0.02126275
-0.039317667 -0.00013697759 -0.027525047 -0.045806777 0.0316498 -0.021297293 0.07580296 0.060659036
-0.01047427 0.012069089 -0.03437495 0.021186518 -0.09677308 0.026915574 0.024440845 0.04795649
-0.07994947 0.05116017 -0.052230608 0.0338994 -0.035917666 -0.011554513 0.031636678 0.0824356
0.047689557 0.029175354 0.01523047 -0.04703422 -0.121268325 -0.027699193 -0.058616705 0.04914883
0.046994396 -0.033640306 0.029031996 0.018436458 0.03514273 0.074112184 0.013351729 -0.031203559
-0.05911371 0.054084666 0.02047159 0.03696804 -0.05306124 0.022168126 0.041245874 0.02826259
-0.029277913 0.028317478 0.0031219258 -0.019238897 -0.10683781 0.0329935 -0.12850246 0.024514072
0.021332318 -0.024198933 0.025262482 -0.012975452 -0.0557889 -0.02630665 0.022958782 -0.021310503
-0.0483395 -0.02981114 -0.030650983 -0.010585313 -0.06294691 -0.021925444 0.07869836 -0.016793955
-0.026020011 -0.064946115 -0.040322807 0.01674721 -0.097922 0.03008811 -0.098784305 0.04009973
0.0056277188 0.051797748 -0.048869573 0.03779263 -0.018650128 -0.17386001 0.034614526 0.08035978

fc4.bias f4 [6]
00000000: 1db0 f03e 298a ed3e d59f f13e fda2 ee3e
00000010: 4d7a f03e c5d7 ef3e
0.47009364 0.4639447 0.47192255 0.46608725 0.46968308 0.46844307
