checkpoints/2021_02_03-10_14_51/dqn-Pong-ram-v0.pt (torch, 301239 bytes, 8 tensors)

fc1.weight f4 [256, 128]
00000000: ca0c 35bd c3e0 3f3b cec6 87bd 9a87 083d
00000010: fdca 72bd a154 6c3d 7892 83bd cb04 8ebd
00000020: de07 84bd 377a bd3c cb9f 36bb 9533 1bbd
00000030: 932a b5bd 1399 8bbd c0c8 aebd 9e7d cabc
00000040: eb42 9bbd e068 383c 140f e9bc 8def a73c
00000050: e368 643d 1814 843c deff c53c e08d a03d
00000060: 7466 43bd 58d2 ab3c 592a 3cbd 48cb 633d
00000070: cee8 7e3d 365d b6bd a868 893d 4ff1 0d3d
00000080: c20f f73c 3690 e93c bf63 853d 1e06 a4bc
00000090: e92d aabd 7e07 0abd 058f 90bd c2c7 23bb
000000a0: 6787 cbbc ccf4 5ebd fdba 76bc a26a 9c3d
000000b0: 97e0 6abc 5e59 95bb 96a1 b3bc 1cb5 d53b
000000c0: 129b 903d 7fe0 4d3d 8632 fe3c 643c 263c
000000d0: 1e6d 613c 58b8 dd3c b385 f0bb af3d a8bd
000000e0: 5725 b0bd f983 9a3d 58eb d63b b773 a2bd
000000f0: 0eaf 16bc e710 873d 7e91 b9bd 0e94 8abd
00000100: a9bb 6dbd dc1c 97bb 7ab7 ebbc f5bf 71bc
00000110: 362f c1bd 31d6 f23c 5bc5 8d3d 59d6 393d
00000120: 9c4d 91bd a29d a2bd 1435 e83c eaa2 cbbb
00000130: 065b e43c 20e2 b0bd c9af acbb 5353 7f3d
00000140: 31f4 273d 0188 533b 0d5e 8e3c 841c 09bc
00000150: 9e0f 47bd 6cd0 08bd 6579 5cbd 385b 963d
00000160: 9d39 473d ea39 fd3c acd0 8abd b0ad 8b3d
00000170: 7807 e33c d774 7a3d 236c 0ebd 8d80 993c
00000180: 7cbe b03d 5487 733d 4a2d 913d 930b 98bc
00000190: 1dea 893d b9c7 8dbd b17f fa3b 00d9 4bbd
000001a0: a8dd a8bc 316f b9bc 00b3 d83b bdc0 a43d
000001b0: 513d 333d 7e4f c4b9 eb7e 803d 5b87 39bd
000001c0: 9b95 3a3d 8f4a 06bc a2fe 7bbc 598a 293c
000001d0: a6ad 8abd 4958 273c 5b76 f33c 59c2 9a3d
000001e0: bc6f e1bc e536 823c 8675 a63d 3811 39bd
000001f0: f707 9b3d efea 55bd c048 ff3c 5760 d73c
00000200: cd24 953c 9126 8f3d 51b1 0ebd 234d be3c
00000210: 9d46 7dbc 116d 95bd ead0 afbc 0aa8 c43a
00000220: adf1 d9ba 59b6 b0bc e09a 8b3d 8855 d1bd
00000230: 0e5a 8c3a d5fd 85bd d25c d5bd 4484 a23d
00000240: 4843 e23b fcce d3bd f82c f7bd 1b5b 71bd
00000250: f155 cebd 7a3b b1bd 84a4 6bbd 8b83 15bd
00000260: 5ea8 7838 0dc1 5e3d 9fbd e33c 7dd0 7a3d
00000270: f5e0 7dbd 96dd 7f3a 3e2e aebd b421 353d
00000280: 1596 433c 12cf a13d f204 8ebd 89e3 833d
00000290: 9f8b 8b3d d314 853d 65d8 c83b 3952 973d
000002a0: f939 573d 6490 733d fe45 48bc 4a30 98bd
000002b0: 1577 f8bb ce5e 253c 0595 88bd b43b 6abd
000002c0: d7d3 babd beb9 81bd 8705 693d 8f71 35bc
000002d0: 27a8 42bc 7531 40bb c7ab d43c 01da 9fbd
000002e0: 5ef5 77bd fbbb f0bc 2444 7bbd f32d 203d
000002f0: aa29 523d 4ce7 bcbd bce6 a6bd 498e bdbd
00000300: ede1 3d3d 146b 843d a4a0 99bd ba3f 17bd
00000310: 104e b13c ae9d 97bd 067f 8c3d 0a0f 513c
00000320: f3ae febc 8be7 34b9 e4a1 ac3c 2194 1abd
00000330: 388a 99bd 37be 1b3a 4006 d33a 629e e93a
00000340: 6354 53bc 9874 683d 780f cabc b92b 0cbc
00000350: a7dd 143d 72e1 63bd c1e0 c13c d91a a0bc
00000360: 0da9 2d3d a164 44bd e715 563b 09ac 0d3c
00000370: c4a5 91bd 76a0 83bd bed8 0a3d 57bf d2bc
00000380: 7803 573d 7dd2 b2bd 51f7 32bd 4619 95bd
00000390: c59f 103d 90ef 27bb 510e 87bc 73ee 70bc
000003a0: 5a7e 8dbd 3d58 cd3c c562 103b fad8 79bd
000003b0: 0f3b 083d 29da e8ba 8a12 afbd 78bf 423d
000003c0: 59a6 413d 6c6c 88bc 1ef7 79bd ec92 683b
000003d0: f297 883d b7b1 a53d 32a2 88bd 8a85 23bd
000003e0: 32f2 8c3d 4317 423d 1308 523d 97c0 4ebd
000003f0: b0ad 8e3d f615 a2bd 67f9 2fbc ab4e 98bb
-0.04420165 0.0029278256 -0.06629716 0.033332445 -0.059275616 0.057697896 -0.06424421 -0.06934508
-0.06446813 0.023129566 -0.002786624 -0.03789099 -0.08846011 -0.06816306 -0.08534384 -0.024718102
-0.07581123 0.011255473 -0.028449573 0.020499969 0.05576409 0.016122863 0.024169859 0.078395605
-0.04770513 0.020974323 -0.045938823 0.055613786 0.06223374 -0.08904497 0.06709415 0.034653958
0.030158881 0.028511148 0.06513166 -0.020022448 -0.08309538 -0.03369855 -0.07058529 -0.002499089
-0.024844838 -0.054432675 -0.01505923 0.07637526 -0.014335773 -0.0045577725 -0.021927636 0.006521834
0.07060827 0.050262924 0.03102995 0.010146234 0.013758926 0.027065441 -0.007340157 -0.0821489
-0.08600872 0.07544703 0.006558817 -0.07932227 -0.00919701 0.06595021 -0.090609536 -0.067665204
-0.058040295 -0.0046115946 -0.028774012 -0.014755239 -0.09432833 0.02964315 0.06922408 0.045370433
-0.07094881 -0.07940222 0.028345622 -0.006214489 0.027875435 -0.0863688 -0.0052699787 0.062335324
0.041004363 0.003227711 0.017378831 -0.008368615 -0.048598878 -0.03340189 -0.05382671 0.07341617
0.04863893 0.030911405 -0.06778082 0.06820238 0.027713522 0.061146583 -0.034771096 0.018738056
0.08630082 0.05945523 0.07088716 -0.018560207 0.06734107 -0.0692286 0.0076446165 -0.049767494
-0.020613506 -0.022636028 0.0066131353 0.080445744 0.043759648 -0.0003744326 0.06274208 -0.0452951
0.04555283 -0.008196487 -0.015380533 0.010347926 -0.06771402 0.01021392 0.029719522 0.075566
-0.0275191 0.015895316 0.081278846 -0.045182437 0.075698785 -0.052226003 0.03116262 0.026291056
0.018206025 0.06989778 -0.03483707 0.023230141 -0.01545873 -0.072961934 -0.021461923 0.0015003693
-0.0016627811 -0.021571325 0.068166494 -0.10221392 0.0010707991 -0.06542555 -0.10418095 0.07935384
0.006904993 -0.103422135 -0.12069124 -0.058924776 -0.10074986 -0.086539224 -0.05752994 -0.036502402
5.928461e-05 0.054383326 0.02780038 0.061233986 -0.061982114 0.0009760497 -0.08504914 0.044221595
0.011937638 0.07900824 -0.06934537 0.06439883 0.0681374 0.064981125 0.006129312 0.073887296
0.05254552 0.059463874 -0.012223719 -0.074310854 -0.007582555 0.010093404 -0.06669048 -0.057185844
-0.091224365 -0.06334256 0.056890037 -0.011074438 -0.011880911 -0.0029326354 0.025960816 -0.07805253
-0.060536735 -0.029386511 -0.06134428 0.03910632 0.051309265 -0.09223804 -0.08149478 -0.09255654
0.046358038 0.06465736 -0.07501343 -0.03692601 0.021643668 -0.07403122 0.06860165 0.012759933
-0.031089282 -0.00017252394 0.02107329 -0.037738923 -0.07497066 0.0005941125 0.0016099885 0.0017823691
-0.012898537 0.056751817 -0.02466558 -0.008555346 0.036344197 -0.055634923 0.023666741 -0.019544052
0.042397548 -0.04794753 0.0032666863 0.008646973 -0.071116954 -0.0642709 0.033898108 -0.025726004
0.052493542 -0.08731554 -0.04369289 -0.07280211 0.035308618 -0.0025624968 -0.016486319 -0.014705288
-0.06908865 0.02506649 0.0022031527 -0.06099794 0.033259448 -0.0017765212 -0.08548458 0.04754588
0.047277782 -0.016653262 -0.061026685 0.0035487963 0.06669606 0.08090537 -0.06671561 -0.039922275
0.068821326 0.047385465 0.05127723 -0.050476637 0.06966722 -0.07914345 -0.0107406145 -0.00464805

fc1.bias f4 [256]
00000000: fbf8 323d b398 51bd 8ec3 babd fe4e dfbc
00000010: 7b0e 0b3d febd 28bd c0e4 b5bb fbe0 dfbc
00000020: ce79 1abd 6277 8ebd 2ff1 16bd bbfe 78bd
00000030: 08e2 37bd c9b5 6d3b 1299 8e3d ee54 76bd
00000040: d13b 5cbb 7e01 77bd 0da7 fd3c 2390 893d
00000050: fa5a b0bc 1525 013b de8e 48bd 6cd5 74bd
00000060: 0561 2a3d a691 27bc 6fee 8e3d eaf1 76bd
00000070: df16 b73d 8519 843d 8e18 913d 38c9 1a3c
00000080: 6737 77bd cf1b 84bc 915f b83c 14c8 91bc
00000090: b54d b6bd 6277 4dbd f707 05bd 7f0a c63d
000000a0: 5d47 1dbd 501f 96bd 6e22 3f3d 9b15 903d
000000b0: 20df 143d 798b 893c e8f3 d6bd d4dd 88bd
000000c0: 300e a7bd 8308 643d 692a b23d 9473 2d3d
000000d0: 9a2a f7bd 23d1 c1bc e010 8b3c a98a a13d
000000e0: 126c 5abc c1ab a1bd 2d24 cbbd 4f32 2c3d
000000f0: c1a5 493c 6df2 42bd 8f7e a43d dda9 d3bd
00000100: 6a37 6b3d 7a7f 5ebb 75e6 32bd 154e 91bd
00000110: 70e7 51bd e90f 313d 55fd d6bc 653b 8b3d
00000120: 6e0b 15bd ef7f f8bc 6865 5ebd 9ef4 6f3d
00000130: 806d ae3b 0b51 953c 6762 7cbd 513b 2d3d
00000140: 0dda 753d eda7 d5bc 01eb 263d 5715 b13c
00000150: 5a83 abbc b520 bc3c 7ceb 2fbd b98c 99bc
00000160: 10aa 74bd 98bd a0bd 2f08 c13c 9f87 89bd
00000170: 2b84 7739 c6db a23c a85a c1bc bea8 0bbd
00000180: e360 abbd 7851 923d 0fbc 90bd e97e b03c
00000190: 84fc 83bd f796 403d f496 70bc 7dec 0abd
000001a0: 4b9f bebb d1be 683d 4bf7 1f3c 1e5a 06bd
000001b0: f546 ac3a f36f 9cbd 3f9a aa3d e80a 8abd
000001c0: 6fde ac3d b6d7 59bd 49b0 89bc be9b bb3c
000001d0: d61b febc 1a1c 0f3d a93a 673d 1d7b 3dbc
000001e0: c4ea 953d e7ee a7bd 617c 50bd ad43 193d
000001f0: fb77 a2bb 538f b0bd 07b5 383d 3fc8 f3ba
00000200: 9c7f 8ebd 97fd 94bd 18cd cabd 0609 df3c
00000210: d066 b73c ccb6 b3bd 1bf0 1abd ad31 afbd
00000220: a251 4cbd 95a6 3a3c 3ca6 5a3d f685 65bd
00000230: 9754 d7bc 4e32 92bd a19d e03c d77b 76bb
00000240: c878 423c 3611 053d 91c1 1b3c 4759 cbbd
00000250: 59c6 d4bb f1aa ac3d 3b62 9e3c 3715 00be
00000260: 5989 7d3b 0f43 883d 67de 653c a770 143b
00000270: 90fa 733d ce99 67bd 66ec 963d 361c 9b3d
00000280: 01dc 62bd deb8 1f3d f0b8 623c 35f4 95bd
00000290: ab7a 82bc 3b80 f3bc 506b ab3b f948 a03d
000002a0: 9f72 dfbc 2631 ce3c 672a 9fbd b813 963d
000002b0: 332b 9a3d 723d 84bd eeb1 993c 771a 36bd
000002c0: 4cb1 fabc 792f a63d 38f5 a33c 94a5 07bd
000002d0: 3988 903d 4f08 543d f0fb 3fbc fb41 963c
000002e0: 1736 a2bd fd31 75bd 05d7 74bd 2e74 a1bd
000002f0: 9859 fdbc 6f62 9c3b 5db0 6c3d 8fc0 e53d
00000300: db68 783d abf3 59bd 4d0a 98bb b066 48bd
00000310: 9a63 10bc 9f68 91bd c8cc 9a3c cc3a 233d
00000320: 81c6 6fbd eea2 293d 858c 693d 3b21 d8b9
00000330: de30 acbd 14ac 79bd a5dd a03d d458 03bd
00000340: 3708 1dbd da95 74bd 3281 1fbc 111b 2e3a
00000350: 834e 023d 183c 2d3d 2505 ffbc 06e5 f7bc
00000360: bbc2 b1bd 6671 65bd 7202 eb3c c2ce 25bd
00000370: 1a87 933b 0681 07bd 08b2 04bd 4fd5 923d
00000380: 93c1 d4bd 034e 1e3c 32e4 843a 1577 91bd
00000390: 4dc3 36bd e98e 5d3c 706c 6dbd 5823 b93d
000003a0: 5d35 bbbd fb7f 01bd 8ac9 d83c c889 bcbd
000003b0: 6bde 1b3c 6360 a4bd 9fa1 ccbc 57a4 f73c
000003c0: c7f0 673c 706a 683c e4bf cebd 15b8 bfbc
000003d0: 149e 6a3d acbd 39bd 6f89 abbd fc6b a5bc
000003e0: b5cb f1bc dd4a 83bd 00ae 29bd a57e 343d
000003f0: 336a debd 2f66 9e3d d8a7 7d3d 55f8 8e3d
0.043694478 -0.051171016 -0.0911933 -0.027259346 0.033949357 -0.041196816 -0.0055509508 -0.027328959
-0.03771382 -0.06956364 -0.036851104 -0.060789805 -0.044893295 0.0036271682 0.069627896 -0.06013959
-0.003360499 -0.060304157 0.030963445 0.06716945 -0.021527756 0.001970594 -0.048964374 -0.059773847
0.04159643 -0.010227596 0.06979071 -0.0602893 0.08939909 0.0645018 0.070847616 0.009447388
-0.06035557 -0.016126541 0.022506507 -0.0177956 -0.0890154 -0.05016268 -0.0324783 0.09669971
-0.038398135 -0.07330191 0.046663694 0.07035371 0.0363456 0.016790139 -0.1049574 -0.06682935
-0.08157003 0.05567218 0.08699495 0.042346552 -0.120686725 -0.023659294 0.01697582 0.078877755
-0.01333143 -0.078940876 -0.09919009 0.042040166 0.012307585 -0.047594476 0.08031952 -0.10335133
0.057425894 -0.0033950494 -0.043676812 -0.07094971 -0.051246107 0.043228064 -0.026243845 0.06798438
-0.036387853 -0.030334441 -0.054295927 0.058582895 0.005323112 0.01822712 -0.06161728 0.042292897
0.060022403 -0.02608105 0.04075146 0.021616621 -0.020936657 0.022964815 -0.042949185 -0.01874386
-0.059732497 -0.07848662 0.023563473 -0.06715321 0.00023604992 0.019880187 -0.023602799 -0.034096472
-0.08368089 0.07144445 -0.07067119 0.02154489 -0.06444648 0.04701897 -0.0146844275 -0.03391694
-0.005817329 0.0568226 0.009763549 -0.032800786 0.0013143705 -0.0763854 0.08330201 -0.067403615
0.08440863 -0.053184234 -0.016807692 0.022901412 -0.031019133 0.03493891 0.056452427 -0.011564997
0.073201686 -0.08199864 -0.050899867 0.037418056 -0.0049581504 -0.08621087 0.045094516 -0.0018599107
-0.06957933 -0.07274931 -0.099024 0.027225982 0.022387892 -0.087751 -0.03782664 -0.08554397
-0.04988254 0.011392255 0.05338119 -0.05603596 -0.026285453 -0.07138501 0.027418913 -0.0037610435
0.011869617 0.032487117 0.009506599 -0.09929138 -0.0064933714 0.08431042 0.01933395 -0.12508093
0.0038686602 0.066534154 0.014030076 0.0022650154 0.059565127 -0.056543164 0.07369308 0.0757374
-0.055385593 0.038994662 0.013838038 -0.073219694 -0.015927633 -0.029724231 0.0052312985 0.078264184
-0.027276335 0.02516992 -0.077717595 0.0732798 0.07527771 -0.06457032 0.018761601 -0.044458833
-0.03060212 0.081145234 0.02001439 -0.033116892 0.070572324 0.051765736 -0.011717781 0.018342009
-0.07920473 -0.059862126 -0.05977537 -0.07883488 -0.03092651 0.0047724764 0.05778538 0.11218368
0.060646873 -0.053210896 -0.0046399 -0.048926055 -0.008812809 -0.07100033 0.018896475 0.039850995
-0.058538917 0.041415147 0.057018775 -0.0004122349 -0.08407758 -0.060955122 0.07854775 -0.032067135
-0.038337912 -0.059713222 -0.009735392 0.00066416065 0.031813156 0.042293638 -0.031130383 -0.030260574
-0.0867972 -0.05601635 0.02868769 -0.040480383 0.0045021893 -0.03308203 -0.032396346 0.07169592
-0.10388484 0.009662154 0.0010138808 -0.07102791 -0.044619847 0.013522842 -0.057964742 0.090399444
-0.091410376 -0.031616192 0.026463289 -0.09205967 0.009513478 -0.08026197 -0.02497941 0.03022973
0.014156527 0.014185533 -0.10095194 -0.023403207 0.05727966 -0.0453469 -0.08375823 -0.020193093
-0.02951608 -0.064107634 -0.041425705 0.04406609 -0.108601 0.07734334 0.061927646 0.06980959

fc2.weight f4 [128, 256]
00000000: 1980 be3c f17f fdba 32ba 09bd f1cd 1e3c
00000010: bc06 2b3d dbeb 01bc 6872 803c 891d 68bd
00000020: f9a6 17bd 5bd9 4d3d 100e c8bb 4597 90bd
00000030: c527 053c 9010 ecbe 2a37 2e3d 6220 793d
00000040: d417 493d b58d b93c 9550 56bd b814 2c3c
00000050: da16 053d c09e 07bd 0b9e 193d 78d4 eb3c
00000060: 345c f03c 662e 6fbd 4025 48bb 5c17 81bc
00000070: ed34 3dbe 484d 013c b076 c93b d154 2f3d
00000080: a851 1ebc 8c02 80bd dfcc 24bd 5efa 523d
00000090: 6910 95bc dd7d 2c3c 605f adbc 6d34 9b3d
000000a0: 44ff c1bc f635 043c eeb0 673d 47a1 e63c
000000b0: e0d3 623b 7eb2 69bd 0eab db3d 12af 2cbd
000000c0: 0ad5 cbbc 0436 963c 18dd 1bbd ec12 593d
000000d0: d21f 1abd 883b 8cbc 9bd4 b73c 8a7b 7ebd
000000e0: dc6a 71bc 9a23 11bd a5a0 bc3c 1b96 2e3d
000000f0: 08ad f9bc e6d2 2bbd abb9 7f3d 5ac7 02bd
00000100: f845 693d 796e 433d 7221 9dbc cc30 5bbd
00000110: c71d 8dbd e06b fcbc 40c0 503c d0b4 293c
00000120: 0415 1c3d fcfe 4ebc 5405 c0be 60dc c2bc
00000130: 6422 223d d8a1 e63c a135 403d 34f5 8fbc
00000140: 7e13 80bd 8b75 6fbd 40e5 16bd b841 b93c
00000150: 0063 8b3c 5ff3 77bd 0999 2f3e 900b a6bb
00000160: 81a7 32bd 84a2 a8bc f793 083c 66e5 11bc
00000170: 2626 8abd e5b9 9b3c bc6e 513d 98fb 56bd
00000180: 6410 7e3c 3021 603d 68b6 40bd 73e4 54bd
00000190: 6a44 253d 4ea5 503d 1001 1cbc 50a2 4cbd
000001a0: 6428 863b 9c38 753d a8b3 4ebd 3502 f9bd
000001b0: 90ca c6bc 092e 5b3c 705a e1bb 1489 2bbd
000001c0: 5e03 debd 5094 95bb 0038 1d39 ed8b 3e3c
000001d0: 12ba 22bd 4c44 01bd a08c e8bb ab77 6e3c
000001e0: 202d dcbc 0590 64bd 0f54 46bd 8087 a8bc
000001f0: 30c1 c7ba 2807 f8bc 0d05 c13c 001c c43c
00000200: 1847 1f3d 445f 4fbd fe46 fa3c 0c4b 02bd
00000210: 3085 583d 0029 c7ba 3728 853c faa5 7ebd
00000220: 9276 08bd 77a9 05bd a87a 6d3c 1adc 2fbd
00000230: 68aa cc3c 8f03 953c ea07 d8bd 2f9b 3cbd
00000240: 2eac 523d dcd8 a6bc 3e52 3dbd f7c7 fcbb
00000250: 8e08 9b3b 6cd2 433d 1a1e 31bd 2d76 bcbe
00000260: 7f40 06bd 3007 4fbd 87a8 30bd 3f07 b3bd
00000270: b331 f53c c20c 7abd 7374 4dbd dcec 91bd
00000280: 0095 f23c 0cf9 bbbc 4aa5 99bc 0452 e53c
00000290: 35d9 f7bd 3339 11bd e66c 673d 1e38 3bbc
000002a0: 22a8 c8ba b758 cc3c 9b05 49bc b4b2 4f3d
000002b0: 0c54 56bd 10ea d6bc 5196 013d 484b 64bd
000002c0: 20c2 30bd 30fa 163d 4ede 4d3e add5 833d
000002d0: a61c 213d 4698 cc3b 45b5 573d 5873 babb
000002e0: ef58 033a 9c94 15bd d036 19bc faed 183d
000002f0: 4d5d 393d c3ca f6be 3221 3b3d db97 8d3d
00000300: ba46 b3bc 3d0d 02bb f61b 22be 5c6c 183d
00000310: a053 1bbb f0bb 4d3d 5448 10bc d0be 56bc
00000320: eeab bc3c 8d74 a3be 987c b43c e55e 0abd
00000330: 190b 60bd def6 4b3d e09f 64bd 40d1 ebbc
00000340: 0eee 0d3d 6833 03bd 525d 1bbc 8ffd edbc
00000350: 9f62 473d e3cf 3d3d 4fbf 793d 0add ffbd
00000360: 1e27 72bd c825 69bc 0a1d 803c 0cd0 0f3d
00000370: 2cb9 d2bc 1083 e5bb 2f7b cb3c 8067 a23c
00000380: 7bcc 8abc e075 193c c1e6 69bd 8439 babc
00000390: a868 acbc e6ed f5bc 0352 bb3c b474 36be
000003a0: aa65 58bd 06f6 7bbc 82dd 7fbd 9714 05bd
000003b0: 8d9e b0bd 38cf 11bc a8df 193c e6bb 673d
000003c0: 0fba 92bd e292 243d 980f 53bd 9c30 35bd
000003d0: 705f 48bc 74d7 8ebd c0f4 a93c 2652 613d
000003e0: 3ee1 4d3d f451 25bd 48ea 653d a889 8e3c
000003f0: 8d75 023d 2262 793d ad4f f7bd 5cd5 f1bc
0.023254441 -0.0019340498 -0.033624835 0.009692655 0.04175447 -0.0079297675 0.015679553 -0.056668792
-0.037024472 0.050256114 -0.006105192 -0.070601024 0.008127158 -0.46106386 0.042533077 0.0608219
0.04909499 0.022650579 -0.052322943 0.010502987 0.032492496 -0.03311038 0.037504237 0.028787836
0.02934084 -0.05839386 -0.003053978 -0.015758209 -0.18477221 0.00789196 0.006148182 0.042805497
-0.009663023 -0.06250486 -0.040234443 0.0515083 -0.018196302 0.010528055 -0.021163642 0.07578359
-0.02368129 0.008069506 0.056565218 0.028153075 0.003461115 -0.05705499 0.107259855 -0.042159148
-0.024881858 0.018336304 -0.03805265 0.05299656 -0.037628002 -0.01711823 0.022440245 -0.062129535
-0.01473495 -0.035434343 0.02302582 0.04262362 -0.030478016 -0.041949175 0.062432926 -0.031928398
0.056951493 0.047712777 -0.019180987 -0.053513333 -0.06890445 -0.030813158 0.0127411485 0.01035805
0.03810598 -0.012634035 -0.37504065 -0.023786724 0.03958358 0.028153345 0.046926145 -0.017572977
-0.06253718 -0.058461707 -0.036839724 0.022614345 0.01701498 -0.06053483 0.17148222 -0.0050672963
-0.043616775 -0.020585306 0.008336059 -0.0089047905 -0.067455575 0.01900954 0.051130995 -0.052486032
0.0155068375 0.05471915 -0.047048956 -0.05197568 0.040348448 0.050938897 -0.009521738 -0.04995948
0.0040941704 0.05986844 -0.050464302 -0.12158624 -0.024266511 0.013377675 -0.006877236 -0.041878775
-0.10840486 -0.0045647994 0.00014993548 0.011630041 -0.03972823 -0.031559274 -0.007096842 0.014554898
-0.026876986 -0.05580141 -0.04842001 -0.020572424 -0.001524007 -0.03027685 0.023561979 0.023939133
0.03888616 -0.05062796 0.03055143 -0.03180985 0.052861392 -0.0015194714 0.016254527 -0.062170006
-0.033316202 -0.032632317 0.014494576 -0.042934515 0.0249836 0.018190173 -0.105483845 -0.046046432
0.051433735 -0.020367078 -0.04622101 -0.0077142674 0.0047312444 0.047808096 -0.043241598 -0.3680891
-0.032776352 -0.050543964 -0.04312947 -0.087416165 0.029930925 -0.061047323 -0.050159883 -0.071252555
0.029612064 -0.022945903 -0.018755574 0.02799321 -0.12101976 -0.03545494 0.056500338 -0.011426954
-0.0015308897 0.024944646 -0.012269403 0.050707534 -0.052326247 -0.026234657 0.031637494 -0.055735856
-0.043153882 0.03685969 0.20104334 0.0643724 0.039333962 0.0062437383 0.052663106 -0.0056900196
0.00050105056 -0.036518678 -0.009351447 0.037336327 0.045254994 -0.4820157 0.045685954 0.0691373
-0.021884311 -0.0019844316 -0.15830979 0.037212715 -0.0023700967 0.05022806 -0.008806307 -0.013107017
0.023031201 -0.3192486 0.022032067 -0.033781905 -0.054698084 0.049795978 -0.05581653 -0.028786302
0.034650855 -0.032031447 -0.0094826985 -0.02905157 0.048678037 0.046340834 0.06097346 -0.12493332
-0.059119336 -0.014230199 0.015638847 0.03511052 -0.025723062 -0.0070041493 0.024839012 0.019824743
-0.016943207 0.0093664825 -0.05710483 -0.022732504 -0.021045998 -0.030020665 0.022866255 -0.17817956
-0.05283133 -0.015378481 -0.062467106 -0.03249034 -0.08623991 -0.008899502 0.009391703 0.05657568
-0.07164394 0.04017914 -0.051528543 -0.04423581 -0.012229785 -0.06974688 0.020746589 0.055009983
0.050263636 -0.04036136 0.05613163 0.017399624 0.031850386 0.060884602 -0.12075744 -0.029520683

fc2.bias f4 [128]
00000000: 77ec efbd 0b03 e3bc a91b 49bd 90a2 f33d
00000010: 7e8f c53d 0f63 0ebe 2113 8cbd d123 bebe
00000020: 3242 a3bc 4e4a 55bd d7c5 41bc 8556 fb3d
00000030: b2e5 ff3c 481c 033e 680d 65bd e29c 073e
00000040: ec14 babd a0c0 943d 78bb 563c 4435 98bd
00000050: 6e0b 4b3e fe03 ea3e e655 55be 6c98 4a3e
00000060: abe0 0fbe 4ede 9e3e 6709 153d 5cf0 cfbd
00000070: d898 6fbd d2e9 5bbd ff06 c4bd 14f5 f03e
00000080: adb0 40be 2dfa 8d3d 9c3d 483e a0b9 02be
00000090: 905e 73bd c189 b83c 69b9 fabd 35d8 ffbe
000000a0: 30bb 05be 1180 fb3d 742b 13be b04a 0abf
000000b0: b34c e4bd c7a3 043c 5c0e 18be 9f78 bf3c
000000c0: f34f ecbc ec29 ddbd d6c6 15be 7536 8ebd
000000d0: 05b7 84bd a4c1 7dbc 62ba cebd eaf1 01be
000000e0: d393 d1bd 3606 bdbb 6201 db3c 1f38 e83e
000000f0: e3bb a23a cb28 74be 6be6 28bd 1987 86bd
00000100: 0800 c9bc 9c8b 5bbd 570e 88bd 5235 05bc
00000110: bf78 93bd 20d7 ffbd fded 833e 69a9 b0ba
00000120: 8ad0 823e 3a98 a63d 8c5e d7bc c504 92bd
00000130: b564 4fbd 3924 4fbe 9ff9 b23e 0eec 6d3d
00000140: 0f0e 17bd b970 063d 5ab6 343b 24ee 7fbd
00000150: 0c51 c9be c648 b7bd 58ce a63d 513b efbe
00000160: f168 023e d186 813e 4b6b 3d3e 6b09 5e3e
00000170: 751d 66be c29e f0bd 6b0a 333d e10d a0be
00000180: db27 dabc 9d64 e43d 8a47 33bd 7f24 5f3d
00000190: 3801 cdbd dd8d afbd 12b3 95be dbbe bfbd
000001a0: ac9c 003e 94e8 0a3d a828 2dbe 3736 16bd
000001b0: 54e6 08bf 15af c53c 6b9f f6bd f705 ecbb
000001c0: 952b 41bd 0ac0 17be b7d3 fabd f8f8 8fbb
000001d0: 1534 b0bd 1e24 03be ca4a a3bd 84c0 2bbe
000001e0: 6625 6a3d d729 9dbe e36f 35bd afd3 01bb
000001f0: 5180 bfbe 740e 9fbd cb47 2ebd 4632 7dbd
-0.11715024 -0.027711412 -0.049098644 0.11896241 0.096465096 -0.13904975 -0.06839586 -0.371367
-0.019929025 -0.052072816 -0.011826954 0.12272362 0.031237457 0.12803757 -0.05592099 0.1324344
-0.09086022 0.07263303 0.0131062195 -0.074320346 0.19828579 0.4570617 -0.20833549 0.19784707
-0.14050548 0.3102898 0.03638592 -0.10153267 -0.058495373 -0.053689785 -0.09571647 0.4706198
-0.18817396 0.06932483 0.19554752 -0.12766123 -0.059416354 0.022526624 -0.122423954 -0.4996964
-0.13059688 0.12280286 -0.14372045 -0.54020214 -0.11147442 0.008095688 -0.14849228 0.023372946
-0.028846717 -0.107990116 -0.14626631 -0.069439806 -0.06480221 -0.015488062 -0.100941435 -0.12689939
-0.10233273 -0.0057685627 0.026734058 0.45355317 0.0012415614 -0.23843686 -0.04123537 -0.065687366
-0.024536148 -0.05359994 -0.0664336 -0.008130388 -0.07200765 -0.12492204 0.25767508 -0.0013478223
0.25549728 0.08134504 -0.0262902 -0.07129816 -0.05063315 -0.20228662 0.3495607 0.058086447
-0.03687864 0.032822344 0.002757451 -0.062482968 -0.39319646 -0.08949427 0.08144826 -0.46724942
0.12735344 0.2529817 0.1849796 0.2168328 -0.22472174 -0.11749031 0.043711107 -0.3126059
-0.026630333 0.11152003 -0.043769397 0.054478165 -0.10009998 -0.0857198 -0.29238182 -0.09362575
0.12559766 0.03391321 -0.1691004 -0.036672797 -0.5347645 0.024131337 -0.12042125 -0.0072028595
-0.047160704 -0.14819351 -0.12247413 -0.004393693 -0.08603684 -0.12806746 -0.07973249 -0.16772658
0.057164572 -0.30695984 -0.044296157 -0.001981001 -0.37402585 -0.077664286 -0.042548936 -0.061815523

fc3.weight f4 [64, 128]
00000000: 6fb3 713d 685e 6abd d38d 63bd 9fd3 54be
00000010: 448e 26be ce10 9a3d 1a07 1e3e 0291 e3bc
00000020: 35e4 503d 0ae4 16be 3f53 d1be 1b1d bcbe
00000030: df91 c7bc c04f 273d 7354 6ebd cc4d 54be
00000040: 9770 083e e44d 2dbe 169d bf3b bdf1 85bd
00000050: 0c31 62be 5f6d 2ebe 6868 1abd 275b 683e
00000060: eab7 f2bd 2823 06bd f9f5 ca3d 0240 f9be
00000070: fb18 35bd 8939 c3bd 0152 853d 81d6 1bbe
00000080: 3d2d 18bd 6fc8 03bd 9826 a03e 396e 2dbe
00000090: 126d 21be 6f01 653d 2a72 8b3d 7e43 b1bd
000000a0: 4c2d 6abd dc42 b0bd ecd3 a63b e8b3 2cbe
000000b0: fc59 70be 4ade f5bd 04c6 11be bb13 90bd
000000c0: 5d19 9dbc bc6d 61bd 115a 7d3c 954c cdbd
000000d0: 2196 24bd 527a cc3c 547e 393c c6c0 0d3d
000000e0: fd56 93bd ba49 fabd dbae bdbe f10d 993c
000000f0: fbf4 a2bd 6c64 85bd 04ee 48bd ac30 62be
00000100: 033e a7bd fc2f b6bd d32d 0ebd bb6c a23c
00000110: 8473 863d 8f74 a0be 74c4 6bbe 06b9 8dbe
00000120: 9b6e 033e 49c3 c33d 0ef9 4ebe 2d9f a5bd
00000130: 0b6f 893b 4b72 133d 87a5 78bd ca00 033e
00000140: b699 0dbe e752 0dbe 551c e93d 16cc 6e3e
00000150: a678 343b 8782 1fbd c7e7 fcbd 8ce3 80be
00000160: e5d1 87bd 7771 8bbe 69b1 b1bd 566b b03e
00000170: b03d aabe 48a8 a5bd 49bb bfbd 4d82 95bc
00000180: 8f40 06bd e482 b9bd 6ce1 52be f075 94bb
00000190: 4e97 623d dc03 3c3d 6646 193d 40b3 abbd
000001a0: 9d99 17be b036 d1bd b175 b1bc 523b 56bc
000001b0: 5234 95be 20c1 573d 5a67 8cbe 6243 9fbd
000001c0: 655e fd3c 83eb e4bc b93b b63c 6728 cf3c
000001d0: d9ce 343d c046 993d cd96 9dbd fc9d a33c
000001e0: 45a2 3ebd c732 e4bc a29e 05bd 5540 0e3d
000001f0: 24ea 1fbe 89ac d3bd b3a8 28be 136b d83c
00000200: 5a16 c93c 1bd8 213d 462d 6bbd 68e3 b5bd
00000210: b864 c5bd a512 efbc 76ed e2bd c93d f3bd
00000220: f845 06bc a1a9 b73d dfd7 603d e937 8ebd
00000230: 004a 5f3d 1791 55be 8081 5ebe ec4c 99bd
00000240: f163 3abc 3d41 02bd 4585 97be c911 9cbc
00000250: 13a9 fbbb 0e7d 97bd 1709 66bd e072 773d
00000260: 55e8 78bc c2be f1bd 945a 60be 4bad 41bd
00000270: c201 e53c 1661 fabd a7f1 f2bb a8d6 c3bd
00000280: cf5e 98bc c812 093c 5371 cebd 6ed9 92bd
00000290: 9533 88bd a085 4b3c eda5 1d3d cf2a eebd
000002a0: 93a7 4c3d f78e f33c 15e3 fcbd e12e 1fbe
000002b0: 0d96 213d d331 d2bd 108f 30bd 9d9d 223d
000002c0: dede 74bd b736 413d 4993 39bd f2ce c4bd
000002d0: e9c5 893d e134 853d e253 54bd 8648 bcbd
000002e0: 9642 03be f435 d8bc 05cb c1bd 6b8c 34bd
000002f0: 80e4 12bd bef8 40be 7073 2b3d d5c6 7ebe
00000300: 2c3e 0f3b 6b81 c13c f26d 2cbd 9deb b4bd
00000310: 0406 f8bc b469 91bd 8cd9 3abd 67a3 39bd
00000320: 42a3 ecbd 26c5 dbbe 7b1c 94bb e57d 443d
00000330: 455c ca3c 4f28 fdbc 379a 1abe 1c69 a0bd
00000340: ba66 d2bd 268a ccbd 5de0 85bd 0a3d d7bd
00000350: 1873 cabd f07c bdbd 1219 ffbd bedd 49be
00000360: 891e 963d 0067 bb3c 6a5e 07bd fad2 17be
00000370: c1f3 0dbd 2d2b 993d 8bcf b4bd 6f2e 44be
00000380: b022 083d 0eb6 e8bd 83d6 93bd 7d7c 53bd
00000390: dc07 d13b 1940 91bd 443f 27bd 3b47 5f3c
000003a0: 4f1e 8cbe a6e2 04be fd3f 71be 5592 1dbd
000003b0: 5f39 afbd b917 653d 9e47 4ebd d755 f7bc
000003c0: 4666 b5bc c33f 4cbd 26fc 7abc c74d 8c3c
000003d0: ae9d 283d a33e e5bd 846f babe bb1e 18be
000003e0: a84e e3bd 3693 66bd 0213 f9bc 624d 91bd
000003f0: d4ba c93c 1f34 033d 1ab7 64bd 33e1 bf3d
0.05900901 -0.05721894 -0.055555176 -0.20783852 -0.16265208 0.075227365 0.15432397 -0.027779106
0.050998885 -0.14735427 -0.40883824 -0.36740956 -0.024361549 0.04084754 -0.058186006 -0.20732802
0.133242 -0.16924244 0.0058475835 -0.065402485 -0.22089022 -0.1703391 -0.037697226 0.22691022
-0.11851485 -0.03274837 0.09910197 -0.48681647 -0.044213276 -0.09532458 0.06509782 -0.15218545
-0.037152518 -0.03217357 0.31279445 -0.16936578 -0.15764263 0.05590957 0.068088844 -0.08655451
-0.057172105 -0.086065024 0.005091181 -0.16865504 -0.23471826 -0.12005289 -0.14235693 -0.07035013
-0.019177133 -0.05503629 0.015463368 -0.100243725 -0.040182237 0.02496067 0.011321623 0.03460767
-0.07194326 -0.122210935 -0.37047467 0.018683406 -0.079568826 -0.065132946 -0.049055114 -0.2208888
-0.08166125 -0.08895871 -0.03471167 0.019827237 0.065650016 -0.31338927 -0.2302416 -0.27680224
0.12835161 0.09558732 -0.20212194 -0.08087001 0.0041941456 0.03599767 -0.060704734 0.1279327
-0.13828167 -0.13801156 0.11382357 0.2332004 0.0027537732 -0.03894284 -0.123488955 -0.25173604
-0.06631831 -0.27235004 -0.086764164 0.3445689 -0.3325019 -0.08088738 -0.09361894 -0.018250609
-0.03277641 -0.090581685 -0.20593804 -0.004530661 0.055320077 0.045902118 0.037420653 -0.083837986
-0.14804693 -0.10215509 -0.021662565 -0.0130756665 -0.2914148 0.052674413 -0.274226 -0.07776524
0.0309288 -0.027944332 0.022245275 0.02528782 0.044142578 0.074841976 -0.076947786 0.019972794
-0.04654147 -0.027856244 -0.032621987 0.03472932 -0.15616661 -0.10335643 -0.16470604 0.026418244
0.02454679 0.039512735 -0.057416223 -0.08881265 -0.09638351 -0.029183695 -0.11080448 -0.11877019
-0.008195393 0.08967901 0.05489337 -0.06944258 0.05451393 -0.20856129 -0.21729088 -0.07485375
-0.011376367 -0.031800497 -0.29593864 -0.01905145 -0.0076800673 -0.07396899 -0.056161013 0.060412288
-0.015192111 -0.11803962 -0.21909553 -0.047284406 0.02795494 -0.12225549 -0.007414061 -0.09562427
-0.018599896 0.008366294 -0.10080209 -0.07170378 -0.066504635 0.012421995 0.038488317 -0.11629259
0.0499645 0.029731257 -0.12348 -0.15545227 0.03944974 -0.102634095 -0.043105185 0.039701093
-0.059782855 0.04717132 -0.045306478 -0.09609784 0.067272015 0.065042265 -0.05183781 -0.0919352
-0.1281837 -0.026392914 -0.09462551 -0.044079226 -0.035862446 -0.18844888 0.041858137 -0.24880536
0.0021857126 0.023621282 -0.04209704 -0.08834002 -0.030276306 -0.071002394 -0.045617625 -0.04532185
-0.115545765 -0.4292385 -0.0045199967 0.047971625 0.0247022 -0.03090301 -0.15097891 -0.07832548
-0.102735 -0.09987287 -0.065369345 -0.10509689 -0.09885234 -0.092523456 -0.12455954 -0.19713494
0.07330043 0.022876263 -0.033049025 -0.14826575 -0.03465629 0.07478938 -0.08828648 -0.19158338
0.033236206 -0.11362849 -0.07218649 -0.051632393 0.0063791107 -0.07092304 -0.04083182 0.0136278225
-0.27366874 -0.12977085 -0.23559566 -0.03846963 -0.085558645 0.055930827 -0.05036127 -0.030192299
-0.022143494 -0.049865495 -0.015318906 0.01712693 0.041166 -0.11193588 -0.36413205 -0.14855473
-0.11098987 -0.056292735 -0.030404571 -0.07094838 0.02462522 0.03203213 -0.05583868 0.09369125

fc3.bias f4 [64]
00000000: 0955 0bbe 7fb6 3b3e 5fcb ba3d 2e6a 3abc
00000010: 1120 24be 4f38 233d 49f6 75be 2e81 c03d
00000020: 1079 883d 1e3e 8fbe a323 0c3e 4768 35bd
00000030: 73ed 78be a27e 0cbe f28e acbe a8a6 1a3e
00000040: 59a3 6d3d aff0 b4bd 0134 0a3d c39c bd3e
00000050: aec0 b6bd e60b a53e 8a8b 1dbe 31de 51bd
00000060: f957 25be a592 8e3d 5e8a 05be 6b19 a03e
00000070: 4ab1 163e 4240 aa3c 5e65 a2be 457f 90be
00000080: c079 983e 5fc5 4ebe 7cad f43c 0f87 26be
00000090: 91f6 7fbe 9496 fcbe b0af c3be a12b a4be
000000a0: 81b8 613f 8f32 9f3e c0d9 08be f864 85bd
000000b0: 25c1 c6bc ea66 1cbe 7bcf e8bd e6d6 b5be
000000c0: 4693 f3bc 8409 a5be 0c91 723e e6b8 8c3e
000000d0: 4e20 613e a1ba 483f a5f3 d3be b51a 493e
000000e0: 8742 8dbe 2cb1 71be 78ed a0be a661 8abe
000000f0: fe1c 5fbe bb7b 8fbe bd15 c5bd 5356 123e
-0.13606657 0.18331335 0.09120821 -0.011377854 -0.16027857 0.039848622 -0.24019732 0.09399639
0.06663716 -0.2797708 0.1368547 -0.0442889 -0.2430933 -0.13720182 -0.3370281 0.15102637
0.05801711 -0.08834969 0.033741 0.37033662 -0.089234695 0.3223564 -0.15385261 -0.05123729
-0.1614684 0.06961564 -0.13041064 0.31269392 0.14716068 0.020782594 -0.31717962 -0.282221
0.29780388 -0.20192479 0.02986788 -0.16262458 -0.24996401 -0.49333632 -0.38219976 -0.32064536
0.88172156 0.3109326 -0.13364315 -0.06513399 -0.02426202 -0.15273634 -0.11367699 -0.35515517
-0.029733311 -0.32233822 0.23688143 0.27484816 0.2198498 0.78409773 -0.41396824 0.19639094
-0.2758982 -0.23602742 -0.31431174 -0.27027625 -0.21788403 -0.28024086 -0.09623287 0.14290743

fc4.weight f4 [6, 64]
00000000: a136 4c3b 615f eb3c 16e6 583d b735 563c
00000010: aaae 463c 13d4 383a e46b 153d c713 843d
00000020: bfb4 0d3d 537f 6c3c 0b0c 763d d913 723b
00000030: 445a cb3c 10b8 993d 54d1 1d3d d623 833d
00000040: 03ee 3639 791c aa3b d99b f93b a32c 88bd
00000050: 3190 2d3b eacc 223d 3e2c 64bc 9c66 c63c
00000060: 0c85 05bc 57fa 543c 4cd3 113a f6f3 02bc
00000070: ff69 c83b 40d9 273c 340b 3d3c a324 2abb
00000080: 5607 febb 892b 183d 37eb cd3d 9805 333d
00000090: e8e7 a2b9 14c3 a93c 2e16 193d 6438 363b
000000a0: d694 e93d 27c2 733d 7c16 2c3c 9465 dc3c
000000b0: ccea 5dbc 1e5d d83d b515 d33c 88f6 d7bc
000000c0: 290d 613c 03ab 16bc 007c 42bd 56e0 1b3c
000000d0: aad5 2ebd 67fd 8c3d 6264 6d3c 948e b8bc
000000e0: 0864 9c3d 2bed e73c 7202 59bc b8d9 083e
000000f0: 1690 0d3d ad2b e73c eff2 9e3d 7edb 853c
00000100: 67ef 0a3b fa9c 923c bfef 0f3d 18a0 c83c
00000110: cbfc 0d3d 8c58 c23c b236 c63c ca33 fd3c
00000120: 5002 7e3d 956b b43c eda8 023d f323 823c
00000130: 281b c03c b922 093d 46fb 853d 2c08 babc
00000140: 5321 4db9 3940 eb3b 4448 b939 4d00 8dbd
00000150: d6f4 af3c 918f 033d 62d3 32bd c45c 9c3d
00000160: d7ec efbc 5a65 ee3c 4d65 b3ba c5ef 65bb
00000170: bee4 063c fb68 5d3c 73a7 25bd a70a 7f3c
00000180: 915d 98bd 9f89 8e3d aa06 823d 5f75 b63c
00000190: 71d1 2fbb 08ee 213c af98 673d 01b7 90bc
000001a0: b501 993d 28ff 943d e5cd 683c 6e16 103d
000001b0: 2de0 173d 688a cb3d c8db 0f3d 2205 39bd
000001c0: b65e 7c3c ffb2 423a 7ed0 41bd 1ec0 be3c
000001d0: d3ee 2ebd c7ac 883d f120 673c 90a6 723d
000001e0: d7fa 8c3d e8da 2b3d a919 abba 30a7 213e
000001f0: dd56 f53b e801 013d f47c 633d 8e49 ed3c
00000200: 3ad1 3e3b d31b c53c f8ad 683d bf07 ccba
00000210: 237f ce3c bad8 2e3c 549c 4b3d 88ca 873d
00000220: a10c 4c3d 5a7e 7e3c 8347 053d 7b1b d03c
00000230: f30f 3c3d 1de2 3b3c 5482 8d3d a853 073c
00000240: 05ff 54bd 4009 d73c c82b 233d 6bde 85bd
00000250: d450 d33c 2585 3d3d 6ebc c0bc 08a5 2c3d
00000260: 0d39 51bc 11eb e03a 4210 553a dbb1 62bb
00000270: b088 013d 973a 043b b6f2 47bd aacc 883a
00000280: 96d2 aebc 6369 623d 0326 a03d de00 84bb
00000290: 054a 8f3c d81b 0b3d fb8f 163d 4bde 5dbc
000002a0: 7f6c 933d 8960 693d 8f22 bf3c 332f 773d
000002b0: 65b0 46bb 8ecd ab3d 63e4 a73d 7d28 12bd
000002c0: b9b0 723c db01 8d3b 018e 3dbd 5ab3 a63c
000002d0: 6906 2dbd 4ccb 4c3d 4587 5c3c c448 123d
000002e0: 09b9 af3d 0baf 973c 4724 be3b dd6d 1f3e
000002f0: 9a63 db3c eb4c 3a3d cbfb c43c 7f31 503d
00000300: 404e c4bb bdd8 303c 92da 9c3d b501 1c3c
00000310: 5818 ad3c 5cdc 0b3d 4168 003c 9505 233d
00000320: 679d 273d 52fd 193c 1d0c 263d 445b 603c
00000330: 6fcb 603d a1f9 863d f250 8c3b 3e53 6b3b
00000340: de0d 0abd bf44 67bc 8e2f 8cbc f187 4fbd
00000350: 362c 9b3c 6523 683d 4809 f2bc 5222 2d3c
00000360: c03e f0bc 4a6a afbb 5d12 5039 4ff7 58bb
00000370: 6b22 063d 847c 9e3a 26ea 13bd c077 cd3c
00000380: 3106 02bc aaa5 ef3b 470f f13d 0298 1e3c
00000390: 546c ce3b 40a2 b33c 29a1 ed3c 29f5 443c
000003a0: 70b6 c13d 84c0 a33d ff40 cb3c ab21 443d
000003b0: b4f2 e43b 6f54 863d f932 c63c a1c1 35bd
000003c0: 068d fc3c d795 8bbb 1daf 42bd 0bb8 f9ba
000003d0: 30b4 2ebd 46c5 613d 6f8e 793c 2727 893d
000003e0: a2fd 843d 9a72 5c3d ad71 8fbc d40a 1d3e
000003f0: b0c3 e33c d775 bb3c ae09 5c3d c7f2 3e3d
0.003116049 0.028732004 0.052953802 0.01307433 0.012126604 0.00070506445 0.036479846 0.06449085
0.0345962 0.014434653 0.06007008 0.00369381 0.024823315 0.0750581 0.03852971 0.064033195
0.00017445539 0.0051913825 0.0076174554 -0.06649139 0.002648365 0.039746203 -0.013926564 0.02421885
-0.008149397 0.012999139 0.0005562797 -0.007992735 0.0061161513 0.0102446675 0.011538316 -0.0025961779
-0.0077523394 0.037150893 0.10054629 0.043706506 -0.00031071831 0.020722903 0.037374668 0.0027804608
0.11405341 0.05951133 0.010503408 0.026903905 -0.0135447495 0.10564636 0.025767187 -0.026362672
0.013736048 -0.009196046 -0.047481537 0.009513935 -0.042684235 0.0688427 0.014489265 -0.022528924
0.07636267 0.028311333 -0.013245212 0.13364303 0.03456124 0.028219068 0.0776118 0.016340014
0.0021199824 0.017897118 0.03514075 0.024490401 0.03466491 0.023723863 0.024196003 0.030908484
0.062013924 0.022023955 0.03189938 0.015886283 0.02345045 0.03348038 0.06542067 -0.022708975
-0.00019562738 0.007179287 0.00035339792 -0.06884823 0.021479052 0.032119337 -0.04365862 0.07634881
-0.029287739 0.029101063 -0.0013686806 -0.003508554 0.008233247 0.013513799 -0.040442895 0.015566505
-0.074397214 0.06959843 0.06348927 0.022272764 -0.0026827718 0.009883411 0.056542095 -0.017665388
0.07471029 0.0727523 0.014209245 0.03517764 0.037079025 0.09938508 0.03512171 -0.04517091
0.01540344 0.0007427185 -0.047317974 0.023284968 -0.04270823 0.0667358 0.014106975 0.059240878
0.068837814 0.041956812 -0.0013053912 0.15786433 0.0074871616 0.03149596 0.055539086 0.028965738
0.0029116408 0.02406112 0.056806535 -0.0015566273 0.025207108 0.010671789 0.049709633 0.06630427
0.04981673 0.015533054 0.032538902 0.025403729 0.045913648 0.011467484 0.06909624 0.008259691
-0.052001018 0.026249528 0.039836675 -0.065365635 0.025795378 0.046269555 -0.02352735 0.042149574
-0.01276995 0.0017159899 0.0008127728 -0.0034590873 0.031624496 0.0020176524 -0.04881545 0.0010436971
-0.02134065 0.055276286 0.0781975 -0.0040284237 0.01749135 0.0339621 0.036758404 -0.013541768
0.07198428 0.05697683 0.023331909 0.060347747 -0.0030317542 0.08388816 0.08197858 -0.035683144
0.014812642 0.0043031997 -0.046278004 0.020349193 -0.04224244 0.049998567 0.013459985 0.035713926
0.085802145 0.018516084 0.0058026644 0.15569253 0.026780892 0.04548351 0.024045845 0.050828453
-0.0059907734 0.010793862 0.076588765 0.009521891 0.021129772 0.034145698 0.007837356 0.039800245
0.040921595 0.009398775 0.040538896 0.013693634 0.05488151 0.06590582 0.0042821104 0.003590777
-0.03370463 -0.014115511 -0.01711252 -0.050666753 0.01894198 0.05667438 -0.029545441 0.010567265
-0.029326797 -0.005353247 0.00019843267 -0.0033106392 0.032747667 0.0012091552 -0.036111973 0.025081515
-0.007936046 0.00731345 0.11770492 0.009679796 0.006299535 0.021927953 0.029007511 0.012021341
0.09458625 0.07995704 0.024811266 0.04788367 0.0069869403 0.06559073 0.024194228 -0.044374112
0.030828964 -0.0042598057 -0.047530282 -0.0019052041 -0.04265231 0.055119775 0.015231713 0.06696921
0.06493689 0.05382023 -0.01751026 0.15336162 0.027803272 0.022883339 0.05372017 0.04661825

fc4.bias f4 [6]
00000000: 4661 123f 89f3 103f 8fe4 103f 60b4 0f3f
00000010: d1c8 0f3f f208 103f
0.5717968 0.56621605 0.5659875 0.56134605 0.56165797 0.5626365
