checkpoints/2021_02_03-21_03_37/dqn-Pong-ram-v0.pt (torch, 301239 bytes, 8 tensors)

fc1.weight f4 [256, 128]
00000000: 3995 38bd c3e0 3f3b de43 81bd 9a87 083d
00000010: 8abd 86bd ea6a 643d 7892 83bd a977 a3bd
00000020: 65b5 0fbd 4fb2 3f3d df32 b2bd e10a 1f3c
00000030: 929c 96bd 3579 7abd 8ab3 443b 1639 d8bc
00000040: 8291 9cbd e6ba 263e 5768 42bd 6f33 8039
00000050: c127 223d fa79 d93c deff c53c bc3c 9c3d
00000060: d03c 48bd 8066 9b3c 0b9f 46bd c7c5 5d3d
00000070: b731 7c3d a15f b9bd 1a0d 883d 9eeb 073d
00000080: 9ea0 f13c d62c e03c 7701 843d 8781 a9bc
00000090: 3190 abbd 15d6 0cbd 72f6 91bd d244 50bb
000000a0: 0517 d1bc 6e2b 67bd 86c9 8bbc 7404 993d
000000b0: d808 83bc 70bb cbbb 45d4 babc d1a1 9f3b
000000c0: 8dd0 8e3d 94a8 8c3d 76cb 293d 4001 abbc
000000d0: d193 413c 26ca cd3c 665b 8cbb af3d a8bd
000000e0: 60ea 9cbd f983 9a3d 6084 2b3c cf1d a5bd
000000f0: bbaa 5fbd c215 833d a38c bdbd 5b58 8cbd
00000100: 1cfb 31bd 7f5b b3bb 11c7 f2bc dde4 04bc
00000110: 32f3 c2bd 83c3 133d cd69 8c3d b674 383d
00000120: 2fa9 92bd a961 a4bd d4c5 e23c 348f e6bb
00000130: 26eb de3c 20e2 b0bd c9af acbb 5353 7f3d
00000140: 31f4 273d 0188 533b 0d5e 8e3c 841c 09bc
00000150: 9e0f 47bd 6cd0 08bd 6579 5cbd 385b 963d
00000160: 9d39 473d ea39 fd3c acd0 8abd b0ad 8b3d
00000170: 7807 e33c d774 7a3d 236c 0ebd 8d80 993c
00000180: 7cbe b03d 5487 733d 4a2d 913d 930b 98bc
00000190: 1dea 893d b9c7 8dbd b17f fa3b 00d9 4bbd
000001a0: a8dd a8bc 316f b9bc 00b3 d83b bdc0 a43d
000001b0: 513d 333d 7e4f c4b9 eb7e 803d 5b87 39bd
000001c0: 9b95 3a3d 8f4a 06bc a2fe 7bbc 598a 293c
000001d0: a6ad 8abd 4958 273c 5b76 f33c 59c2 9a3d
000001e0: bc6f e1bc 6cee cd3b 0f18 a43d b444 40bd
000001f0: a899 993d 5bb3 58bd 6b42 f53c cfc1 d13c
00000200: dd44 863c 9126 8f3d 1d83 3fbd 234d be3c
00000210: 33b6 bcbc a225 99bd ead0 afbc a46d 0ebd
00000220: a88b a43c 621f 97bd 6f5c a13b f501 89bc
00000230: 55de 0fbd ce02 e3bd 8d9b 0ebc abcf 9e3d
00000240: 45c1 a63b c5f1 0dbe 0965 acbd b148 bdbc
00000250: 7c27 9ebc 2467 b0bd 84a4 6bbd 4df4 1cbd
00000260: 2e43 e6ba ae50 573d c6a9 d43c ef5f 733d
00000270: 3da8 82bd 8d33 5cba 4fe6 b1bd f8b1 2d3d
00000280: f7d5 253c ef16 9e3d e8bc 91bd 712b 803d
00000290: 84d3 873d bc5c 813d 9156 8d3b 1e9a 933d
000002a0: 76ca 4f3d a71e 6c3d 5309 66bc b0e8 9bbd
000002b0: 6bfd 19bc 689d 073c c84c 8cbd 9aab 71bd
000002c0: fb8b bebd 3614 a0bd 3bae 6a3d 209b 7cbb
000002d0: 236b 60bc 6f9e 9bbb 31e9 383d 01da 9fbd
000002e0: 2707 c2bd fbbb f0bc 008d 39bd 5abe 183d
000002f0: 3629 943d e19f c0bd 519f aabd 6346 c1bd
00000300: 06cb 473c fab2 803d be58 9dbd f71a 31bd
00000310: 206e a23c fffe 99bd f5c6 883d d351 443c
00000320: 69c7 06bd b29f 5ebb fbc1 9d3c 9b03 22bd
00000330: 4942 9dbd 37be 1b3a 4006 d33a 629e e93a
00000340: 6354 53bc 9874 683d 780f cabc b92b 0cbc
00000350: a7dd 143d 72e1 63bd c1e0 c13c d91a a0bc
00000360: 0da9 2d3d a164 44bd e715 563b 09ac 0d3c
00000370: c4a5 91bd 76a0 83bd bed8 0a3d 57bf d2bc
00000380: 7803 573d 7dd2 b2bd 51f7 32bd 4619 95bd
00000390: c59f 103d 90ef 27bb 510e 87bc 73ee 70bc
000003a0: 5a7e 8dbd 3d58 cd3c c562 103b fad8 79bd
000003b0: 0f3b 083d 29da e8ba 8a12 afbd 78bf 423d
000003c0: 59a6 413d 6c6c 88bc 1ef7 79bd ec92 683b
000003d0: f297 883d b7b1 a53d 32a2 88bd 8a85 23bd
000003e0: 32f2 8c3d 1412 5c3d 020b 403d 7830 56bd
000003f0: 96f5 8a3d 11ce a5bd 44ba 4dbc becf d3bb
-0.045064185 0.0029278256 -0.06311773 0.033332445 -0.065791205 0.055766024 -0.06424421 -0.07981808
-0.0350851 0.046800908 -0.08701109 0.009707184 -0.07354082 -0.06115075 0.003001424 -0.026394408
-0.07644941 0.16282234 -0.047462787 0.00024452384 0.039588694 0.02654742 0.024169859 0.07628772
-0.04888612 0.018969774 -0.04849152 0.054143693 0.06157085 -0.09051443 0.06643124 0.033183686
0.029495534 0.02736513 0.06445592 -0.020691646 -0.08377112 -0.034383852 -0.07127084 -0.0031779301
-0.025523672 -0.056437902 -0.017063867 0.074715525 -0.015995428 -0.0062174127 -0.022806296 0.004871585
0.06973372 0.06868091 0.0414538 -0.02087462 0.011815027 0.025120806 -0.0042833565 -0.0821489
-0.07661891 0.07544703 0.010468572 -0.08062326 -0.05460618 0.06400634 -0.0925534 -0.0685279
-0.043452367 -0.0054735537 -0.029635938 -0.008111206 -0.09519042 0.036075126 0.068561174 0.04503318
-0.071611755 -0.0802644 0.027682222 -0.007036114 0.027211737 -0.0863688 -0.0052699787 0.062335324
0.041004363 0.003227711 0.017378831 -0.008368615 -0.048598878 -0.03340189 -0.05382671 0.07341617
0.04863893 0.030911405 -0.06778082 0.06820238 0.027713522 0.061146583 -0.034771096 0.018738056
0.08630082 0.05945523 0.07088716 -0.018560207 0.06734107 -0.0692286 0.0076446165 -0.049767494
-0.020613506 -0.022636028 0.0066131353 0.080445744 0.043759648 -0.0003744326 0.06274208 -0.0452951
0.04555283 -0.008196487 -0.015380533 0.010347926 -0.06771402 0.01021392 0.029719522 0.075566
-0.0275191 0.0062845256 0.08012401 -0.04694052 0.07500011 -0.05290542 0.029938897 0.02560511
0.016390258 0.06989778 -0.0467559 0.023230141 -0.023036098 -0.07477881 -0.021461923 -0.03477253
0.020086125 -0.07379033 0.004924349 -0.016724566 -0.03512414 -0.11084519 -0.008704078 0.07754453
0.0050889575 -0.13861759 -0.084177084 -0.023105951 -0.019305937 -0.086134225 -0.05752994 -0.03831892
-0.0017567629 0.052567177 0.02595986 0.05941766 -0.06379745 -0.00084000156 -0.08686506 0.042406052
0.010121814 0.07719218 -0.07116109 0.06258286 0.0663214 0.06316516 0.004313298 0.0720713
0.05073019 0.05764642 -0.014040309 -0.07612741 -0.009398798 0.008277275 -0.06850582 -0.059001543
-0.09304043 -0.07816355 0.057295065 -0.003854461 -0.013697418 -0.0047491114 0.045144264 -0.07805253
-0.094740205 -0.029386511 -0.045300484 0.03729091 0.07234423 -0.094054945 -0.083311684 -0.09437253
0.012194401 0.06284137 -0.07682942 -0.043238606 0.019827902 -0.0751934 0.06678573 0.011982399
-0.032905016 -0.0033969698 0.019257536 -0.03955422 -0.076786585 0.0005941125 0.0016099885 0.0017823691
-0.012898537 0.056751817 -0.02466558 -0.008555346 0.036344197 -0.055634923 0.023666741 -0.019544052
0.042397548 -0.04794753 0.0032666863 0.008646973 -0.071116954 -0.0642709 0.033898108 -0.025726004
0.052493542 -0.08731554 -0.04369289 -0.07280211 0.035308618 -0.0025624968 -0.016486319 -0.014705288
-0.06908865 0.02506649 0.0022031527 -0.06099794 0.033259448 -0.0017765212 -0.08548458 0.04754588
0.047277782 -0.016653262 -0.061026685 0.0035487963 0.06669606 0.08090537 -0.06671561 -0.039922275
0.068821326 0.05372818 0.046885498 -0.052292317 0.06785123 -0.08095945 -0.012556616 -0.006463974

fc1.bias f4 [256]
00000000: 5584 283d b322 59bd e06b babd 9a67 f8bc
00000010: fdd0 203d 8224 25bd 86d4 f63b c2c6 85bb
00000020: 600c 0dbd 8c7e 8bbd 07f5 16bd 3f4b 31bd
00000030: bf30 42bd 707f c13a 491d 8a3d ee54 76bd
00000040: a45e 94bb 3d12 8cbd 2414 033d fdcd 883d
00000050: 5b1c adbc f619 323b e750 3bbd 1f01 82bd
00000060: 0561 2a3d a691 27bc 6fee 8e3d 6b96 72bd
00000070: 7513 933d 8519 843d 8e18 913d f309 1a3c
00000080: 2c72 75bd 88ae 163c d490 3d3d 14c8 91bc
00000090: 2f25 afbd 237f 29bd f707 05bd c2f7 0d3d
000000a0: 175a a0bc 9201 90bd 6e22 3f3d 7923 6b3d
000000b0: 8f38 1b3d 3fc6 5e3c 065c 92bd 0c72 91bd
000000c0: 7fa0 9bbd b556 693d 397c 223d 44aa 353d
000000d0: 43e3 a8bd aca6 c0bc 7935 f93c ebfc a03d
000000e0: cdcb 6cbc 476e a1bd 96b4 babd c4c4 243d
000000f0: c1a5 493c f313 39bd 6ceb 693d 6448 d0bd
00000100: 7ea1 693d d137 e0bb 34e3 cbbc b29a 8abd
00000110: 028c 49bd e90f 313d c929 e3bc 653b 8b3d
00000120: 7184 0dbd c8a2 ecbc da03 7cbd 9ef4 6f3d
00000130: 102b f93b 0b51 953c db7a 74bd 513b 2d3d
00000140: c795 9c3d 161d aebc 6cd1 223d f155 013d
00000150: 5a83 abbc bd18 d73c 2631 26bd 82bb 8ebc
00000160: 3625 8abd 98bd a0bd 8ad3 243d afac 5cbd
00000170: 09de 58ba 0af5 be3c d9eb 31bd bea8 0bbd
00000180: 9f3d 89bd f84c 933d 2129 8ebd 2d00 ca3c
00000190: f4d9 84bd f796 403d 4f1d 74bc 7dec 0abd
000001a0: 53df dabb d1be 683d 4bf7 1f3c a014 24bd
000001b0: f546 ac3a 67b3 9abd 3f9a aa3d 035a 4bbd
000001c0: 0dff 533d b6d7 59bd e25e 7bbc 1211 de3c
000001d0: d61b febc d8a4 0d3d 389f 5a3d e7c2 4abc
000001e0: c4ea 953d d974 97bd f0f1 47bd ad43 193d
000001f0: b5b9 0e3b 538f b0bd e0bc 393d b3f1 afba
00000200: 9c7f 8ebd 258b 95bd 61a2 c7bd ff89 e43c
00000210: 655a b33c ccb6 b3bd 85df 2abd ad31 afbd
00000220: 8b37 4abd 1710 173c f414 683d fdcc 53bd
00000230: d576 edbc 934f 96bd a0ed a53c 157f a7bb
00000240: c878 423c 3611 053d 791f 0f3c 660b c7bd
00000250: 6996 3bbc f1aa ac3d 3b62 9e3c f1d1 bfbd
00000260: 595f c23b 0f43 883d 13ae 753c a329 b4bc
00000270: 959e 773d 53f3 85bd 1774 853d fe7b 963d
00000280: 01dc 62bd deb8 1f3d b95d 5d3c 84f5 8bbd
00000290: 3ad7 fabc 7a08 1bbd 506b ab3b 1f76 3e3d
000002a0: ecdd fdbc a1bc ea3c 87c3 82bd b813 963d
000002b0: c788 9c3d 63bb 82bd 6572 cb3c 771a 36bd
000002c0: 4cb1 fabc ce51 a53d 1297 bf3a 3239 edbc
000002d0: 0536 b03d c72d 763d 2db6 48bc 0d27 963c
000002e0: 75a2 9cbd cc71 5ebd bbae 72bd 2e74 a1bd
000002f0: d57d fbbc cd76 a639 b2b6 6c3d cc2d ae3d
00000300: 60bb 5d3d 7972 1abd 350e 91bc 500d 37bd
00000310: 66a3 debb b108 88bd fb43 b13c cc3a 233d
00000320: 37b2 6dbd 557a 573d 1d63 703d 2ee9 f93b
00000330: f5d8 a9bd a67a 5bbd 456c a53d e338 04bd
00000340: 3708 1dbd da95 74bd 754f 02bc 825d 603b
00000350: 46f5 013d 9863 b63d 0469 b8bc e3de 1cbd
00000360: bbc2 b1bd 4595 34bd d3e4 e03c c2ce 25bd
00000370: 1a87 933b 8834 08bd 02a9 f7bc 4fd5 923d
00000380: d71f b7bd b9bf f63b a71e 3c3c 4b8d 95bd
00000390: 4dc3 36bd 28c8 c63c 1741 10bd 0200 5c3d
000003a0: e01b bbbd 059d 0abd 8ac9 d83c 273b afbd
000003b0: c313 af3c 6360 a4bd 52e7 c6bc f583 f63c
000003c0: 0893 833c 645e 443c 22df c7bd 15b8 bfbc
000003d0: 149e 6a3d f251 98bd c457 b0bd fc6b a5bc
000003e0: b5cb f1bc e80b 83bd 00ae 29bd a57e 343d
000003f0: 266a babd 77f7 9a3d 3397 3e3d 87ed 8d3d
0.041141827 -0.053011607 -0.09102607 -0.030322839 0.039261807 -0.04031802 0.007532659 -0.0040825317
-0.03443563 -0.06811246 -0.03685477 -0.04328465 -0.04740977 0.0014762711 0.06743867 -0.06013959
-0.0045278836 -0.06839416 0.03200163 0.06679914 -0.021131685 0.0027176118 -0.04573145 -0.0634787
0.04159643 -0.010227596 0.06979071 -0.05922548 0.071814455 0.0645018 0.070847616 0.009401786
-0.059923336 0.009196885 0.046280697 -0.0177956 -0.08552014 -0.041381013 -0.0324783 0.03466011
-0.019574208 -0.070315495 0.046663694 0.057406876 0.037895735 0.01359707 -0.07146458 -0.07101831
-0.075989716 0.056967456 0.03966925 0.04435183 -0.08246472 -0.023516975 0.030421006 0.0786074
-0.014452887 -0.07882362 -0.09116475 0.040226713 0.012307585 -0.04518504 0.05710928 -0.101700574
0.057038777 -0.0068425913 -0.024888612 -0.06767787 -0.049205787 0.043228064 -0.027729886 0.06798438
-0.034550134 -0.028886214 -0.06152711 0.058582895 0.0076040104 0.01822712 -0.059687477 0.042292897
0.07645755 -0.021254104 0.0397505 0.0315761 -0.020936657 0.026256913 -0.040574215 -0.017423395
-0.06745379 -0.07848662 0.040240802 -0.05387562 -0.0008272832 0.023310203 -0.043437812 -0.034096472
-0.067012064 0.07192415 -0.069414385 0.024658287 -0.06486884 0.04701897 -0.014899566 -0.03391694
-0.0066794544 0.0568226 0.009763549 -0.040058732 0.0013143705 -0.075537495 0.08330201 -0.04964639
0.051756907 -0.053184234 -0.015342446 0.02710775 -0.031019133 0.034581035 0.0533745 -0.01237557
0.073201686 -0.07395334 -0.048814714 0.037418056 0.002177817 -0.08621087 0.04534614 -0.0013423472
-0.06957933 -0.0730193 -0.09747768 0.027897833 0.02189369 -0.087751 -0.04171707 -0.08554397
-0.049369376 0.009220145 0.056660607 -0.051709164 -0.028987328 -0.07339396 0.02025491 -0.005111585
0.011869617 0.032487117 0.008735531 -0.09718971 -0.011449435 0.08431042 0.01933395 -0.09366215
0.0059317765 0.066534154 0.014995116 -0.02199251 0.06045397 -0.06540551 0.06516283 0.073478684
-0.055385593 0.038994662 0.013511115 -0.06833938 -0.030620206 -0.03784988 0.0052312985 0.046499368
-0.03098961 0.028654398 -0.0638495 0.0732798 0.07643276 -0.063833974 0.024834821 -0.044458833
-0.03060212 0.08072244 0.0014617166 -0.028957937 0.086040534 0.06010225 -0.012250465 0.018329168
-0.07648174 -0.054307744 -0.059248667 -0.07883488 -0.03069965 0.000317505 0.05779142 0.08504829
0.054133773 -0.037706826 -0.01770697 -0.04469043 -0.006794381 -0.06642283 0.02163886 0.039850995
-0.058031287 0.0526069 0.05868827 0.007626674 -0.082933344 -0.053583764 0.080772914 -0.032280814
-0.038337912 -0.059713222 -0.007953514 0.0034235422 0.03172805 0.08905715 -0.022511013 -0.0382985
-0.0867972 -0.044087667 0.027452862 -0.040480383 0.0045021893 -0.033253223 -0.030231956 0.07169592
-0.0894162 0.0075301793 0.011481917 -0.0730234 -0.044619847 0.024265364 -0.035218325 0.053710945
-0.09136176 -0.03384115 0.026463289 -0.08556204 0.021371728 -0.08026197 -0.024280224 0.030092219
0.01606132 0.011985395 -0.09759356 -0.023403207 0.05727966 -0.07437505 -0.0861049 -0.020193093
-0.02951608 -0.06398755 -0.041425705 0.04406609 -0.091022775 0.075667314 0.046530914 0.0693007

fc2.weight f4 [128, 256]
00000000: 2031 d13c b47f f3ba b064 17bd 27ee 203c
00000010: c21a d23c 2b61 12bb 79cb eaba e060 03bd
00000020: e674 eabc ab8f 703d c15c 1dbc cbc6 573d
00000030: 0ac1 273c eb9e 953c fde5 2c3d 6220 793d
00000040: d417 493d 94c3 d23c a2ca 53bd b814 2c3c
00000050: da16 053d c09e 07bd 4c88 383d cc0e 303c
00000060: 345c f03c 662e 6fbd 4025 48bb 5933 1bbd
00000070: 5220 34bd 484d 013c b076 c93b 5e73 2d3d
00000080: a851 1ebc f1ef 153b 7427 72bd 5efa 523d
00000090: e102 0cbd c4d5 f03b 605f adbc 5d95 d33b
000000a0: db5f 1dbd c0ca 203b eeb0 673d a224 9d3d
000000b0: 1424 12bc 9629 80bd 1bf4 c43a 04c7 2ebd
000000c0: 7b82 f4bc eb9b b03c 0642 9bbc 4f4b 1f3d
000000d0: 2e84 3fbd d7d4 cebc cd58 bc3c 8a7b 7ebd
000000e0: 69e2 d8bc 6dfa b2bc 6b62 ae3d d371 e3bd
000000f0: 08ad f9bc 4d61 28bd 6c65 023d 8359 13bd
00000100: 4ccb 423d 0012 4f3b f95c a4bc 7dac 54bd
00000110: 96ce a6bd e06b fcbc e77f 01bc d0b4 293c
00000120: 3f4c ba3d 5f5e a1bc b855 3fbd 60dc c2bc
00000130: 84f2 313d d8a1 e63c 4757 543d 34f5 8fbc
00000140: 18f9 34bd ac35 a4bc 408a 1dbd c743 103d
00000150: 0063 8b3c a3ba 85bd 0a79 79bd f71b c4ba
00000160: a50e 63bd 84a2 a8bc 1795 c2bc ac99 d93d
00000170: 887c 54bd a965 cb3c 51f2 bc3b 98fb 56bd
00000180: 10f0 7c3c 9d73 3c3d 6d8c 3fbd 27ae 4ebd
00000190: b479 ef3c 4ea5 503d edda b8bc 50a2 4cbd
000001a0: 6eee c6bb 9c38 753d a8b3 4ebd f455 44bd
000001b0: 90ca c6bc a95c 7c3c 705a e1bb e0b6 20bd
000001c0: a2cc 903a 5094 95bb 0038 1d39 d81d 643c
000001d0: 12ba 22bd 4c44 01bd 5543 62bb 01ed 37bb
000001e0: 202d dcbc 2f98 b53d 8c16 62bd 8087 a8bc
000001f0: e7ae a3bb 2807 f8bc 6c34 d13c a8e1 fd3c
00000200: 1847 1f3d df0b 51bd 2e0f 0d3d a4ab ddbc
00000210: 3085 583d 0029 c7ba db47 983c faa5 7ebd
00000220: 9276 08bd a6a0 efbc b76f 5f3c 90db 23be
00000230: 19a2 d33c 5d9b 5e3c e0d8 7a3c 5d24 44bd
00000240: 2eac 523d dcd8 a6bc 722f 66bd 0614 d4bc
00000250: 3351 e63b 6cd2 433d 1a1e 31bd 2685 b43c
00000260: b584 0cbd 3007 4fbd 8035 0bbd ad2e 96bd
00000270: a234 bb3c 93b0 89bd c751 11bd 39e1 93bd
00000280: 0095 f23c 0cf9 bbbc 2e08 e7bc d2ce 903c
00000290: a500 4bbd 8de2 973d e66c 673d 7ce3 9d3b
000002a0: 6411 29bc 69d3 b23c a576 cbbc b4b2 4f3d
000002b0: 7dfb 4fbd 8e1c b1bc f036 0f3d 484b 64bd
000002c0: 20c2 30bd fad9 d93c 4240 b7bc 26bb 8f3d
000002d0: be36 a93c a2a0 9bbd b665 213d 0e89 393b
000002e0: e664 edba d3fb 41bd 9959 3fbc faed 183d
000002f0: a40c 543d a85c 47bd 3221 3b3d 6596 15bc
00000300: e634 b3bc 6317 6dbc 9e93 1f3d 4853 2f3d
00000310: 9197 eabb b8c1 f43c 3b89 45bc d0be 56bc
00000320: 8444 ba3c 6550 8abd 8b19 e83c ddc1 93bd
00000330: 332f 75bd 768b 32be 39c1 73bd 40d1 ebbc
00000340: 0eee 0d3d 6833 03bd b83a b7bc 9bc7 9dbc
00000350: 2a63 4c3d 60a2 a63d 032a 2a3d 387d 543c
00000360: 1e27 72bd 8ad8 83bd 6d74 673c 0cd0 0f3d
00000370: 2cb9 d2bc 1083 e5bb 71b2 9a3c 8067 a23c
00000380: 0fa9 5dbb f033 103c 781f 56bd 2827 f3bc
00000390: a868 acbc ac03 90bd 1615 11bd 376a 45bd
000003a0: aa65 58bd 40d5 b4bc 82dd 7fbd 4a7f 2abd
000003b0: 0688 d23c 38cf 11bc 60b6 8ebb e6bb 673d
000003c0: edff 78bd e292 243d f511 6ebd 9c30 35bd
000003d0: 705f 48bc bbe6 343d 6b2d 0f3d 2652 613d
000003e0: 3ee1 4d3d f451 25bd 48ea 653d a889 8e3c
000003f0: d64a 393d c17b 013d 8f5d 65bc 5cd5 f1bc
0.02553612 -0.0018577487 -0.036961257 0.009822405 0.025647525 -0.0022335749 -0.0017913423 -0.03207481
-0.028620195 0.058730762 -0.009604634 0.052679818 0.010238895 0.018264255 0.04221152 0.0608219
0.04909499 0.025728025 -0.051706918 0.010502987 0.032492496 -0.03311038 0.045051858 0.010745715
0.02934084 -0.05839386 -0.003053978 -0.037890766 -0.043976136 0.00789196 0.006148182 0.04234635
-0.009663023 0.0022878612 -0.059119657 0.0515083 -0.034182433 0.0073497016 -0.021163642 0.0064570145
-0.038421493 0.002453491 0.056565218 0.07673003 -0.0089197345 -0.06257932 0.0015026362 -0.042670265
-0.029847374 0.021558722 -0.01895238 0.03889018 -0.046756916 -0.025247974 0.022991562 -0.062129535
-0.026475148 -0.021847928 0.085148655 -0.111056946 -0.030478016 -0.04110842 0.031835005 -0.035974037
0.04755716 0.0031596422 -0.020063864 -0.05192231 -0.08144872 -0.030813158 -0.007904029 0.01035805
0.09096574 -0.01969832 -0.046712607 -0.023786724 0.04344417 0.028153345 0.051841047 -0.017572977
-0.044182867 -0.020045124 -0.038461924 0.035220888 0.01701498 -0.06529739 -0.060906447 -0.0014961947
-0.055433888 -0.020585306 -0.023752732 0.10625014 -0.051876575 0.024828749 0.005766191 -0.052486032
0.015438095 0.046008695 -0.04676478 -0.050459053 0.029232837 0.050938897 -0.02256533 -0.04995948
-0.0060709035 0.05986844 -0.050464302 -0.047933534 -0.024266511 0.015402951 -0.006877236 -0.039236903
0.0011047313 -0.0045647994 0.00014993548 0.013923131 -0.03972823 -0.031559274 -0.0034524996 -0.002806485
-0.026876986 0.08866917 -0.055197284 -0.020572424 -0.004995215 -0.03027685 0.025537692 0.03099139
0.03888616 -0.05103671 0.034438305 -0.027059384 0.052861392 -0.0015194714 0.01858895 -0.062170006
-0.033316202 -0.029251408 0.013637475 -0.16001725 0.02583413 0.013586846 0.015310496 -0.04788624
0.051433735 -0.020367078 -0.05619759 -0.025888454 0.0070287227 0.047808096 -0.043241598 0.022036146
-0.034306247 -0.050543964 -0.03398657 -0.073331214 0.022852246 -0.06723132 -0.03547838 -0.07220692
0.029612064 -0.022945903 -0.028202143 0.017676745 -0.04956116 0.07416258 0.056500338 0.004818378
-0.010319088 0.021829324 -0.024836848 0.050707534 -0.050776947 -0.021620061 0.0349645 -0.055735856
-0.043153882 0.026593197 -0.022369508 0.070181176 0.020655986 -0.07598998 0.03940364 0.002831045
-0.0018111735 -0.0473593 -0.011679077 0.037336327 0.051769868 -0.04867235 0.045685954 -0.009130095
-0.02187581 -0.014470908 0.038959138 0.042804033 -0.0071591814 0.029877529 -0.012056644 -0.013107017
0.022737749 -0.06753615 0.028332492 -0.07214711 -0.059859466 -0.17436013 -0.059510443 -0.028786302
0.034650855 -0.032031447 -0.022366866 -0.019260218 0.049899258 0.08136439 0.04154397 0.012969308
-0.059119336 -0.06437786 0.014126879 0.03511052 -0.025723062 -0.0070041493 0.018883916 0.019824743
-0.003382269 0.008801445 -0.052276105 -0.029681757 -0.021045998 -0.0703195 -0.0354205 -0.048196997
-0.05283133 -0.022074342 -0.062467106 -0.0416253 0.025699627 -0.008899502 -0.004355237 0.05657568
-0.060790945 0.04017914 -0.058122594 -0.04423581 -0.012229785 0.044165354 0.034955423 0.055009983
0.050263636 -0.04036136 0.05613163 0.017399624 0.045237385 0.03161216 -0.013999357 -0.029520683

fc2.bias f4 [128]
00000000: c57b 86bd acea 01bc 951e 66bc 0a30 2e3c
00000010: 750d c3bc 3ce2 8b3d 8106 89bd fcf4 8c3b
00000020: 5b20 6e3c 4463 8abd 6b72 1ebd 9e6d 01bd
00000030: 842e 593b 4b82 6bbd 9186 24bb a5ab 873d
00000040: 84ed 4fbd d24c df3c 8ff2 9d3d 4803 a8bc
00000050: 18a8 41bd 5018 bcbd 78cd 03be b20c 07bd
00000060: c02b b0bc 5495 2cbd 3598 fbbd d153 b9bd
00000070: 9b41 48bd c5d5 90bd 3305 e9bd c612 f93d
00000080: 385e 803d f81b 103d 4f6e 183a c263 dfba
00000090: b286 133d 20c0 8a3d 7b52 78bb 810f 19bb
000000a0: e51c d8bc 8c18 b73b dd69 8cbb eb5e e13c
000000b0: 51ba 8fbd e75a 163c b7de 14bd 9357 37bd
000000c0: d03a 0ebd 4ed6 babd 4932 84bd 8e5f 96bc
000000d0: e411 c2bc e1ae 1e3e 2c11 dbbc ac69 9dbd
000000e0: 8f15 e0bc d5c3 8abd 0b7c b3bd f1d1 86bc
000000f0: 8610 b83b dac3 10be 25a0 9e3d 3a43 2ebd
00000100: 76f3 27bb daff e5bd 45ac 533d fedb eb3b
00000110: dd6a 1bbe 2b83 02bc dff7 093c c079 5dbc
00000120: 7598 4e3d 55e9 8c3c ed5b 07be da6f abbd
00000130: 88dc 09bd ae63 84bc ffbe 803d 3f25 96bd
00000140: 4d57 9cbb db21 c4ba 8ea9 ae3c 95b5 7ebc
00000150: 0dcb d9bd 1f72 39bd 6c58 fabd 8bb7 afbd
00000160: 56ad 513e a7d8 dcbb ee4a adbd 2a1a 8fbd
00000170: 87e3 e8bd b5f0 79bc eb89 fb3d 022d 46bd
00000180: e288 97bc ddbd fabb 6b7f 3ebd 82bf 393d
00000190: d0df 3dbd 1d95 503d 5b3d 41bd 3b06 bb3d
000001a0: 22d6 293d 13d3 6abd 0b1d 4e3d 79d1 96bc
000001b0: 2e33 5dbd ca45 d73c b59a 0ebd db7a 013c
000001c0: e5cc 3ebd e844 babd 4862 d7bc 915e 42bc
000001d0: 05f2 893d 6bed 643d 7dc9 9cbd a09c 9ebd
000001e0: 3090 8f3c cc66 e3bd ba38 283d 7353 94bd
000001f0: 8815 75bd b821 0a3c 8f29 1cbb c806 08bc
-0.06566576 -0.007929485 -0.014045377 0.010631571 -0.023810128 0.0683026 -0.06690694 0.0043016654
0.014534081 -0.06757215 -0.038683336 -0.03159868 0.0033139298 -0.057497304 -0.0025104622 0.066245355
-0.050763622 0.02725831 0.0771228 -0.020509377 -0.047279447 -0.09184325 -0.12871349 -0.03297109
-0.021505237 -0.042134598 -0.122848906 -0.0904919 -0.04889069 -0.07072023 -0.11377945 0.12161784
0.06267971 0.035182923 0.0005814777 -0.001704328 0.036017127 0.06774926 -0.003789096 -0.0023355188
-0.026380965 0.005587643 -0.004285081 0.02751108 -0.07017959 0.009176946 -0.03634521 -0.04476125
-0.034724057 -0.091229066 -0.06454904 -0.01835611 -0.023690172 0.15496399 -0.026741587 -0.07686171
-0.02735403 -0.06775633 -0.08763894 -0.01645753 0.005617204 -0.14137211 0.07745389 -0.04254458
-0.0025627292 -0.112304404 0.05167796 0.007197856 -0.15177484 -0.007965843 0.0084209135 -0.013517797
0.050438363 0.017201105 -0.1321866 -0.08370943 -0.03365758 -0.016160812 0.062864296 -0.07331323
-0.0047711493 -0.0014963703 0.021321084 -0.015546222 -0.10634432 -0.04527485 -0.122238964 -0.0857993
0.20476279 -0.006739694 -0.08461557 -0.06987412 -0.113715224 -0.015255143 0.12282165 -0.048382767
-0.018497888 -0.007652028 -0.046508234 0.04534865 -0.046356022 0.050923456 -0.047177654 0.09132048
0.04146398 -0.057330202 0.050320666 -0.018410431 -0.054003887 0.026278395 -0.03481551 0.007902826
-0.04658212 -0.09095174 -0.026291981 -0.011863367 0.06735615 0.055890482 -0.07655618 -0.077447176
0.017524809 -0.11103591 0.041069724 -0.07242479 -0.059834987 0.008430891 -0.0023828482 -0.008302398

fc3.weight f4 [64, 128]
00000000: 1059 2f3e 685e 6abd 8490 73bc 495a b13d
00000010: fddb d5bc d67d 25be 1c06 5fbd 1eef 71bd
00000020: 59ff 5c3d 9bd7 d7bd 2fd9 7abd 0c9f b7bc
00000030: 5075 153b 4783 063c 2621 b5bd 386c f1bd
00000040: 6afb c43d 95fe 6b3c df23 a1bd 82ce 613d
00000050: 6684 abbd 3143 113d 19a7 f3bc 3be0 afba
00000060: 7b49 83bd a45c 7cbe d7bb e6bd a4f6 e8bc
00000070: 97c5 05bc 1999 57bc 3042 f63c aea1 72bd
00000080: 9cf9 5bbc 27c6 a7bd f6a4 273d bb59 9abd
00000090: 309c c6bc f5dd a83d 0851 093d eaef 8ebd
000000a0: 00a8 a83c 6ede 9dbd c0ce 89bd 5317 ca39
000000b0: 9930 a6bd 93f2 9a3d 7225 d83c 9996 ab3d
000000c0: aa1f 94bc 44d3 cf3d 5307 4d3d ec84 29bd
000000d0: 8f00 03bd 9ad0 053d 410d 503d 6575 fabb
000000e0: f1be ce3c 8e39 69bd 569c ba3c 646d 9ebb
000000f0: fbf4 a2bd 5ebc 113d 6f66 c4bb 45c9 93bd
00000100: f133 9fbc 2905 6c3c c609 523d bb6c a23c
00000110: 860e a93d f8ac 45be 633a 04bd b4f5 4fbd
00000120: 9dcd 91bd f5a5 013d 26fc ce3c 560e 8cbd
00000130: e315 093c 75a5 2e3b 7fbf a4bd 6fb4 5bbd
00000140: 7171 dbbd aae4 11be 5102 9e3d d1a3 33bc
00000150: 35e4 783d 5044 d2bd f5eb 81bd a1c2 b5ba
00000160: 9578 e83c e944 3c3d 33c9 c53c 24c8 05bc
00000170: ed7c 813d 9d83 9fbc 8e41 70be e8e8 863d
00000180: ecc3 803b 0e63 2b3d f5dc a7bc a0a5 9f3d
00000190: ed3c 843d e053 6f3d 9802 9dbc 1bb1 40bd
000001a0: 7d3f ccbd c859 df3d 1914 b7bd eeb0 dd3d
000001b0: 08d4 b43c 20c1 573d 6a91 d43d 6cf6 74bd
000001c0: 428a ee3a 2472 cebd 5a8a 9c3c d018 50bc
000001d0: 24f2 e1bd 60ff fabb 8774 3b3c 293a ac3c
000001e0: 76dc 273d cc9e 17be 2065 52bd 6768 0c3d
000001f0: 98b7 313d aca1 21bd bd4c 07be 34e2 29bd
00000200: 1d35 f63c e28f 6f3d f924 a3bd d6d6 f73b
00000210: ec7b 8ebd e2c9 b3bd 7a2b b5bd 6ea1 a1bd
00000220: 5c29 12bb 306c 723d 04b9 8c3d b2dd c7bd
00000230: e676 563d 27a4 353d f892 323d d309 8cbd
00000240: 4e40 28bc ff85 59bd 67b0 28bc c911 9cbc
00000250: c001 0c3d 155a 833d 1db8 5cbd c6fa 5b3d
00000260: ab31 233d e9a8 e7bd fd77 a4bd 3c02 883c
00000270: 55c8 d4bd e432 d0bd 5abc c23b 7365 b4bd
00000280: 3bca 8cbd 6634 753d 82d6 84bc 1fd4 9fbd
00000290: 7950 de3c f477 263d 6b48 a3bb d5a4 a23d
000002a0: 4581 203d 80b0 8639 8876 d7bc 23fe ffbd
000002b0: 39e0 f93b 6815 9f3d db35 373d c7db 8b3d
000002c0: cabc 80bd 0f4a 3d3d f8f0 debc 7191 cbba
000002d0: ed89 883d 2543 6e3d f94e 27bd 1014 b7bd
000002e0: e761 6b3d 1fdb 413d 386f 83bd 82a2 363c
000002f0: 80e4 12bd b300 6c3c 27a9 9b3c 8519 79bb
00000300: adb6 263b 7d24 143b 6f6b 3fbd 9deb b4bd
00000310: 6b15 7dbd 4b6e 4b3d fd84 c73c 934a 903d
00000320: 4691 ccbd d21a 82bd c12e d2bd 8ec6 4b3d
00000330: aff2 003d 33fd 9c3d 4475 d9bd 78a6 73bd
00000340: 169d 3c3d 77bf aabd 97f0 c63c 6f83 8fbd
00000350: 8a39 8c3d 5981 a3bd bca5 cbbd e58e 1bbd
00000360: 3570 5fbc 1423 163d c3bc 9f38 a1c0 9cbc
00000370: 56b9 29bc 9725 323d fa47 84bd 0b11 07bd
00000380: 1c4c e83c 404f 223d a977 81bd b29f 45bd
00000390: 2d8d a5bc 59c8 b3bd b51f 523b 2ff7 b0bc
000003a0: 11f7 9dbd 6a34 42bd a842 8bbd 140e 15bd
000003b0: a3f8 b83b b917 653d ef42 823d 9150 013d
000003c0: 0797 84bd d2a0 a53c f702 0cbd abcf 933c
000003d0: 08dd 0b3d 2341 a4bd 42d1 53bd d6c0 64bd
000003e0: cee6 0d3c 7358 96bd cf37 dcbb 1c65 f8bd
000003f0: 93ed 1dbc d16a 133d 296c e3bc b96f d53c
0.17123818 -0.05721894 -0.014865998 0.08659799 -0.026105875 -0.16161284 -0.054449186 -0.05906593
0.053954456 -0.1053917 -0.06124228 -0.022414707 0.002280552 0.00821001 -0.08844213 -0.11788219
0.09618266 0.014403959 -0.0786817 0.05512858 -0.083748624 0.03546447 -0.029742764 -0.0013418266
-0.064105 -0.24644715 -0.11266296 -0.02843792 -0.008164785 -0.01315906 0.030060858 -0.05923622
-0.013426211 -0.081920914 0.040928803 -0.07536646 -0.024244398 0.0824546 0.033524543 -0.06979354
0.020587921 -0.07708441 -0.067288876 0.0003854582 -0.08114738 0.075657986 0.026385043 0.083783336
-0.018081505 0.101477176 0.050055813 -0.04138653 -0.031982955 0.03266964 0.05079389 -0.007643389
0.025237532 -0.056939654 0.022779625 -0.0048348177 -0.079568826 0.03558003 -0.0059936563 -0.072161235
-0.019433947 0.014405527 0.051278852 0.019827237 0.08254723 -0.19304264 -0.032282244 -0.05077143
-0.07119296 0.03165241 0.025266718 -0.06838672 0.008367035 0.0026648913 -0.080443375 -0.05363887
-0.107149966 -0.14247385 0.077152856 -0.01096435 0.06076451 -0.10266936 -0.06343833 -0.0013867208
0.02837781 0.045964155 0.02414379 -0.008165393 0.06322656 -0.019471938 -0.23462507 0.06587392
0.0039296057 0.041842513 -0.020491103 0.07795262 0.06456933 0.0584296 -0.019166276 -0.0470439
-0.09973047 0.10905796 -0.0893938 0.10824762 0.02207376 0.052674413 0.10379298 -0.05980532
0.0018199163 -0.10080364 0.01910894 -0.012701228 -0.11032513 -0.0076598376 0.0114413565 0.021023827
0.040981732 -0.1480667 -0.05136597 0.034279253 0.04338798 -0.039460823 -0.13212867 -0.04147549
0.030054623 0.058486827 -0.07966036 0.0075634522 -0.0695723 -0.087787405 -0.08846183 -0.078921184
-0.0022302484 0.059185207 0.068712264 -0.09759082 0.052359484 0.044346 0.04359719 -0.06837811
-0.010269238 -0.053106304 -0.010295964 -0.01905145 0.034181356 0.06413666 -0.05388652 0.053705953
0.03984229 -0.11311514 -0.080306984 0.016602628 -0.10389773 -0.101659566 0.0059428634 -0.088084124
-0.0687451 0.059864424 -0.016215567 -0.07804131 0.027137982 0.04064174 -0.004982998 0.079415955
0.03918578 0.00025689974 -0.026301637 -0.124996446 0.0076256064 0.07767755 0.044729095 0.068290286
-0.06286009 0.046213206 -0.027214512 -0.0015531016 0.06666932 0.058169503 -0.0408468 -0.089393735
0.057466414 0.04732811 -0.06417698 0.011147143 -0.035862446 0.014404464 0.019001557 -0.0038009596
0.0025438473 0.0022604757 -0.046733316 -0.08834002 -0.061788004 0.04966573 0.024355406 0.07045474
-0.09988646 -0.06352772 -0.10262824 0.049749903 0.03148144 0.076654814 -0.1061807 -0.05948493
0.046048246 -0.083373 0.024284644 -0.07007491 0.06846912 -0.079836555 -0.09943721 -0.03797807
-0.013637592 0.036654547 7.6168704e-05 -0.019134821 -0.010359129 0.04349288 -0.06459041 -0.032975238
0.028356604 0.03962636 -0.063216515 -0.048248 -0.02020892 -0.08778448 0.0032062356 -0.021602241
-0.0771314 -0.047413267 -0.06799823 -0.03639038 0.005644874 0.055930827 0.06360423 0.031570975
-0.06474119 0.020218287 -0.034182515 0.01804336 0.03414634 -0.08020236 -0.051713236 -0.055847965
0.008660985 -0.07341089 -0.00672052 -0.1212866 -0.009639162 0.03599054 -0.027761536 0.02605425

fc3.bias f4 [64]
00000000: 8591 70be c152 2fbd dcae 253d 0b89 a3bc
00000010: a98a 9b3d 34f6 e6bc b969 c7bd 35e8 33bd
00000020: 8b38 103e 885f 56be ae8e dabd 589e 9fbd
00000030: 8029 71bd 0cb4 713e a174 c2bd 5224 2f3d
00000040: bcf1 d53c 157c 503e 5964 3b3e c922 6f3e
00000050: de3b 27be 4c05 f23d e2e9 173e a9f6 2c3e
00000060: 6aa5 04be a20a a1bd 23fd 25bd ae9d 4e3d
00000070: 6059 cd3d d24b f33d fea2 c5bd 0038 19be
00000080: 9b2e 6f3e cc7f 573c 5a7e a9bd 6c17 39be
00000090: 282a 3abe f098 1fbe 88e0 37be 88fc 2abe
000000a0: c638 ae3d e28e 023e c5ed 863d f74e 29bd
000000b0: 5b01 293d 3034 1bbe a657 dc3d 8c3e d0bd
000000c0: 2514 eebd f8dd 1cbe 5704 88be 8193 7a3e
000000d0: f691 99be a4a5 363e d2f8 31be b6ac 68bc
000000e0: 3e77 04be 5ddf f9bd 259a 0fbe 0e92 e8bd
000000f0: 0af8 ebbd 184f c33d 663f 06bc ff6e f93d
-0.23493011 -0.04280353 0.040449962 -0.019962808 0.07594807 -0.02819357 -0.09736962 -0.04392262
0.1408407 -0.2093488 -0.10671745 -0.077938735 -0.058877468 0.23603839 -0.094949014 0.042759247
0.026116244 0.20359834 0.18299998 0.23353113 -0.16331431 0.118174165 0.14835313 0.16890968
-0.12953725 -0.07863356 -0.040524613 0.050443344 0.100268126 0.11879696 -0.09650229 -0.14962769
0.23357622 0.013153028 -0.08276053 -0.18075341 -0.18180144 -0.15585685 -0.17956746 -0.16697896
0.085069224 0.12749818 0.0658832 -0.041335072 0.04126106 -0.15156627 0.10758905 -0.1016818
-0.11624936 -0.1531905 -0.2656581 0.24470331 -0.29994172 0.17836624 -0.17380074 -0.014201334
-0.12936112 -0.12200806 -0.14023645 -0.11355983 -0.11521919 0.0953657 -0.008193826 0.12179374

fc4.weight f4 [6, 64]
00000000: ffd8 f4bc ca6b 703d fe58 b83d 56d7 303d
00000010: 176e 753d 3ae9 71bd 08d8 7a3d b9f1 31bd
00000020: e3f4 8a3d 7209 e53b f048 013e f6a1 1d3d
00000030: 21a6 0cbd 2dd9 783d 7b3c a73d 2a2d 1b3d
00000040: 4700 9d3d a1b3 403d fc89 873d 68b3 493d
00000050: 1000 153b 8707 b33c f3ab 763d fa9c 973d
00000060: 17fc 633d f932 62bd 8654 0e3d e275 483d
00000070: 9345 7d3d c3ae 7f3d 9ebc 5f3d 413e 37bc
00000080: de86 653d 1b98 153d 935f 193d 1aa3 e2ba
00000090: 8e11 15bd cbd3 4cbd 6e52 e53c 2a3b 13bd
000000a0: 806c 883d 1567 573d 67e5 e53c b598 9abd
000000b0: 6c58 4f3d 68af cdbd a994 573d 88fb 303d
000000c0: cdf6 7ebd 418e a5bd b18e 7abd 0d23 a13d
000000d0: 714b 7ebd c87e a73d 9ec3 7bbd 8b6f 843d
000000e0: 4896 63bd eccd 17bd 71c6 e6bc c926 6e3d
000000f0: e524 2ebd c508 ba3d 0484 9a3d fee6 283d
00000100: 2307 fbbc 09da 573d e196 bb3d 1ad5 393d
00000110: 3537 813d 8054 5dbd 4832 6c3d e0a8 39bd
00000120: d7c9 883d 032e ebbc 27d8 013e 09c8 413d
00000130: 9484 1cbd 9c1d 633d 9458 8b3d af27 013d
00000140: 4348 9d3d 687c 423d 0c70 563d 1fa7 4d3d
00000150: 1b62 cb3c 0caa b43c 55ce 803d 353e 923d
00000160: 9524 bd3d fd49 63bd 640e f13c 37ae 6f3d
00000170: 2b97 4f3d 5167 863d fc15 5d3d 98a0 fd3b
00000180: 33b7 723d dc78 273d 890d 263d 338f 003d
00000190: d3ac 37bd e5be 1cbd 41d4 a83d 8cb3 0cbd
000001a0: 3f91 7b3d 0c61 3f3d 437b ff3c ddcd 9ebd
000001b0: 698e 323d 3642 c6bd 0735 483d 9263 8d3d
000001c0: ddb5 6dbd 9538 a9bd e27e 79bd 32a1 863d
000001d0: 4d58 8bbd 157e a93d aa77 963d f46d 9f3d
000001e0: 4b78 70bd a649 63bd ce80 55bd 5aa1 5b3d
000001f0: edce 18bd 4b1b c33d f6b5 a03d e600 2a3d
00000200: c53b 60bd 5203 9b3d a550 993d 1343 3a3d
00000210: fc16 673d 9129 a4bd fddd 953d 6b36 79bd
00000220: dfda 913d c5b1 e43c 09f5 fb3d 517d bf3d
00000230: 9fb9 4bbc af7b 7d3d 75c1 a03d ed10 023d
00000240: 3c29 883d 0242 3c3d d2bd ae3d 69fa 313d
00000250: 49c2 3b3d abbc ff3c 7e14 613d 95a5 8c3d
00000260: 1118 7bbd 7d86 86bd d488 ea3c fadb 583d
00000270: 02a3 723d e0f7 7a3d b68a 413d d954 25bd
00000280: 381a 7b3d 0e91 6dbc 6621 e93c 21ce 9d3c
00000290: 0fe0 bbbb 68e0 10bd a704 f8bc 5989 15bd
000002a0: 51e3 793d f194 d33c 3267 213d 78c4 06bd
000002b0: 0179 393d 87b5 d1bd 232d 323d 4e21 123c
000002c0: 621d 97bd b77e 94bd 8787 8ebd 8b88 b13d
000002d0: ebcd 20bd dbe6 9b3d bbc7 20bd f3e3 533d
000002e0: 66c0 2dbd c7f6 15bd 8b94 2dbc 8cfa 983d
000002f0: f545 09bd c57f c03d f2fa bd3d 220f 483d
00000300: 4ae9 91bb 63e8 0b3d 397b c93d f382 1c3d
00000310: 4fd4 7c3d ecc1 8dbc cebd 913d 14a8 0ebd
00000320: bc51 853d 8969 083d 3ef6 df3d 33ab 4d3b
00000330: 9e73 5ebd b51b 703d 05eb b63d 51a5 0d3d
00000340: 2201 963d 5f09 443d 6d13 4a3d 905a 583d
00000350: 7cab abbc 7ea4 a03c b42b 873d 2223 8e3d
00000360: bce5 ae39 0092 5bbd 19d3 f03c 34fa 5b3d
00000370: 3d16 4e3d 03c3 843d 7c27 843d a63d 463c
00000380: 07e0 843d dada 7b3d b85a 1f3d 23d5 5e3c
00000390: 9192 7cbd 29aa 38bd 52d4 4abd df80 0ebd
000003a0: d579 913d 1cd9 763d 53fc ab3c cc4b afbd
000003b0: f7a9 293d dfae b9bd aecb 533d 8c6b c5bb
000003c0: 2f41 53bd b42c b8bd 72f8 5dbd 096f 993d
000003d0: 80e8 abbd 2944 a53d f671 66bd 1922 9a3d
000003e0: 269f 86bd 2b42 75bc 5558 51bd 47d4 783d
000003f0: 2d79 25bd f968 c33d cdf8 833d 1d9c 1d3d
-0.029888628 0.058696546 0.09001349 0.04317411 0.059919443 -0.059060313 0.06124118 -0.043443415
0.0678499 0.0069896514 0.1262548 0.038484536 -0.03433812 0.06075399 0.081658326 0.03788487
0.076660685 0.047046307 0.06618115 0.04924336 0.0022735633 0.021854175 0.060222577 0.07402988
0.055660333 -0.055224393 0.034748577 0.048940547 0.06183393 0.062422525 0.05462324 -0.011184276
0.056036822 0.036522012 0.037444662 -0.001729104 -0.036393695 -0.05000667 0.027993407 -0.035945095
0.0666132 0.05258854 0.02806349 -0.07548658 0.050621435 -0.10043222 0.052632008 0.04320863
-0.062247086 -0.080837734 -0.061171237 0.078680135 -0.062083665 0.081784785 -0.061465852 0.06466588
-0.05556324 -0.037061617 -0.028170796 0.058142457 -0.042515654 0.09083704 0.07544711 0.041235916
-0.030643051 0.05269817 0.09159637 0.045369245 0.06309358 -0.054035664 0.05766514 -0.045327067
0.06679123 -0.028708464 0.12680112 0.04730991 -0.038212374 0.05544816 0.06804004 0.031531986
0.076797985 0.047481924 0.05235295 0.050208207 0.024827054 0.02205374 0.06289355 0.07140771
0.09235493 -0.055490483 0.029425807 0.058515754 0.050681274 0.06562675 0.053976044 0.0077400915
0.059256744 0.040886745 0.040540252 0.031386565 -0.044842552 -0.03826799 0.08243609 -0.034350917
0.061417814 0.04672341 0.031186705 -0.07754109 0.043592844 -0.096805975 0.048878696 0.06903757
-0.058034766 -0.08262745 -0.06091202 0.06573714 -0.068039514 0.08276001 0.07347043 0.07784644
-0.05870847 -0.05549016 -0.05212479 0.053620674 -0.037306715 0.0952669 0.07847206 0.041504763
-0.0547445 0.07568993 0.07486085 0.045474123 0.056418404 -0.08015741 0.073177315 -0.060842913
0.071218245 0.027916798 0.12302596 0.09350074 -0.012434392 0.061885532 0.07849399 0.031754423
0.0664849 0.045961387 0.08532299 0.0434517 0.04583958 0.031217894 0.054951183 0.0686752
-0.06130225 -0.0656862 0.028629698 0.05294416 0.059237488 0.06127155 0.047251426 -0.04036412
0.0613043 -0.014499916 0.028458308 0.019263329 -0.005733497 -0.03537026 -0.030275656 -0.036507938
0.0610078 0.025827857 0.039405055 -0.03290221 0.045281414 -0.10239702 0.043500077 0.008919073
-0.07378651 -0.072507314 -0.069594435 0.08668622 -0.03925888 0.076123916 -0.039252978 0.05173106
-0.042419814 -0.0366123 -0.010594497 0.07469663 -0.03351398 0.0939937 0.0927638 0.048842557
-0.004452859 0.034157168 0.09837956 0.03821082 0.06172591 -0.017304383 0.071162805 -0.03482826
0.0650973 0.03330377 0.10935639 0.003138256 -0.05430948 0.058620173 0.08931545 0.034581486
0.07324435 0.0478605 0.049334932 0.052820742 -0.020955794 0.019609686 0.066001326 0.06940295
0.00033359032 -0.053606033 0.029397534 0.05370541 0.050314177 0.06482508 0.064528435 0.012099659
0.06488042 0.06148801 0.038904876 0.01360062 -0.061663214 -0.045084152 -0.04951889 -0.03479087
0.07103316 0.060265645 0.020994341 -0.08559379 0.041421857 -0.09066557 0.051707916 -0.0060247835
-0.051575836 -0.089929014 -0.054192014 0.074918814 -0.08393955 0.08069641 -0.056261025 0.07526035
-0.06573324 -0.014969389 -0.05110963 0.06074932 -0.040398765 0.09541506 0.06443939 0.03847896

fc4.bias f4 [6]
00000000: 31ab 493e 9964 483e 83e7 4a3e 43f7 4e3e
00000010: d6a9 4c3e a03a 4e3e
0.1969421 0.19569625 0.19814877 0.2021151 0.19986662 0.20139551
